groupe18/model.pth (torch, 71603 bytes, 16 tensors)

linear1.weight f4 [256, 11]
0.022298682 0.40235835 -0.58259916 0.3779614 -2.5209906 -0.55694467 1.611539 -0.78937536
0.61407226 1.2646407 -0.22999991 -0.49634558 -0.7326257 -0.3181511 0.6119272 -0.29883018
0.48015347 0.29535973 0.47921813 -0.070928186 0.6091905 0.93843514 -2.1496232 1.6081952
-0.0057154736 0.69054586 -2.1034508 -2.1983712 -2.4183326 0.75480205 -1.0478228 -0.53063333
-0.02042702 -0.043022357 -0.9151432 0.8182628 -0.0390487 1.070989 0.05528585 -0.122541785
-0.927012 0.5880744 -0.071050644 0.41778517 0.008915721 0.036067486 -0.26167947 -0.18884525
-0.057553582 -0.27156067 -0.043859616 -0.19329998 0.24878274 -0.018609464 -0.29749468 -1.0376259
0.56484276 -1.069228 0.38549012 -0.20663999 1.2162347 -0.36957 0.8903625 0.06454778
-0.06557753 -1.0035532 0.6109016 -0.79412323 0.8074433 0.4206073 0.95733523 1.3241693
0.2024047 -0.32842633 0.27020097 -0.936243 -0.2067847 -0.37843853 -0.7303487 1.5291237
0.008163349 1.1058954 1.2972908 -0.6859762 -0.82295454 -0.34381974 -0.632799 -0.28219253
-0.1253098 -1.8159229 2.2449896 -2.5450912 1.0686439 -0.3479489 1.369663 -0.54238915
-0.24559514 1.4931072 0.17826979 -0.16445138 -0.6048186 0.44088826 0.65091294 0.43044814
-0.46910915 0.5800972 -0.9526144 -0.7254249 0.55325925 0.69101435 -2.638479 0.33182952
1.1873841 -3.3856387 0.42225453 0.8511314 0.18588811 -1.7343504 0.8094312 0.61297584
-0.87214 -0.6256501 1.4565648 -0.5708907 0.6663574 -0.121426955 -0.20656106 1.4042389
0.15837964 0.77066666 -0.4408316 -1.0891467 -2.1054442 -2.8049328 -0.96655256 -0.9401127
-2.8233273 2.343209 0.4054339 0.646443 -0.6230816 -0.15250982 0.9005659 -0.68048024
0.5670902 -0.26893952 -0.900754 -0.18419927 0.7414768 1.45991 0.8299471 0.70027643
-0.9805104 -0.836541 0.76704884 0.014295922 0.5704985 0.8436651 -0.112595014 1.2561297
-0.7568411 0.28751245 -1.5188774 -0.5449428 -0.94060737 -0.37585032 -1.9947922 0.8831806
0.6162401 1.471795 0.5737898 -2.0679262 0.075795636 -1.2024958 0.5472387 0.8313142
-0.77143526 -1.109643 0.6839927 0.18702354 1.2810467 -0.1873317 -0.08960327 0.14776824
-0.7196814 -0.7013782 0.12313068 0.29209402 1.4113562 -1.6127971 -1.6442866 0.96293867
-1.4614494 0.71422577 0.28067547 0.08447727 0.90478396 0.52122563 -1.4170798 -0.49877653
-1.3308363 -0.040500592 -0.9310629 0.43042576 1.2205446 -0.37742507 1.6090243 0.19667874
-0.41016075 0.6599006 -1.0135521 -0.14591673 -0.102032274 0.3717153 -0.5685813 0.51777196
-0.027638141 -0.019867962 -0.42317757 1.2567238 -0.79682326 -0.9436815 -0.80530035 0.46869022
-0.9582997 1.2132951 1.3736057 -0.63277847 1.0908682 -0.9458536 -0.36812317 -4.599922
1.6478288 1.4640867 0.055117533 0.12596592 -3.7937608 0.1295179 -0.6165472 0.02081492
-3.0786035 1.2158086 -0.771294 -1.0651147 1.1625808 -2.1148627 0.29576883 1.538758
-0.27331087 -0.10697658 0.28681904 -0.08183146 -0.3835342 -0.83579284 -0.37069166 -0.69904655
00000000: baab b63c ea01 ce3e 3825 15bf 2884 c13e
00000010: e957 21c0 ed93 0ebf e946 ce3f 8114 4abf
00000020: d733 1d3f bfdf a13f 1985 6bbe 0221 febe
00000030: 5c8d 3bbf b3e4 a2be 43a7 1c3f 4500 99be
00000040: add6 f53e 6439 973e 145c f53e cc42 91bd
00000050: e9f3 1b3f 493d 703f 6d93 09c0 57d9 cd3f
00000060: de48 bbbb 9dc7 303f f09e 06c0 1db2 0cc0
00000070: f6c5 1ac0 b53a 413f 0f1f 86bf 96d7 07bf
00000080: 9156 a7bc 3638 30bd d346 6abf ac79 513f
00000090: 88f1 1fbd 2b16 893f 6a73 623d 30f7 fabd
000000a0: a950 6dbf 0b8c 163f 0083 91bd f0e7 d53e
000000b0: 3f13 123c 80bb 133d dafa 85be a660 41be
000000c0: 4ebd 6bbd 000a 8bbe 24a6 33bd 6ef0 45be
000000d0: e7c0 7e3e e072 98bc 3951 98be edd0 84bf
000000e0: 8999 103f 77dc 88bf f65e c53e 6f99 53be
000000f0: 94ad 9b3f 4738 bdbe ccee 633f a031 843d
00000100: 834d 86bd 6e74 80bf 0c64 1c3f a94b 4bbf
00000110: 9bb4 4e3f d759 d73e ec13 753f 617e a93f
00000120: 2d43 4f3e 7f27 a8be c857 8a3e 9fad 6fbf
00000130: 5ebf 53be b2c2 c1be 22f8 3abf 53ba c33f
00000140: 91bf 053c fb8d 8d3f a00d a63f 239c 2fbf
00000150: 26ad 52bf 2409 b0be 1eff 21bf 8a7b 90be
00000160: 3651 00be 2970 e8bf e9ad 0f40 c6e2 22c0
00000170: 53c9 883f 5c26 b2be 1e51 af3f 04da 0abf
00000180: 4b7d 7bbe 231e bf3f 5b8c 363e f165 28be
00000190: 64d5 1abf 1bbc e13e 3ba2 263f b363 dc3e
000001a0: 132f f0be 4081 143f 8ade 73bf 72b5 39bf
000001b0: 66a2 0d3f 51e6 303f d7dc 28c0 8fe5 a93e
000001c0: 34fc 973f 4eae 58c0 bf31 d83e bfe3 593f
000001d0: 7459 3e3e 32ff ddbf e236 4f3f fceb 1c3f
000001e0: 9144 5fbf 9b2a 20bf b770 ba3f e525 12bf
000001f0: 6696 2a3f b2ae f8bd be84 53be 1abe b33f
00000200: 462e 223e 694a 453f aeb4 e1be 2969 8bbf
00000210: 99bf 06c0 0584 33c0 fd6f 77bf 3aab 70bf
00000220: 65b1 34c0 23f7 1540 0895 cf3e 4a7d 253f
00000230: 4782 1fbf 892b 1cbe 7d8b 663f f433 2ebf
00000240: d32c 113f 71b2 89be d097 66bf bc9e 3cbe
00000250: 6cd1 3d3f 55de ba3f 6a77 543f 5145 333f
00000260: bb02 7bbf 8d27 56bf 505d 443f 7139 6a3c
00000270: 310c 123f 70fa 573f 3798 e6bd dcc8 a03f
00000280: 57c0 41bf d534 933e 936a c2bf 5f81 0bbf
00000290: a5cb 70bf 746f c0be 5a55 ffbf 2018 623f
000002a0: e9c1 1d3f c763 bc3f e3e3 123f e758 04c0
000002b0: be3a 9b3d 62eb 99bf d617 0c3f 02d1 543f
000002c0: c87c 45bf c808 8ebf 251a 2f3f 1983 3f3e
000002d0: 57f9 a33f e2d3 3fbe eb81 b7bd 8f50 173e
000002e0: 0a3d 38bf 868d 33bf f02b fc3d 598d 953e
000002f0: 52a7 b43f 2370 cebf fc77 d2bf 2683 763f
00000300: c610 bbbf 80d7 363f b2b4 8f3e 6b02 ad3d
00000310: ec9f 673f 0b6f 053f df62 b5bf a35f ffbe
00000320: d858 aabf f3e3 25bd 235a 6ebf c460 dc3e
00000330: ce3a 9c3f dc3d c1be 82f4 cd3f 2766 493e
00000340: 9700 d2be 3fef 283f 13bc 81bf 326b 15be
00000350: 4cf6 d0bd 7851 be3e 8b8e 11bf b48c 043f
00000360: 6269 e2bc 23c2 a2bc bbaa d8be 53dc a03f
00000370: 9cfc 4bbf 1c95 71bf 2a28 4ebf 2af8 ef3e
00000380: 2153 75bf 414d 9b3f 50d2 af3f c5fd 21bf
00000390: 92a1 8b3f 7623 72bf a47a bcbe 9032 93c0
000003a0: 0eec d23f 3167 bb3f ecc2 613d 36fd 003e
000003b0: facc 72c0 57a0 043e 0ad6 1dbf 0d84 aa3c
000003c0: d707 45c0 9e9f 9b3f 8673 45bf ae55 88bf
000003d0: 73cf 943f e959 07c0 036f 973e 06f6 c43f
000003e0: 67ef 8bbe 8a16 dbbd f2d9 923e 4197 a7bd
000003f0: 985e c4be 85f6 55bf 4ccb bdbe b7f4 32bf

linear1.bias f4 [256]
-0.20088892 0.3669242 -0.92744166 0.5446864 -0.3040965 0.05447671 0.64746666 1.020372
-0.21239227 0.42662475 0.38952926 0.8407453 0.9750306 0.5099644 0.07704352 -0.47384062
0.57537705 -0.7285845 0.63732564 0.24618332 0.85649955 -1.1666641 0.05764032 0.6515818
0.01529287 0.377044 -0.14623515 0.926843 0.50045776 0.419387 0.55432093 0.62638956
0.72682375 0.43654716 -0.23678914 0.5041708 -0.30231667 -0.20421448 0.5686992 0.17505682
-0.010305666 -0.29456732 0.876717 -0.0922482 0.46199775 0.58652526 0.37182286 0.66564184
0.5323479 0.56566936 0.19142966 -0.4469631 0.58345985 0.16154692 0.64117724 0.67794997
-0.0631878 0.9682273 1.0046167 0.75327635 0.67505866 0.31589165 0.73889184 0.4437055
0.31994885 -0.65832394 -0.18168601 0.4070281 -0.23041339 0.4127084 -0.5640752 0.6912263
0.21924499 0.6010132 0.05277482 0.47923052 -0.72297335 0.53251964 0.3130995 -0.77250063
0.34698492 0.70603156 -0.1977 0.58240217 0.65737736 0.4432889 1.0399883 0.5332469
0.4959555 0.7853098 0.01567782 0.12361967 0.112866655 0.9880709 0.06597592 0.36544564
-0.13719806 0.57234114 0.51082796 0.54739577 -0.84057015 0.5491347 0.05108613 -0.5922165
-0.8755835 -0.24298382 0.6432696 0.20539552 1.0328116 0.2342076 -0.21023008 0.0063844966
0.5778405 0.5107227 0.22867495 0.45280585 1.0049063 0.57648003 -0.22070307 0.3560879
0.8226789 0.7302715 0.48997802 0.2204526 0.674802 0.47699922 -1.2720158 0.28005818
0.6481795 0.42050293 0.9576138 0.5216928 0.8068361 0.7213803 0.7332879 0.15103903
0.373674 0.02326675 0.2676331 0.82379764 -1.0291089 0.25379688 0.44354713 0.015355821
0.65964544 -0.33745345 0.100352414 -1.4726586 -0.9701201 0.45978 0.39530265 0.48196387
-0.35329255 -0.62873733 0.584557 -0.5619678 0.7230379 -0.49572715 -0.36862013 0.45264688
0.06015522 -0.07748121 -0.86886436 0.9141656 -0.36226493 0.57186186 0.1719606 -0.11046964
0.28376165 0.3939231 -0.40482914 0.22716399 -0.048766404 0.563376 -0.28989387 0.5681015
0.32776007 -1.2334682 0.12313614 -1.6119002 0.46578854 0.13032748 0.44046485 0.6680352
0.17966554 0.99232244 0.6226443 -0.12576929 0.71355325 0.8239924 0.40514636 0.10433464
0.69578576 0.48703623 0.44425887 -0.8810417 -0.2630122 0.33280152 0.03630771 0.7231321
0.9766155 0.4481474 -0.26501158 -0.1955608 -0.14177154 0.12418102 -0.62359965 0.030607954
-0.7421976 0.4576031 0.5456498 -0.47081274 0.15877342 -0.04313143 -0.5737467 1.043495
-1.4812375 -0.42359525 0.7071943 0.74950165 0.4191556 0.63165593 0.2940368 0.81492436
-0.0548515 -0.27462462 0.5743592 0.8545514 0.19454207 0.30982247 0.41898236 0.61318326
0.518954 -0.002588157 1.0887097 0.04498012 0.6032333 0.30764952 0.5589403 0.21463741
-0.02465419 0.54574805 0.22600876 0.2923219 0.27519572 -0.48812965 0.46824992 -0.8397699
0.35206017 0.79197234 0.6202593 -0.28785715 -1.4168845 -1.0734265 0.63202894 0.3742639
00000000: d3b5 4dbe 7ddd bb3e d16c 6dbf 9170 0b3f
00000010: 89b2 9bbe f822 5f3d 60c0 253f 8d9b 823f
00000020: 5c7d 59be 8f6e da3e 6170 c73e 153b 573f
00000030: 9b9b 793f 078d 023f fec8 9d3d 3d9b f2be
00000040: e94b 133f 8484 3abf c627 233f 7b17 7c3e
00000050: 8e43 5b3f 4055 95bf 4218 6c3d 11ce 263f
00000060: f28e 7a3c e90b c13e abbe 15be 9545 6d3f
00000070: 001e 003f e5b9 d63e fae7 0d3f 115b 203f
00000080: 1f11 3a3f 1c83 df3e da78 72be 5611 013f
00000090: 40c9 9abe 9a1d 51be 4596 113f 1842 333e
000000a0: 19d9 28bc 87d1 96be 8670 603f a0ec bcbd
000000b0: f88a ec3e 8526 163f 915f be3e 8167 2a3f
000000c0: f447 083f b5cf 103f 2306 443e 59d8 e4be
000000d0: a05d 153f 8e6c 253e 3124 243f 218e 2d3f
000000e0: 9b68 81bd bfdd 773f 4897 803f b8d6 403f
000000f0: a5d0 2c3f 8dbc a13e 0428 3d3f 5e2d e33e
00000100: 56d0 a33e eb87 28bf e60b 3abe fd65 d03e
00000110: 7df1 6bbe 844e d33e 3b67 10bf 35f4 303f
00000120: c281 603e 00dc 193f 692a 583d b45d f53e
00000130: c814 39bf 3553 083f 944e a03e 9ac2 45bf
00000140: 02a8 b13e 7cbe 343f de71 4abe 4f18 153f
00000150: e249 283f c3f6 e23e 561e 853f de82 083f
00000160: e1ed fd3e 100a 493f c66e 803c 4f2c fd3d
00000170: a226 e73d 37f2 7c3f 621e 873d b11b bb3e
00000180: a67d 0cbe f384 123f 9fc5 023f 2122 0c3f
00000190: 9b2f 57bf 1794 0c3f b13f 513d 809b 17bf
000001a0: 3e26 60bf c0d0 78be 51ad 243f 3453 523e
000001b0: 2c33 843f 1ed4 6f3e 8e46 57be 0a35 d13b
000001c0: 5bed 133f b9be 023f c429 6a3e 2bd6 e73e
000001d0: c5a0 803f 3294 133f fcff 61be 2751 b63e
000001e0: 169b 523f 13f3 3a3f 66de fa3e 54be 613e
000001f0: d3bf 2c3f 3e39 f43e 6ad1 a2bf c963 8f3e
00000200: 17ef 253f 294c d73e 2e26 753f a98d 053f
00000210: d08c 4e3f 61ac 383f c1b8 3b3f faa9 1a3e
00000220: 3352 bf3e e999 be3c 3507 893e 67e4 523f
00000230: d7b9 83bf aaf1 813e 9c18 e33e fb96 7b3c
00000240: 86de 283f b3c6 acbe 9185 cd3d 1480 bcbf
00000250: ca59 78bf 4968 eb3e 1c65 ca3e f8c3 f63e
00000260: c3e2 b4be eef4 20bf 87a5 153f 1fdd 0fbf
00000270: 0319 393f f3cf fdbe c7bb bcbe 55c1 e73e
00000280: 5265 763d 78ae 9ebd e56d 5ebf c206 6a3f
00000290: ca7a b9be 8a65 123f 7116 303e e83d e2bd
000002a0: 3549 913e 4ab0 c93e c445 cfbe ad9d 683e
000002b0: 48bf 47bd 6939 103f f86c 94be 1a6f 113f
000002c0: 2bd0 a73e 49e2 9dbf cd2e fc3d bf52 cebf
000002d0: d67b ee3e 9174 053e 9c84 e13e 5b04 2b3f
000002e0: 3efa 373e d808 7e3f 9e65 1f3f aac9 00be
000002f0: 6dab 363f 2af1 523f 586f cf3e 66ad d53d
00000300: 041f 323f d05c f93e e675 e33e f38b 61bf
00000310: 89a9 86be f664 aa3e 65b7 143d 2f1f 393f
00000320: 7903 7a3f 9373 e53e 99af 87be 1741 48be
00000330: 8f2c 11be 9e52 fe3d 3aa4 1fbf 88bd fa3c
00000340: a900 3ebf f44a ea3e b5af 0b3f 5e0e f1be
00000350: 8095 223e 95aa 30bd 10e1 12bf 3f91 853f
00000360: 3199 bdbf 7ae1 d8be b00a 353f 57df 3f3f
00000370: 909b d63e 34b4 213f fe8b 963e e29e 503f
00000380: f7ab 60bd 999b 8cbe 3409 133f e1c3 5a3f
00000390: 0936 473e 0da1 9e3e db84 d63e 94f9 1c3f
000003a0: 2bda 043f 129e 29bb d75a 8b3f 133d 383d
000003b0: 7f6d 1a3f 3d84 9d3e b616 0f3f e9c9 5b3e
000003c0: 95f7 c9bc 25b6 0b3f d76e 673e 37ab 953e
000003d0: 74e6 8c3e 21ec f9be 74be ef3e 29fb 56bf
000003e0: 3b41 b43e b3be 4a3f 50c9 1e3f 0362 93be
000003f0: 795c b5bf 0a66 89bf a6cc 213f 859f bf3e

linear2.weight f4 [4, 256]
3.9881873 0.12135228 -5.2461214 0.7489289 -0.017452344 2.3906116 0.2013444 2.987981
4.1743226 1.0404865 1.5387297 0.16715577 -3.607385 -0.8303337 1.3737488 -0.56342906
1.7233793 -0.547224 1.66554 0.5781806 -0.022702876 4.8628845 -0.7659826 1.3616554
0.73391724 0.0033228816 0.6039544 0.7972173 0.52775306 0.69905525 0.88763136 1.7269945
1.1606519 -1.4423313 1.1626029 1.5547856 3.1072848 2.524751 1.5300401 2.3844984
3.4491336 -0.003452018 3.7718902 1.5977752 1.7422884 -1.8243694 0.5974136 -1.1906496
1.0118843 0.658996 0.09817274 1.7847931 1.6528383 -1.2630613 -1.531518 2.3246362
3.1776483 0.69780535 -0.39606133 -1.3723755 -1.6349438 -1.38247 -0.7620172 0.6913551
1.3140922 -3.2973862 -1.4147272 -1.1991782 0.9698408 0.9984646 -1.6677809 -0.3409055
1.2217991 0.5416064 0.20301805 0.8360044 -0.081883274 0.59695196 3.1339307 1.7631325
3.7331922 -1.1563289 -2.158853 -0.17957778 0.6367822 1.0875744 0.079154134 0.120575614
0.5270762 -1.1390445 1.2470044 1.3842423 3.4808517 -0.8931515 2.3494132 0.68124694
1.7875636 4.1443777 -2.6395164 1.118794 0.27259877 -1.8707409 0.08565552 3.484279
-0.79524344 2.2997882 2.264054 0.37981448 -0.54842424 -0.17672026 3.566607 1.76847
1.0318907 0.12928036 -1.6879969 -0.8534453 1.2313607 -1.1369836 0.05053872 -0.91278255
-0.67736715 0.9132272 4.8544717 -1.6001731 1.1194824 0.5332818 1.1601368 2.356856
0.21075107 -0.046423275 0.35823816 2.184089 0.577231 0.34592378 0.31181663 -0.804346
0.3975297 1.4891621 1.4380398 0.21298301 2.0834923 5.4531007 0.87231314 1.834576
0.18293035 3.541733 0.955241 5.5951915 6.2029285 0.42781556 -1.741991 -2.152634
4.977496 -1.6153842 1.1108346 2.5478156 -0.49423388 3.5494192 2.065701 0.026148252
3.8309948 -1.9617683 8.256936 1.0374484 -0.64899915 3.7717323 1.9563627 0.59392846
1.6660961 -2.3217504 0.52830756 2.3368573 -1.7316033 0.09499923 0.5099564 0.020897502
0.3700376 -0.25180516 -1.8849053 -1.0615578 1.5585597 4.5305595 -0.20800145 0.98344886
1.4925026 -0.5501048 -0.43598357 0.2641856 -0.37721738 1.1870073 -0.22767879 2.9647517
0.7655354 0.79804474 -2.5612788 3.0105138 0.0029846136 -0.8314515 0.15379357 1.0482165
-2.2056086 2.1175826 1.9193166 0.041253895 0.572041 0.50095254 1.3498527 -0.07466439
2.4289 1.6038737 0.45589676 2.7568703 0.86003655 0.9247747 2.8968859 -0.5045654
-5.606278 4.315458 0.93036664 0.89851755 1.01288 -1.1815898 -0.95018923 0.15152238
0.87437385 1.3083261 1.1682765 -0.2795777 1.1636771 0.42504212 1.7953804 0.7898964
2.8169887 -0.3098946 -0.6554791 3.812882 -0.023033999 0.8697052 -0.6923537 0.43374395
0.093424104 0.5549126 2.7894483 0.21872889 0.92757607 -0.9815485 0.056738254 0.21632248
0.906064 2.109522 -1.2583265 0.45916316 4.676921 4.900558 -0.3244222 1.3205833
00000000: 763e 7f40 8b87 f83d 3ae0 a7c0 ceb9 3f3f
00000010: 38f8 8ebc c8ff 1840 3a2d 4e3e 153b 3f40
00000020: 0d94 8540 a92e 853f 18f5 c43f e22a 2b3e
00000030: 65df 66c0 c090 54bf 00d7 af3f e33c 10bf
00000040: b197 dc3f df16 0cbf 6a30 d53f a503 143f
00000050: 62fb b9bc c09c 9b40 7017 44bf b94a ae3f
00000060: 00e2 3b3f b4c4 593b c19c 1a3f 6f16 4c3f
00000070: d31a 073f 49f5 323f cf3b 633f 280e dd3f
00000080: 3e90 943f 509e b8bf 2cd0 943f 3703 c73f
00000090: c1dd 4640 8595 2140 5bd8 c33f 9f9b 1840
000000a0: 9bbe 5c40 403b 62bb a666 7140 e683 cc3f
000000b0: 4e03 df3f f084 e9bf 19f0 183f 3567 98bf
000000c0: 6d85 813f f6b3 283f ca0e c93d 1a74 e43f
000000d0: 3590 d33f feab a1bf c808 c4bf d7c6 1440
000000e0: 975e 4b40 5fa3 323f 8dc8 cabe 00aa afbf
000000f0: d745 d1bf c7f4 b0bf 8f13 43bf a6fc 303f
00000100: 2c34 a83f 6008 53c0 c815 b5bf ac7e 99bf
00000110: 7d47 783f 609b 7f3f d879 d5bf 2a8b aebe
00000120: ea63 9c3f b8a6 0a3f f7e3 4f3e 6204 563f
00000130: 6bb2 a7bd d8d1 183f 5292 4840 53ae e13f
00000140: 9fec 6e40 9602 94bf a62a 0ac0 3de3 37be
00000150: 2904 233f a335 8b3f 901b a23d 59f0 f63d
00000160: 77ee 063f 36cc 91bf d79d 9f3f da2e b13f
00000170: 46c6 5e40 94a5 64bf c95c 1640 3366 2e3f
00000180: e2ce e43f be9e 8440 d6ed 28c0 a434 8f3f
00000190: 1192 8b3e 7074 efbf 296c af3d 6dfe 5e40
000001a0: 1395 4bbf bb2f 1340 43e6 1040 0b77 c23e
000001b0: 8865 0cbf 28f6 34be 4a43 6440 3a5d e23f
000001c0: ff14 843f 1262 043e 4810 d8bf 647b 5abf
000001d0: 3a9d 9d3f ae88 91bf b001 4f3d 1eac 69bf
000001e0: ef67 2dbf 42c9 693f d557 9b40 79d2 ccbf
000001f0: 334b 8f3f 2885 083f 5d7f 943f bbd6 1640
00000200: 21cf 573e 5526 3ebd fe6a b73e 1dc8 0b40
00000210: 69c5 133f ec1c b13e 6ea6 9f3e 9fe9 4dbf
00000220: 0389 cb3e dd9c be3f b011 b83f 3818 5a3e
00000230: f057 0540 cd7f ae40 ea4f 5f3f 63d3 ea3f
00000240: 1852 3b3e c1ab 6240 ad8a 743f cf0b b340
00000250: 647e c640 a40a db3e 90f9 debf c1c4 09c0
00000260: a647 9f40 e9c4 cebf d42f 8e3f 690f 2340
00000270: 390c fdbe af29 6340 7234 0440 dc34 d63c
00000280: 052f 7540 391b fbbf 691c 0441 1ccb 843f
00000290: cf24 26bf 1064 7140 186a fa3f b20b 183f
000002a0: a342 d53f 8f97 14c0 2a3f 073f 128f 1540
000002b0: 2da5 ddbf f58e c23d 818c 023f 3d31 ab3c
000002c0: 9175 bd3e 9bec 80be 9444 f1bf 20e1 87bf
000002d0: e27e c73f 58fa 9040 55fe 54be 4ec3 7b3f
000002e0: 530a bf3f abd3 0cbf 3d39 dfbe 5643 873e
000002f0: a322 c1be dbef 973f a124 69be 7ebe 3d40
00000300: 21fa 433f a94c 4c3f feeb 23c0 42ac 4040
00000310: 8299 433b 01da 54bf 107c 1d3e f52b 863f
00000320: b128 0dc0 7986 0740 2bac f53f d8f9 283d
00000330: 4771 123f 6d3e 003f f9c7 ac3f a5e9 98bd
00000340: 1973 1b40 bc4b cd3f 4d6b e93e 9070 3040
00000350: 5b2b 5c3f 09be 6c3f 9466 3940 332b 01bf
00000360: a166 b3c0 3b18 8a40 822c 6e3f 3f05 663f
00000370: 0da6 813f 563e 97bf 9a3f 73bf af28 1b3e
00000380: f7d6 5f3f 3b77 a73f 168a 953f cf24 8fbe
00000390: 5ff3 943f 1f9f d93e 06cf e53f a736 4a3f
000003a0: 8b49 3440 81aa 9ebe 7acd 27bf 4206 7440
000003b0: ccb1 bcbc 00a5 5e3f 183e 31bf b013 de3e
000003c0: 2355 bf3d c10e 0e3f 5286 3240 77fa 5f3e
000003d0: a075 6d3f c346 7bbf 5f66 683d a483 5d3e
000003e0: cff3 673f 6902 0740 d810 a1bf 6f17 eb3e
000003f0: 56a9 9540 5fd1 9c40 ab1a a6be e008 a93f

linear2.bias f4 [4]
-0.6447499 -0.67161435 -0.9275246 -0.75503075
00000000: 540e 25bf ebee 2bbf 4172 6dbf b249 41bf

linear1.weight f4 [256, 11]
0.029405527 0.4032559 -0.58366895 0.3718428 -2.5209692 -0.5449302 1.6144309 -0.79212487
0.61186284 1.2630701 -0.22745943 -0.49964076 -0.7328032 -0.31591862 0.6150312 -0.3018434
0.4777035 0.29293627 0.4812406 -0.07141299 0.60838115 0.9398272 -2.1498616 1.6146026
-0.0025694538 0.68916273 -2.10345 -2.1983407 -2.4183059 0.75081784 -1.044928 -0.5281778
-0.018673757 -0.046897076 -0.9103074 0.8193095 -0.033982348 1.0721825 0.05599834 -0.12468867
-0.92113656 0.5865884 -0.06867929 0.41926557 0.008915721 0.03606792 -0.26167956 -0.18884525
-0.057553582 -0.27156067 -0.043859005 -0.19329998 0.24878554 -0.018609464 -0.29749468 -1.0283248
0.564551 -1.0701267 0.3832133 -0.21785273 1.2154789 -0.37217063 0.8885318 0.056631688
-0.07810531 -1.0011225 0.60593534 -0.79828835 0.8050011 0.42436993 0.9561562 1.3249061
0.19918269 -0.329177 0.27102503 -0.93353194 -0.20839278 -0.38039526 -0.73886865 1.5267726
0.005219685 1.1057118 1.3011605 -0.6904764 -0.8208041 -0.3468645 -0.6284075 -0.2898174
-0.12287548 -1.8131832 2.2441552 -2.5602927 1.0709156 -0.34728098 1.3705249 -0.54051614
-0.24272668 1.4890035 0.18357424 -0.16506453 -0.60876006 0.43587652 0.6443912 0.43123338
-0.46788308 0.5779446 -0.95476216 -0.73085487 0.5510893 0.68723 -2.630536 0.32902494
1.1963644 -3.3856187 0.42504802 0.85566634 0.18371011 -1.7271127 0.81040394 0.6178321
-0.8758279 -0.6322175 1.4527999 -0.57631576 0.6690013 -0.12198649 -0.21368623 1.4015067
0.15065499 0.77284366 -0.4442034 -1.0888698 -2.1108172 -2.806743 -0.9601646 -0.94914263
-2.8232841 2.3412924 0.4114082 0.6472928 -0.63011163 -0.1468348 0.89348346 -0.69097894
0.5621413 -0.27468 -0.91028935 -0.18408385 0.73955697 1.4551979 0.82815367 0.69259894
-0.9841473 -0.8393648 0.7659453 0.008476654 0.56831175 0.84752125 -0.11299148 1.2545856
-0.76574373 0.28892434 -1.5259901 -0.5474806 -0.93595296 -0.38808802 -2.001014 0.88800615
0.6181012 1.462283 0.57174253 -2.0679257 0.07304173 -1.2124306 0.54534966 0.82559955
-0.7626841 -1.1016008 0.6912407 0.19045334 1.2847478 -0.18540108 -0.08210078 0.15785126
-0.7170811 -0.6963136 0.12696345 0.28397512 1.4105933 -1.6153573 -1.6318647 0.95842946
-1.4578743 0.71560943 0.2805159 0.08066653 0.9033294 0.5201038 -1.4209954 -0.4951292
-1.3429136 -0.04578319 -0.93357456 0.4319517 1.214192 -0.38683555 1.6042858 0.17948866
-0.40452567 0.65557563 -1.0158058 -0.15277739 -0.09998363 0.3773529 -0.5751491 0.51085705
-0.025274614 -0.025112575 -0.42021656 1.2528566 -0.8007147 -0.9416908 -0.81577855 0.47273082
-0.96175736 1.2147994 1.3658595 -0.6318316 1.0863551 -0.9476673 -0.36961108 -4.59991
1.6572783 1.472715 0.072383136 0.12201424 -3.793744 0.13335937 -0.6155418 0.03358954
-3.0786304 1.2265062 -0.7702302 -1.0645597 1.1651096 -2.1148465 0.30250114 1.5389931
-0.2836475 -0.09921661 0.28503996 -0.07775398 -0.38782346 -0.8353683 -0.36888856 -0.70073533
00000000: dce3 f03c 8f77 ce3e 546b 15bf 2e62 be3e
00000010: 8f57 21c0 8c80 0bbf aca5 ce3f b2c8 4abf
00000020: 0ba3 1c3f 48ac a13f 20eb 68be ead0 ffbe
00000030: fe98 3bbf 16c0 a1be af72 1d3f 388b 9abe
00000040: 8e95 f43e befb 953e 2b65 f63e f940 92bd
00000050: debe 1b3f 8498 703f 5597 09c0 4cab ce3f
00000060: 4864 28bb f86c 303f ed9e 06c0 9db1 0cc0
00000070: 86c5 1ac0 9935 403f 33c0 85bf a936 07bf
00000080: b5f9 98bc 2617 40bd e809 69bf 44be 513f
00000090: 1331 0bbd 473d 893f 845e 653d c65c ffbd
000000a0: 9bcf 6bbf a82a 163f baa7 8cbd faa9 d63e
000000b0: 3f13 123c f5bb 133d ddfa 85be a660 41be
000000c0: 4ebd 6bbd 000a 8bbe 80a5 33bd 6ef0 45be
000000d0: a3c1 7e3e e072 98bc 3951 98be 26a0 83bf
000000e0: 6a86 103f e9f9 88bf 8934 c43e c914 5fbe
000000f0: d094 9b3f 268d bebe d276 633f a1f6 673d
00000100: adf5 9fbd c824 80bf 941e 1b3f a05c 4cbf
00000110: 8d14 4e3f 0447 d93e a7c6 743f 8696 a93f
00000120: 8cf6 4b3e e389 a8be cbc3 8a3e f3fb 6ebf
00000130: eb64 55be 2bc3 c2be 7f26 3dbf 496d c33f
00000140: e409 ab3b f787 8d3f 6d8c a63f 10c3 30bf
00000150: 3820 52bf 3998 b1be 50df 20bf f262 94be
00000160: 24a6 fbbd 6316 e8bf 3da0 0f40 d6db 23c0
00000170: c313 893f d0ce b1be 5c6d af3f 445f 0abf
00000180: 588d 78be ab97 be3f e3fa 3b3e ad06 29be
00000190: b3d7 1bbf 352b df3e d2f6 243f 9fca dc3e
000001a0: 5f8e efbe 2df4 133f 4b6b 74bf 4e19 3bbf
000001b0: 3014 0d3f 4eee 2f3f b45a 28c0 f575 a83e
000001c0: 7822 993f faad 58c0 e59f d93e f30c 5b3f
000001d0: 811e 3c3e 0712 ddbf a276 4f3f 3f2a 1e3f
000001e0: 4236 60bf 02d9 21bf 59f5 b93f 6e89 13bf
000001f0: ab43 2b3f 0ed4 f9bd 90d0 5abe 9264 b33f
00000200: 4d45 1a3e 15d9 453f a16e e3be 1660 8bbf
00000210: a117 07c0 ada1 33c0 59cd 75bf 03fb 72bf
00000220: b0b0 34c0 bcd7 1540 18a4 d23e fbb4 253f
00000230: ff4e 21bf dd5b 16be 55bb 643f ffe3 30bf
00000240: 7ee8 0f3f dba2 8cbe b908 69bf 7a80 3cbe
00000250: 9b53 3d3f ed43 ba3f e101 543f 2a4e 313f
00000260: 14f1 7bbf 9de0 56bf fe14 443f aae1 0a3c
00000270: e17c 113f 27f7 583f 1468 e7bd 4396 a03f
00000280: c807 44bf e4ed 933e a553 c3bf b027 0cbf
00000290: 9d9a 6fbf 79b3 c6be 9d10 00c0 5f54 633f
000002a0: e13b 1e3f 172c bb3f b85d 123f e558 04c0
000002b0: e796 953d ed30 9bbf 099c 0b3f 7e5a 533f
000002c0: 443f 43bf 4101 8dbf 27f5 303f 3306 433e
000002d0: 9e72 a43f c8d9 3dbe 7424 a8bd c3a3 213e
000002e0: a192 37bf 9c41 32bf b502 023e 3065 913e
000002f0: 528e b43f 07c4 cebf f1e0 d0bf a25b 753f
00000300: a09b babf 2e32 373f c89f 8f3e 7e34 a53d
00000310: 9840 673f 8625 053f 2de3 b5bf 9381 fdbe
00000320: 98e4 abbf 2787 3bbd befe 6ebf c628 dd3e
00000330: a56a 9b3f 4f0f c6be 3d59 cd3f e0cb 373e
00000340: fd1d cfbe ced3 273f ed05 82bf ad71 1cbe
00000350: 38c4 ccbd 6634 c13e f93c 13bf 87c7 023f
00000360: b50c cfbc e3b8 cdbc a026 d7be 9b5d a03f
00000370: a3fb 4cbf a612 71bf ddd6 50bf c609 f23e
00000380: bb35 76bf 8c7e 9b3f 7cd4 ae3f b7bf 21bf
00000390: af0d 8b3f 539a 72bf aa3d bdbe 7632 93c0
000003a0: b221 d43f ed81 bc3f 9c3d 943d 9ae2 f93d
000003b0: b4cc 72c0 5c8f 083e 2694 1dbf 2f95 093d
000003c0: 4808 45c0 28fe 9c3f ce2d 45bf 7e43 88bf
000003d0: 5022 953f a559 07c0 6ee1 9a3e bafd c43f
000003e0: 3f3a 91be 1432 cbbd c2f0 913e 7b3d 9fbd
000003f0: cc90 c6be b2da 55bf f6de bcbe 6463 33bf

linear1.bias f4 [256]
-0.19927637 0.36494622 -0.92882586 0.54738677 -0.30409425 0.0488121 0.64809614 1.0202256
-0.21099846 0.42255792 0.39335537 0.83785605 0.9729416 0.5039544 0.075511225 -0.4800513
0.58237857 -0.72976613 0.63035434 0.24522191 0.8545943 -1.1573366 0.060372174 0.6484158
0.015804859 0.3762077 -0.14505146 0.9235443 0.50411224 0.4161764 0.559282 0.629022
0.726628 0.43308836 -0.23465474 0.5009657 -0.30389893 -0.20387708 0.57022524 0.17445526
-0.009757782 -0.29456732 0.8768967 -0.09774732 0.4591611 0.5851578 0.3698103 0.6681334
0.53341854 0.56734383 0.19136906 -0.45109072 0.5825428 0.16060838 0.63987726 0.67844844
-0.06396879 0.9668311 1.0034189 0.7497941 0.6763318 0.31570262 0.7321154 0.44312456
0.3221376 -0.662923 -0.18421651 0.40663108 -0.22856204 0.4141732 -0.5626425 0.68908477
0.22065102 0.60263735 0.050196577 0.47628906 -0.72601265 0.53335667 0.3105451 -0.7715035
0.3492988 0.7051861 -0.18961167 0.5816543 0.6673951 0.44036826 1.0392425 0.53133225
0.49589714 0.7834885 0.020745713 0.119001776 0.11265544 0.98879313 0.06695344 0.3659937
-0.13417062 0.5687473 0.5124331 0.5452693 -0.83447343 0.54915994 0.04425413 -0.58308345
-0.8785166 -0.24698386 0.64776075 0.20351225 1.0323025 0.22857912 -0.2083138 0.0029232968
0.578828 0.515137 0.23400542 0.45709112 1.004884 0.5770554 -0.22070307 0.35314393
0.82258505 0.72603446 0.4938808 0.22082348 0.6778163 0.47952077 -1.2751352 0.28045866
0.6495117 0.42649955 0.9555855 0.5184221 0.80679464 0.7224493 0.73161095 0.15178823
0.3782403 0.028000038 0.269893 0.8266887 -1.0252275 0.25563493 0.43903652 0.0039878045
0.65540904 -0.33495098 0.102832526 -1.4731926 -0.96425086 0.45855218 0.40066597 0.47746584
-0.35555163 -0.6252495 0.58395344 -0.5626379 0.72485834 -0.4972099 -0.3710698 0.4508968
0.06042568 -0.07745106 -0.8712642 0.91325533 -0.36443022 0.5699963 0.17441164 -0.10381943
0.28496894 0.3863018 -0.40141442 0.22840491 -0.053044334 0.5637369 -0.28755966 0.56657034
0.31750262 -1.2302594 0.11958935 -1.6124996 0.4616742 0.13011679 0.43932688 0.6636096
0.17947003 0.9925907 0.62913716 -0.12762819 0.7140774 0.8265605 0.40604445 0.10390014
0.6925781 0.48860103 0.43987527 -0.8811798 -0.26300874 0.3371774 0.032882128 0.7236422
0.9771544 0.44862112 -0.26003125 -0.1955608 -0.14298557 0.12092114 -0.62788874 0.038604595
-0.73379195 0.45470235 0.54582703 -0.4722833 0.16170914 -0.04249072 -0.57369703 1.042531
-1.4725158 -0.42435482 0.70792264 0.750626 0.42029342 0.63130295 0.29611006 0.81600845
-0.057697024 -0.27505115 0.57417285 0.85316056 0.1942262 0.30795595 0.42161915 0.610925
0.5229117 -0.0059519364 1.0894041 0.053014003 0.60108906 0.30958816 0.56135315 0.21383575
-0.027152307 0.5405871 0.22403505 0.29008102 0.271952 -0.4882499 0.47260177 -0.83797675
0.3516569 0.7898637 0.6219393 -0.29434106 -1.4146909 -1.071811 0.63499826 0.37175605
00000000: 1b0f 4cbe 3bda ba3e 88c7 6dbf 8a21 0c3f
00000010: 3eb2 9bbe 32ef 473d a1e9 253f c196 823f
00000020: fb0f 58be 8359 d83e e065 c93e bc7d 563f
00000030: b312 793f 2803 013f a1a5 9a3d 49c9 f5be
00000040: c316 153f f4d1 3abf e75e 213f 741b 7b3e
00000050: b1c6 5a3f 9b23 94bf d048 773d 94fe 253f
00000060: 3179 813c 4c9e c03e 5f88 14be 666d 6c3f
00000070: 800d 013f 1315 d53e 1b2d 0f3f 9607 213f
00000080: 4b04 3a3f c2bd dd3e 5549 70be 4a3f 003f
00000090: a498 9bbe 27c5 50be 48fa 113f 66a4 323e
000000a0: 1bdf 1fbc 87d1 96be 4d7c 603f bf2f c8bd
000000b0: 2a17 eb3e e7cc 153f c757 bd3e ca0a 2b3f
000000c0: 1e8e 083f 723d 113f 40f6 433e 5df5 e6be
000000d0: 8621 153f 8676 243e ffce 233f ccae 2d3f
000000e0: 1202 83bd 3e82 773f 0870 803f 82f2 3f3f
000000f0: 1524 2d3f c6a3 a13e ea6b 3b3f 39e1 e23e
00000100: 38ef a43e 52b5 29bf 41a3 3cbe f331 d03e
00000110: 2b0c 6abe 820e d43e 5709 10bf dc67 303f
00000120: 57f2 613e 7146 1a3f ed9a 4d3d 29dc f33e
00000130: f7db 39bf 108a 083f c4ff 9e3e 4181 45bf
00000140: 4bd7 b23e 1487 343f 9029 42be 4ce7 143f
00000150: 68da 2a3f f377 e13e e605 853f 6405 083f
00000160: 3be6 fd3e b492 483f eaf2 a93c 34b7 f33d
00000170: e5b7 e63d 8c21 7d3f e31e 893d 8763 bb3e
00000180: 0664 09be 6c99 113f d12e 033f c596 0b3f
00000190: 0da0 55bf bf95 0c3f d243 353d f544 15bf
000001a0: 77e6 60bf 56e9 7cbe a6d3 253f 8465 503e
000001b0: 7d22 843f a510 6a3e 3650 55be c894 3f3b
000001c0: 122e 143f 05e0 033f 1e9f 6f3e d907 ea3e
000001d0: 0aa0 803f e7b9 133f fcff 61be 48cf b43e
000001e0: ef94 523f 65dd 393f f2dd fc3e 8d1f 623e
000001f0: 5e85 2d3f bf83 f53e a137 a3bf 4798 8f3e
00000200: 6646 263f 265e da3e 40a1 743f 50b7 043f
00000210: 188a 4e3f 70f2 383f db4a 3b3f 606e 1b3e
00000220: b6a8 c13e 5660 e53c 6a2f 8a3e dfa1 533f
00000230: a83a 83bf 95e2 823e 65c9 e03e 21ac 823b
00000240: e3c8 273f b27e abbe dc99 d23d 9391 bcbf
00000250: 25d9 76bf 5ac7 ea3e 1724 cd3e 6776 f43e
00000260: dd0a b6be 5a10 20bf f97d 153f 0a09 10bf
00000270: 5190 393f 4c92 febe dcfc bdbe f2db e63e
00000280: eb80 773d a99e 9ebd 2c0b 5fbf 1acb 693f
00000290: 9996 babe 47eb 113f f798 323e 489f d4bd
000002a0: 73e7 913e 59c9 c53e 3186 cdbe fae2 693e
000002b0: 0445 59bd 1051 103f 053b 93be c10a 113f
000002c0: b48f a23e 2479 9dbf 43eb f43d 6366 cebf
000002d0: 9060 ec3e 563d 053e 74ef e03e 52e2 293f
000002e0: fec6 373e 6d1a 7e3f 220f 213f f7b0 02be
000002f0: c7cd 363f 7899 533f 0fe5 cf3e 99c9 d43d
00000300: cc4c 313f ea29 fa3e 5537 e13e 0095 61bf
00000310: 15a9 86be 84a2 ac3e 69af 063d 9d40 393f
00000320: ca26 7a3f abb1 e53e d122 85be 1741 48be
00000330: cf6a 12be 81a5 f73d 51bd 20bf da1f 1e3d
00000340: cad9 3bbf bfce e83e 52bb 0b3f 1ecf f1be
00000350: 1597 253e c00a 2ebd cfdd 12bf a871 853f
00000360: 667b bcbf 0945 d9be 6b3a 353f 0729 403f
00000370: b330 d73e 129d 213f bd9b 973e eee5 503f
00000380: b753 6cbd 81d3 8cbe fefc 123f bb68 5a3f
00000390: 3ce3 463e 67ac 9d3e 77de d73e 9565 1c3f
000003a0: 8bdd 053f 7608 c3bb 9871 8b3f 3625 593d
000003b0: f9e0 193f 5782 9e3e d7b4 0f3f c2f7 5a3e
000003c0: 846e debc eb63 0a3f 7269 653e 8085 943e
000003d0: 4b3d 8b3e e4fb f9be dcf8 f13e a585 56bf
000003e0: 600c b43e 8234 4a3f 6a37 1f3f dfb3 96be
000003f0: 9714 b5bf 1a31 89bf 3f8f 223f cf56 be3e

linear2.weight f4 [4, 256]
3.984945 0.11742129 -5.2508626 0.74826133 -0.017452344 2.3837936 0.20602764 2.9882936
4.1753526 1.0345697 1.5370855 0.16663377 -3.6129684 -0.8266697 1.3818264 -0.566206
1.7213112 -0.5439712 1.6585563 0.5789679 -0.025673559 4.867981 -0.76587933 1.360573
0.7296217 0.0021443374 0.6026397 0.7944593 0.5223537 0.6961828 0.8871832 1.7207232
1.1603422 -1.442836 1.1651658 1.5521162 3.109658 2.5278149 1.5267298 2.3847249
3.4538023 -0.0034520205 3.7703898 1.5910894 1.7395592 -1.8250924 0.58826274 -1.1932523
1.0114566 0.65357697 0.09852604 1.7821127 1.6476043 -1.2605813 -1.5335389 2.3270142
3.169051 0.69689584 -0.39280125 -1.3714274 -1.6350925 -1.382749 -0.75871897 0.68719953
1.303498 -3.29432 -1.4010623 -1.1946778 0.96940154 1.0021837 -1.6729826 -0.33725908
1.2228978 0.5397359 0.19595824 0.83328533 -0.09175097 0.59542346 3.1316476 1.7710186
3.7356977 -1.1517104 -2.1580622 -0.1813751 0.63512254 1.0892564 0.076183505 0.11932795
0.5260049 -1.1404756 1.240762 1.383175 3.4855096 -0.89530563 2.3512664 0.6773744
1.7920994 4.139929 -2.634897 1.1118468 0.28001183 -1.8701421 0.07895942 3.499332
-0.7911239 2.3009436 2.2549071 0.36968967 -0.54843724 -0.1774121 3.5723212 1.7637559
1.0243435 0.1195929 -1.7022475 -0.85855067 1.2325784 -1.1359502 0.05053872 -0.9061705
-0.6785028 0.91237634 4.8562346 -1.6079565 1.1178697 0.52516145 1.161233 2.3595319
0.21141937 -0.05160385 0.35752106 2.1766887 0.57745475 0.34450254 0.31438518 -0.8082947
0.39607406 1.4922081 1.4360309 0.21471143 2.0868485 5.450169 0.869732 1.8259317
0.18597934 3.547374 0.95552206 5.5975 6.211001 0.42718178 -1.7444112 -2.1571581
4.9718366 -1.6166394 1.1081096 2.5439663 -0.49157113 3.557315 2.0618544 0.0207177
3.834164 -1.9619699 8.259611 1.0391375 -0.6492005 3.771054 1.9541003 0.5895798
1.6711867 -2.3169672 0.52824193 2.3323703 -1.7276728 0.092187874 0.51103014 0.015623406
0.36777306 -0.2507405 -1.8856494 -1.065876 1.5607034 4.5242705 -0.20941335 0.9817373
1.4911526 -0.5484054 -0.4328396 0.2681595 -0.3781063 1.1848586 -0.2288291 2.9659574
0.76380426 0.79308474 -2.5504532 3.0112371 0.0029846355 -0.83458024 0.15678978 1.0476754
-2.2031035 2.118711 1.9266763 0.041253895 0.56670827 0.49984992 1.340815 -0.083276816
2.4366653 1.5972598 0.454985 2.759599 0.85534835 0.92886156 2.899218 -0.50737375
-5.606323 4.319041 0.93009996 0.89970595 1.0109918 -1.1839144 -0.9554722 0.14794101
0.8786033 1.294643 1.1627967 -0.27810976 1.1641504 0.42719433 1.7942355 0.7982641
2.816589 -0.30763263 -0.6557835 3.8185537 -0.01772836 0.8698724 -0.69865 0.42954215
0.09552898 0.55230856 2.790968 0.21587153 0.91760767 -0.9810076 0.047670834 0.21222273
0.90152097 2.1131275 -1.260126 0.45745015 4.6800585 4.9008517 -0.3257758 1.3108884
00000000: 5709 7f40 937a f03d 1107 a8c0 0e8e 3f3f
00000010: 38f8 8ebc 1390 1840 e9f8 523e 3440 3f40
00000020: 7d9c 8540 c86c 843f 38bf c43f 0ba2 2a3e
00000030: e03a 67c0 a0a0 53bf b0df b03f e0f2 10bf
00000040: ed53 dc3f b241 0bbf 934b d43f 3e37 143f
00000050: 5b51 d2bc 80c6 9b40 ab10 44bf 4227 ae3f
00000060: 7dc8 3a3f 0388 0c3b 9846 1a3f af61 4b3f
00000070: f9b8 053f 0939 323f 701e 633f a840 dc3f
00000080: 1886 943f daae b8bf 2724 953f beab c63f
00000090: a304 4740 b8c7 2140 e26b c33f 559f 1840
000000a0: 190b 5d40 4b3b 62bb 114e 7140 d1a8 cb3f
000000b0: e0a9 de3f a19c e9bf 6398 163f 7ebc 98bf
000000c0: 6977 813f d250 273f 05c8 c93d 451c e43f
000000d0: b3e4 d23f ba5a a1bf 014b c4bf cded 1440
000000e0: bbd1 4a40 c467 323f 3f1d c9be ef8a afbf
000000f0: b64a d1bf ebfd b0bf 683b 42bf 4fec 2f3f
00000100: 06d9 a63f 24d6 52c0 0256 b3bf 34eb 98bf
00000110: b32a 783f 8e47 803f 4b24 d6bf 39ad acbe
00000120: ea87 9c3f 222c 0a3f 47a9 483e 3052 553f
00000130: efe7 bbbd ac6d 183f ea6c 4840 bdb0 e23f
00000140: ac15 6f40 3f6b 93bf b11d 0ac0 65ba 39be
00000150: 6497 223f c16c 8b3f 1906 9c3d 3662 f43d
00000160: 42a8 063f 1bfb 91bf 4ad1 9e3f e10b b13f
00000170: 9712 5f40 c032 65bf 267b 1640 6968 2d3f
00000180: 8363 e53f 4c7a 8440 27a2 28c0 ff50 8e3f
00000190: b65d 8f3e d160 efbf 7ab5 a13d 0ef5 5f40
000001a0: 1987 4abf a942 1340 6650 1040 f747 bd3e
000001b0: 6266 0cbf 84ab 35be e9a0 6440 c1c2 e13f
000001c0: b01d 833f 1fed f43d 3fe3 d9bf fac9 5bbf
000001d0: 21c5 9d3f d166 91bf b001 4f3d cafa 67bf
000001e0: 5cb2 2dbf 7f91 693f 4666 9b40 85d1 cdbf
000001f0: 5b16 8f3f fb70 063f 48a3 943f 9202 1740
00000200: 527e 583e 8f5e 53bd 000d b73e de4e 0b40
00000210: 13d4 133f a362 b03e 18f7 a03e 67ec 4ebf
00000220: 38ca ca3e ad00 bf3f dccf b73f 50dd 5b3e
00000230: ed8e 0540 c967 ae40 c2a6 5e3f 21b8 e93f
00000240: 5e71 3e3e 2d08 6340 189d 743f b81e b340
00000250: 85c0 c640 92b7 da3e de48 dfbf e10e 0ac0
00000260: 4919 9f40 0aee cebf 89d6 8d3f 58d0 2240
00000270: 36af fbbe 0dab 6340 6cf5 0340 2ab8 a93c
00000280: f162 7540 d421 fbbf 5e27 0441 7502 853f
00000290: 0132 26bf f358 7140 f51f fa3f b4ee 163f
000002a0: 72e9 d53f 3149 14c0 dd3a 073f 8e45 1540
000002b0: 6224 ddbf ffcc bc3d dfd2 023f 50f9 7f3c
000002c0: c04c bc3e 0f61 80be f65c f1bf a06e 88bf
000002d0: 21c5 c73f d3c6 9040 7470 56be 2353 7b3f
000002e0: 17de be3f 4c64 0cbf 279d ddbe 344c 893e
000002f0: 2697 c1be 72a9 973f 2d52 6abe 3fd2 3d40
00000300: ad88 433f 9a07 4b3f a03a 23c0 1cb8 4040
00000310: e099 433b 0da7 55bf 808d 203e 3a1a 863f
00000320: a6ff 0cc0 f698 0740 549d f63f d8f9 283d
00000330: cb13 113f 54ec ff3e d39f ab3f 098d aabd
00000340: 53f2 1b40 0273 cc3f cbf3 e83e 459d 3040
00000350: 1cf8 5a3f dfc9 6d3f ca8c 3940 3fe3 01bf
00000360: ff66 b3c0 9535 8a40 081b 6e3f 2153 663f
00000370: 2e68 813f 828a 97bf d399 74bf d97d 173e
00000380: 25ec 603f ddb6 a53f 86d6 943f 6764 8ebe
00000390: e102 953f 37b9 da3e 82a9 e53f 095b 4c3f
000003a0: ff42 3440 0682 9dbe 6de1 27bf 2f63 7440
000003b0: 113b 91bc f5af 5e3f bada 32bf f3ec db3e
000003c0: b3a4 c33d 1864 0d3f 389f 3240 6d0d 5d3e
000003d0: 56e8 6a3f 5023 7bbf 7e42 433d ea50 593e
000003e0: 14ca 663f 7b3d 0740 cf4b a1bf e836 ea3e
000003f0: 0ac3 9540 c7d3 9c40 16cc a6be 31cb a73f

linear2.bias f4 [4]
-0.6435907 -0.67291534 -0.92780274 -0.75583106
00000000: 5cc2 24bf 2e44 2cbf 7b84 6dbf 257e 41bf

exp_avg f4 [256, 11]
-0.39970312 -0.31757277 0.07443258 -0.680814 6e-45 -0.0069819964 0.2044406 -0.2707544
-0.13346611 -0.57972217 0.15940048 -0.091060214 0.06612864 0.11794209 0.039911 -0.03290014
-0.011709113 -0.043742552 0.07268097 -0.11006911 0.006015925 -0.097704224 3.6007383e-26 -0.0057988674
0.019149313 -0.26534984 6e-45 6e-45 -6e-45 -0.12277288 -0.19339894 0.009023668
-0.049991775 -0.398036 0.08068696 0.09644695 -0.13898988 -0.07917916 -0.062295947 -0.00048635123
-0.057006147 -0.27200517 -0.07223845 -0.17385404 0.0 6e-45 0.0 0.0
0.0 0.0 6e-45 0.0 6e-45 0.0 0.0 -0.008318652
0.27655578 0.30335784 0.02145343 -0.040342767 0.31854317 -0.018282149 0.30510667 -0.03906994
-0.05601706 0.30275965 -0.046935108 0.28640434 0.2598014 -0.04784875 0.13568321 0.0084077185
0.054717112 -0.018026082 0.1967592 0.017827054 0.25321597 -0.55239534 0.616319 0.42123908
-0.36577192 -0.0507315 0.36408025 0.1355577 -0.15357068 0.5551535 -0.5263552 0.82654315
-0.57552296 0.13583237 -0.20425452 -0.06662153 -0.965769 0.20497419 0.03291283 -0.3018903
-0.2964036 -0.6249961 -0.21362197 -0.44099668 -0.11216583 -0.06738862 -0.27972198 -0.123447835
-0.03889204 -0.019190315 -0.17852329 -0.22653878 -0.25717518 -0.17128897 -0.036677618 0.62495375
0.728098 6e-45 0.34752163 0.100005075 -0.02529362 0.34081402 0.20362455 0.097550616
0.4060517 -0.08973105 0.39063013 0.4816072 0.028656453 0.13002 -0.061838776 -0.013468622
0.008359362 0.08559434 0.054632418 0.10774894 -0.026899606 -0.43246382 -0.40317342 -0.27163187
6e-45 -0.46883324 0.11519661 -0.5146764 -0.10175625 -0.0008943898 -0.5180504 -0.088203184
-0.17658432 -0.009003882 -0.025760619 -0.05551885 -0.08510387 -0.096721165 -0.1629572 -0.1160806
-0.1291625 -0.16666725 -0.2157561 0.194784 0.24994136 0.16698182 -0.19087605 0.20097971
-0.0142237665 0.18638179 -0.013295195 -0.04191023 0.16011779 -0.12575532 0.01872714 -0.0018830801
-0.21134928 0.10704071 -0.045902267 6e-45 -0.06140376 -0.08829859 0.031084135 -0.084555015
-0.19711888 0.30291337 0.12621576 0.06814771 -0.23145683 0.20174192 -0.058195252 0.09202065
-0.073068134 -0.15737653 0.16615966 -0.019926108 0.24792427 0.22632828 0.0395825 0.1463637
0.025598701 -0.058274165 -0.13332507 0.22911182 -0.021424038 0.26588118 0.05697185 0.087374955
-0.12625295 -0.10470202 0.008601414 0.15899481 0.114889234 -0.019453576 0.16042303 -0.27345145
0.4726112 -0.25517267 0.03977523 0.029483955 -0.15152709 -0.039458163 -0.015934058 -0.00855542
-0.08745856 -0.10469117 -0.06444742 -0.09454721 -0.059588492 0.17637154 -0.18160817 -0.13042653
-0.055827625 0.13089015 0.07272856 -0.057890195 0.0027019782 0.007842057 0.18528622 6e-45
0.57150626 0.44688642 0.2512923 0.076298736 6e-45 0.14492078 0.0046114875 0.57042104
-6e-45 0.44549382 -0.08973627 0.5019633 0.49905527 6e-45 0.6325437 -0.12722477
0.022216635 0.26089996 0.37300754 0.051852867 0.42694274 -0.45159143 -0.17489341 -0.07529481
00000000: e3a5 ccbe e698 a2be 1c70 983d d449 2ebf
00000010: 0400 0000 3bc9 e4bb e058 513e 52a0 8abe
00000020: 57ab 08be ac68 14bf e139 233e c77d babd
00000030: 746e 873d 9f8b f13d b779 233d 4cc2 06bd
00000040: 94d7 3fbc 642b 33bd c3d9 943d ea6b e1bd
00000050: 3d21 c53b 2719 c8bd c84c 3215 6d04 bebb
00000060: 05df 9c3c efdb 87be 0400 0000 0400 0000
00000070: 0400 0080 5970 fbbd 5f0a 46be 02d8 133c
00000080: 2dc4 4cbd 60cb cbbe 343f a53d fb85 c53d
00000090: 5d53 0ebe af28 a2bd 092a 7fbd f5fc feb9
000000a0: 477f 69bd 4344 8bbe c1f1 93bd cb06 32be
000000b0: 0000 0000 0400 0000 0000 0000 0000 0000
000000c0: 0000 0000 0000 0000 0400 0000 0000 0000
000000d0: 0400 0000 0000 0000 0000 0000 f54a 08bc
000000e0: b898 8d3e b851 9b3e 1bbf af3c 753e 25bd
000000f0: 1718 a33e 72c4 95bc f136 9c3e cd07 20bd
00000100: 2572 65bd 5003 9b3e 073f 40bd 97a3 923e
00000110: b004 853e 0dfd 43bd 8af0 0a3e 87c0 093c
00000120: 0d1f 603d 6fab 93bc 3e7b 493e 0b0a 923c
00000130: 86a5 813e c869 0dbf 15c7 1d3f a6ac d73e
00000140: 7546 bbbe d5cb 4fbd ba68 ba3e a3cf 0a3e
00000150: a241 1dbe 8a1e 0e3f 37bf 06bf 5598 533f
00000160: 7955 13bf a417 0b3e 1928 51be de70 88bd
00000170: a33c 77bf c1e4 513e 9bcf 063d 5e91 9abe
00000180: 36c2 97be bfff 1fbf b8bf 5abe 51ca e1be
00000190: 33b7 e5bd 0b03 8abd b837 8fbe 38d2 fcbd
000001a0: 424d 1fbd 0235 9dbc cfce 36be c8f9 67be
000001b0: 77ac 83be 6066 2fbe 453b 16bd f8fc 1f3f
000001c0: a164 3a3f 0400 0000 5bee b13e 76cf cc3d
000001d0: 9134 cfbc 2d7f ae3e f482 503e 9ec8 c73d
000001e0: 02e6 cf3e eac4 b7bd ac00 c83e 3895 f63e
000001f0: f0c0 ea3c f623 053e a84a 7dbd 7fab 5cbc
00000200: b5f5 083c 164c af3d 3ec6 5f3d 7aab dc3d
00000210: 905c dcbc e66b ddbe bf6c cebe 5513 8bbe
00000220: 0400 0000 e90a f0be 33ec eb3d d5c1 03bf
00000230: 9565 d0bd 7c75 6aba f39e 04bf dfa3 b4bd
00000240: 85d2 34be 0585 13bc ef07 d3bc bc67 63bd
00000250: f04a aebd bf15 c6bd 41de 26be aabb edbd
00000260: 2d43 04be d2aa 2abe 2bef 5cbe 7575 473e
00000270: a1f0 7f3e 48fd 2a3e 0375 43be a0cd 4d3e
00000280: cd0a 69bc deda 3e3e 17d4 59bc 10aa 2bbd
00000290: ebf5 233e 01c6 00be a969 993c afd1 f6ba
000002a0: f26b 58be 2938 db3d 0404 3cbd 0400 0000
000002b0: 8282 7bbd e4d5 b4bd 28a4 fe3c 2e2b adbd
000002c0: 88d9 49be 7617 9b3e b43e 013e 0791 8b3d
000002d0: 0503 6dbe 6f95 4e3e 255e 6ebd 5375 bc3d
000002e0: bfa4 95bd 5027 21be c225 2a3e 143c a3bc
000002f0: dcdf 7d3e 9ac2 673e 4221 223d 5ee0 153e
00000300: 5eb4 d13c e4b0 6ebd 5e86 08be 4a9c 6a3e
00000310: 7781 afbc 9421 883e 515b 693d a4f1 b23d
00000320: 7448 01be 036e d6bd f2ec 0c3c 89cf 223e
00000330: 0c4b eb3d 1b5d 9fbc ef45 243e d401 8cbe
00000340: 18fa f13e fea5 82be 5aeb 223d 5688 f13c
00000350: eb29 1bbe e29e 21bd 2488 82bc 082c 0cbc
00000360: 791d b3bd 5368 d6bd 02fd 83bd f8a1 c1bd
00000370: 1013 74bd be9a 343e 7ef7 39be 888e 05be
00000380: 82ab 64bd 1108 063e b6f2 943d 451e 6dbd
00000390: ac13 313b f97b 003c acbb 3d3e 0400 0000
000003a0: 3c4e 123f 4cce e43e 62a9 803e 8342 9c3d
000003b0: 0400 0000 1d66 143e f61b 973b 1d07 123f
000003c0: 0400 0080 c417 e43e a6c7 b7bd ab80 003f
000003d0: 2c84 ff3e 0400 0000 62ee 213f 3647 02be
000003e0: a9ff b53c ae94 853e d8fa be3e ac63 543d
000003f0: 3d98 da3e fe36 e7be 4217 33be 2a34 9abd

exp_avg_sq f4 [256, 11]
3.1368375 2.5101767 1.6103256 2.8123178 7e-43 0.7378294 1.557721 0.6127466
3.6626382 2.8411808 2.0970001 0.1479537 0.119726725 0.1350972 0.08950527 0.034708582
0.072141245 0.098673135 0.12951264 0.1516132 0.1567986 0.09800961 0.068659954 0.59238577
0.4484367 1.6139216 2.9651442e-19 1.703485e-19 6.171433e-23 1.1190262 0.433941 0.09969407
0.56081605 0.66552436 0.45390186 0.65535456 0.43774027 0.39238718 0.27813494 0.3074057
0.29896864 0.9437203 0.6230314 0.6094398 0.0 7e-43 0.0 0.0
0.0 0.0 7e-43 0.0 7e-43 0.0 0.0 0.25072256
0.62230885 0.43736452 0.35268465 0.10720825 0.63603264 0.020733034 0.6911167 0.2797328
0.5809559 0.3994438 0.8446354 0.70815367 1.0124773 0.4167324 0.40278155 0.42585772
0.17650293 0.37227666 0.9617373 0.515388 0.67802924 5.5371428 4.62486 7.0582595
2.4051676 4.112228 3.6658976 0.49611765 3.7254286 5.9679613 4.834334 4.501295
6.573906 2.5687592 5.069509 0.04080886 5.1469865 2.1764042 3.7725675 5.303035
4.7155914 7.467331 2.0973508 0.31763592 0.16966389 0.19293462 0.22659469 0.21788125
0.043954268 0.091086365 0.18225014 0.27328053 0.33195764 0.22436999 0.98577595 1.6871829
2.6190763 0.0008065665 1.8771946 1.3307129 0.44291937 0.6505375 2.7756739 2.0003715
1.1157415 1.3432724 1.4602214 1.4326174 0.87587917 0.72068274 0.354075 0.7311296
0.8749665 1.7055483 1.157725 0.9721087 1.1803573 0.9932071 1.9163485 0.43214235
3.0350765e-13 2.874171 0.70496315 2.149352 0.724357 1.3297503 2.280662 0.3942975
0.7371757 0.6304996 0.07406254 0.32445106 0.4512642 0.40779215 0.6229907 0.51326036
0.66584414 0.38428846 0.979072 0.7867633 0.8619033 0.46155912 0.3947705 0.73640126
0.10324856 1.3125967 0.12215839 0.9808918 0.41976646 0.96435636 0.46854287 1.3418652
0.42295855 0.8090669 0.88005894 7e-43 1.3174952 0.49000442 0.9556465 0.7605067
0.45758003 0.24866773 0.3902607 0.10212407 0.63149244 0.168404 0.0726228 0.65662706
0.19354339 0.45331848 0.35301074 0.8100194 1.4612479 1.0108804 0.006569888 1.2003684
0.06026586 0.846334 0.8037079 1.0802947 1.0206746 0.74270666 0.6814269 0.43575382
0.2885331 0.54999596 0.24060476 0.33765036 0.58147013 0.17736693 1.3877698 0.8028168
0.4682232 0.4922572 0.18363571 0.29210776 0.3825736 0.17824733 0.07894696 0.14184478
0.21020411 0.4512308 0.11341071 0.5429658 1.0218688 0.53420174 0.85357255 0.6442435
0.16558225 0.66452146 0.53977233 0.23788828 1.4674015 0.5341383 1.1084441 2.1373933e-18
1.2161154 0.9092658 0.45091072 0.47594047 0.00023933391 0.809811 0.27147278 1.0618438
1.504729e-14 1.5613242 2.888056 2.2511563 4.5167537 7e-43 2.6217499 3.3978002
0.17487705 1.5919164 4.152554 2.6591063 2.8060257 0.43953905 0.47092497 0.38305467
00000000: f2c1 4840 bca6 2040 261f ce3f 04fd 3340
00000010: f401 0000 63e2 3c3f 6763 c73f f6dc 1c3f
00000020: aa68 6a40 e8d5 3540 4035 0640 2d81 173e
00000030: 4933 f53d ec56 0a3e 8a4e b73d 962a 0e3d
00000040: cabe 933d 2415 ca3d f69e 043e 7e40 1b3e
00000050: d08f 203e 43b9 c83d 979d 8c3d 98a6 173f
00000060: 7f99 e53e fc94 ce3f fe07 af20 ad1c 4920
00000070: 5237 951a 403c 8f3f 842d de3e 682c cc3d
00000080: a491 0f3f ce5f 2a3f d365 e83e 51c5 273f
00000090: 7e1f e03e f9e6 c83e b467 8e3e 4864 9d3e
000000a0: 6b12 993e a797 713f fc7e 1f3f 3f04 1c3f
000000b0: 0000 0000 f401 0000 0000 0000 0000 0000
000000c0: 0000 0000 0000 0000 f401 0000 0000 0000
000000d0: f401 0000 0000 0000 0000 0000 b55e 803e
000000e0: a24f 1f3f 3eee df3e 1593 b43e 0090 db3d
000000f0: 09d3 223f 53d8 a93c 06ed 303f 2339 8f3e
00000100: 87b9 143f e683 cc3e 073a 583f 8f49 353f
00000110: db98 813f f35d d53e 6239 ce3e 060a da3e
00000120: 2fbd 343e 0c9b be3e 6a34 763f 78f0 033f
00000130: 5393 2d3f 4630 b140 dafe 9340 43dd e140
00000140: 44ee 1940 5f97 8340 119e 6a40 2203 fe3e
00000150: 6c6d 6e40 8af9 be40 ddb2 9a40 9c0a 9040
00000160: 705d d240 8d66 2440 6b39 a240 3127 273d
00000170: 1db4 a440 354a 0b40 bf71 7140 76b2 a940
00000180: 20e6 9640 60f4 ee40 ff3a 0640 2da1 a23e
00000190: 5fbc 2d3e a790 453e 7008 683e 431c 5f3e
000001a0: 6409 343d 7d8b ba3d c89f 3a3e 6deb 8b3e
000001b0: 5af6 a93e 3fc1 653e d05b 7c3f 9cf5 d73f
000001c0: f29e 2740 c36f 533a ea47 f03f cd54 aa3f
000001d0: 54c6 e23e a089 263f a4a4 3140 1606 0040
000001e0: 9ed0 8e3f 5af0 ab3f 89e8 ba3f 0260 b73f
000001f0: 9e39 603f aa7e 383f 5249 b53e 4f2b 3b3f
00000200: cefd 5f3f 684f da3f 5530 943f 1edc 783f
00000210: f315 973f d242 7e3f e84a f53f c341 dd3e
00000220: 10dc aa2a 6bf2 3740 7778 343f fc8e 0940
00000230: 766f 393f 4235 aa3f 5ef6 1140 5de1 c93e
00000240: 8cb7 3c3f 6c68 213f 1aae 973d 731e a63e
00000250: 1a0c e73e 22ca d03e 527c 1f3f 0865 033f
00000260: c374 2a3f 75c1 c43e 76a4 7a3f 5269 493f
00000270: b2a5 5c3f 7a51 ec3e 5c1f ca3e cb84 3c3f
00000280: fb73 d33d 2b03 a83f 2e2e fa3d ba1b 7b3f
00000290: a1eb d63e 0fe0 763f dae4 ef3e 3dc2 ab3f
000002a0: 068e d83e 021f 4f3f 8b4b 613f f401 0000
000002b0: afa3 a83f dce1 fa3e 40a5 743f 91b0 423f
000002c0: ee47 ea3e c1a2 7e3e 40d0 c73e 6d26 d13d
000002d0: 7da9 213f 1972 2c3e 43bb 943d b618 283f
000002e0: 3d30 463e 5c19 e83e d3bd b43e 6e5d 4f3f
000002f0: 2c0a bb3f 8764 813f 3748 d73b aca5 993f
00000300: 56d9 763d 58a9 583f cdbf 4d3f 1947 8a3f
00000310: 77a5 823f 0622 3e3f fe71 2e3f 201b df3e
00000320: 9cba 933e 89cc 0c3f 1861 763e 82e0 ac3e
00000330: 3adb 143f ad9f 353e 71a2 b13f 6785 4d3f
00000340: f4ba ef3e 2309 fc3e 000b 3c3e 268f 953e
00000350: b0e0 c33e 7886 363e f2ae a13d c23f 113e
00000360: bf3f 573e b907 e73e e043 e83d cfff 0a3f
00000370: 99cc 823f 72c1 083f bb83 5a3f 24ed 243f
00000380: 658e 293e 141e 2a3f 852e 0a3f fc98 733e
00000390: d0d3 bb3f 4abd 083f 7fe1 8d3f 38b6 1d22
000003a0: aba9 9b3f a5c5 683f c5dd e63e 78ae f33e
000003b0: b5f5 7a39 c64f 4f3f 7bfe 8a3e 7fea 873f
000003c0: b088 8728 79d9 c73f e9d5 3840 f212 1040
000003d0: 3f89 9040 f401 0000 c0ca 2740 8f75 5940
000003e0: f812 333e ebc3 cb3f b9e1 8440 cc2e 2a40
000003f0: ed95 3340 430b e13e 141d f13e be1f c43e
