groupe20/model_final.pth (torch, 28875 bytes, 12 tensors)

fc1.weight f4 [128, 11]
-0.9856217 -0.8275561 0.11134552 -1.7923772 -1.4883785 1.3157539 -2.0198996 -1.2314751
-1.6686457 1.2642517 -0.39416334 0.5252962 0.7915769 1.963335 0.010026356 0.20970598
0.12901431 0.0494321 2.0158057 1.727603 1.7849811 1.9388641 -2.223686 -0.016334698
-0.016758936 0.82277584 1.0878844 -1.6304071 -1.3661649 1.0107075 0.6482765 -3.0468822
-2.8257265 -1.6352268 0.12115811 -0.49033898 0.7250551 -1.5484631 -1.4968147 0.8840585
0.2756516 -2.373757 -2.1954699 0.056184165 0.6819367 0.10448727 0.17707983 -0.35385418
-1.3987209 1.4112679 -1.155351 -2.9976754 -0.6080102 0.6694054 -1.1395377 0.5107608
1.2881888 0.7895398 0.31494007 0.20816232 0.23605132 0.37447345 1.5326586 1.2542814
1.3313206 1.452293 -2.241419 -0.07458261 -1.1625345 -1.5145555 -1.4892802 0.6407527
1.2662066 -2.8186955 -3.146704 0.9130987 0.84222734 -0.29623836 0.87702215 -0.41100207
-3.1186619 1.3738295 0.7012193 -1.2408189 0.33156946 -1.0771762 1.2877346 -2.5556543
2.8622613 -0.05043327 -0.90841055 0.55597043 1.4316754 -0.02870909 -1.8849387 -0.6549998
-1.9006499 -0.013058196 1.580177 -0.32399508 -0.66379565 1.5654813 1.0999783 -1.0893238
-1.1123265 0.40181333 0.10442747 -0.67198586 1.2591147 -3.1569533 0.015160187 0.27905497
-2.3308144 0.43500027 -2.118152 0.93484926 -1.805052 -1.1144083 -0.6092948 -1.3817587
1.4402289 0.48974606 -1.7209398 0.48071098 -0.63202083 -0.81820124 -0.5564894 -0.5621654
0.41314 0.3391145 -0.80191946 0.29167783 -0.3322412 3.264599 -0.075119734 1.5704966
-1.5155234 -0.558554 0.47763884 -0.6793767 -0.12186006 -1.5540566 1.3988062 0.09492401
-0.32447854 -1.9813364 0.11982152 0.043945413 0.03398933 0.34342778 1.6476687 1.2351041
1.5028229 1.3313191 0.052322023 -0.109150305 -0.21156022 -0.04560092 -0.14401169 -0.19731557
-0.059105717 -0.23648879 -0.2558081 0.06615972 -0.09547751 -0.14997238 -0.07583664 -0.2742298
-0.20889893 -0.3134404 -0.29765287 -0.1566479 -0.17355655 -0.21155635 -0.2030557 -0.2380659
-1.0271791 -0.44245675 -1.4911419 0.19697651 0.14268105 -1.8370605 0.93652624 -0.2657103
-0.3424416 2.169567 -0.84084946 -0.024652123 -0.28265163 -0.13177922 0.08797199 -0.094648615
-0.2001516 -0.07378887 -0.18223213 -0.092686534 -0.287269 -0.09070707 0.01675907 -0.28577742
-0.09664859 -0.23519239 -0.00066054316 -0.29203284 -0.069492504 -0.018828452 -0.21577424 -0.26201418
0.055188034 -0.65110886 0.23437694 -1.128506 -0.33635253 -0.42652565 -0.91442126 0.1396805
0.00044119242 -0.17713398 0.23673402 -0.5280603 -1.4170299 0.6681904 -1.8915585 -1.8302392
-1.6288351 1.0874695 0.7025017 -1.7944561 -3.3072731 1.1155105 0.43797854 0.1695946
0.886563 1.0700026 0.28908536 0.28479344 0.15104699 0.10055494 1.5490402 1.4556253
1.3171873 1.4132279 2.8459406 0.37482712 0.66079164 0.85262495 -1.8786111 1.304684
-1.1628453 -0.05023267 1.733652 -0.85843533 1.206235 2.604175 0.28528377 -0.3758947
00000000: b451 7cbf b7da 53bf 1f09 e43d 9e6c e5bf
00000010: 3083 bebf a06a a83f 0946 01c0 faa0 9dbf
00000020: 2f96 d5bf 00d3 a13f c7cf c9be d079 063f
00000030: c9a4 4a3f 904e fb3f 9645 243c 2abd 563e
00000040: 541c 043e 5079 4a3d f602 0140 1822 dd3f
00000050: 437a e43f b32c f83f df50 0ec0 58d0 85bc
00000060: 094a 89bc 70a1 523f cc3f 8b3f 2eb1 d0bf
00000070: 7ede aebf dd5e 813f 73f5 253f 1e00 43c0
00000080: b4d8 34c0 1d4f d1bf be21 f83d b60d fbbe
00000090: 369d 393f 0a34 c6bf a097 bfbf a851 623f
000000a0: 3522 8d3e a2eb 17c0 9482 0cc0 5e21 663d
000000b0: 6793 2e3f 6cfd d53d 6a54 353e 602c b5be
000000c0: 4909 b3bf 6da4 b43f 8be2 93bf ead9 3fc0
000000d0: 8ea6 1bbf 275e 2b3f 5fdc 91bf 38c1 023f
000000e0: 5fe3 a43f 481f 4a3f d33f a13e 8128 553e
000000f0: 70b7 713e fcba bf3e 282e c43f 4b8c a03f
00000100: b768 aa3f bde4 b93f 6973 0fc0 c4be 98bd
00000110: eecd 94bf f4dc c1bf bca0 bebf 5e08 243f
00000120: 0f13 a23f 8265 34c0 9963 49c0 d6c0 693f
00000130: 369c 573f 8eac 97be 8684 603f dd6e d2be
00000140: 2898 47c0 a5d9 af3f 1c83 333f 27d3 9ebf
00000150: 79c3 a93e e9e0 89bf 7dd4 a43f d78f 23c0
00000160: 4a2f 3740 1e93 4ebd 988d 68bf 1454 0e3f
00000170: 2441 b73f 532f ebbc ac45 f1bf 11ae 27bf
00000180: 7f48 f3bf 0bf2 55bc 3d43 ca3f afe2 a5be
00000190: 83ee 29bf b161 c83f 17cc 8c3f f66e 8bbf
000001a0: b760 8ebf 7aba cd3e 12de d53d 4407 2cbf
000001b0: ac2a a13f 860b 4ac0 6f62 783c 4be0 8e3e
000001c0: 102c 15c0 5bb8 de3e cd8f 07c0 4852 6f3f
000001d0: f20b e7bf eea4 8ebf befa 1bbf 78dd b0bf
000001e0: 6c59 b83f ffbf fa3e c147 dcbf c01f f63e
000001f0: 1ecc 21bf a375 51bf 1776 0ebf 12ea 0fbf
00000200: 1687 d33e 6aa0 ad3e 984a 4dbf cc56 953e
00000210: 851b aabe 31ef 5040 60d8 99bd 0806 c93f
00000220: acfc c1bf 65fd 0ebf 148d f43e a2eb 2dbf
00000230: c491 f9bd 54eb c6bf 150c b33f 8567 c23d
00000240: 0d22 a6be 6e9c fdbf fc64 f53d 1b00 343d
00000250: 6538 0b3d c4d5 af3e cfe6 d23f e417 9e3f
00000260: 805c c03f aa68 aa3f 9e4f 563d 328a dfbd
00000270: 3ea3 58be 08c8 3abd cd77 13be 180d 4abe
00000280: d618 72bd 1e2a 72be 47f9 82be bf7e 873d
00000290: b689 c3bd 5c92 19be 3e50 9bbd d967 8cbe
000002a0: 9ae9 55be 437b a0be f565 98be 4f68 20be
000002b0: cfb8 31be 3aa2 58be d5ed 4fbe 8cc7 73be
000002c0: 9b7a 83bf b189 e2be bddd bebf 36b4 493e
000002d0: fb1a 123e cc24 ebbf 2fc0 6f3f 2e0b 88be
000002e0: 8154 afbe 30da 0a40 e941 57bf 40f3 c9bc
000002f0: b7b7 90be 22f1 06be a92a b43d 22d7 c1bd
00000300: 8bf4 4cbe 9e1e 97bd 0f9b 3abe 70d2 bdbd
00000310: ec14 93be a1c4 b9bd 514a 893c 6b51 92be
00000320: b2ef c5bd 46d6 70be 4d28 2dba 5485 95be
00000330: 1652 8ebd 203e 9abc ecf3 5cbe b926 86be
00000340: d90c 623d 12af 26bf 8200 703e e272 90bf
00000350: 6636 acbe 9261 dabe 8317 6abf 6808 0f3e
00000360: d84f e739 9c62 35be 676a 723e f62e 07bf
00000370: 3c61 b5bf 870e 2b3f 971e f2bf 4745 eabf
00000380: ab7d d0bf 3332 8b3f 27d7 333f bdb0 e5bf
00000390: 5daa 53c0 0cc9 8e3f b93e e03e 35aa 2d3e
000003a0: cbf5 623f d8f5 883f ff02 943e 72d0 913e
000003b0: 10ac 1a3e c0ef cd3d f346 c63f ee51 ba3f
000003c0: 9899 a83f a7e4 b43f e423 3640 57e9 bf3e
000003d0: a429 293f a145 5a3f 5476 f0bf e3ff a63f
000003e0: 1dd8 94bf c6c0 4dbd 4fe8 dd3f 6bc2 5bbf
000003f0: e965 9a3f ceaa 2640 b710 923e 4575 c0be

fc1.bias f4 [128]
0.087978885 -1.8184135 0.2818322 0.6447994 -0.57828045 -1.7250503 0.31349254 0.2346103
-0.08462789 -0.6893925 -0.16534638 -1.9150382 -0.14484078 -1.69471 -0.48884585 0.022410128
-0.35475227 -0.10546895 -0.24752852 -0.6347842 0.31878254 -1.9213717 -0.68320495 -0.42589644
-1.815439 -0.9514905 -0.2757265 -1.8047516 -0.8697585 -0.6275073 0.6252803 -0.18441682
-0.25627857 -1.4739352 -0.70950645 -0.13861573 -0.77973306 -1.3771163 -1.3751018 -0.45291355
-0.7296259 -0.9340782 -1.6549661 -0.21714687 -0.7245519 -0.2414998 -0.24182962 -1.4310888
-0.510041 -1.7630112 -1.8696178 -0.29072702 -0.4355881 0.24440014 -0.55738544 -0.22537911
-0.31211793 -0.51053244 -1.6170897 -1.5427086 -0.33337057 -0.7138041 -0.59848815 -0.644124
-0.3039938 -0.9980096 -0.6325639 0.33633947 -0.19840641 -1.3574847 -0.754658 -0.1596309
-0.52424985 -1.2081771 -0.49948314 -0.17964108 0.4921997 -1.4189636 -1.6791755 0.5518247
0.0070170397 -0.35036668 -0.44927263 -0.5345851 -0.93689466 -0.5275036 -0.9370147 -0.7614975
-1.3033482 -0.008023918 -1.3335385 -0.88491356 -2.2843256 -2.512998 0.2511183 -0.98923117
-0.44132715 0.12491001 -0.03678311 -0.36302826 -0.33098352 -0.01863314 -0.35063654 0.14843674
0.47748408 -0.44172826 -1.0240571 0.015935114 -1.536484 -1.3794423 -1.2983347 -0.8468226
-1.1779733 -1.0471507 -1.4389496 -1.7177831 -0.2715532 -0.07247737 -0.30972543 -1.5525132
-1.2541524 -0.9831753 -0.5003224 0.52971363 -2.0585966 0.026791638 -0.5716244 -0.29109812
00000000: 462e b43d c6c1 e8bf 4f4c 903e 9311 253f
00000010: 300a 14bf 73ce dcbf 1882 a03e af3d 703e
00000020: 6351 adbd 077c 30bf 9050 29be f91f f5bf
00000030: 2451 14be 42ec d8bf 014a fabe 7295 b73c
00000040: 17a2 b5be 1b00 d8bd 1e78 7dbe 3881 22bf
00000050: 7737 a33e 82ef f5bf 85e6 2ebf 190f dabe
00000060: 4e60 e8bf e294 73bf 062c 8dbe 1a02 e7bf
00000070: 7ea8 5ebf 52a4 20bf 5f12 203f c3d7 3cbe
00000080: f236 83be e9a9 bcbf 37a2 35bf 48f1 0dbe
00000090: 969c 47bf 5945 b0bf 5603 b0bf 49e4 e7be
000000a0: c3c8 3abf c01f 6fbf eed5 d3bf c05b 5ebe
000000b0: 3c7c 39bf b94b 77be 2fa2 77be eb2d b7bf
000000c0: 0c92 02bf 5aaa e1bf a34f efbf 2cda 94be
000000d0: 6705 dfbe 0844 7a3e d0b0 0ebf c8c9 66be
000000e0: eccd 9fbe 41b2 02bf ccfc cebf 7a77 c5bf
000000f0: 8caf aabe debb 36bf 8536 19bf 4fe5 24bf
00000100: 13a5 9bbe 8f7d 7fbf b5ef 21bf b034 ac3e
00000110: 0d2b 4bbe 0fc2 adbf 4431 41bf 4876 23be
00000120: 3d35 06bf 8ca5 9abf 41bc ffbe d5f3 37be
00000130: 9901 fc3e 99a0 b5bf 39ef d6bf 6244 0d3f
00000140: 32ef e53b 4363 b3be 1007 e6be 92da 08bf
00000150: 54d8 6fbf 7a0a 07bf 32e0 6fbf 80f1 42bf
00000160: 1dd4 a6bf c076 03bc 64b1 aabf b289 62bf
00000170: 6432 12c0 f6d4 20c0 9492 803e 413e 7dbf
00000180: a2f5 e1be d2d0 ff3d e3a9 16bd d7de b9be
00000190: ac76 a9be 87a4 98bc a286 b3be cdff 173e
000001a0: cb78 f43e 352a e2be 4e14 83bf 5b8a 823c
000001b0: 82ab c4bf 9191 b0bf d52f a6bf 5ec9 58bf
000001c0: d4c7 96bf 0909 86bf 802f b8bf 51e0 dbbf
000001d0: 0509 8bbe 046f 94bd 5594 9ebe c1b8 c6bf
000001e0: 1188 a0bf 60b1 7bbf 2115 00bf 509b 073f
000001f0: 0cc0 03c0 237a db3c fa55 12bf d00a 95be

fc2.weight f4 [3, 128]
0.71621877 -0.8774763 1.3686535 0.6906594 0.66617435 -0.43749025 1.794129 0.45709765
-1.2296603 0.11609174 -0.892463 0.10373833 0.24109621 -0.4169332 -0.16385026 0.09825912
-1.6808438 -0.08287453 -0.011569881 -0.3160435 1.3801671 -0.3873883 -1.5565931 -3.0582738
-0.006051309 -0.05757455 0.511966 0.45925987 -0.45704144 0.07672112 2.9793243 0.0513147
-1.2623549 -0.6216665 -0.08488975 -3.7243738 -0.5366995 -0.043619 -0.33893383 -0.09305609
-0.48868266 -0.58271754 -0.3833849 0.035284385 -0.031140223 -0.19425817 -0.07100874 0.010882809
-1.5560446 -0.6055979 -0.6564467 -0.96179175 -0.06988289 -0.037726607 0.12860177 0.16875581
0.08671465 -0.12657738 -0.09315523 0.14397691 -2.364608 -1.0185386 0.03541014 -0.20205493
-0.03714005 -1.2091838 -0.087367706 2.3520267 -2.2892928 -0.34306988 -0.24302126 -0.028593391
-0.1919519 -0.54725784 -0.36392587 -0.034044836 1.5856782 -0.48231387 -0.6388073 2.2555473
-2.6358423 -2.4320393 0.03258524 0.29031885 -0.22655235 -1.5696768 -0.15399596 0.016704964
-0.12334645 0.057071514 -0.5999485 -0.7351554 -0.5022401 -0.23018786 0.6693907 0.10046363
-1.6425692 0.22605318 -0.33705634 -0.11064246 -0.9070806 0.5466208 -0.00565949 0.2537025
2.4104786 -0.007937796 -0.14663222 1.0005502 -0.4367914 -0.28892428 -0.3230482 -1.1555606
-0.4395781 -0.9096007 0.00054578873 -0.8399212 -0.009658885 0.6672473 -1.7865663 -0.50704646
-0.30773416 -0.0915935 -0.87340045 3.244236 -0.740374 0.0024310146 -0.10002844 -0.157237
-0.54119384 -1.1759373 -0.87048995 0.30243027 0.51683116 -0.8020878 -2.9102488 -1.7473078
0.5435453 0.42459863 -1.1130786 0.117451414 -3.2092335 -1.2211782 -0.032901563 0.023752742
-0.24223298 -0.071939945 0.07880347 -0.23181416 -2.2557385 -0.74822867 -0.12997457 0.40607482
-0.113855526 -0.15017013 -2.413162 0.69670373 -0.24288632 0.38419738 -2.7603858 -2.0583565
0.69414485 -0.8905231 0.3916814 0.6324794 -0.3701459 -0.44778007 -0.75782084 -0.18372713
0.09942192 -2.1416123 -0.7784269 0.04658843 0.56253254 0.9214338 -0.053076033 -0.26277223
-0.76063824 -1.0975829 -1.1194186 -1.7441528 -1.7039636 0.71185833 0.8694931 0.4467337
-0.03384101 0.0017234266 -1.121965 0.049033113 0.5528454 -0.5754334 -0.026500547 -0.977847
-0.041962225 -0.6352625 -1.7545247 -2.576403 0.67565244 -0.019040667 -1.3884898 -0.08022434
0.5142925 -0.51985896 -0.34116405 0.040810034 -1.3302877 -0.67708826 -1.1750053 -0.9825369
0.564766 0.13388468 -1.9601449 0.6447225 -0.19635108 0.4082982 1.4688463 -2.4709768
-0.06775365 0.0032061636 0.20246552 -1.2486428 -0.9391111 -0.0224721 -1.4494876 -0.26312146
-1.1527821 1.0440111 0.28641936 -0.09048048 -1.0976087 0.5617866 -2.1149912 1.3861659
-3.4637456 -0.01536897 0.14739761 -3.4561436 -0.7159379 -0.5570999 -0.5605502 0.47684652
-0.81780875 -0.36989722 -0.01797127 -1.1154237 0.009066237 -1.4164153 0.109372996 -0.44838554
-0.88982564 0.030944511 -0.68423146 -3.2256172 -1.3068664 -3.4624665 -1.0852298 -0.10556914
00000000: 1d5a 373f 49a2 60bf 0a30 af3f 0ecf 303f
00000010: 678a 2a3f b9fe dfbe 05a6 e53f b408 ea3e
00000020: 8265 9dbf 82c1 ed3d 7578 64bf c374 d43d
00000030: ede1 763e 4578 d5be 5dc8 27be 143c c93d
00000040: e425 d7bf 1fba a9bd 998f 3dbc 74d0 a1be
00000050: 51a9 b03f c257 c6be 713e c7bf c2ba 43c0
00000060: 0f4a c6bb 4bd3 6bbd 3410 033f 1c24 eb3e
00000070: 5601 eabe f61f 9d3d 40ad 3e40 5d2f 523d
00000080: d894 a1bf 8925 1fbf adda adbd 245c 6ec0
00000090: 2365 09bf d6a9 32bd bc88 adbe 3194 bebd
000000a0: 9d34 fabe fa2c 15bf 074b c4be 5c86 103d
000000b0: c819 ffbc 9deb 46be 086d 91bd cf4d 323c
000000c0: 782c c7bf 7708 1bbf e40c 28bf fc37 76bf
000000d0: c31e 8fbd 3787 1abd 2fb0 033e 53ce 2c3e
000000e0: 7397 b13d 809d 01be 2bc8 bebd af6e 133e
000000f0: bd55 17c0 795f 82bf 390a 113d 7de7 4ebe
00000100: 2a20 18bd 89c6 9abf d7ed b2bd 9b87 1640
00000110: c683 12c0 dba6 afbe 91da 78be b03c eabc
00000120: 0a8f 44be 1719 0cbf 7e54 babe 9972 0bbd
00000130: 81f7 ca3f d8f1 f6be e088 23bf e35a 1040
00000140: a4b1 28c0 88a6 1bc0 1a78 053d aca4 943e
00000150: 57fd 67be 2beb c8bf 1eb1 1dbe d9d8 883c
00000160: 109d fcbd d2c3 693d 3a96 19bf 2533 3cbf
00000170: cf92 00bf 5eb6 6bbe 305d 2b3f e0bf cd3d
00000180: b53f d2bf 7c7a 673e a692 acbe 8498 e2bd
00000190: 6f36 68bf 57ef 0b3f 3e73 b9bb 4be5 813e
000001a0: 4845 1a40 880d 02bc c226 16be 0712 803f
000001b0: 1fa3 dfbe e2ed 93be 9366 a5be 69e9 93bf
000001c0: 6110 e1be 97db 68bf 4313 0f3a 1305 57bf
000001d0: 4d40 1ebc b8d0 2a3f 34ae e4bf cccd 01bf
000001e0: 558f 9dbe 5f95 bbbd 2c97 5fbf 90a1 4f40
000001f0: 2789 3dbf a851 1f3b b6db ccbd bc02 21be
00000200: ae8b 0abf 1d85 96bf 6ed8 5ebf 24d8 9a3e
00000210: 0c4f 043f a055 4dbf 8441 3ac0 c8a7 dfbf
00000220: c925 0b3f fe64 d93e 5c79 8ebf 5e8a f03d
00000230: 1564 4dc0 914f 9cbf cac3 06bd 1c95 c23c
00000240: ec0b 78be 4055 93bd b763 a13d b160 6dbe
00000250: 055e 10c0 ea8b 3fbf 0e18 05be 0ae9 cf3e
00000260: 162d e9bd 33c6 19be 3f71 1ac0 2d5b 323f
00000270: 31b7 78be 85b5 c43e 29aa 30c0 1dbc 03c0
00000280: 7ab3 313f 52f9 63bf 778a c83e 2cea 213f
00000290: c383 bdbe 6e43 e5be 8c00 42bf f722 3cbe
000002a0: b89d cb3d 2d10 09c0 fc46 47bf 82d3 3e3d
000002b0: 2202 103f 16e3 6b3f 4166 59bd 158a 86be
000002c0: 30b9 42bf 997d 8cbf 1c49 8fbf 6640 dfbf
000002d0: 7b1b dabf 593c 363f 1a97 5e3f 48ba e43e
000002e0: df9c 0abd 9ae4 e13a 8d9c 8fbf f2d6 483d
000002f0: 4787 0d3f 9a4f 13bf ad17 d9bc 2e54 7abf
00000300: 95e0 2bbd 90a0 22bf 4494 e0bf c9e3 24c0
00000310: 8ff7 2c3f 2cfb 9bbc 09ba b1bf a94c a4bd
00000320: aca8 033f 7a15 05bf 0ead aebe 6c28 273d
00000330: de46 aabf a855 2dbf 9366 96bf 8a87 7bbf
00000340: 8194 103f 1119 093e 07e6 fabf 890c 253f
00000350: 4210 49be 760c d13e 2803 bc3f 7c24 1ec0
00000360: 6dc2 8abd 801e 523b 1f53 4f3e 87d3 9fbf
00000370: 9669 70bf 6917 b8bc cf88 b9bf dbb7 86be
00000380: 5d8e 93bf 28a2 853f 8fa5 923e d44d b9bd
00000390: 717e 8cbf 3fd1 0f3f 045c 07c0 e26d b13f
000003a0: 02ae 5dc0 22ce 7bbc 66ef 163e 7531 5dc0
000003b0: b547 37bf 199e 0ebf 3880 0fbf 3a25 f43e
000003c0: ea5b 51bf 2b63 bdbe 7c38 93bc 34c6 8ebf
000003d0: 8e8a 143c 194d b5bf f3fe df3d ca92 e5be
000003e0: 9dcb 63bf 587f fd3c cb29 2fbf 8370 4ec0
000003f0: 6647 a7bf 0d99 5dc0 cfe8 8abf a234 d8bd

fc2.bias f4 [3]
0.37405208 -0.19109297 0.06501923
00000000: c183 bf3e e0ad 43be cd28 853d

exp_avg f4 [128, 11]
0.0025638135 -0.0002740998 -0.0025902668 6e-45 -2.6416558e-35 -0.08638599 6e-45 -0.004986078
-0.07289782 -0.08103161 -0.001239702 -1.0317872 -2.6901407 -0.83746624 0.10747446 -3.7652383
1.7539077 0.5173072 0.6064237 -2.0344055 0.049838338 -0.14690182 -9.167849e-21 1.6972555
-0.06650437 -0.11013509 1.7044429 6e-45 6e-45 -0.10701034 1.7013181 6e-45
6e-45 -0.0016571418 -0.0064935195 -0.26946416 -0.044630144 6e-45 6e-45 -0.24682185
-0.27859366 6e-45 6e-45 -0.16698483 0.0019467958 0.0036547154 -0.068907 0.00093510776
6e-45 -0.14095233 6e-45 6e-45 -0.13057439 -0.077023104 7.9692875e-35 -0.5272199
-1.5568488 -0.4093384 0.10651558 -2.0156531 0.9041916 0.3139998 0.3868208 -1.0813385
-0.018298723 -0.16222249 0.007003026 -0.0018486694 -0.008802528 6e-45 6e-45 -0.025555529
-0.031461596 6e-45 6e-45 -0.01789499 -0.039122153 0.58640146 1.1547211 0.019946732
6e-45 1.1177332 -0.06628624 0.042532988 0.028200222 1.0867747 -0.040480103 0.0018122416
0.4812842 -0.35619187 -1.0363773 -0.15223625 -0.6377361 -0.15997684 -0.0027273593 -0.29572114
-0.6595636 0.031039359 -1.2921526 0.014530742 -0.016136153 -0.090316504 0.029786624 -0.0052388743
-0.001351027 -0.09848093 -0.11691024 0.04944868 0.025297403 -6e-45 -0.00386686 -0.41606578
-8.860231e-06 -0.01435568 6e-45 -0.43581185 6e-45 -0.013274498 -0.43668085 6e-45
-0.4400594 6e-45 -6e-45 6e-45 -6e-45 6e-45 6e-45 6e-45
-6e-45 6e-45 6e-45 6e-45 -0.9447607 -2.6309297 -0.830338 1.120233
-2.4304538 0.72543406 -0.038751695 -0.044113938 -0.5706552 0.0044815484 -1.0416582 0.06719915
0.39322874 6e-45 -0.06531852 0.09445752 0.4206434 0.04259738 0.12978308 0.34915236
-0.0082785105 0.4699246 6e-45 0.0 0.0 0.0 0.0 0.0
6e-45 0.0 6e-45 6e-45 6e-45 6e-45 0.0 0.0
0.0 6e-45 6e-45 0.0 0.0 0.0 6e-45 0.0
-0.015070335 0.01670517 -0.014833642 -0.021761965 -0.0019895283 7.7413076e-36 -6.125388e-05 0.00012020802
-0.025903484 -0.023547273 6e-45 0.0 6e-45 6e-45 6e-45 0.0
0.0 6e-45 6e-45 6e-45 0.0 6e-45 6e-45 0.0
0.0 0.0 6e-45 0.0 0.0 0.0 6e-45 0.0
6e-45 -6e-45 6e-45 -6e-45 6e-45 6e-45 -6e-45 6e-45
6e-45 6e-45 6e-45 -6e-45 0.011879131 -0.013482773 -0.0045216503 0.0010570998
0.0017914735 -0.008756419 -0.0005092571 0.025918763 6e-45 0.029021848 -0.035438973 -0.5205363
-1.3967956 -0.3589376 0.08915469 -1.8514904 0.86686254 0.2712835 0.330879 -0.94701487
-0.021406295 -0.100348175 -0.3209658 -1.5163856 -1.9067364 -0.2710665 -1.9287562 0.69534975
-0.0067188037 0.13611302 -1.6516411 0.14672817 -1.514409 0.4928581 -5.9548426 -3.7079332
00000000: a705 283b 0db5 8fb9 77c1 29bb 0400 0000
00000010: 5b74 0c86 23eb b0bd 0400 0000 4162 a3bb
00000020: 744b 95bd e7f3 a5bd 7f7d a2ba 9a11 84bf
00000030: 442b 2cc0 3064 56bf 921b dc3d aaf9 70c0
00000040: 0c80 e03f 3f6e 043f 953e 1b3f b333 02c0
00000050: 4923 4c3d 6e6d 16be ff2c 2d9e ab3f d93f
00000060: 7133 88bd 828e e1bd 2f2b da3f 0400 0000
00000070: 0400 0000 3d28 dbbd cbc4 d93f 0400 0000
00000080: 0400 0000 7434 d9ba 97c7 d4bb 35f7 89be
00000090: 19ce 36bd 0400 0000 0400 0000 debe 7cbe
000000a0: d4a3 8ebe 0400 0000 0400 0000 12fe 2abe
000000b0: a12b ff3a f383 6f3b 1d1f 8dbd 0522 753a
000000c0: 0400 0000 cf55 10be 0400 0000 0400 0000
000000d0: 4bb5 05be 4abe 9dbd 29dc d306 e2f7 06bf
000000e0: d246 c7bf ce94 d1be d724 da3d 7600 01c0
000000f0: 1a79 673f 95c4 a03e 600d c63e 4d69 8abf
00000100: 34e7 95bc a71d 26be a479 e53b 0d4f f2ba
00000110: 7a38 10bc 0400 0000 0400 0000 d459 d1bc
00000120: e0dd 00bd 0400 0000 0400 0000 8498 92bc
00000130: 8d3e 20bd 681e 163f e7cd 933f 5467 a33c
00000140: 0400 0000 e211 8f3f 15c1 87bd 1237 2e3d
00000150: 2704 e73c 6f1b 8b3f 77ce 25bd bd88 ed3a
00000160: e26a f63e c85e b6be 03a8 84bf d2e3 1bbe
00000170: ac42 23bf f8d0 23be 7fbd 32bb c368 97be
00000180: 29d9 28bf 4146 fe3c 4265 a5bf 5912 6e3c
00000190: f72f 84bc dcf7 b8bd 1403 f43c ddaa abbb
000001a0: f214 b1ba 5fb0 c9bd a36e efbd b38a 4a3d
000001b0: 803c cf3c 0400 0080 256b 7dbb 9306 d5be
000001c0: 67a6 14b7 1634 6bbc 0400 0000 bb22 dfbe
000001d0: 0400 0000 487d 59bc a294 dfbe 0400 0000
000001e0: 774f e1be 0400 0000 0400 0080 0400 0000
000001f0: 0400 0080 0400 0000 0400 0000 0400 0000
00000200: 0400 0080 0400 0000 0400 0000 0400 0000
00000210: d6db 71bf 2761 28c0 0891 54bf cc63 8f3f
00000220: 8e8c 1bc0 0cb6 393f 19ba 1ebd d1b0 34bd
00000230: 7616 12bf f4d9 923b 0e55 85bf b59f 893d
00000240: 4755 c93e 0400 0000 b7c5 85bd f272 c13d
00000250: 925e d73e 977a 2e3d dbe5 043e 19c4 b23e
00000260: 97a2 07bc f599 f03e 0400 0000 0000 0000
00000270: 0000 0000 0000 0000 0000 0000 0000 0000
00000280: 0400 0000 0000 0000 0400 0000 0400 0000
00000290: 0400 0000 0400 0000 0000 0000 0000 0000
000002a0: 0000 0000 0400 0000 0400 0000 0000 0000
000002b0: 0000 0000 0000 0000 0400 0000 0000 0000
000002c0: 91e9 76bc 48d9 883c ce08 73bc 2646 b2bc
000002d0: bf62 02bb b0a3 2405 6d75 80b8 3018 fc38
000002e0: 8b33 d4bc 36e6 c0bc 0400 0000 0000 0000
000002f0: 0400 0000 0400 0000 0400 0000 0000 0000
00000300: 0000 0000 0400 0000 0400 0000 0400 0000
00000310: 0000 0000 0400 0000 0400 0000 0000 0000
00000320: 0000 0000 0000 0000 0400 0000 0000 0000
00000330: 0000 0000 0000 0000 0400 0000 0000 0000
00000340: 0400 0000 0400 0080 0400 0000 0400 0080
00000350: 0400 0000 0400 0000 0400 0080 0400 0000
00000360: 0400 0000 0400 0000 0400 0000 0400 0080
00000370: b0a0 423c d9e6 5cbc 5a2a 94bb 628e 8a3a
00000380: e0cf ea3a 1577 0fbc aa7f 05ba 9653 d43c
00000390: 0400 0000 3abf ed3c 7528 11bd de41 05bf
000003a0: 33ca b2bf abc6 b7be bc96 b63d a3fd ecbf
000003b0: b4ea 5d3f ace5 8a3e f968 a93e 916f 72bf
000003c0: 415c afbc 5883 cdbd a155 a4be ec18 c2bf
000003d0: f00f f4bf 3ac9 8abe 7ce1 f6bf 7102 323f
000003e0: 6929 dcbb 3661 0b3e fa68 d3bf e93f 163e
000003f0: 27d8 c1bf e657 fc3e 128e bec0 c74e 6dc0

exp_avg_sq f4 [128, 11]
0.20814826 1.1400473 0.4339737 3.7929116e-22 0.0015792336 17.635092 2.1947884e-36 5.1027822
4.8648148 19.330408 1.9568805 32.998127 14.127158 13.835353 70.15177 84.89512
72.30434 69.88003 78.55722 79.50727 78.027534 86.877174 1.1578274 4.8836126
3.9417412 59.153084 58.02316 1.1960749e-08 0.098016076 61.858025 58.663597 5.397744e-14
0.012208124 0.09730686 0.94530874 1.4162836 15.584623 6.6026e-41 2.5550763e-20 12.672758
15.735686 2.6111773e-19 4.575225e-05 19.24887 4.772718 5.277623 0.5667427 0.053884104
6.3050625e-15 18.61228 6.007821e-09 2.3001847e-09 7.67937 15.574702 2.785978 11.587979
3.8661644 5.768577 18.3309 18.584969 18.865368 21.794888 22.978373 24.29227
21.001717 22.93736 17.733479 5.6933475 1.4308075 2.5366355e-25 0.016467493 81.1121
112.547165 0.22231574 4.1062797e-20 90.14317 121.08048 20.629433 9.351794 4.208804
2.0325535e-11 43.7374 44.939053 15.1694355 38.853733 42.593685 52.491333 0.124048404
5.9479046 6.714693 2.953933 38.995693 45.847187 12.094064 1.074587 25.63427
24.357533 18.666243 77.63186 1.328041 1.4453149 0.8219986 4.4323497 0.18728402
0.009582764 14.832581 2.9385035 13.721793 18.437693 2.5777744e-12 2.7404063 1.4889054
0.0001032718 20.43703 1.6997245e-08 29.94581 3.0443982e-05 10.372293 27.231758 1.4273151e-05
33.599365 2.1698313e-35 3.1084e-41 2.1627129e-35 1.1486452e-38 4.5521094e-38 2.15924e-35 7.6242256e-38
2.1442354e-38 2.167587e-35 4.177e-42 2.171921e-35 53.840652 36.04519 38.433834 23.797539
10.140274 77.75737 27.60819 12.246576 91.55691 16.340748 107.7064 8.800056
1.2093434 3.9929844e-11 10.769999 9.301393 15.429174 31.042336 33.367317 22.00635
20.937325 19.499866 7e-43 0.0 0.0 0.0 0.0 0.0
7e-43 0.0 7e-43 7e-43 7e-43 7e-43 0.0 0.0
0.0 7e-43 7e-43 0.0 0.0 0.0 7e-43 0.0
0.146786 3.8613195 7.8255315 33.36038 46.208088 21.014788 9.049967 38.781166
50.738457 104.58244 1.596278e-15 0.0 7e-43 7e-43 7e-43 0.0
0.0 7e-43 7e-43 7e-43 0.0 7e-43 7e-43 0.0
0.0 0.0 7e-43 0.0 0.0 0.0 7e-43 0.0
7e-43 7e-43 7e-43 7e-43 7e-43 7e-43 7e-43 7e-43
7e-43 7e-43 7e-43 7e-43 14.260419 4.845863 0.16253464 0.017357703
0.044377152 64.67521 101.753845 43.5361 0.0013696589 92.00793 72.95263 7.532426
3.484785 4.8097043 10.577437 12.711675 12.183375 11.584273 16.332666 18.710796
16.237085 16.109688 1.7569355 8.529902 10.948919 71.69527 34.10625 47.82186
37.875374 88.0448 93.45972 44.187252 93.53123 5.313571 34.732098 28.316998
00000000: d124 553e 12ed 913f cd31 de3e 7744 e51b
00000010: 49fe ce3a ab14 8d41 42b6 3a04 fe49 a340
00000020: 90ac 9b40 ada4 9a41 0f7b fa3f 15fe 0342
00000030: d708 6241 9b5d 5d41 b54d 8c42 4dca a942
00000040: d29b 9042 93c2 8b42 4c1d 9d42 b903 9f42
00000050: 190e 9c42 1dc1 ad42 b033 943f 8e46 9c40
00000060: 7d45 7c40 c29c 6c42 b717 6842 ee7b 4d32
00000070: a7bc c83d 9e6e 7742 86a7 6a42 c017 7329
00000080: 9504 483c d248 c73d c1ff 713f c848 b53f
00000090: 9e5a 7941 0eb8 0000 f451 f11e 9ec3 4a41
000000a0: 5fc5 7b41 ff22 9a20 1be6 3f38 b0fd 9941
000000b0: 1bba 9840 4ae2 a840 0d16 113f 94b5 5c3d
000000c0: f029 e327 f3e5 9441 5a6d ce31 4711 1e31
000000d0: 66bd f540 fb31 7941 774d 3240 5d68 3941
000000e0: 3d6f 7740 2f98 b840 afa5 9241 04ae 9441
000000f0: 46ec 9641 ee5b ae41 b5d3 b741 9256 c241
00000100: 8403 a841 b77f b741 2ade 8d41 e72f b640
00000110: b324 b73f 9802 9d16 d6e6 863c 6539 a242
00000120: 2618 e142 bda6 633e e0e9 411f 4e49 b442
00000130: 3529 f242 1409 a541 f3a0 1541 86ae 8640
00000140: 09c9 b22d 19f3 2e42 97c1 3342 02b6 7241
00000150: 396a 1b42 ef5f 2a42 20f7 5142 170d fe3d
00000160: 3c55 be40 c4de d640 3d0d 3d40 97fb 1b42
00000170: 8563 3742 4981 4141 118c 893f fc12 cd41
00000180: 3adc c241 7754 9541 8343 9b42 3ffd a93f
00000190: 1400 b93f 806e 523f cfd5 8d40 62c7 3f3e
000001a0: 0601 1d3c 4052 6d41 7110 3c40 778c 5b41
000001b0: 6580 9341 0e65 352c d162 2f40 7494 be3f
000001c0: a093 d838 0a7f a341 5601 9232 0591 ef41
000001d0: f461 ff37 eaf4 2541 a4da d941 b776 6f37
000001e0: c065 0642 6dbc e605 a656 0000 a5fa e505
000001f0: 8e13 7d00 25d7 7701 1b9c e505 198d cf01
00000200: 8f7c e900 557f e605 a50b 0000 50f5 e605
00000210: d45c 5742 462e 1042 3fbc 1942 5c61 be41
00000220: 903e 2241 c683 9b42 93dd dc41 faf1 4341
00000230: 231d b742 dab9 8241 ad69 d742 08cd 0c41
00000240: c4cb 9a3f 029d 2f2e ea51 2c41 81d2 1441
00000250: e6dd 7641 b456 f841 2278 0542 010d b041
00000260: a47f a741 baff 9b41 f401 0000 0000 0000
00000270: 0000 0000 0000 0000 0000 0000 0000 0000
00000280: f401 0000 0000 0000 f401 0000 f401 0000
00000290: f401 0000 f401 0000 0000 0000 0000 0000
000002a0: 0000 0000 f401 0000 f401 0000 0000 0000
000002b0: 0000 0000 0000 0000 f401 0000 0000 0000
000002c0: 124f 163e dc1f 7740 c16a fa40 0771 0542
000002d0: 15d5 3842 491e a841 aacc 1041 ea1f 1b42
000002e0: 2ef4 4a42 362a d142 430c e626 0000 0000
000002f0: f401 0000 f401 0000 f401 0000 0000 0000
00000300: 0000 0000 f401 0000 f401 0000 f401 0000
00000310: 0000 0000 f401 0000 f401 0000 0000 0000
00000320: 0000 0000 0000 0000 f401 0000 0000 0000
00000330: 0000 0000 0000 0000 f401 0000 0000 0000
00000340: f401 0000 f401 0000 f401 0000 f401 0000
00000350: f401 0000 f401 0000 f401 0000 f401 0000
00000360: f401 0000 f401 0000 f401 0000 f401 0000
00000370: ad2a 6441 4f11 9b40 7b6f 263e be31 8e3c
00000380: d1c4 353d b559 8142 f881 cb42 f724 2e42
00000390: 2086 b33a 0f04 b842 bfe7 9142 a209 f140
000003a0: b806 5f40 19e9 9940 2f3d 2941 0563 4b41
000003b0: 1bef 4241 2f59 3941 4da9 8241 b6af 9541
000003c0: 8de5 8141 a4e0 8041 43e3 e03f 7b7a 0841
000003d0: c62e 2f41 fa63 8f42 cd6c 0842 9649 3f42
000003e0: 6280 1742 f016 b042 60eb ba42 bfbf 3042
000003f0: fd0f bb42 c608 aa40 abed 0a42 3689 e241

exp_avg f4 [128]
-0.08638599 -1.3865486 1.5943077 -0.29145184 -0.14001724 -0.69094646 -0.057016816 1.0939794
-0.9526765 -0.07528418 -0.45016745 6e-45 -0.623539 0.49237958 6e-45 6e-45
-0.023812834 6e-45 6e-45 6e-45 -0.0064167413 -0.62419 -1.5111922 -7.5831647
6e-45 6e-45 0.008615435 -0.002961806 -0.034464255 -0.098141715 6.5826526 0.28329808
-1.2800627 -0.19078828 -0.15192923 -3.4048388 -1.0338904 6e-45 -0.51116157 6e-45
-0.50448 -0.7709981 -0.5607517 0.0 0.0077318824 2.561791 0.0 6e-45
-1.6590049 -0.9632652 -1.094604 -0.7323442 0.011948418 0.6398981 0.086810544 -0.07452052
6e-45 6e-45 6e-45 -0.0042958925 0.021985505 -0.054977946 2.0309107 -1.234549
6e-45 -0.038310867 0.007580074 5.493861 -0.8767924 6e-45 6e-45 6e-45
-0.3551825 -0.07322009 -0.004512197 6e-45 2.5155385 -0.7959656 -1.0760549 1.4333376
0.5329184 -0.7309425 -1.291933 1.0431584 -0.29074407 0.0333937 6e-45 6e-45
0.3627253 0.0 -0.010775409 -1.0300151 6e-45 6e-45 1.182875 6e-45
-0.14697029 -0.26678014 1.0616152 6e-45 -1.0442158 -0.08287853 0.17955774 1.0243988
3.7976186 6e-45 -0.34724826 -0.016345747 0.59180146 -0.027690165 6e-45 -0.24663211
0.052191205 -0.6947306 6e-45 -1.3474939 6e-45 0.016191768 -0.5122128 0.0016651637
-0.79572874 6e-45 -2.18994 1.6126729 -1.2405488 -2.8493376 -0.5061558 6e-45
00000000: 23eb b0bd 6d7a b1bf 4612 cc3f 2d39 95be
00000010: ae60 0fbe dee1 30bf 778a 69bd 8407 8c3f
00000020: 9be2 73bf 982e 9abd 597c e6be 0400 0000
00000030: 40a0 1fbf 2d19 fc3e 0400 0000 0400 0000
00000040: 2213 c3bc 0400 0000 0400 0000 0400 0000
00000050: 8743 d2bb eaca 1fbf bf6e c1bf 49a9 f2c0
00000060: 0400 0000 0400 0000 c127 0d3c dc1a 42bb
00000070: 642a 0dbd 86fe c8bd 17a5 d240 720c 913e
00000080: 18d9 a3bf 015e 43be 5693 1bbe e1e8 59c0
00000090: 8556 84bf 0400 0000 7cdb 02bf 0400 0000
000000a0: 9a25 01bf 2260 45bf 6c8d 0fbf 0000 0000
000000b0: bb5b fd3b 62f4 2340 0000 0000 0400 0000
000000c0: 465a d4bf 8c98 76bf fc1b 8cbf e97a 3bbf
000000d0: 4cc3 433c 5dd0 233f bac9 b13d 379e 98bd
000000e0: 0400 0000 0400 0000 0400 0000 8fc4 8cbb
000000f0: f21a b43c 8e30 61bd 71fa 0140 b405 9ebf
00000100: 0400 0000 dbeb 1cbd 4562 f83b b6cd af40
00000110: 7775 60bf 0400 0000 0400 0000 0400 0000
00000120: 7bda b5be 6af4 95bd 0ddb 93bb 0400 0000
00000130: 95fe 2040 67c4 4bbf 2bbc 89bf 9b77 b73f
00000140: 576d 083f 0c1f 3bbf 0f5e a5bf 3786 853f
00000150: 68dc 94be d5c7 083d 0400 0000 0400 0000
00000160: 21b7 b93e 0000 0000 578b 30bc 89d7 83bf
00000170: 0400 0000 0400 0000 7368 973f 0400 0000
00000180: 617f 16be 6897 88be 02e3 873f 0400 0000
00000190: dda8 85bf 38bc a9bd fcdd 373e 801f 833f
000001a0: 2f0c 7340 0400 0000 86ca b1be 84e7 85bc
000001b0: 4d80 173f 7cd6 e2bc 0400 0000 218d 7cbe
000001c0: 72c6 553d ddd9 31bf 0400 0000 ae7a acbf
000001d0: 0400 0000 99a4 843c 6120 03bf 9f41 da3a
000001e0: e1b4 4bbf 0400 0000 fa27 0cc0 116c ce3f
000001f0: 4eca 9ebf 8c5b 36c0 6d93 01bf 0400 0000

exp_avg_sq f4 [128]
17.636656 81.185936 117.3932 25.239279 18.631643 36.42707 193.71625 96.850914
98.39135 19.150196 51.172287 2.1725436e-35 127.753204 54.690823 7e-43 7e-43
104.23715 7e-43 7e-43 7e-43 165.75407 31.393589 157.359 731.85175
8.046827e-06 7e-43 24.340776 3.0821152 3.4682634 17.859123 1209.4891 145.09998
170.73024 76.16028 2.8940744 1071.8005 23.870548 1.1808361e-08 29.145422 7e-43
12.922621 59.594585 38.791176 0.0 7.8872976 47.073307 0.0 4.791572e-20
120.08805 69.8512 66.85623 248.28835 63.345913 375.06952 16.934267 2.6056657
7e-43 7e-43 3.3325027e-15 0.15637997 242.86397 48.519733 7.1159124 35.879093
7e-43 25.664284 3.600048 770.935 398.23923 3.3286252e-20 5.566146e-37 7e-43
32.10549 0.6986183 1.9629215 7e-43 275.34125 40.068687 63.464016 608.948
386.7735 190.00284 49.032616 12.506788 2.441173 135.26915 7.5018374e-07 9.817521e-18
4.383407 0.0 0.15404744 47.575718 2.7000485e-32 1.9907651e-14 96.215836 2.0151238e-09
78.2218 355.27454 4.1461477 7e-43 47.75083 24.284472 44.715233 104.72437
820.39075 7e-43 1.0062691 69.34729 96.85071 26.19854 7e-43 11.867792
23.85496 65.64229 1.6696843e-09 81.76014 7e-43 28.124563 107.66538 0.02649916
33.60502 4.0186343e-33 47.02542 1916.5302 105.16522 153.33176 11.963983 7e-43
00000000: df17 8d41 335f a242 52c9 ea42 0bea c941
00000010: 9b0d 9541 52b5 1142 5cb7 4143 abb3 c142
00000020: 5fc8 c442 9a33 9941 6cb0 4c42 4306 e705
00000030: a481 ff42 67c3 5a42 f401 0000 f401 0000
00000040: 6c79 d042 f401 0000 f401 0000 f401 0000
00000050: 0bc1 2543 1226 fb41 e75b 1d43 83f6 3644
00000060: dc00 0737 f401 0000 e9b9 c241 6041 4540
00000070: 07f8 5d40 7cdf 8e41 a72f 9744 9819 1143
00000080: f1ba 2a43 1052 9842 8438 3940 9ef9 8544
00000090: e2f6 be41 b9dd 4a32 d329 e941 f401 0000
000000a0: 0ec3 4e41 db60 6e42 2a2a 1b42 0000 0000
000000b0: be64 fc40 114b 3c42 0000 0000 8d46 621f
000000c0: 152d f042 d0b3 8b42 64b6 8542 d149 7843
000000d0: 3762 7d42 e688 bb43 6179 8741 3ac3 2640
000000e0: f401 0000 f401 0000 d321 7027 1222 203e
000000f0: 2ddd 7243 3514 4242 8eb5 e340 3184 0f42
00000100: f401 0000 7450 cd41 3067 6640 d7bb 4044
00000110: 9f1e c743 9c30 1d1f f867 3d03 f401 0000
00000120: 066c 0042 a6d8 323f 0341 fb3f f401 0000
00000130: aeab 8943 5646 2042 27db 7d42 ac3c 1844
00000140: 0263 c143 ba00 3e43 6621 4442 ce1b 4841
00000150: 2e3c 1c40 e744 0743 3c60 4935 ef19 3523
00000160: df44 8c40 0000 0000 9dbe 1d3e 894d 3e42
00000170: cd31 0c0b eb4f b328 826e c042 6f7a 0a31
00000180: 9071 9c42 24a3 b143 3ead 8440 f401 0000
00000190: da00 3f42 9946 c241 66dc 3242 e172 d142
000001a0: 0219 4d44 f401 0000 6dcd 803f d0b1 8a42
000001b0: 90b3 c142 9c96 d141 f401 0000 7ae2 3d41
000001c0: f5d6 be41 da48 8342 cb7a e530 3185 a342
000001d0: f401 0000 1bff e041 ad54 d742 c414 d93c
000001e0: 8a6b 0642 73ed a609 081a 3c42 f790 ef44
000001f0: 9854 d242 ee54 1943 796c 3f41 f401 0000

exp_avg f4 [3, 128]
-0.13341337 5.926528 2.4878607 -0.39762238 -0.10506414 4.4718738 -0.0711816 1.6680684
0.4082773 -0.117072016 0.005092868 -6e-45 5.059362 0.13287708 6e-45 -6e-45
0.003763406 -6e-45 6e-45 -6e-45 -0.060479507 4.1047077 2.1806993 2.5185058
6e-45 6e-45 -0.01924889 -0.0009899109 0.30829632 -0.5706012 4.4117017 0.11795585
2.530809 3.438512 -0.0010362301 -0.36748832 3.8621597 6e-45 4.214793 6e-45
1.8661299 1.9789455 4.426157 0.0 -0.0013207681 0.14592156 0.0 6e-45
0.56987715 5.4707 6.4794693 0.13025881 3.3744874 7.714276 -0.042732786 -0.028283153
0.0 6e-45 6e-45 0.00068583596 0.0040053832 0.020619808 8.095857e-05 3.2624102
6e-45 0.002280283 -0.005116885 4.2107244 -0.019658515 -6e-45 -6e-45 0.0
0.5627304 0.12841484 -0.0014728619 6e-45 1.3731074 2.414877 6.9286566 -0.5632932
0.66862255 0.4211765 9.971229 2.9323294 -0.013449885 -0.07812569 6e-45 -6e-45
1.042354 0.0 -0.0022146218 0.36724675 6e-45 6e-45 1.7888556 -6e-45
0.52084935 -0.51272535 0.45788643 6e-45 0.7952795 -0.16910273 3.2564647 -0.47442704
2.505567 -6e-45 1.2921997 -0.041057125 2.140932 1.9384584 -6e-45 0.22693683
0.32970977 4.257594 -6e-45 6.0247846 -6e-45 -0.03010827 0.44681403 -0.0013361193
0.2663711 6e-45 2.3255625 -0.70948994 5.351523 4.4511533 1.273395 6e-45
-0.0081497505 1.4114007 -3.4213982e-34 -0.2904761 -0.042472538 1.5609941 -0.0001943103 -0.022317426
1.2387344 -0.17266032 0.017487483 -6e-45 1.5156045 -0.13660091 6e-45 0.0
0.017617902 6e-45 -6e-45 6e-45 -0.009621986 1.3081479 -0.40109268 2.6626217
-6e-45 6e-45 -5.8939236e-07 -0.001816459 -0.16041611 -0.79904944 0.02332887 -0.04840421
1.361839 0.6313823 -0.47843355 -1.5174779 1.3068895 -6e-45 1.1460155 6e-45
-0.2229398 0.017733617 1.2687781 0.0 0.0032951941 -1.2875049 0.0 6e-45
0.2473275 1.7369576 2.0786228 -0.029441671 -0.027440857 1.1832547 0.094117925 -0.0019323044
6e-45 6e-45 -6e-45 -0.023723204 -0.21100067 -0.015397845 -0.23673116 1.2929832
0.0 0.009482969 2.2984922e-35 0.006754198 -2.475994 6e-45 -6e-45 6e-45
-0.7432774 -0.009974321 -6e-45 6e-45 0.0010975406 1.060106 2.41953 -0.11896586
-0.007111211 -1.1408541 3.9527977 1.4557748 1.0388955 -0.92115736 -6e-45 6e-45
-0.8527728 0.0 -0.021783032 0.10930785 6e-45 -6e-45 -0.0044839447 6e-45
-0.19526975 -0.739655 -0.035627082 6e-45 -0.03564819 -0.021389637 0.0030122767 -1.0223993
0.023363212 6e-45 1.7479151 0.008012464 -0.7209534 0.09582576 -6e-45 -0.16271375
-0.21713856 1.8926516 -6e-45 1.4756795 6e-45 -0.004747138 -1.0439944 6e-45
0.5541189 -6e-45 1.705401 -0.029556599 1.7111335 0.44828236 0.31152314 6e-45
00000000: 849d 08be 1ea6 bd40 1c39 1f40 2995 cbbe
00000010: de2b d7bd 9719 8f40 a9c7 91bd 4483 d53f
00000020: b909 d13e 74c3 efbd 13e2 a63b 0400 0080
00000030: 4be6 a140 ee10 083e 0400 0000 0400 0080
00000040: 7aa3 763b 0400 0080 0400 0000 0400 0080
00000050: 5cb9 77bd c459 8340 9490 0b40 332f 2140
00000060: 0400 0000 0400 0000 d9af 9dbc e6bf 81ba
00000070: 04d9 9d3e ec12 12bf a92c 8d40 d692 f13d
00000080: c6f8 2140 9510 5c40 1dd2 87ba 6e27 bcbe
00000090: a02d 7740 0400 0000 96df 8640 0400 0000
000000a0: 58dd ee3f 164e fd3f 14a3 8d40 0000 0000
000000b0: a01d adba 766c 153e 0000 0000 0400 0000
000000c0: 78e3 113f f90f af40 d057 cf40 9162 053e
000000d0: 9af7 5740 59db f640 9308 2fbd 12b2 e7bc
000000e0: 0000 0000 0400 0000 0400 0000 acc9 333a
000000f0: 973f 833b dfea a83c 4dc8 a938 54cb 5040
00000100: 0400 0000 cd70 153b 8bab a7bb 41be 8640
00000110: e50a a1bc 0400 0080 0400 0080 0000 0000
00000120: 190f 103f 2e7f 033e 0b0d c1ba 0400 0000
00000130: fcc1 af3f 588d 1a40 8eb7 dd40 fc33 10bf
00000140: d92a 2b3f 72a4 d73e 278a 1f41 49ab 3b40
00000150: e85c 5cbc 5d00 a0bd 0400 0000 0400 0080
00000160: db6b 853f 0000 0000 3023 11bb c407 bc3e
00000170: 0400 0000 0400 0000 38f9 e43f 0400 0080
00000180: 6256 053f f841 03bf 1770 ea3e 0400 0000
00000190: 7097 4b3f 4429 2dbe eb69 5040 1ae8 f2be
000001a0: 365b 2040 0400 0080 cd66 a53f 842b 28bd
000001b0: 0805 0940 681f f83f 0400 0080 2162 683e
000001c0: b8cf a83e 363e 8840 0400 0080 09cb c040
000001d0: 0400 0080 9ea5 f6bc cfc4 e43e b920 afba
000001e0: cb61 883e 0400 0000 04d6 1440 22a1 35bf
000001f0: ad3f ab40 d96f 8e40 9bfe a23f 0400 0000
00000200: 8886 05bc c7a8 b43f 1364 e387 49b9 94be
00000210: aff7 2dbd a8ce c73f c6bf 4bb9 09d3 b6bc
00000220: d98e 9e3f decd 30be e941 8f3c 0400 0080
00000230: 54ff c13f 1ce1 0bbe 0400 0000 0000 0000
00000240: 6b53 903c 0400 0000 0400 0080 0400 0000
00000250: 89a5 1dbc 6471 a73f 055c cdbe 6568 2a40
00000260: 0400 0080 0400 0000 bc36 1eb5 4016 eeba
00000270: 1f44 24be 818e 4cbf 301c bf3c 7e43 46bd
00000280: be50 ae3f 45a2 213f 3ef5 f4be b73c c2bf
00000290: 2848 a73f 0400 0080 a3b0 923f 0400 0000
000002a0: 554a 64be 1746 913c 5267 a23f 0000 0000
000002b0: 2ff4 573b f6cc a4bf 0000 0000 0400 0000
000002c0: 6c43 7d3e a054 de3f 2808 0540 a92f f1bc
000002d0: a6cb e0bc e474 973f e6c0 c03d 6045 fdba
000002e0: 0400 0000 0400 0000 0400 0080 2a57 c2bc
000002f0: 8f10 58be 3e47 7cbc a769 72be 7980 a53f
00000300: 0000 0000 745e 1b3c e96a f405 5252 dd3b
00000310: b076 1ec0 0400 0000 0400 0080 0400 0000
00000320: 6d47 3ebf 566b 23bc 0400 0080 0400 0000
00000330: 5adb 8f3a 8eb1 873f 94d9 1a40 5fa4 f3bd
00000340: 2905 e9bb 8207 92bf a3fa 7c40 d456 ba3f
00000350: 87fa 843f f8d0 6bbf 0400 0080 0400 0000
00000360: 514f 5abf 0000 0000 5472 b2bc cbdc df3d
00000370: 0400 0000 0400 0080 0eee 92bb 0400 0000
00000380: cbf4 47be 085a 3dbf b4ed 11bd 0400 0000
00000390: d603 12bd 5239 afbc 9e69 453b fbdd 82bf
000003a0: 3564 bf3c 0400 0000 afbb df3f b646 033c
000003b0: 6790 38bf 4c40 c43d 0400 0080 6f9e 26be
000003c0: 9259 5ebe 6842 f23f 0400 0080 11e3 bc3f
000003d0: 0400 0000 e18d 9bbb 9ca1 85bf 0400 0000
000003e0: bcda 0d3f 0400 0080 944a da3f ae20 f2bc
000003f0: 6c06 db3f 4485 e53e f67f 9f3e 0400 0000

exp_avg_sq f4 [3, 128]
174.77701 483.1207 263.30716 157.31108 53.87489 225.0504 238.10075 256.56696
36.947315 70.3473 21.209085 1.3076046e-37 221.80981 145.23517 7e-43 7e-43
80.43152 7e-43 7e-43 7e-43 211.97139 185.96947 106.72053 157.71645
1.4086321e-06 7e-43 41.60267 0.3865097 13.756259 20.987318 716.8161 194.76106
72.90204 272.78094 0.010396459 175.58081 104.91551 6.9026407e-10 178.74243 7e-43
33.991894 52.068417 192.8577 0.0 0.093453534 7.04642 0.0 2.0482116e-20
14.413046 273.03735 298.25113 188.5279 17.824856 264.1245 2.241272 5.5760202
0.0 7e-43 4.8083916e-16 0.39111957 189.81305 40.71032 0.2511864 108.698586
7e-43 16.697817 0.19516079 643.9528 46.293087 1.30602745e-30 1.690125e-37 0.0
9.349291 0.20979804 0.3766263 7e-43 333.14178 156.01291 337.3031 500.2784
101.506195 123.384964 163.66531 13.516509 3.1696844 21.719957 9.586263e-16 4.91961e-16
11.589655 0.0 0.023057917 4.2596073 8.0276e-34 2.8030806e-18 191.15503 3.3333535e-08
80.61019 419.05405 0.31528053 7e-43 14.898708 96.14206 37.18594 310.10535
621.2152 7e-43 0.74251294 271.03357 295.59607 179.77408 7e-43 2.6056747
29.17674 121.59102 4.9562408e-09 463.83105 7e-43 103.338905 100.32799 0.010572643
82.77033 3.4110457e-32 192.54646 967.8932 293.54483 34.798603 38.424496 7e-43
2.2076337 212.54381 0.056053083 52.932003 8.22081 96.5083 0.20665526 8.418125
234.61829 73.49974 15.100599 8.4058516e-35 26.218864 25.123554 7e-43 0.0
85.660545 7e-43 7e-43 7e-43 1.5478581 77.433655 360.3017 380.9316
1.9820864e-06 7e-43 0.00082710944 4.035577 20.519253 77.77583 19.220224 10.593466
251.56268 127.427956 9.18641 492.69443 212.50514 4.1664934e-09 68.816795 7e-43
102.24954 17.561583 87.30834 0.0 10.759791 61.510357 0.0 1.4467055e-24
59.335335 118.541176 141.41588 31.566141 3.0284312 225.41528 36.43616 5.154157
7e-43 7e-43 1.6580427e-22 1.5004529 236.34656 87.668686 4.566636 20.532576
0.0 28.478092 4.5312785e-08 17.77337 300.37317 4.501312e-21 3.7208642e-38 7e-43
40.684063 0.9368966 4.1941334e-05 7e-43 0.72763354 75.03639 144.43282 15.244615
332.8528 222.58955 41.206306 39.91585 17.626776 160.42404 8.491724e-20 5.7038317e-25
23.584394 0.0 0.6471285 10.579901 2.4557925e-34 2.3438083e-14 2.7428691 1.7700132e-13
72.41455 352.08328 14.465337 7e-43 15.962466 21.99989 3.2208834 208.55377
13.5111475 7e-43 8.435416 8.5886755 98.32684 80.80908 7e-43 46.845722
16.07123 196.34491 1.2870717e-09 194.41368 7e-43 1.4775814 159.82188 4.3965456e-11
23.61368 1.7281558e-33 248.53735 49.27284 117.79587 12.968556 13.650325 7e-43
00000000: eac6 2e43 738f f143 51a7 8343 a34f 1d43
00000010: e37f 5742 e70c 6143 cb19 6e43 9248 8043
00000020: 0dca 1342 d1b1 8c42 35ac a941 5ffb 3102
00000030: 50cf 5d43 343c 1143 f401 0000 f401 0000
00000040: f0dc a042 f401 0000 f401 0000 f401 0000
00000050: adf8 5343 2ff8 3943 e970 d542 69b7 1d43
00000060: 3b10 bd35 f401 0000 2269 2642 99e4 c53e
00000070: a319 5c41 07e6 a741 3b34 3344 d5c2 4243
00000080: d8cd 9142 f663 8843 e955 2a3c b094 2f43
00000090: bed4 d142 04bd 3d30 10be 3243 f401 0000
000000a0: b3f7 0742 0f46 5042 92db 4043 0000 0000
000000b0: 9164 bf3d 467c e140 0000 0000 b872 c11e
000000c0: d69b 6641 c884 8843 2520 9543 2487 3c43
000000d0: 4e99 8e41 f00f 8443 0071 0f40 c26e b240
000000e0: 0000 0000 f401 0000 ab97 0a26 d340 c83e
000000f0: 24d0 3d43 5ed7 2242 819b 803e ad65 d942
00000100: f401 0000 2195 8541 3bd8 473e fbfc 2044
00000110: 1f2c 3942 42ea d30d 430c 6602 0000 0000
00000120: b296 1541 4cd5 563e 2ad5 c03e f401 0000
00000130: 2692 a643 4e03 1c43 cca6 a843 a323 fa43
00000140: 2c03 cb42 1ac5 f642 52aa 2343 9f43 5841
00000150: 1cdc 4a40 79c2 ad41 1127 8a26 51cc 0d26
00000160: 3a6f 3941 0000 0000 f5e3 bc3c b44e 8840
00000170: a261 8508 b2d4 4e22 b027 3f43 9c2a 0f33
00000180: 6b38 a142 eb86 d143 736c a13e f401 0000
00000190: 1c61 6e41 bc48 c042 67be 1442 7c0d 9b43
000001a0: c64d 1b44 f401 0000 5415 3e3f 4c84 8743
000001b0: 4ccc 9343 2ac6 3343 f401 0000 60c3 2640
000001c0: f769 e941 9a2e f342 8e4b aa31 60ea e743
000001d0: f401 0000 85ad ce42 eea7 c842 e138 2d3c
000001e0: 698a a542 931c 310b e58b 4043 2af9 7144
000001f0: bdc5 9243 c531 0b42 afb2 1942 f401 0000
00000200: df49 0d40 378b 5443 eb97 653d 5fba 5342
00000210: 7088 0341 4004 c142 709d 533e a4b0 0641
00000220: 489e 6a43 deff 9242 0e9c 7141 4377 df06
00000230: 3cc0 d141 0afd c841 f401 0000 0000 0000
00000240: 3352 ab42 f401 0000 f401 0000 f401 0000
00000250: 3720 c63f 08de 9a42 9e26 b443 3f77 be43
00000260: fc03 0536 f401 0000 60d2 583a 7223 8140
00000270: 6e27 a441 3a8d 9b42 05c3 9941 d67e 2941
00000280: 0c90 7b43 1ddb fe42 89fb 1241 e358 f643
00000290: 5181 5443 dd28 8f31 33a2 8942 f401 0000
000002a0: c47f cc42 1f7e 8c41 df9d ae42 0000 0000
000002b0: 1b28 2c41 9b0a 7642 0000 0000 e9dd df17
000002c0: 6257 6d42 1515 ed42 776a 0d43 7587 fc41
000002d0: d1d1 4140 506a 6143 a1be 1142 dbee a440
000002e0: f401 0000 f401 0000 f071 481b d70e c03f
000002f0: b858 6c43 5e56 af42 e221 9240 b742 a441
00000300: 0000 0000 22d3 e341 ef9d 4233 dd2f 8e41
00000310: c42f 9643 050e aa1d 4795 4a01 f401 0000
00000320: 7bbc 2242 75d8 6f3f 2aea 2f38 f401 0000
00000330: 3146 3a3f a212 9642 cd6e 1043 f1e9 7341
00000340: 296d a643 ed96 5e43 42d3 2442 d5a9 1f42
00000350: a303 8d41 8e6c 2043 5281 c81f 6986 3017
00000360: d7ac bc41 0000 0000 37aa 253f 4647 2941
00000370: 2537 a307 8a1c d328 2b8b 2f40 2849 472a
00000380: 40d4 9042 a90a b043 0572 6741 f401 0000
00000390: 4366 7f41 c6ff af41 f422 4e40 c48d 5043
000003a0: a92d 5841 f401 0000 77f7 0641 376b 0941
000003b0: 58a7 c442 409e a142 f401 0000 0562 3b42
000003c0: e191 8041 4c58 4443 cfe4 b030 e769 4243
000003d0: f401 0000 6321 bd3f 67d2 1f43 b45c 412e
000003e0: d1e8 bc41 cf91 0f09 9089 7843 6317 4542
000003f0: 7c97 eb42 357f 4f41 bb67 5a41 f401 0000

exp_avg f4 [3]
2.2103608 -0.049589265 -0.26081073
00000000: 8d76 0d40 1d1e 4bbd fc88 85be

exp_avg_sq f4 [3]
166.08357 86.10872 88.4228
00000000: 6515 2643 aa37 ac42 79d8 b042
