groupe05/best_model.pth (torch, 17851 bytes, 4 tensors)

linear1.weight f4 [256, 11]
00000000: 4617 a93d 9b80 bebe fdcb e8b9 155d fdbe
00000010: aaf8 b63e 35b4 f4be e51e 3a3f be3d 2fbf
00000020: dad5 efbd a126 3abf e154 17be 78db 653a
00000030: a80d d73d 9059 c53d 536d 9cbe 2836 333c
00000040: 4294 92be 0bb8 32be 9bda 05be 3873 01be
00000050: 8573 afbe 6233 8bbe 9d16 0f3f 9344 f8bb
00000060: 17f7 eebb df61 46bf 27e1 b8bf 0b1e 303e
00000070: f838 333f 9bf8 1d3f a5a4 e1bd 604e bdbf
00000080: f1d3 52bf 3a19 a53e 0887 bd3e 56ac 3fbf
00000090: 58d9 da3d e68d 06bd cbf4 cebc 617e 3ebf
000000a0: 1db5 5f3d 7d3e b0be 0fd3 f7be 3cf6 bdbe
000000b0: 260f 1c3e 3121 b7b9 b751 4ebe 34c6 00be
000000c0: 7cd4 50be b9bc 50bf 5fff 96be 21ff 61be
000000d0: 5b99 c3be d8fb 1cbe 0bf2 9f3e 5347 593f
000000e0: 3ac5 063e e3f3 083d d7be 263f e5bb 483e
000000f0: 1c04 8fbf 8fcd d0bf 53f8 7dbf dc86 1bbf
00000100: 587b 083f 17a2 e43e dce5 10bf 1458 d03e
00000110: 47b7 5b3e ee16 23bf fcb9 ab3e a8f6 c0be
00000120: 3225 233f 8546 48bf 5c86 bf3e 4270 7ebf
00000130: 946e 2f3e a6b7 98be 1177 8c3e 3947 9a3e
00000140: 3cba a03e 4065 ac3e fd15 82bf 83b9 6ebf
00000150: 085f b33e ecdf 973e 7315 47bf baff 5ebf
00000160: d7f2 9dbe a6ad 00bd b59d b03d 4f98 473c
00000170: 897b 693c fba9 89bc 3f0b 23be 7073 a3bc
00000180: f8d4 65be 756b a53d 4225 b2bc 66f0 423f
00000190: 6528 d2bc e9df 12bf 846c 3e3e 3d08 4bbf
000001a0: b12b b23e 1d40 16bf fadd 383b 4dde 06be
000001b0: da5e 3dbf f068 333e c946 3ebf b135 30bf
000001c0: 7f16 d0bc 6aa9 5dbe 44bb 7abe ab5c 8b3e
000001d0: 7055 013f 3b4c d73e 1cf8 8a3e c3b8 1dbf
000001e0: 2c42 20bf 0027 953d 1ef2 3ebf 3ad5 cb3e
000001f0: 5ec3 54bd b3d1 49bd 2a7d 36be 93b6 87be
00000200: 55e3 41be a171 06be e849 03be 0e01 13be
00000210: 40c5 17bf f6ab 15be 45f7 fa3e cacb 053f
00000220: 2f94 01bf 9788 223f c94f 2c3f 89aa 37be
00000230: 8d97 63bf 3c5f 843d 8a38 08bc a743 dc3d
00000240: a253 163e 6b85 893d d4af a1bc 7738 0cbe
00000250: 81a4 0abe c568 56bd 96cd 483e 4691 6a3e
00000260: 62bf 803e 4103 683e d9ec 643c 38c2 03be
00000270: 1918 47be 10c5 16bf d2f7 0c3f da88 f8be
00000280: eb1f d2be 289f 0b3f 595f ff3e b171 8bbf
00000290: 762a 86bf ba7a 383f 156d 45be 0511 f43e
000002a0: f37f b5be 0fe3 1bbf 2ce8 11bc 909a 7ebf
000002b0: 3a1e 27bd f320 b33e 539c 3abd dc32 0c3f
000002c0: 2591 6a3e e317 5f3e 2bc3 9ebe 4cdd b6be
000002d0: 4af8 6abe cde2 80be 3195 b8be b508 7d3e
000002e0: 4c93 0c3e faf7 85bd b40b 14bd a9d6 5e3d
000002f0: a53e 593e 4b53 22bf a4d2 66bd c93e b33e
00000300: bbce b73e 3387 d7bd b990 2abf 971e c43d
00000310: 0e2b 12bf e158 07bf f5eb 363d 0581 67be
00000320: 91bd 8ebc 695b 2fbd 6243 4b3d 0ae3 cdbd
00000330: fd79 6ebe c655 253d d028 dfbd 72ca d3bd
00000340: ef54 c5bb d2be 5fbf 07ff 183d a1db 6dbd
00000350: 80e8 0b3f f8b1 28bf 72e0 31bf 873e 2ebf
00000360: 09b6 1b3f d9e3 23bf 443f 18bf 2c75 a1bf
00000370: ffca 8b3e 101b 1cbf eae2 4e3d cb5a 8abe
00000380: 45c2 273f e347 863e 807e c6be 88da 6bbf
00000390: e27e abbe 04d9 033e bdc4 43bf 9096 403f
000003a0: 2238 373e d5c6 093e 61fd a43e 48de 873e
000003b0: 6e39 6bbf 2598 b5bf 4c61 86bf 8199 88bf
000003c0: 6307 193e 011a a03d de7f b5be 3c7f 75be
000003d0: 00ee b83b b57a 023e 5ae7 153e 927b e8be
000003e0: e061 fabe 3c3c 9f3e df0b 9b3e a21c 07bf
000003f0: 3733 28bf 1bb9 2fbe 2c0c 163e b8aa f53d
0.08256392 -0.37207493 -0.0004440247 -0.49485078 0.3573659 -0.47793737 0.7270339 -0.68453586
-0.11710711 -0.72715193 -0.14778472 0.000876836 0.105006516 0.09636223 -0.30552158 0.010938205
-0.28628737 -0.1745302 -0.13071673 -0.12641609 -0.34267822 -0.2718764 0.5589388 -0.007576534
-0.007292639 -0.7749309 -1.4443711 0.1719896 0.700088 0.61707467 -0.110177316 -1.4789543
-0.82354647 0.3224581 0.37017083 -0.7487234 0.10685986 -0.03285017 -0.02526321 -0.7441159
0.054616082 -0.34422675 -0.48403212 -0.37101924 0.15240154 -0.0003492921 -0.20148359 -0.12575608
-0.20393556 -0.8153797 -0.29491708 -0.2206998 -0.38202938 -0.15330446 0.31239352 0.8487446
0.13161173 0.033435713 0.6513495 0.19602926 -1.1173129 -1.6312732 -0.9920704 -0.60752654
0.5331321 0.44654915 -0.5660074 0.40692198 0.21456634 -0.6370686 0.33540332 -0.37688184
0.6372863 -0.78232604 0.37407196 -0.9939004 0.17132026 -0.29827613 0.2743459 0.30132464
0.31392086 0.33670998 -1.016296 -0.9325182 0.3503344 0.29663026 -0.77767104 -0.8710896
-0.30849335 -0.031415604 0.0862383 0.012182309 0.0142506445 -0.016804686 -0.15922259 -0.019952506
-0.22444522 0.080771364 -0.021746282 0.7614807 -0.025654027 -0.5737291 0.18596083 -0.79309446
0.3479896 -0.5869158 0.002820848 -0.13170739 -0.73972857 0.17520499 -0.7432676 -0.68831927
-0.025401352 -0.21646658 -0.24485499 0.27219138 0.5052099 0.42050347 0.27142417 -0.6161005
-0.6260097 0.07282829 -0.7458819 0.39811116 -0.05194413 -0.04927225 -0.17821184 -0.2650648
-0.18934377 -0.13129283 -0.12821162 -0.14355871 -0.59285355 -0.14616379 0.49016777 0.5226408
-0.50616735 0.6348967 0.6730924 -0.17936148 -0.88903123 0.06463477 -0.008314261 0.10755091
0.14680341 0.067149006 -0.019737162 -0.13693415 -0.13539316 -0.05234601 0.19609675 0.2290698
0.25146013 0.22657491 0.0139724845 -0.12867057 -0.19442786 -0.58894444 0.55065644 -0.4854191
-0.41039976 0.5453973 0.49877432 -1.0894071 -1.0481708 0.72062266 -0.19279893 0.47669235
-0.3544918 -0.6089334 -0.008905452 -0.99454594 -0.04080031 0.34986076 -0.04555924 0.54765105
0.2290693 0.21786456 -0.31008276 -0.3571571 -0.22946277 -0.25173035 -0.36051324 0.24710353
0.13728064 -0.065414384 -0.036143973 0.054403935 0.21215303 -0.63408345 -0.056353226 0.3500884
0.3589991 -0.10523834 -0.6662708 0.09576147 -0.57096946 -0.52869993 0.04465862 -0.22607811
-0.017424377 -0.042811785 0.049624808 -0.1005307 -0.23288722 0.040365003 -0.10896456 -0.10341348
-0.0060220878 -0.87400544 0.037352588 -0.058070783 0.5465164 -0.6589656 -0.694831 -0.6806416
0.6082464 -0.6401954 -0.59471536 -1.2613883 0.2730331 -0.60978794 0.05050937 -0.27022395
0.65530807 0.2622672 -0.38768387 -0.9213033 -0.3349524 0.12875754 -0.76472074 0.7522974
0.17892507 0.13454755 0.32224563 0.26536775 -0.91884506 -1.4187056 -1.0498443 -1.0671846
0.14944224 0.0781746 -0.35449117 -0.23974317 0.005643606 0.12742122 0.14639035 -0.45406777
-0.48902798 0.31100643 0.30282494 -0.52778065 -0.6570315 -0.17160456 0.1465308 0.11995453

linear1.bias f4 [256]
00000000: 576a a33e 7283 66be 8d76 7f3c 36a6 06bf
00000010: 8f13 f6be f4df a33e bb70 363d ed18 4f3d
00000020: ba96 85be f3d7 e5be 9503 a9be 56f1 d3be
00000030: f578 1f3f 453a 4fbf 7cda 65be 3e23 85be
00000040: b77e 0bbf 4c5a 0b3f ff24 0dbe 8b5d beba
00000050: bf78 073f 42b0 c13e 3a69 f5be 8bcb 31be
00000060: fde9 cabe 810c 0c3d bcbf 8a3c 804d 113e
00000070: fcbb a73e 8fb0 b2be 8fb3 50bf 7eb2 47bf
00000080: c8f0 28be 925d 29bf 8dc3 13bf 34fc ebbe
00000090: 75a2 9cbe d36e ee3d ccd4 e6be e8d1 64bc
000000a0: f439 943e 8a55 943d 9145 c7be 8038 96be
000000b0: 148e d2be 8049 b0be aa4e ebbe b0c4 403d
000000c0: 0328 41bf 163b 06bf 54cd 8dbe cb92 27bd
000000d0: d614 c0be b8fc b33d 94cf ddbe 5106 cbbe
000000e0: 4459 a9be 328c 0d3e 8c2b 88bd d164 babe
000000f0: 4881 3b3d 3193 e73e 5c4d 23bf f189 b5be
00000100: 6027 b0bd 462d 2abf 40c5 973d e2a0 0abf
00000110: da07 f9be f02f cabe b0c0 183e 4781 4dbf
00000120: 01e5 b3be efd4 a83e a009 06bf 2005 7bbe
00000130: 390e 2d3e 0d26 49bf fe83 043f e67a 8cbe
00000140: f0d0 42be 4728 2bbe c9cd 90be 93a5 f8be
00000150: 7493 febe c10d 35bf 7dad af3e 58f8 0dbe
00000160: de99 a5be 30b3 47be 3707 c9be d9c4 0cbf
00000170: 602a 5dbe fc71 7dbe 6ae9 e8be b4b0 06bf
00000180: 79c3 2abd 2d37 c5be dcfa 27bd ca71 1cbf
00000190: 87af b9be 7730 e0be 1fcc 22bf 96b1 3e3e
000001a0: e1cb 63bf a9e2 a4be 515a 963d 4ee1 df3d
000001b0: 9987 34bf 90f2 9cbe aae9 1cbe d074 06bf
000001c0: 5358 edbe 5e3e c6be a3a7 adbe 9156 743f
000001d0: ebbd a0be 8d3c 5f3d 5b0b 153e cc8d 4fbc
000001e0: 66b5 1e3e e3cb 91be 75d5 47be 7344 c5be
000001f0: 583c 373d fb7d 163c 6cbd 04bf c756 b4be
00000200: 00c4 ecbd 2290 96be 2d1a 06bf 8dcc b43d
00000210: cb87 debd 5eba 433b dfe6 62be 021f 34bf
00000220: d863 12bf 57c7 95be e493 c6be 967f dc3e
00000230: 929e 73be e9f0 27bf 30f2 7abe 5f70 7a3e
00000240: d6f9 2abe 7ee1 99be 8b9b ca3e 245c d93d
00000250: a31f c1be 7a68 34be f646 26bf b7f7 8abc
00000260: a753 32be 2527 973f f4a4 35bf d911 efbe
00000270: e87b dcbd ee93 a1be bb9f 123d ce59 28bf
00000280: 24c6 2dbe 82c3 abbe 8219 e6bd 296c 6c3e
00000290: 3f2a 33bf 4954 253f 6411 9bbe b039 f6bc
000002a0: 60f3 f8be 8ec3 d1be 0821 42bf b605 b73f
000002b0: 997e 4bbe e7d1 ae3d 1293 a63e 6310 063f
000002c0: 0e04 06bf 608e bbbe e196 19be 8e10 98be
000002d0: a762 da3e 191f d3bc 5873 0c3e 76b4 923e
000002e0: b856 97be 38d7 48bf bfa0 21be adca ad3d
000002f0: 80b5 c7be 7913 0bbe 2b5f 7dbe 0aca efbe
00000300: 287b 71be 926e 9a3d 438e fcbe 90ae 30bf
00000310: 5a71 86bf 2080 35be 0124 d33d d2ad 483e
00000320: 40a4 21bf 784f 19bf d996 e93e acea 023d
00000330: 49a2 07be 6e4d 13bf a331 f1bc 13f4 e2be
00000340: 94fb 31be bbaa 983e 0ad9 633e 6236 02bf
00000350: 726f 05bf 696a 87be eaae 2ebf 01e4 4dbf
00000360: bbf6 353f 2060 08be b34e 23bf c872 c7be
00000370: 53b0 bcbe 0597 593e e361 4c3e a474 81bf
00000380: 3ec1 44be c478 fabe eb23 9d3e 494c 29bf
00000390: 12b8 8c3d 0ad6 50bf f9a3 c8be 3cf3 c63e
000003a0: a630 13bf f3ed 14bf 2b4d 383e 80fb b1be
000003b0: 33cf f4be 7067 dcbe b0bf 87be 48c4 51bf
000003c0: 58a5 4e3e 7cf8 8fbe a766 cdbe 5943 e8be
000003d0: 6982 02bf 42fd 2bbe b7b8 843e 481e 3fbe
000003e0: 3bdd 923b 0062 3cbf 4b02 63bd 6f3d 3abf
000003f0: b852 02bf 78f4 38bf a887 0ebf 36a1 bcbe
0.31917068 -0.2251108 0.01559223 -0.5259737 -0.48061797 0.320068 0.044541102 0.05056088
-0.26091558 -0.4489132 -0.33010545 -0.41395062 0.6229394 -0.8094829 -0.22446626 -0.2600345
-0.54490227 0.5443466 -0.13783644 -0.0014523728 0.5291862 0.37829787 -0.47931844 -0.17362802
-0.39631644 0.034191612 0.01693713 0.1418972 0.32760608 -0.3490033 -0.81523985 -0.7800673
-0.16498101 -0.661584 -0.5772026 -0.46090853 -0.30592695 0.11642232 -0.45084226 -0.013966061
0.28950465 0.07242878 -0.38920262 -0.2933998 -0.41124022 -0.34431076 -0.45958453 0.047062576
-0.7545168 -0.5243391 -0.27695715 -0.040911477 -0.37515897 0.08788437 -0.43322432 -0.39653257
-0.33075917 0.13823012 -0.06648931 -0.36405042 0.04577759 0.45229486 -0.63789916 -0.35456803
-0.0860126 -0.6647533 0.07410669 -0.5415174 -0.48638803 -0.39489698 0.14917254 -0.80275387
-0.35135654 0.32974955 -0.52358437 -0.24513674 0.16899957 -0.78573686 0.51763904 -0.27437514
-0.19025016 -0.16714583 -0.28282002 -0.48563823 -0.49721873 -0.7072411 0.3431205 -0.13864267
-0.32343954 -0.19501948 -0.39263317 -0.54987866 -0.21598196 -0.24750513 -0.4549058 -0.5261338
-0.041690324 -0.38518658 -0.041010723 -0.6111113 -0.3626673 -0.43786976 -0.63592714 0.18622431
-0.8898297 -0.32204178 0.07341445 0.10931645 -0.70519406 -0.3065381 -0.15323511 -0.5252199
-0.4635645 -0.38719457 -0.3391696 0.9544459 -0.31394896 0.054501105 0.14555113 -0.012668084
0.15498886 -0.28475866 -0.19515021 -0.38528785 0.044735283 0.0091853095 -0.51851535 -0.35222456
-0.115608215 -0.2940684 -0.5238369 0.088280775 -0.10865744 0.0029865722 -0.22158383 -0.70359814
-0.571836 -0.29253647 -0.38784707 0.4306609 -0.23790959 -0.65601975 -0.2450645 0.24456929
-0.16696867 -0.3005485 0.39571795 0.106132776 -0.3771945 -0.1761798 -0.6495203 -0.016963823
-0.17414723 1.1808821 -0.70954823 -0.46693304 -0.10765821 -0.31558174 0.035796862 -0.6576203
-0.16970116 -0.33547598 -0.11235334 0.23088135 -0.6998634 0.64581734 -0.30286705 -0.030056804
-0.4862318 -0.4096951 -0.7583165 1.4298618 -0.19872512 0.085361294 0.3253408 0.52368754
-0.52349937 -0.3663206 -0.14998962 -0.2970013 0.4265339 -0.025771664 0.13715875 0.28653306
-0.2955835 -0.784534 -0.15783976 0.08485923 -0.3900566 -0.13581647 -0.24743335 -0.4683383
-0.23582137 0.07540621 -0.49327287 -0.6901636 -1.0503342 -0.17724657 0.103096016 0.19597557
-0.6314125 -0.59886885 0.456229 0.03196208 -0.132455 -0.57540023 -0.029442614 -0.4432684
-0.17381126 0.29817757 0.22250763 -0.5086423 -0.5212318 -0.26448372 -0.6823565 -0.8042603
0.71079606 -0.13317919 -0.6379196 -0.3895476 -0.36853275 0.21249016 0.19959216 -1.0113721
-0.19214341 -0.48920262 0.30691466 -0.66132027 0.06871046 -0.815766 -0.391876 0.38857448
-0.57496107 -0.5817558 0.17998187 -0.34762192 -0.4781433 -0.43047667 -0.26513433 -0.81940126
0.20180261 -0.28119266 -0.4011738 -0.45363882 -0.5098024 -0.16795829 0.25922176 -0.18663895
0.004481939 -0.73587036 -0.05542211 -0.7274999 -0.5090747 -0.7224803 -0.55675745 -0.36841744

linear2.weight f4 [3, 256]
00000000: 2a68 963e 4a0c d73c b330 24bf b1e4 3b3c
00000010: b7ae b2bc d78e acbe 1da1 323f 1bfe 903e
00000020: 1e15 6a3c 90a6 7e3f f885 e8bf 88cd c43c
00000030: 0f51 ec3e f7ba 76bc c286 7d3e ccfc 9e3a
00000040: e555 bb3c 4488 0d3e a927 09bb eb66 163f
00000050: 9bf0 923e 1a69 9cbe 49d5 31bb 033f 5f3c
00000060: ca7c afba 697a 9d3e 9bc0 893e 046e 863d
00000070: fd27 1e3f e41e b53c d853 223d bcd4 103e
00000080: 538a 9abc 97a8 dbbb 0286 48bc 842c da3c
00000090: 6a9e c63c 8b4b 0c3f 3ae2 1e3c ef31 433d
000000a0: 1452 883f 93aa 19bf 659d f33c 9ebf 32ba
000000b0: 11d0 c4bc 3675 623e fc95 aabd eadc fc3e
000000c0: 45ae cd3e 531b 3f3e 041a 8d3c 37fb d83e
000000d0: 3cfe 2dbd 97d1 143f f640 093d aad9 6dbd
000000e0: 3161 bc3a 4fa9 373d 99d5 f8bb acf2 793e
000000f0: 613e 2a3f 68c3 7a3f 416b 8b3f 98dd fd3d
00000100: 3ee7 403c 67aa ca3d 00ab c7bd aaaf 5dbe
00000110: 226b 523d c64b bcbd 5629 983d 97c7 583f
00000120: 5fd8 a5bd ab69 48bf f6e0 343c 014b e3ba
00000130: 453e a23d 132d d7bc 81cc 423f b237 d8bc
00000140: 692a 813d 1fb7 2d3d a069 493c daef a03e
00000150: 7f50 13be cf31 fabc 8d40 003f 016c 863d
00000160: 5904 fcbb bbdd 893e cc41 be3d fd05 2a3f
00000170: 5848 b3bc 2868 6dbe f7eb 9abc d858 3abc
00000180: 6098 d4bd 92c7 6c3e 8f38 a23e 85a1 493e
00000190: f7e7 583f deea 7bba 3785 88bd 1e24 873e
000001a0: 2fd7 553f c92d 3e3d 4fbe e0be 41c6 13bf
000001b0: f868 20be 3195 25bd e731 efbc beea 2ebf
000001c0: 49b0 223f 5546 97be 642f b03e 063e 4f3e
000001d0: 5352 a7bc a1e8 1ebf f13e e8be 8721 a8ba
000001e0: 19bb bc3d 8e78 643d 2b3a f639 c313 bcbd
000001f0: 5765 c23e d93e 1c3d b1aa 5e3f eed0 d7be
00000200: 94ed e7be bf7e 0d3e b4d6 853b bff1 a6be
00000210: a49c e1bc 741b 4c3f 79e4 46bd 3e67 93bd
00000220: ff91 623d 8e2d c9be 513a 7fbc f074 1a3f
00000230: 0266 07be 4f28 573c 1cdb 31be 8a43 df3e
00000240: b8fe 233d b93c d5bd 5405 05be 4b23 0a3f
00000250: 1f92 163d 5a04 b93d 39fc 15be 75b9 223f
00000260: 567d c83c a2eb da3e 22d8 4b3e 01ac d83d
00000270: d85b 9b3c 7f8b 523d 46ff eabe 8fa9 023c
00000280: 6ecd 93bc 4fdb feba 2302 32bd 2c4a 0e3d
00000290: a049 333e 140d 473e ad83 b8bd 3a54 9abe
000002a0: 6615 a13d de93 163d 71e8 fa3d 6536 e73e
000002b0: ecfa 3fbd b4c3 27be 6d27 5e3d 0283 2b3f
000002c0: 5635 29bc 956f 70be c675 cabc ee11 0f3d
000002d0: c161 81be 3a4f 553c 941a 393f cb5b b33d
000002e0: 18ec 38bb e7d9 203c d521 4f3d aaf9 373e
000002f0: 539e 85bd 2578 2cbf 452f 9fbd 1a21 27bb
00000300: cc94 273d 6f48 b33e 028f 7f3f 1c8b b5b9
00000310: d423 2b3d 69d9 c3bc 9aa4 0e3e 2cdd 0abf
00000320: 4e97 b73f 30c2 cabe badd 483e 4a42 c6be
00000330: ecb0 673d 18b7 8b3e 3ebd 85be 4365 0e3e
00000340: 452f aebe 6072 8c3e 9bea ca3d d287 403b
00000350: 8c79 f3bc 6a72 8e3d e358 9e3d af5d 4c3c
00000360: 56a1 7b3e b3ca b53b 065a 7a3d 65e7 2cbf
00000370: f132 f8bb 3c0d 25bf 36d9 56be 3f8d b63d
00000380: af1c 3e3e 95c1 283d b6c7 813e 6db0 383d
00000390: 1bc3 a5be ef49 803e bdd4 29bf 9acd 9dbd
000003a0: 9604 8c3d 5c74 58bb 5083 d8be 7240 7c3a
000003b0: 602f 85be d763 60be 9fdf 9cbc 86bc 653f
000003c0: c354 343f 6a24 9f39 7d2f 0abe 22f3 083d
000003d0: 57f7 803c 47b1 c23c 41fa cf3c 5175 29bc
000003e0: 0910 f13d c459 b33f abb6 eebb 655f 6b3e
000003f0: cfa5 163d de17 db3d bf5e 983f f12a bcbc
0.29376346 0.026250977 -0.6413681 0.0114680985 -0.021811826 -0.33702728 0.6977709 0.28318867
0.014287261 0.99472904 -1.8165884 0.024023786 0.46155593 -0.015059224 0.24758437 0.0012129783
0.022868106 0.13821512 -0.002092818 0.5875079 0.28699192 -0.30548936 -0.0027135185 0.013625863
-0.001338863 0.30757454 0.2690476 0.065639526 0.6177977 0.022109456 0.03963074 0.14143652
-0.018864786 -0.006703447 -0.012238981 0.026632555 0.02424546 0.5480277 0.009697491 0.047655042
1.0650048 -0.600259 0.029738137 -0.00068187143 -0.024024995 0.22115025 -0.083293885 0.49387294
0.4017202 0.18662767 0.01722432 0.42379162 -0.042478785 0.5813231 0.033509217 -0.05806891
0.0014372227 0.0448392 -0.007593822 0.24408978 0.6650143 0.97954416 1.0892106 0.12395781
0.011773882 0.09895783 -0.097494125 -0.21649042 0.0513717 -0.0919414 0.07429759 0.8467955
-0.0809791 -0.78286237 0.011039963 -0.0017341078 0.07922033 -0.02626661 0.760933 -0.026393745
0.06306917 0.042410966 0.012293249 0.31432992 -0.14386176 -0.030541329 0.50098497 0.06563569
-0.007690948 0.2692698 0.092898935 0.6641539 -0.021885082 -0.23184264 -0.018911345 -0.011373721
-0.10380626 0.23123005 0.31683776 0.19690521 0.8472895 -0.0009609888 -0.06666034 0.26394743
0.8353147 0.046430383 -0.43895194 -0.57724386 -0.15665042 -0.040425483 -0.0291986 -0.6832694
0.6355024 -0.29545847 0.34411156 0.20238504 -0.020424997 -0.62073714 -0.4536052 -0.0012827375
0.092153735 0.055779032 0.00046964115 -0.09183457 0.3796794 0.038145874 0.86979204 -0.42151588
-0.45298445 0.13817881 0.0040844325 -0.32606313 -0.027540512 0.7972939 -0.048557732 -0.07197426
0.055315014 -0.39292568 -0.015577869 0.6033468 -0.13222507 0.013132169 -0.1736874 0.43606216
0.04003784 -0.104119726 -0.12990314 0.539601 0.036760446 0.09034033 -0.14646997 0.63564235
0.024473827 0.427579 0.19906667 0.10579682 0.018964693 0.051402565 -0.45897883 0.007974996
-0.018042292 -0.0019444021 -0.04345907 0.034738705 0.17508554 0.19438583 -0.0900949 -0.30142385
0.078654096 0.03676211 0.12251366 0.45158687 -0.046870157 -0.16383249 0.054236818 0.6699678
-0.010327658 -0.23480065 -0.024714362 0.03492921 -0.25269893 0.013019377 0.7230618 0.087577425
-0.0028216895 0.009817577 0.050569374 0.17966333 -0.065243386 -0.67370826 -0.07772688 -0.0025501908
0.040913388 0.350162 0.9982759 -0.00034626655 0.041782215 -0.02390738 0.13929978 -0.5424373
1.434305 -0.39601278 0.19615832 -0.3872245 0.05656521 0.27288127 -0.26120943 0.13905816
-0.3402044 0.2743101 0.09908029 0.002937783 -0.029721044 0.069554165 0.077317975 0.012473508
0.24573264 0.0055478453 0.06112101 -0.6754058 -0.007574432 -0.6447332 -0.20981297 0.08913659
0.1856563 0.04120024 0.2534768 0.045090128 -0.32375416 0.25056407 -0.6634024 -0.07705231
0.06836812 -0.003302834 -0.42287683 0.000962264 -0.26012707 -0.21913086 -0.0191496 0.8974079
0.70441836 0.00030353974 -0.13494678 0.033434995 0.01574294 0.023766173 0.025387885 -0.010342912
0.117706366 1.4011769 -0.0072849593 0.22985609 0.03677922 0.10697912 1.1903914 -0.022969695

linear2.bias f4 [3]
00000000: 6fdd ac3e 2136 8e3e 2b5e a23e
0.3376269 0.27775672 0.3171247
