groupe03/models/best_model_dqn.pth (torch, 281641 bytes, 6 tensors)

linear1.weight f4 [256, 11]
0	0x3b3e3210	0.0029021539
1	0xbf098f6e	-0.5373448
2	0x3d64ed92	0.055890627
3	0x3ecc04e8	0.39847493
4	0xbe9cc04c	-0.3061546
5	0x3eb4e708	0.35332513
6	0xbebb07aa	-0.36529285
7	0xbdc81b78	-0.09770864
8	0xbe9b4c41	-0.30331615
9	0xbc9c2046	-0.019058358
10	0xbf2bd2f3	-0.6711876
11	0xbe1e77b9	-0.15475358
12	0xbeaa5b19	-0.33272627
13	0xbe342653	-0.17592745
14	0x3e92d709	0.28679684
15	0xbeea561d	-0.45768824
16	0xbed6c3ab	-0.41946158
17	0x3e79228b	0.24329583
18	0xbe4b7f1b	-0.19872706
19	0x3f004b13	0.50114554
20	0xbeee138a	-0.46499282
21	0xbeb47c86	-0.35251254
22	0xbe7ec6fc	-0.24880594
23	0x3e4cbe5d	0.19994493
24	0xbe8892a8	-0.2667439
25	0xbe8efe7f	-0.2792854
26	0x3de373fe	0.11106108
27	0xbea9468b	-0.33061633
28	0xbd85a65e	-0.06525873
29	0x3e9132aa	0.28358966
30	0xbec4b08b	-0.38415942
31	0xbeec42f8	-0.46144843
32	0xbf44e5c4	-0.76913095
33	0x3dfa8589	0.12232501
34	0xbe0da1ba	-0.13831225
35	0x3ea3b5e5	0.31974712
36	0xbcd24bc1	-0.025670888
37	0x3e0a80ae	0.1352565
38	0xbe14bc38	-0.14524925
39	0x3e5a2a05	0.21305092
40	0x3d95bed5	0.07311789
41	0x3e5ab7e0	0.21359205
42	0x3e3d4771	0.18484284
43	0xbe2061dd	-0.15662332
44	0x3d6ed9e1	0.058313254
45	0x3e62f6e4	0.22164494
46	0xbe606c55	-0.21916325
47	0xbd7f74c1	-0.062367205
48	0x3e429c43	0.19004922
49	0x3edf194f	0.43573996
50	0xbda86107	-0.082216315
51	0xbf203c33	-0.62591857
52	0x3e2dea53	0.16983919
53	0x3dadaa04	0.084796935
54	0xbe859ddd	-0.26097003
55	0x3e6145de	0.21999308
56	0xbecdad34	-0.40171206
57	0xbea21933	-0.3165985
58	0x3e9ac314	0.30226958
59	0x3ea46776	0.32110184
60	0xbeb360b8	-0.35034728
61	0xbe83de9a	-0.2575577
62	0xbf246763	-0.64220256
63	0xbefbe65b	-0.49199185
64	0x3d118d44	0.035535112
65	0x3d36eef4	0.044661477
66	0xbebfc5a4	-0.37455475
67	0xbe5e7189	-0.21722998
68	0x3e8d0dde	0.27549642
69	0xbd6fc792	-0.058539934
70	0x3e8b1332	0.27163082
71	0xbeb7bee4	-0.35887825
72	0xbf1c4be6	-0.6105331
73	0x3e8c6c7d	0.2742652
74	0x3e1e6979	0.15469922
75	0xbf474f4e	-0.77855384
76	0xbee9fe8c	-0.45702016
77	0xbe933941	-0.2875462
78	0x3dc61466	0.096718594
79	0xbed6714c	-0.41883314
80	0x3ea885e9	0.32914665
81	0x3ea73185	0.32654968
82	0x3eb294db	0.34879193
83	0x3ebd7fea	0.37011653
84	0xbed6eeba	-0.4197901
85	0xbea632d5	-0.32460657
86	0xbef6ac65	-0.48178402
87	0xbec8af3e	-0.391962
88	0x3ea25e45	0.31712547
89	0xbe5d956c	-0.21639031
90	0xbdfa684d	-0.12226925
91	0xbe9d6ce0	-0.30747128
92	0x3d9a87cd	0.07545433
93	0x3eec5f5d	0.46166506
94	0x3e7ce197	0.2469543
95	0x3efdcb28	0.49569058
96	0xbef2ff05	-0.4746019
97	0xbec0bf8c	-0.3764614
98	0xbd866f0d	-0.0656415
99	0xbddcb024	-0.10775784
100	0xbdfbee48	-0.12301308
101	0x3ed30e2d	0.41221753
102	0x3e851bb8	0.2599771
103	0xbefe9b97	-0.4972808
104	0xbed2f805	-0.4120485
105	0xbf046096	-0.5170988
106	0xbee259dc	-0.44209182
107	0x3e9d2c59	0.30697897
108	0xbf3b7722	-0.7322866
109	0x3b2f71f8	0.0026770812
110	0xbdb35303	-0.087560676
111	0x3decac30	0.1155628
112	0xbe4a8513	-0.19777326
113	0x3eae7bb0	0.3407874
114	0xbec4dbcd	-0.38448945
115	0xbe659ca8	-0.22423041
116	0x3ebbcc5b	0.36679348
117	0xbede4392	-0.43410927
118	0x3ee5d470	0.4488864
119	0x3e236ee5	0.15960272
120	0xbe82eedf	-0.2557287
121	0x3e64088b	0.22268884
122	0x3d1dbbea	0.038509287
123	0xbca9760b	-0.02068617
124	0xbe5f85d0	-0.21828389
125	0x3c28b8fe	0.010298012
126	0x3e8c77e1	0.2743521
127	0xbf235329	-0.6379877
128	0xbf325607	-0.6966252
129	0xbf01fba2	-0.50774586
130	0x3ecb2109	0.3967364
131	0xbf0449ee	-0.5167531
132	0xbcd3bda3	-0.025847262
133	0xb9e3d41b	-0.00043454845
134	0xbe2cfd97	-0.16893612
135	0xbe76b2f3	-0.24091701
136	0xbe5a5398	-0.21320951
137	0xbd82e04a	-0.06390436
138	0xbdf09bb1	-0.11748446
139	0xbe8132c0	-0.25234032
140	0xbe99d29c	-0.30043495
141	0xbd941894	-0.072312504
142	0xbcd370a0	-0.02581054
143	0xbdb3d3a7	-0.08780604
144	0x3ee3a5bf	0.44462392
145	0xbeba523b	-0.36390862
146	0xbd872c4b	-0.06600245
147	0x3e0948a4	0.13406616
148	0x3e765916	0.24057421
149	0x3e884cf2	0.26621205
150	0x3e10d917	0.14145313
151	0x3e3b563b	0.18294613
152	0xbead6055	-0.33862558
153	0xbeed31de	-0.46327108
154	0x3d2035d8	0.03911385
155	0x3d8d6eea	0.06905921
156	0xbd344d6c	-0.044019148
157	0xbe66c663	-0.22536616
158	0xbeb8dabd	-0.36104384
159	0xbda82390	-0.08209908
160	0xbe87c7a7	-0.2651951
161	0x3b8b47d0	0.004250504
162	0x3e1a5e50	0.1507504
163	0xbd99728a	-0.0749255
164	0xbe26a087	-0.16272174
165	0x3d4f9507	0.050679233
166	0xbe9a1447	-0.30093595
167	0xbbf755d8	-0.007548075
168	0xbf18e6ae	-0.5972699
169	0x3df31424	0.11869076
170	0xbe82059b	-0.25394902
171	0x3eb3b4a8	0.35098767
172	0xbeaa94cd	-0.3331665
173	0x3e3c6a77	0.18399988
174	0xbf26b0dd	-0.6511362
175	0xbe3a2273	-0.18177204
176	0xbf019bba	-0.50628245
177	0xbd4ff326	-0.050768994
178	0x3eb1c92f	0.34723803
179	0x3e20b8ff	0.1569557
180	0x3e8be0f4	0.27320063
181	0x3e8eabdd	0.27865496
182	0x3e9a88d8	0.30182528
183	0xbe9656e4	-0.29363167
184	0xbe7024dc	-0.2345156
185	0xbf04dfa9	-0.5190378
186	0xbf005a5e	-0.5013789
187	0x3ea69b90	0.3254056
188	0xbca1b4c3	-0.019739514
189	0x3dd50497	0.10401266
190	0x3cc8c18e	0.024506357
191	0xbef55361	-0.47915176
192	0x3e48568d	0.19564267
193	0xbe147cb6	-0.14500698
194	0xbdfa3308	-0.12216765
195	0x3ed4b8ed	0.41547337
196	0xbeac0aca	-0.3360198
197	0xbde18203	-0.11011126
198	0x3ec89cea	0.39182216
199	0x3e7d797a	0.24753371
200	0x3d7a5cf7	0.061123814
201	0xbe4b3c06	-0.19847116
202	0xbed7fc19	-0.42184523
203	0xbe2a5b5c	-0.16636413
204	0x3e8080e8	0.25098348
205	0x3ee41c73	0.44552955
206	0x3f368839	0.7130161
207	0x3ed91827	0.4240124
208	0xbdd4ba7b	-0.10387131
209	0xbd391aaf	-0.045191463
210	0xbe145972	-0.14487246
211	0x3d170a39	0.036874983
212	0xbdb247e8	-0.08705121
213	0xbefd774e	-0.49505085
214	0xbdcc3682	-0.09971334
215	0x3db75d32	0.089533225
216	0xbf043092	-0.5163661
217	0xbed4c366	-0.41555327
218	0x3d3b8bd3	0.045787644
219	0xbe46c4e5	-0.19411047
220	0xbe46b3ea	-0.1940457
221	0x3dfef1c3	0.12448456
222	0xbdc3aaec	-0.09554085
223	0x3dd5d4dc	0.1044099
224	0xbe976a33	-0.2957321
225	0x3e36ee38	0.1786431
226	0x3de497b5	0.11161748
227	0xbed33f57	-0.41259262
228	0xbea2214b	-0.31666026
229	0xbd9ecf65	-0.07754401
230	0x3cd79626	0.026316714
231	0xbf0805cd	-0.5313385
232	0xbb72ba85	-0.0037037444
233	0x3deca495	0.11554829
234	0xbe8f7a76	-0.28023118
235	0xbefa3c4c	-0.48874128
236	0xbe8a516e	-0.2701525
237	0x3db7bedc	0.089719504
238	0xbf02c3ed	-0.5108021
239	0xbe1698f8	-0.1470679
240	0xbef1009d	-0.4707078
241	0xbe0a534e	-0.1350834
242	0x3e72f173	0.23724918
243	0xbe4b6269	-0.19861759
244	0xbd202ef7	-0.03910729
245	0x3eaf71fd	0.34266654
246	0xbf14c7f4	-0.58117604
247	0xbeb39149	-0.3507178
248	0x3e9196ff	0.28435513
249	0xbeab42dc	-0.33449447
250	0xbefb6e98	-0.49107814
251	0x3e9c3fd9	0.30517462
252	0xbec2e1ab	-0.38062796
253	0xbeaf531b	-0.34243092
254	0xbed2ad81	-0.41147998
255	0x3daa8c5a	0.08327551

linear1.bias f4 [256]
0	0x3e05b7b5	0.1305836
1	0xbe12844f	-0.14308284
2	0x3b9b7f10	0.0047453716
3	0xbeef7788	-0.46770883
4	0xbe081dff	-0.13292693
5	0x3c858f10	0.01630357
6	0x3e4cd3db	0.20002691
7	0x3f64c428	0.8936181
8	0xbe8a60d9	-0.27027014
9	0xbec34749	-0.38140324
10	0xbe1dc079	-0.15405454
11	0xbddfdae4	-0.10930422
12	0x3d9ff783	0.07810881
13	0x3d18d293	0.037310194
14	0xbe43c916	-0.19119677
15	0x3eb0de7a	0.34544736
16	0x3f012aca	0.50455916
17	0xbdbbc334	-0.091680914
18	0xbe99fca2	-0.30075556
19	0xbe442c41	-0.19157507
20	0xbea9a946	-0.33136958
21	0xbdfd0b6b	-0.123556934
22	0xbbd6b3e1	-0.006552205
23	0x3d2b2887	0.041786697
24	0xbe6533f0	-0.22383094
25	0xbd3d1195	-0.046159346
26	0xbec3bd8d	-0.38230553
27	0xbec14c76	-0.37753648
28	0xbeb5905d	-0.35461703
29	0xbd8c63a0	-0.068549395
30	0xbd8f3ee0	-0.06994414
31	0xbeb49d39	-0.352762
32	0xbe081d49	-0.13292421
33	0x3e0ac305	0.13550957
34	0xbdad6f1c	-0.08468458
35	0x3f05fa00	0.52334595
36	0xbedad416	-0.42739934
37	0xbe3c5577	-0.18391977
38	0xbe9bdb47	-0.30440733
39	0x3c977330	0.018487543
40	0xbe9f4053	-0.31103763
41	0x3e01bba7	0.1266924
42	0x3de0ba5b	0.109730445
43	0xbdd35506	-0.10318951
44	0xbe2d5b16	-0.16929278
45	0xbe9024da	-0.28153116
46	0xbe6d40af	-0.23169206
47	0xbebd8296	-0.37013692
48	0x3d9b4e22	0.07583262
49	0xbe3f6837	-0.18692099
50	0xbe379663	-0.17928462
51	0x3d72612f	0.059174713
52	0xbe1e26bc	-0.15444463
53	0xbe8944a5	-0.26810184
54	0xbe95f699	-0.29289702
55	0xbe260a2f	-0.16214822
56	0xbe034019	-0.1281742
57	0x3d838eb8	0.06423706
58	0xbe6dcc9f	-0.23222588
59	0x3cd5a786	0.026080858
60	0xbdae0b35	-0.08498231
61	0xbe5f8b8a	-0.21830574
62	0x3c8df847	0.017330302
63	0xbdba9f98	-0.09112471
64	0x3e396f97	0.18108974
65	0x3d0c2266	0.034212492
66	0xbeeaad60	-0.458354
67	0xbd5c7732	-0.05382461
68	0xbea3f223	-0.32020673
69	0xbe10e92f	-0.14151452
70	0x3e75fe8f	0.24022888
71	0x3e3450ad	0.176089
72	0x3f06c719	0.5264755
73	0xbe6f4f25	-0.23370035
74	0xbe3c21a3	-0.18372206
75	0xbd757f23	-0.0599357
76	0xbe9be9a1	-0.30451682
77	0xbe442c4f	-0.19157527
78	0x3e945170	0.28968382
79	0x3e382165	0.17981489
80	0xbed2b30e	-0.41152233
81	0xbdccb15f	-0.09994768
82	0x3e3fe1ad	0.18738432
83	0x3d84ac5e	0.06478189
84	0xbe1b4b19	-0.15165366
85	0xbedc3140	-0.43006325
86	0xbe8945ee	-0.26811165
87	0xbea4f4bc	-0.32217968
88	0xbe7db092	-0.24774387
89	0xbec482b4	-0.3838097
90	0xbe21dca2	-0.15806821
91	0xbea52aba	-0.3225916
92	0xbe57ffd5	-0.21093686
93	0x3efc45c0	0.49271965
94	0xbdf9b72d	-0.12193141
95	0xbe2ab8f3	-0.16672115
96	0x3ea8b6e4	0.32952034
97	0xbe41d284	-0.18927962
98	0xbb22937e	-0.002480715
99	0xbe8ffc0b	-0.2812198
100	0x3d5c3bf9	0.053768132
101	0x3e4a1eec	0.19738358
102	0x3f1c2a0d	0.61001664
103	0x3e382fe2	0.17987016
104	0xbd866c7c	-0.065636605
105	0xbdee0a9a	-0.11623116
106	0xbea5be0a	-0.3237155
107	0x3f13c7b8	0.5772662
108	0xbd1a7117	-0.037705507
109	0xbe913eb4	-0.2836815
110	0xbeeaded0	-0.45873117
111	0xbe222add	-0.15836664
112	0xbe33757a	-0.17525283
113	0xbd496440	-0.04916787
114	0xbe5887c2	-0.21145537
115	0x3e14f36a	0.1454598
116	0x3ba86ff6	0.0051403
117	0x3e6c601b	0.23083536
118	0xbec96123	-0.39331922
119	0xbe8826f2	-0.26592213
120	0xbe1832df	-0.14863156
121	0x3c80fcba	0.01574551
122	0xbd3ff913	-0.046868395
123	0xbf0584d9	-0.52155834
124	0x3df4eb18	0.11958903
125	0xbe460a05	-0.1933976
126	0xbe1234a1	-0.14277889
127	0xbe45cf6d	-0.19317408
128	0xbe5363d8	-0.20643556
129	0xbdfd46d7	-0.12367027
130	0xbe815729	-0.2526181
131	0xbe76edf0	-0.24114203
132	0xbe32eb1c	-0.174725
133	0x3e20d099	0.15704574
134	0xbf0fd035	-0.56177074
135	0xbea63a3a	-0.32466298
136	0xbe47e314	-0.19520217
137	0xbf0b1716	-0.543321
138	0xbe7563e5	-0.23963888
139	0xbe8170ab	-0.2528127
140	0x3ec955fc	0.39323413
141	0xbe6b2531	-0.22963406
142	0x3c55ec07	0.013056762
143	0xbe09dc2b	-0.13462894
144	0xbe252a15	-0.16129334
145	0xba976dc7	-0.0011553102
146	0x3a8799c9	0.0010345514
147	0xbe6e7ad3	-0.23289041
148	0xbdf13792	-0.11778177
149	0x3e7fb16e	0.24970028
150	0xbe88071e	-0.2656793
151	0x3ed72a51	0.42024472
152	0x3e41d97e	0.18930623
153	0xbdf89f9b	-0.12139817
154	0xbe254d5c	-0.16142792
155	0xbe37feb6	-0.17968258
156	0x3e142096	0.14465556
157	0xbe53fafe	-0.20701215
158	0xbd41dcad	-0.047329593
159	0x3e5748a6	0.21023807
160	0xbd0749ad	-0.033029247
161	0xbe34c082	-0.17651561
162	0xbefe1c17	-0.49630806
163	0xbde28da7	-0.11062174
164	0xbe5394ff	-0.20662306
165	0xbd009d09	-0.03139976
166	0xbe941cfa	-0.28928357
167	0xba89295c	-0.0010464597
168	0x3e5c6ecb	0.21526639
169	0xbebe3433	-0.371492
170	0x3dd7ec47	0.10543113
171	0xbe3403e3	-0.17579608
172	0xbd695c6a	-0.0569729
173	0x3d421d37	0.047391143
174	0xbdac0bba	-0.08400674
175	0xbe561de4	-0.2090984
176	0x3db1fb0b	0.08690461
177	0xbd5a17cf	-0.053245362
178	0xbe94e809	-0.2908328
179	0x3e061271	0.13092972
180	0xbe2e15cf	-0.17000507
181	0xbef0294e	-0.46906513
182	0xbe908988	-0.28229928
183	0x3c86139d	0.016366774
184	0xbea93ee4	-0.33055794
185	0xb64d7d80	-3.062043e-06
186	0xbe14207a	-0.14465514
187	0xbeba72a8	-0.364156
188	0xbdf70f54	-0.120634705
189	0xbe729d08	-0.23692715
190	0xbe92da85	-0.28682342
191	0x3ebe3e58	0.3715694
192	0xbbcf9f09	-0.006336097
193	0x3f1dfd4c	0.61714625
194	0xbd47b2bd	-0.048754442
195	0xbdd99891	-0.10624803
196	0xbe0dd400	-0.13850403
197	0xbe430b46	-0.19047269
198	0x3ca60480	0.020265818
199	0xbed711be	-0.42005724
200	0xbeb36af7	-0.35042545
201	0xbeaae1d6	-0.33375424
202	0x3d7c7d30	0.061642826
203	0xbe48001a	-0.19531289
204	0xbdf90bf8	-0.12160486
205	0xbeafd509	-0.3434222
206	0xbe972435	-0.2951981
207	0x3df108cb	0.11769255
208	0x3e20f662	0.15718988
209	0x3d6b9c89	0.05752233
210	0xbe372bab	-0.17887752
211	0x3e14bf65	0.14526136
212	0xbe484ecc	-0.19561309
213	0xbe86bbff	-0.26315305
214	0xbe550176	-0.20801339
215	0xbde7e2cb	-0.11322554
216	0xbeb8cfaa	-0.36095935
217	0x3d601eb5	0.054716785
218	0xbe1cb8eb	-0.15304916
219	0x3e24d001	0.16094972
220	0xbe31782f	-0.17331003
221	0xbdcecb13	-0.10097327
222	0xbefd66be	-0.4949245
223	0xbe91c3dd	-0.28469744
224	0xbf079478	-0.5296092
225	0xbe1bd688	-0.15218556
226	0xbe80220c	-0.25025976
227	0xbe9433dc	-0.28945816
228	0x3dae061b	0.08497258
229	0xbdf3f1f6	-0.11911385
230	0xbea16aed	-0.3152689
231	0xbf063e83	-0.52439135
232	0xbe33c8a2	-0.17557004
233	0xbd473e4b	-0.04864339
234	0xbede56a5	-0.4342548
235	0xbe2eedc8	-0.17082894
236	0x3f81f153	1.0151771
237	0xba0a592d	-0.00052775705
238	0xbea9679e	-0.33086866
239	0xbeb93280	-0.3617134
240	0x3c0db8b8	0.008649997
241	0x3e9affff	0.30273435
242	0xbef7dd0e	-0.4841084
243	0xbe4bd655	-0.1990598
244	0x3df1b2f3	0.1180171
245	0x3ea50753	0.3223215
246	0x3c416d7e	0.01180589
247	0xbe390121	-0.18066837
248	0xbea3c6ea	-0.31987697
249	0xbe56295c	-0.20914215
250	0xbe5b973d	-0.21444412
251	0xbe9a2da9	-0.3011296
252	0x3e8e4c56	0.27792615
253	0x3e4ddce1	0.2010379
254	0xbe4fa3e8	-0.20277369
255	0xbe8302f7	-0.255882

linear2.weight f4 [256, 256]
0	0x3c9aa6ed	0.018878425
1	0x3b00c5b2	0.0019649086
2	0xbb268060	-0.0025406107
3	0xbcfbb2df	-0.03072494
4	0x3d2bac6d	0.041912485
5	0xbcbeba3d	-0.023282165
6	0xba49bad3	-0.00076953805
7	0xbac1bed3	-0.0014781601
8	0xbd5a9e5b	-0.053373676
9	0x3c8641ce	0.0163888
10	0x3ca4c89a	0.020115186
11	0xbdb8953c	-0.09012839
12	0x3b9fca9b	0.0048764474
13	0x3c9759ce	0.01847544
14	0xbb4b878c	-0.0031056134
15	0x3c27ad98	0.010234259
16	0xbc9d7298	-0.019219682
17	0x3ac26968	0.0014832439
18	0xbd54fcc3	-0.051998865
19	0x3948d7e0	0.00019153906
20	0xbdb98688	-0.09058863
21	0x3c19c960	0.00938639
22	0xbbef39b6	-0.007300581
23	0xbd710dfc	-0.058851227
24	0xbd136125	-0.035981316
25	0xbcd7f4c8	-0.026361838
26	0xbd7aa0de	-0.06118857
27	0x3c32e8b9	0.010919743
28	0x3cf4945c	0.0298559
29	0xbd1cf678	-0.03832099
30	0xbd248761	-0.04016817
31	0xbd138376	-0.036014043
32	0xbd9c776c	-0.076399654
33	0xbd4ba74b	-0.04972009
34	0xbd6004d4	-0.054692104
35	0xbcf4b5a2	-0.029871766
36	0xbd03a451	-0.032139126
37	0x3cb7f9d8	0.022458002
38	0x3d0d926a	0.03456346
39	0xbd6daf1a	-0.058028318
40	0xbcee3584	-0.029078253
41	0xbc6458e1	-0.013937206
42	0xbb1104e0	-0.002212815
43	0x3be17e04	0.0068814773
44	0x3ccfc310	0.025361568
45	0x3c957dd5	0.018248478
46	0xbdafb5f1	-0.085796244
47	0xbd80eb66	-0.06294899
48	0x3cbd6065	0.023117254
49	0x3d211cc4	0.039334074
50	0xbc75a903	-0.014993909
51	0x3c58d980	0.01323545
52	0xbd519b0a	-0.051173247
53	0x3b839610	0.0040156916
54	0x3bcaefa7	0.0061931196
55	0x3d21a17a	0.039460637
56	0xbda29f66	-0.07940559
57	0x3d03c332	0.032168575
58	0xbb73c3d8	-0.003719559
59	0xbd4e2c45	-0.050335187
60	0x3c7312eb	0.014836053
61	0xbd88546a	-0.06656726
62	0xbd6b9bf0	-0.05752176
63	0x3ce4d28d	0.02793243
64	0xbd6ab4c9	-0.057301316
65	0xbcab6c99	-0.020925807
66	0xbc7631e0	-0.01502654
67	0xbd2c22c5	-0.042025346
68	0x3d37028a	0.044680156
69	0xbc130c6b	-0.008975129
70	0xbb99ec19	-0.0046973345
71	0xbd8161ad	-0.06317458
72	0xbd8b3c5a	-0.067986205
73	0xbd5c8d45	-0.053845663
74	0x3d795552	0.060872383
75	0xbdd540ab	-0.10412725
76	0xbd497a20	-0.049188733
77	0x3c0e8b5e	0.00870022
78	0x3d6aa5e3	0.05728711
79	0x3d053baf	0.03252762
80	0xbda912e7	-0.082555585
81	0x3d021f01	0.03176785
82	0x3c0575d3	0.008145767
83	0xbd164fe8	-0.0366973
84	0xbc876f87	-0.016532673
85	0xbcdeb61e	-0.02718645
86	0xbc540d53	-0.01294263
87	0xbc4372c0	-0.011929214
88	0xbd28d694	-0.041220263
89	0xbcf60045	-0.030029425
90	0x3b274185	0.002552123
91	0xbd823a34	-0.063587576
92	0xbce4fffe	-0.027954098
93	0x3cb0673a	0.021533597
94	0xbcab2974	-0.02089379
95	0xbc52aa20	-0.012857944
96	0xbd3f7210	-0.046739638
97	0x3ceb6079	0.028732525
98	0x3abe4911	0.0014517625
99	0xbcdd09c9	-0.026982205
100	0x3b4b63f3	0.0031034916
101	0xbdaa0829	-0.08302338
102	0xbd220a7a	-0.039560772
103	0xbc773e68	-0.015090562
104	0xbb98fea5	-0.004669028
105	0xbd95a877	-0.07307523
106	0xbbeb0dbd	-0.0071732686
107	0xb9658c46	-0.00021891398
108	0xbc0c268a	-0.00855411
109	0xbcae8880	-0.021305323
110	0xbda1bed8	-0.07897729
111	0x3d746b6a	0.05967275
112	0x3cfd8b29	0.030950146
113	0xbd973733	-0.07383575
114	0xbd4cd351	-0.050006215
115	0xbd658e0a	-0.056043662
116	0xbd8ece55	-0.069729485
117	0x3cc6087d	0.02417397
118	0x3b807876	0.00392061
119	0x3cd57f14	0.026061572
120	0x3b900658	0.0043952875
121	0xbbb30a70	-0.0054638907
122	0x3c81698f	0.015797405
123	0x3d1a81a1	0.03772128
124	0x3d26155b	0.04054771
125	0xbd7e5570	-0.0620932
126	0x3c9f28f7	0.019428713
127	0x3cdc046d	0.02685758
128	0xbcd0413b	-0.02542173
129	0x3c6b3158	0.014355026
130	0xbd8b4305	-0.06799892
131	0x3d3fec66	0.046856306
132	0xbd686b40	-0.056742907
133	0x3cf7f8bd	0.030269975
134	0xbd3f1f83	-0.04666091
135	0xbd49f1f9	-0.04930303
136	0x3bc51939	0.0060149697
137	0x3ca7c19c	0.020478062
138	0x3d34d3fd	0.04414748
139	0x398b8200	0.00026609004
140	0x3d0a9865	0.03383674
141	0x3cca57d6	0.024700087
142	0xbd602b02	-0.054728515
143	0x3cbdf68c	0.023188852
144	0x3d50c7bd	0.050971735
145	0xbd916026	-0.07098417
146	0x3c3d3288	0.011547692
147	0xbd9245fb	-0.07142254
148	0xbc9e91ad	-0.019356573
149	0x3d0da3cf	0.03458005
150	0xbd21c612	-0.039495535
151	0xbd133248	-0.035936624
152	0xbc3dd966	-0.011587476
153	0xbcff7caf	-0.031187383
154	0x3cfd5e3c	0.030928724
155	0x3c312f5c	0.010814514
156	0xbd3548cf	-0.04425889
157	0xbce766b3	-0.028247213
158	0xbce1f0d4	-0.027580656
159	0xbd35ab72	-0.044352956
160	0x3acc085f	0.001556646
161	0x3d24adf0	0.040204942
162	0x3caaed7a	0.02086519
163	0xbd64d462	-0.055866607
164	0xbcaf45fc	-0.021395676
165	0xbca7359e	-0.020411309
166	0x3c62c1c2	0.013840141
167	0xbc033aca	-0.008009622
168	0xbc653718	-0.013990186
169	0x3d5c02f0	0.05371374
170	0xbd83bf0c	-0.06432924
171	0xbd3c496d	-0.04596846
172	0xbbc4bbf0	-0.006003849
173	0xbc770c82	-0.015078666
174	0xbcdcce86	-0.026953947
175	0x3cebac76	0.02876876
176	0xbd050452	-0.032474823
177	0x3c929558	0.017893478
178	0xbd740c52	-0.059582062
179	0xbb4b65b9	-0.0031035973
180	0xbd1431b5	-0.036180217
181	0x3d1cbb40	0.038264513
182	0xbbcb3f30	-0.006202601
183	0xbc89e58d	-0.016833091
184	0x3d206fbe	0.039169066
185	0xbd3547ed	-0.044258047
186	0xbcfe268c	-0.03102424
187	0xbc639966	-0.0138915535
188	0xbce2e344	-0.02769626
189	0x38ba3400	8.878857e-05
190	0xbd74252c	-0.059605762
191	0x3c744aa8	0.014910378
192	0xbcfff5bc	-0.031245105
193	0xbd50da76	-0.05098959
194	0x3ce74d77	0.02823518
195	0x3b8076e7	0.0039204243
196	0xbd594a34	-0.05304928
197	0xbd2e5f69	-0.04257146
198	0xbc349f12	-0.011024253
199	0xbd424123	-0.0474254
200	0xbd60ff0f	-0.054930743
201	0x3d57b010	0.05265814
202	0xbd4a7b76	-0.049434148
203	0x3ae75ce3	0.0017651584
204	0xbd3a3e2e	-0.045469455
205	0xbd0608e2	-0.032723315
206	0xbd0c8ca9	-0.03431383
207	0xbd815e5b	-0.06316825
208	0xbc09db13	-0.008414048
209	0xbd1122b8	-0.0354335
210	0xbcf3e520	-0.029772341
211	0xbdb9b419	-0.09067554
212	0x3c524be0	0.012835473
213	0xbbd9ebf0	-0.0066504404
214	0x3b279e6a	0.00255766
215	0xbd5b9966	-0.05361309
216	0x3d5174a1	0.051136617
217	0xbd1595f0	-0.036519945
218	0x3d791ab2	0.060816474
219	0x3d0c678b	0.034278434
220	0xbcf31390	-0.029672414
221	0xbbfd9519	-0.007738721
222	0xbcabce2b	-0.020972332
223	0xbcd3eb19	-0.02586894
224	0xbda2b8d5	-0.0794541
225	0xbd0ff00d	-0.03514104
226	0x3cfbdabd	0.030743951
227	0x3ca3df3d	0.02000391
228	0xbd2682e4	-0.04065217
229	0x3c93f1c4	0.018059619
230	0xbd371537	-0.044697966
231	0x3ccbae6e	0.024863448
232	0xbd5a1b4a	-0.05324868
233	0x3cdddb98	0.02708225
234	0xbdb86395	-0.09003369
235	0xbcb9a6dd	-0.022662574
236	0xbde0a8d0	-0.109696984
237	0xbc6d1451	-0.014470176
238	0xbd082a72	-0.033243604
239	0xbd48525a	-0.04890666
240	0x3d13c738	0.03607866
241	0x3b8a82ac	0.004227003
242	0xbd2f3a2c	-0.042780086
243	0xbd1bdca8	-0.03805223
244	0xbd63c594	-0.055608347
245	0xbd67a1c8	-0.05655077
246	0xbd42cc38	-0.04755804
247	0xbd27c406	-0.040958427
248	0xbd0a2e3c	-0.0337355
249	0xbc01cc7e	-0.00792229
250	0xbd175720	-0.036948323
251	0x3c4d933c	0.01254731
252	0x3c758493	0.014985221
253	0xbc738b79	-0.014864796
254	0x3d73b2ea	0.059496798
255	0xbd097028	-0.033554226

linear2.bias f4 [256]
0	0xbc325887	-0.010885364
1	0x3991f1e6	0.00027836784
2	0xbdadceb2	-0.084866896
3	0xbd82dc68	-0.063896954
4	0xbdb07633	-0.08616295
5	0xbdcc5dd4	-0.09978834
6	0xbd6b7f52	-0.05749447
7	0xbea659b9	-0.32490328
8	0xbdb76506	-0.089548156
9	0xbe3616c7	-0.17782126
10	0xbd263635	-0.04057904
11	0xbd7540d1	-0.059876267
12	0xbdb3667e	-0.08759783
13	0xbcd3a18c	-0.025833867
14	0xbde7c462	-0.11316754
15	0xbe075e4f	-0.1321957
16	0xbe06a717	-0.13149677
17	0xbd83fb8b	-0.064444624
18	0xbdca572a	-0.098799065
19	0x3dab8816	0.08375566
20	0x3c1a86ac	0.009431522
21	0xbca8f340	-0.020623803
22	0xbd73ad04	-0.059491172
23	0xbe6e1a08	-0.23252118
24	0xbd78dc14	-0.060756758
25	0xbe223f6f	-0.1584451
26	0x3bbc5161	0.005747006
27	0xbe396cb9	-0.1810788
28	0xbdc6a070	-0.0969857
29	0xbdba2938	-0.09089893
30	0xbd963267	-0.07333832
31	0xbe3fa0c6	-0.18713674
32	0xbd92d417	-0.07169359
33	0xbdfd4d3a	-0.123682454
34	0xbd7e47b4	-0.0620801
35	0xbdd69207	-0.10477071
36	0xbd766ab7	-0.060160365
37	0xbda6cf99	-0.08145065
38	0xbdb7ac93	-0.08968463
39	0x3d099d28	0.03359714
40	0xbda85e87	-0.08221155
41	0xbd14a029	-0.036285553
42	0x3f47ffa8	0.78124475
43	0x3ccdf258	0.025139973
44	0xbd51a288	-0.051180393
45	0xbe3c56e7	-0.18392526
46	0xbdb46cab	-0.08809789
47	0xbd183e75	-0.03716894
48	0xbc320b8a	-0.010867009
49	0x3cd8f034	0.026481725
50	0x3cb1fa48	0.021725789
51	0x3c97e43c	0.018541448
52	0xbcce119c	-0.025154881
53	0xbdd1384c	-0.10215816
54	0xbd970828	-0.073746026
55	0x3d95fcae	0.073235855
56	0xbdd0a0dc	-0.101869315
57	0xbdae185e	-0.085007414
58	0xbe0e9141	-0.13922597
59	0x3c5976d3	0.013272959
60	0xbcb72cff	-0.022360323
61	0xbe49ed13	-0.19719343
62	0x3f80deae	1.0067956
63	0xbd46db04	-0.048548713
64	0xbde7bb63	-0.11315038
65	0x3d0fea7a	0.035135724
66	0xbcc2ff22	-0.023803297
67	0xbd825b36	-0.06365053
68	0xbd7dff7a	-0.06201122
69	0xbc44155d	-0.011967984
70	0xbd8d8421	-0.06909967
71	0x3e2b9567	0.16756211
72	0xbdfb4cc8	-0.12270504
73	0x3e6d3561	0.23164894
74	0xbbc21f08	-0.0059241094
75	0xbdcb12ea	-0.09915717
76	0x3e103c27	0.14085446
77	0xbc84b41a	-0.01619916
78	0xbba4a96b	-0.005025079
79	0x3e30af76	0.17254433
80	0xbd89e6b4	-0.06733456
81	0xbdb0611c	-0.08612272
82	0xbc6b210d	-0.014351142
83	0x3d0beb2a	0.034159817
84	0xbdf492d8	-0.11942071
85	0xbde41a15	-0.11137787
86	0xbe598ce1	-0.21245147
87	0xbd2497d1	-0.040183846
88	0xbe2dd6f9	-0.16976537
89	0xbe73ce3d	-0.23809142
90	0xbdd263b1	-0.10272921
91	0xbd04c4ff	-0.032414433
92	0xbdafb400	-0.08579254
93	0xbd1623f7	-0.036655392
94	0x3de9f435	0.11423532
95	0x3f2407b1	0.64074236
96	0xbdb84087	-0.089966826
97	0xbd9d1ebc	-0.07671878
98	0xbd3f347c	-0.046680912
99	0x3c7195f7	0.014745227
100	0xbdf3f780	-0.11912441
101	0xbd8c74c1	-0.068582065
102	0xbd94ae99	-0.07259864
103	0x3df1f1a1	0.11813665
104	0xbbb62246	-0.005558285
105	0xbed3d097	-0.4137008
106	0xbda90728	-0.08253318
107	0xbd82bce3	-0.063836835
108	0xbda955e9	-0.08268339
109	0xbdcfca02	-0.10145952
110	0xbe37866c	-0.17922372
111	0xbd5df62c	-0.054189846
112	0xbd384ad1	-0.044993225
113	0x3b98f9c1	0.004668445
114	0xbe00597e	-0.12534139
115	0xbdce778a	-0.10081394
116	0x3cb416b8	0.02198349
117	0x3dd177f8	0.1022796
118	0xbe0a8bbe	-0.1352987
119	0xbd34228f	-0.04397827
120	0xbda89c8e	-0.082329854
121	0xbdfd32ca	-0.12363203
122	0xbd853fab	-0.06506284
123	0xbc3289c6	-0.010897106
124	0xbbe7b1ae	-0.0070707416
125	0xbdce66c3	-0.10078194
126	0xbe001cd0	-0.12510991
127	0xbd8d0009	-0.06884772
128	0xbd6a4d52	-0.057202645
129	0xbe19b7f9	-0.15011586
130	0x3e64e368	0.22352374
131	0xbe36cce1	-0.17851593
132	0xbd5b10d6	-0.053482853
133	0xbe089355	-0.13337453
134	0xbda304bf	-0.079598896
135	0xbda877f0	-0.08226001
136	0xbd721bc9	-0.05910853
137	0xbdab021c	-0.08350012
138	0xbe27b569	-0.16377796
139	0xbd37517a	-0.044755436
140	0xbe0a46ca	-0.13503566
141	0xbdb3155b	-0.087443076
142	0xbcc20f2c	-0.023688875
143	0xbe90a6f5	-0.28252378
144	0xbe9c109a	-0.30481416
145	0xbcad655e	-0.0211665
146	0xbdb03dae	-0.086055145
147	0x3d86d592	0.06583704
148	0x3e6912e7	0.22761117
149	0xbd69ec62	-0.057110198
150	0xbd90b9f2	-0.07066716
151	0xbdb9680d	-0.09053049
152	0xbda5a245	-0.08087591
153	0xbdf7312b	-0.12069925
154	0x3e41db2f	0.18931268
155	0xbd6731d3	-0.056444
156	0xbe157612	-0.14595821
157	0xbd914eb3	-0.07095089
158	0xbdbc222c	-0.09186205
159	0xbceb1e7e	-0.028701063
160	0x3e874842	0.26422316
161	0xbd945eb0	-0.07244623
162	0xbd88751c	-0.06662962
163	0xbd9c0907	-0.07618909
164	0xbe355d5d	-0.17711397
165	0xbdd2648b	-0.10273083
166	0xbd6930cc	-0.056931302
167	0x3e3b4881	0.18289377
168	0xbe9324a7	-0.287389
169	0x3d792c10	0.060833037
170	0xbe0553ef	-0.130203
171	0xbdb71357	-0.08939236
172	0xbb4ff84b	-0.0031733688
173	0x3e9a2bfc	0.30111682
174	0xbcb2afc3	-0.021812325
175	0xbb85db4a	-0.004084979
176	0xbdf2d257	-0.118565254
177	0xbe19f63a	-0.15035334
178	0xbdaf3c89	-0.08556468
179	0x3f114c08	0.5675664
180	0xbd76b0e5	-0.060227294
181	0xbc731e65	-0.01483879
182	0xbca859ee	-0.020550694
183	0xbebe187e	-0.3712806
184	0xbdcd0b68	-0.10011941
185	0xbd0cc6a0	-0.03436911
186	0xbdc1eba6	-0.094687745
187	0xbde00a50	-0.10939467
188	0x3eb70aa7	0.35750315
189	0x3e02c91d	0.12772031
190	0xbd236ab1	-0.03989667
191	0xbdac156f	-0.08402526
192	0x3cb95366	0.022622775
193	0xbd7c92c3	-0.0616634
194	0xbdaa5846	-0.08317618
195	0xbe37cc78	-0.17949092
196	0x3db8930e	0.090124235
197	0x3c3001de	0.010742633
198	0xbba9b5b1	-0.00517913
199	0xbe077e1e	-0.13231704
200	0xbc81665f	-0.015795885
201	0xbd8892f8	-0.06668657
202	0xbdafc645	-0.08582739
203	0xbc930513	-0.017946756
204	0xbe408068	-0.18798983
205	0xbd945e79	-0.07244582
206	0xbdbd3d65	-0.09240226
207	0xbd106a5d	-0.035257686
208	0xbda8e0f2	-0.0824603
209	0x3e22e4d3	0.15907602
210	0xbdc5045f	-0.09619974
211	0xbd628c41	-0.055309538
212	0xbd89516c	-0.06704983
213	0x3e15d386	0.14631471
214	0x3ca3d71e	0.020000037
215	0xbdaabf4e	-0.0833727
216	0x3dcdcce8	0.100488484
217	0xbdbe6a93	-0.09297671
218	0xbd111b3c	-0.035426363
219	0x3d7fa359	0.06241164
220	0xbd455929	-0.048180733
221	0xbd9653f3	-0.07340231
222	0xbd461289	-0.04835752
223	0xbd5ba869	-0.053627405
224	0xbbfc5dff	-0.007701635
225	0xbdd68267	-0.10474091
226	0xbd413fb2	-0.047179885
227	0x3dd69969	0.104784794
228	0x3e424dfa	0.18975058
229	0xbdac73a8	-0.08420497
230	0xbd8fc6f9	-0.07020373
231	0x3c3553aa	0.01106731
232	0x3dfabb94	0.12242809
233	0xbe8886a3	-0.2666522
234	0xbd0cbba2	-0.034358628
235	0xbdb67aa9	-0.08910114
236	0xbd937053	-0.071991585
237	0xbd7d2097	-0.06179866
238	0xbdc16ed4	-0.09444967
239	0xbd1dccfb	-0.038525563
240	0xbe439915	-0.19101365
241	0xbceadb89	-0.028669136
242	0xbdd7659e	-0.10517429
243	0x3ffdc6c2	1.9826281
244	0xbc21711d	-0.009853628
245	0xbd8101b3	-0.06299152
246	0x3bf28174	0.007400686
247	0xbdfdac51	-0.12386382
248	0x3b802f47	0.003911886
249	0xbcf86b79	-0.030324684
250	0xbd32e8b2	-0.043678947
251	0xbd932680	-0.07185078
252	0xbd7945f3	-0.060857724
253	0xbcd7ebd9	-0.026357578
254	0x3e7b3368	0.24531329
255	0xbd4e3a54	-0.050348595

linear3.weight f4 [3, 256]
0	0x3cf3c795	0.029758254
1	0xbc22a95f	-0.0099280765
2	0x3bc25662	0.005930708
3	0xbd4aae12	-0.049482413
4	0xbcc68cb2	-0.02423701
5	0x3ce0148b	0.027353546
6	0xbd183bfe	-0.037166588
7	0x3c4cd385	0.012501602
8	0x3c96d616	0.018412631
9	0xbd227c72	-0.03966946
10	0xbcc1963c	-0.023631208
11	0x3c25668c	0.01009525
12	0xbe8f889f	-0.2803392
13	0xbd2eb28d	-0.042650748
14	0xbae103ce	-0.0017167272
15	0xbd221a61	-0.039575938
16	0xbe3de5bd	-0.1854467
17	0x3e75ec70	0.24015975
18	0xbcf5887e	-0.029972311
19	0xbee7d3a8	-0.45278668
20	0xbad66e1c	-0.001635972
21	0x3d1eedf8	0.038801163
22	0xbce6f650	-0.028193623
23	0x3cb6d222	0.022316996
24	0x3d81e2d8	0.06342095
25	0xbd1030a6	-0.035202645
26	0xb82d3f99	-4.1305644e-05
27	0xbb3baed5	-0.0028638144
28	0xbdd4a62f	-0.103832595
29	0xbcb06845	-0.021534095
30	0x3a21ab69	0.00061672047
31	0xbc5153cc	-0.012776326
32	0xb9929715	-0.00027959855
33	0xbb985943	-0.0046493127
34	0x3c841db4	0.016127445
35	0x3c22bbab	0.009932439
36	0x3b90153f	0.004397064
37	0xbb025240	-0.001988545
38	0xbcf3d437	-0.029764278
39	0x3b84f580	0.004057586
40	0x3c9e72f4	0.019341923
41	0xbcb021f3	-0.021500563
42	0x3e8c7d46	0.27439326
43	0xbe3a3de2	-0.18187669
44	0x3aee72fa	0.0018192225
45	0x3b2102af	0.002456825
46	0x3b980983	0.0046398058
47	0xbcdfa430	-0.02729997
48	0xbb7ada6e	-0.0038277167
49	0xbd0b9486	-0.03407719
50	0x3cc42e9b	0.023948004
51	0x3c58e0cc	0.0132371895
52	0xbd00b854	-0.03142579
53	0x3a7d5337	0.0009663584
54	0xbd1de83d	-0.038551558
55	0xbd045785	-0.032310028
56	0xbd58bf9e	-0.052917115
57	0x3b66d996	0.0035224906
58	0xbbdf3fd0	-0.006813027
59	0xbb2eeb94	-0.0026690708
60	0xbd2681a4	-0.04065098
61	0xbd366eb0	-0.044539154
62	0x3e09531b	0.13410608
63	0x3d119402	0.035541542
64	0xbd0ebd7e	-0.034848683
65	0xbc8e63b9	-0.017381536
66	0x3cc9291a	0.024555732
67	0x39081cc9	0.00012980694
68	0x3b69da6b	0.0035683166
69	0x3c285a42	0.010275425
70	0xba95ed82	-0.0011438581
71	0x3d920c13	0.07131209
72	0xba688fa0	-0.00088714994
73	0x3e41676a	0.18887106
74	0x3c112d71	0.008860932
75	0x3a7d1ce2	0.0009655488
76	0x3d24808d	0.040161658
77	0x3c91bc55	0.017789999
78	0xbc87bb14	-0.016568698
79	0xbb9d5df8	-0.0048024617
80	0xbcc3964f	-0.023875384
81	0x3cd6bcbe	0.026213046
82	0x3bc0a736	0.005879308
83	0xbd78aff2	-0.06071467
84	0xbd9a7332	-0.07541503
85	0xbc57c36a	-0.013169149
86	0xbb90ea4e	-0.0044224625
87	0xbc0a6e36	-0.008449128
88	0xbca72486	-0.020403158
89	0x3c3a1751	0.011358098
90	0xbccaf62c	-0.024775587
91	0xbbc20f0f	-0.0059222053
92	0xbc89e5f5	-0.016833285
93	0x3b457585	0.0030129862
94	0xbd0cf4ec	-0.034413263
95	0x3e6342d9	0.22193469
96	0xbbc24102	-0.0059281597
97	0x3ad69c3d	0.0016373467
98	0xbcc09554	-0.023508705
99	0x3cab1335	0.020883182
100	0xbe217bda	-0.15769902
101	0x3c0e4b09	0.008684882
102	0x3ce63ea0	0.028106034
103	0xbecb937b	-0.39760956
104	0xba4aca06	-0.00077357923
105	0xbd92dbd3	-0.071708344
106	0xbcb9fa40	-0.022702336
107	0x3b631ea0	0.0034655705
108	0xbb58ce1e	-0.003308184
109	0x3b86b104	0.0041104574
110	0xbd01bad1	-0.031672303
111	0xbc6818c2	-0.014166059
112	0xbc0567e6	-0.008142447
113	0x3cf2c98d	0.029637123
114	0xbc12a52b	-0.008950512
115	0xbc3248a0	-0.010881573
116	0x3bf57d58	0.007491749
117	0xbe545399	-0.20735015
118	0xbc4be487	-0.012444622
119	0xbd1c58bc	-0.03817056
120	0x3d3f1ab8	0.04665634
121	0x3c79f546	0.015256232
122	0x3ae63b5d	0.0017565299
123	0xbd262b38	-0.04056856
124	0x3cde8f4c	0.027167939
125	0xbb809b89	-0.0039247912
126	0x3a44bd8e	0.00075050525
127	0x3d1a3732	0.037650295
128	0xbd022f18	-0.031783193
129	0xbcba9c87	-0.022779716
130	0x3d53fbf5	0.051753957
131	0xba1bf8b2	-0.0005949839
132	0xbc2bd35c	-0.010487404
133	0x3ce06325	0.027391026
134	0x3c008e60	0.007846445
135	0xbd99cbe3	-0.075095914
136	0xbc02b890	-0.007978573
137	0x3d3f7b82	0.046748646
138	0xbe70b0f8	-0.23505008
139	0x3b510ce5	0.0031898555
140	0xbce1772a	-0.027522642
141	0x3be8d4b3	0.007105434
142	0xbc0ea8b0	-0.00870721
143	0xbbc039c8	-0.005866263
144	0xbc5a5c19	-0.013327622
145	0x3d8972cf	0.06711351
146	0xbab3ce36	-0.0013718072
147	0x3a8ea206	0.0010882027
148	0x3c21a7b1	0.009866641
149	0x3d04226f	0.0322594
150	0xbbd664d6	-0.0065427823
151	0x3aa2fe40	0.0012435392
152	0x3ccc28e0	0.024921834
153	0xbcffdcf7	-0.031233294
154	0xbf2737cb	-0.6531951
155	0xbbfe9a34	-0.0077698473
156	0x3c910393	0.0177019
157	0xbe228582	-0.15871242
158	0x3d966fdf	0.073455565
159	0x3c18cc26	0.0093260165
160	0x3e01fc04	0.12693793
161	0x3c86639c	0.01640492
162	0xbce626e1	-0.02809471
163	0x3c0579b5	0.008146693
164	0x3c0c7c40	0.008574545
165	0xb952b333	-0.00020093918
166	0x3a59e09c	0.00083113625
167	0xbb821e96	-0.0039709313
168	0xbbd85a81	-0.006602586
169	0xbe3966b0	-0.18105578
170	0xbdabdb10	-0.08391392
171	0x3bddb7f5	0.006766314
172	0x3d2ce938	0.042214602
173	0x3e0b660f	0.13613151
174	0x3c4dbf8b	0.012557874
175	0xbd20e4e1	-0.039280776
176	0x3c7071f9	0.014675611
177	0x3d38d333	0.04512329
178	0xbcba5010	-0.022743255
179	0x3db84a80	0.08998585
180	0x3c58c2d6	0.013230046
181	0xbd3e4b64	-0.046458617
182	0xbe07c81d	-0.13259931
183	0xbd5e5f29	-0.05428997
184	0x3d43eed4	0.047835186
185	0x3cd179de	0.025570806
186	0xbb15045a	-0.002273819
187	0xbd6f627b	-0.058443528
188	0x3e3e4dc1	0.18584348
189	0x3d3deb7a	0.046367146
190	0x3c0f2f06	0.008739239
191	0xbbad747b	-0.0052934266
192	0x3b793f3c	0.0038032075
193	0x3cdccfc2	0.026954535
194	0xbc77cd46	-0.015124625
195	0xbb40a724	-0.0029396499
196	0xbd52a0c0	-0.051422834
197	0xbbd757f0	-0.0065717623
198	0xbcfffdfe	-0.031249043
199	0xbc997606	-0.018733036
200	0x3ba915c2	0.0051600644
201	0x3b8fc6a1	0.004387692
202	0x3d2550e2	0.04036034
203	0xbd443a5a	-0.04790721
204	0xbe230fcf	-0.15923999
205	0xbb6607e1	-0.003509991
206	0xbcb07707	-0.021541132
207	0x3a5f78fd	0.00085248036
208	0xba238636	-0.00062379555
209	0x3d4ea10b	0.05044655
210	0xbe3280bd	-0.17431922
211	0x3cd8e68a	0.026477117
212	0x3c9f2e45	0.019431243
213	0xbeea24e9	-0.45731285
214	0x3d23dff1	0.04000849
215	0x3ca3dd00	0.020002842
216	0xbe82165c	-0.25407684
217	0x3cd58fe3	0.026069587
218	0x3cf67f74	0.030090071
219	0xbd7476fb	-0.05968378
220	0x3a8ffbe2	0.0010985101
221	0xbccdc339	-0.025117503
222	0x3b537086	0.0032263114
223	0x3a6268f8	0.00086368574
224	0xbee1a666	-0.44072264
225	0xbd32a5a9	-0.043615017
226	0x3c416198	0.011803053
227	0xbd2d52a2	-0.042315133
228	0xbeadbbce	-0.33932346
229	0x3cfc3983	0.030789142
230	0xbdc2b6d6	-0.095075294
231	0xbce67afb	-0.028134814
232	0x3d5a7f99	0.053344343
233	0xbb7daece	-0.0038708928
234	0xbcb050a5	-0.02152283
235	0xbca7925c	-0.020455532
236	0x3cd5e93c	0.026112191
237	0x3c09b55e	0.008405058
238	0xbcb45e89	-0.022017734
239	0x3d14c93d	0.03632473
240	0x3ca0db21	0.019635739
241	0x3c858b52	0.016301785
242	0xba8b4d47	-0.0010627889
243	0x3eaeedb9	0.34165743
244	0xbbe1a8d2	-0.00688658
245	0xbba76d13	-0.005109438
246	0xbbe4504d	-0.0069675804
247	0xbca403be	-0.020021316
248	0xbcc7202d	-0.024307335
249	0xbc9b5a41	-0.018963935
250	0x3d1f6ad0	0.038920224
251	0x3c541436	0.012944272
252	0x3bcbccdc	0.0062194895
253	0xbc20d38d	-0.009816063
254	0x3db3f3a4	0.08786705
255	0x3c9f86cb	0.019473454

linear3.bias f4 [3]
0	0x3ec676e3	0.38762578
1	0x3e8d71a9	0.27625778
2	0x3e56349b	0.20918505
