groupe09/snake_model.pth (torch, 17015 bytes, 4 tensors)

linear1.weight f4 [256, 11]
000000 35 f5 a3 3c 26 21 e3 bd b0 9d 87 be 15 7b 69 3e
       0.020014385 -0.11090307 -0.26487494 0.22800858
000010 af 13 b9 be 07 ff b1 be c6 1c cb 3d c7 4a 00 bf
       -0.3614783 -0.34764883 0.099175975 -0.501141
000020 05 09 66 be 6b a1 a5 3e 3f 5e aa be 76 4b c8 3e
       -0.22464378 0.32349715 -0.3327503 0.39120072
000030 82 45 ef 3e 16 84 e8 bd 74 0e c4 3d 4d dd 62 be
       0.46732718 -0.113533184 0.09573069 -0.22154732
000040 2d 01 9f 3e 90 9e ed be cf 38 86 3e 57 f8 12 3d
       0.31055585 -0.46410036 0.26215217 0.035881367
000050 f5 1f 69 be d4 4c aa 3e c9 64 26 bd 43 c7 a1 3e
       -0.22766097 0.3326174 -0.04062346 0.31597337
000060 d1 e0 28 3f 83 45 70 bc d7 b0 dd bd 61 0b cb be
       0.6596804 -0.01466501 -0.10824745 -0.3965712
000070 90 b9 91 be ef c8 c0 3e 99 ad 0c 3e a1 23 38 3e
       -0.28461885 0.376533 0.13738097 0.17982341
000080 2e 3b 57 3d 34 cb 59 be 17 d0 9a be 30 ff d3 3c
       0.052546673 -0.21268922 -0.30236885 0.025878519
000090 b7 11 e3 3e 3f f7 92 bd 0a b3 0f 3f 50 3a dd bd
       0.44349453 -0.07176065 0.56132567 -0.10802138
0000a0 62 1e dd 3e 74 c4 01 bf bf af 4f 3e 6f a4 ea be
       0.43187243 -0.5069039 0.20281886 -0.45828578
0000b0 89 49 97 3e 42 9b e0 3d d1 59 bd 3c 7f 67 bf be
       0.2954829 0.10967113 0.023114117 -0.3738365
0000c0 e7 a2 6d be 6a 46 63 3e a5 fc bb be 37 12 0d 3f
       -0.23206674 0.2219483 -0.3671619 0.5510592
0000d0 2f 47 9c 3e 30 36 da bd ef 21 af 3e f2 db 98 3d
       0.3052306 -0.10654867 0.34205577 0.07463826
0000e0 8a 91 4a 3c 52 6b f4 be 95 52 c0 3d 93 7f 2a bf
       0.012363801 -0.4773813 0.09390751 -0.6660091
0000f0 90 de 23 bf d2 a9 b3 3e fe d6 04 bf 77 1d 56 bf
       -0.6401148 0.350905 -0.5189055 -0.8363871
000100 e8 6c ed be 29 9a 0d 3f 82 8d 6f be c3 c9 e7 be
       -0.4637215 0.55313355 -0.23393825 -0.4527112
000110 4f d0 54 3e 63 7f 9f 3d bd 0e 26 bf f5 9c 7f 3e
       0.20782588 0.07787969 -0.6486624 0.24962218
000120 da ea 93 be 5b 65 eb be 18 8a 86 bd e9 2e 76 3e
       -0.28890115 -0.45975766 -0.06569308 0.24041332
000130 e5 ba df be 38 5f 7e bd fa 00 9f bd 88 be 4b be
       -0.43697277 -0.062102526 -0.07763858 -0.198969
000140 9e 22 49 3e e8 9f 97 be 13 d9 fe 3d 14 01 e0 3d
       0.19642112 -0.29614186 0.12443747 0.10937706
000150 5f 37 ca 3c ba a9 ca 3d c7 50 83 be 79 cd 1f be
       0.024684606 0.09895654 -0.25647566 -0.15605725
000160 b9 1c 01 bf 50 b7 ca 3e e6 8c a9 3d 4b 19 9d 3e
       -0.5043445 0.3959298 0.08278827 0.3068336
000170 55 13 1c bf 2e ad d5 be a5 0f 66 3e 7b ca 87 3e
       -0.60967 -0.41733688 0.22466905 0.26521668
000180 7f 67 a6 3b e6 d8 ca be 37 35 c0 3d 94 25 98 bd
       0.0050782557 -0.39618605 0.0938515 -0.074290425
000190 2a 50 50 3e 13 70 8a 3d a9 0f dd be 6a 04 3c 3e
       0.2034308 0.06759658 -0.4317601 0.18361059
0001a0 be 6c ec be e1 72 bf 3e 44 64 02 bf 20 6f 3d bf
       -0.46176714 0.37392333 -0.50934243 -0.7399769
0001b0 43 73 ce be 86 97 cd 3e 6e b8 99 3a 22 7b 04 bf
       -0.40322313 0.40154666 0.0011727938 -0.51750386
0001c0 dd b1 b7 3e 3d 27 f4 bd a7 fc 0b 3c 80 e4 0a 3c
       0.35877886 -0.119215466 0.008544124 0.00847733
0001d0 33 12 09 3e ac 5e 53 be 87 9a 14 be d2 25 9e 3d
       0.13385849 -0.20641583 -0.14512073 0.077220574
0001e0 20 d3 16 bd e3 35 00 bf d0 0e 75 be f4 88 2c 3e
       -0.03682244 -0.50082225 -0.23931432 0.16849118
0001f0 d6 3e 79 3e 12 a2 a9 3e 6b 31 16 3e 99 de 9b 3d
       0.24340376 0.33131462 0.14667289 0.076108165
000200 3b f9 92 be 6f 91 85 be 49 c2 05 3e 71 74 6c bd
       -0.28705773 -0.2608752 0.13062395 -0.057728235
000210 c7 d7 b8 bc b4 93 05 bf 26 0a d8 be 6a f4 01 bf
       -0.022563828 -0.521785 -0.42195243 -0.5076357
000220 28 2a 7f 3e 1a 6b c6 3e d6 79 ae 3b 3d ec 03 3f
       0.24918425 0.38753587 0.0053245826 0.51532346
000230 4e ce d0 be ef 75 df be 18 4c 6e bd 73 eb d8 be
       -0.40782398 -0.43644664 -0.058178037 -0.42367133
000240 c3 71 71 3d 6d ad ed 3d f3 02 7b be 6d d7 23 bf
       0.058946382 0.11605344 -0.24512844 -0.6400059
000250 5f 42 ce 3e c3 a7 83 3e 88 cf 02 bf 24 4d 12 bf
       0.40285012 0.2571393 -0.5109792 -0.5714896
000260 a1 81 c6 3e 2e aa 5e 3e 0b f1 8c 3e 04 2d 0e be
       0.38770774 0.21744606 0.2752765 -0.1388436
000270 c1 89 13 3f 5c 7c 1d 3d fb e2 de 3d 37 11 22 be
       0.5763207 0.038448676 0.10883137 -0.1582688
000280 c0 ce 4d 3d 0b 5d 83 3d cc 83 8a 3e ce b4 ca 3d
       0.050246 0.06414231 0.27053678 0.09897767
000290 45 5e 68 3d 48 79 a7 be 0d 07 f4 3e 88 d1 60 3e
       0.056730527 -0.32709718 0.4766163 0.2195493
0002a0 4e c4 10 be 41 ea 06 3e 6e e6 34 bd 5e 1d 1a 3e
       -0.14137384 0.13175298 -0.044165067 0.15050265
0002b0 62 eb 51 be bf 09 f0 bd 61 75 16 3e 42 97 ef 3d
       -0.20499948 -0.11720609 0.14693214 0.11698772
0002c0 fd e3 38 3e bd 74 98 3e e5 cc 7e 3e 79 57 bf be
       0.1805572 0.29776564 0.24882849 -0.37371424
0002d0 98 0d 1f bc e6 5c ee bc c6 bb b8 be 05 c1 80 be
       -0.009707831 -0.029097032 -0.3608076 -0.25147262
0002e0 45 a3 99 3d 64 68 5a be c2 35 b1 3d e3 1d 5b be
       0.07501844 -0.21328884 0.086528316 -0.2139812
0002f0 dc fc 5a ba 13 dd 50 bf 0f fe 9e 3e 47 c4 1b bf
       -0.0008353719 -0.8158733 0.31053206 -0.6084637
000300 ab 04 8e 3c d0 46 2f 3e 47 24 48 be 63 9e 10 3f
       0.01733621 0.17116857 -0.19545089 0.5649168
000310 97 96 26 3d e6 33 36 be a4 00 7c 3e 56 a5 06 be
       0.040670957 -0.17793235 0.2460962 -0.13149008
000320 47 3e d1 3e 53 56 54 be 01 46 86 3d 0a df 2a 3e
       0.40867826 -0.20736055 0.06556321 0.16686645
000330 c1 bf 20 be da d6 1c 3d c5 17 05 bf 60 c0 bd bd
       -0.15698148 0.038290836 -0.51989394 -0.09265208
000340 4c 7c 67 3e 9d 93 f3 3e be 57 81 be ae cd ae bd
       0.22606009 0.47573557 -0.25262254 -0.08535324
000350 6a ed 3d 3e 2f df cd 3d 89 c8 6e be 41 67 69 be
       0.18547598 0.100523345 -0.23318686 -0.22793294
000360 54 15 ff be 4e 96 97 bb eb b6 87 bd f7 d1 4a be
       -0.4982096 -0.004626072 -0.06626686 -0.19806658
000370 6b 35 ff be 44 e4 93 3e 03 a9 dc 3d cd 75 cb 3c
       -0.49845442 0.2888509 0.10774424 0.024836445
000380 19 b5 4e be c6 2f 3c be ba e4 77 3d 41 26 c2 3c
       -0.20186271 -0.18377599 0.060520865 0.023699882
000390 78 73 0c bd 3e 6c 87 be d3 4a 10 bd f5 66 0f 3c
       -0.034289807 -0.2644977 -0.035227608 0.008752574
0003a0 34 37 b9 3c df d9 83 be c7 31 28 3e 05 a0 07 bf
       0.02260933 -0.2575216 0.16425239 -0.52978545
0003b0 20 ef 43 3e 6f a9 ce be 7c 11 e7 be b9 7b a9 be
       0.19134188 -0.40363643 -0.45130527 -0.33102205
0003c0 47 f7 ea be 2b ef 8d 3e fd d8 eb be a6 62 e9 3e
       -0.45891783 0.27721533 -0.46063986 0.45583075
0003d0 a6 db 86 3d f7 72 0e be ec 87 dd 3d ae e8 85 3d
       0.06584863 -0.13911043 0.10816941 0.06538521
0003e0 ef 19 78 be fe 23 52 3e 90 a7 43 be 77 05 6d bd
       -0.24228643 0.20521542 -0.19106889 -0.05786654
0003f0 ee b5 31 be e2 77 55 3e 08 48 0a 3f 45 39 10 be
       -0.17354557 0.20846513 0.5401616 -0.14084347

linear1.bias f4 [256]
000000 e8 b0 5a bd a1 6f 6e be c1 4f 49 be bc 5a 0a bd
       -0.053391367 -0.2328477 -0.1965933 -0.033777937
000010 31 6f ee bd 09 b8 72 bd c3 f4 e0 3d d6 ae 99 be
       -0.11642302 -0.05925754 0.109841846 -0.30016202
000020 0b 1e 6d 3d 05 5c 60 be f9 f9 9b 3e d0 c9 54 3f
       0.05788998 -0.21910103 0.30464152 0.8312044
000030 33 8e ac be cc 52 db 3c 97 97 9c be 83 24 4e be
       -0.3370224 0.026772879 -0.30584404 -0.20131116
000040 a7 fc 5f be ff fe 0f be 1d 49 ba be 14 43 b0 3e
       -0.21873723 -0.14062117 -0.36383906 0.34426177
000050 6c ec a8 be 1f 08 9c bd 82 92 3f 3e 66 04 66 be
       -0.32992876 -0.076187365 0.18708232 -0.22462615
000060 57 94 1b be 49 af e0 3d b5 49 b6 be 98 69 2c 3e
       -0.15193306 0.10970933 -0.3560311 0.16837156
000070 78 e8 46 be 89 83 98 be 25 d3 aa 3e 39 6e 59 be
       -0.19424617 -0.29787853 0.33364215 -0.21233453
000080 1d 02 83 3d c3 75 18 3e 22 4f 06 3f 85 64 37 be
       0.063968875 0.14888673 0.524645 -0.17909439
000090 9b 81 30 be 79 9e bf be 76 dd 3e bd 40 a7 3c be
       -0.1723694 -0.37425593 -0.04659792 -0.18423176
0000a0 bc 98 44 3e fd 68 91 3d 04 d0 d8 bd df b8 a7 be
       0.19198889 0.07100103 -0.10586551 -0.32758233
0000b0 14 6d c7 be 5a a8 e2 bd 62 bd 80 3e a5 61 58 be
       -0.38950408 -0.11067267 0.25144488 -0.21130998
0000c0 eb b8 0d be 7a c7 a9 be ca d7 b9 be d1 16 da bc
       -0.13840072 -0.3316 -0.36297446 -0.026622208
0000d0 af 0a b2 3e 69 f7 fd bd c9 8f ba be 32 0a 90 3e
       0.34773776 -0.12400705 -0.36437824 0.28132778
0000e0 9f d8 98 3a 4b 22 06 3e 39 58 8d bc a3 eb f7 3e
       0.0011661238 0.13099019 -0.017253982 0.48421964
0000f0 d4 5b f7 3c 63 3e 01 be 6e a1 6d be 0a 6e 4b be
       0.030195154 -0.12621455 -0.23206112 -0.19866195
000100 bf 97 75 be 94 b1 78 bd b9 78 ec be 30 fc 55 be
       -0.23983668 -0.060716227 -0.46185854 -0.20896983
000110 13 b4 77 bc 36 30 0c be e3 b3 85 bd c6 13 55 3e
       -0.015118617 -0.13690266 -0.06528451 0.20808324
000120 00 02 97 3d 7c 97 a3 be 5f f0 37 be 65 eb 41 3e
       0.07373428 -0.3195151 -0.17962788 0.18937452
000130 86 66 c2 3f 59 d5 39 3b 4a 28 8f 3d f4 7b d6 bd
       1.5187538 0.0028355925 0.069901064 -0.10472861
000140 3c b9 3c bc 4d 1f 4a be 2e 7e ea be c6 43 64 be
       -0.011518773 -0.19738503 -0.45799392 -0.22291479
000150 9f 60 46 3e bc a5 18 bd 56 83 4d be 79 43 e7 bd
       0.19372796 -0.03726743 -0.20069632 -0.11292166
000160 8f 41 ca be a7 35 80 be 43 56 6e be 0e 08 b8 bd
       -0.39503142 -0.25040933 -0.23275094 -0.08985911
000170 08 c6 a5 be f9 42 ae be b4 a9 b3 be 5b fa a4 bd
       -0.32377648 -0.3403547 -0.3509041 -0.08055564
000180 04 aa c6 be 52 e6 86 be e6 c1 81 be f6 52 77 bd
       -0.38801587 -0.26347595 -0.25343245 -0.060381852
000190 93 72 5e be 49 a1 41 be d6 20 e1 bd 7d ad 22 3d
       -0.21723394 -0.18909182 -0.10992591 0.039716233
0001a0 32 bc 4a be 29 c9 10 3e bd 9b 5c 3e a5 5d 28 be
       -0.19798353 0.14139237 0.21543784 -0.16441973
0001b0 fe 1f 2c bd 81 b3 05 be a2 79 bc bd d4 f1 de be
       -0.042022698 -0.13056757 -0.09202887 -0.43543875
0001c0 31 f8 50 be 47 16 c2 bd 2d 66 97 be f3 64 f7 be
       -0.20407178 -0.09476905 -0.2957014 -0.48319206
0001d0 9d f3 27 be f8 69 52 be 61 6c ba 3d 49 ad 28 be
       -0.16401525 -0.20548236 0.09102703 -0.16472353
0001e0 ef 0c 65 be 5a fa 86 3f 0c c4 02 3e 22 08 d4 be
       -0.22368215 1.0545151 0.12770098 -0.41412455
0001f0 12 3e 54 3f 4c dc 56 3c f1 4f 42 be d6 1e 15 3d
       0.8290721 0.013114046 -0.18975808 0.03640636
000200 2b 47 8c 3d b6 e5 01 bf 10 8f 13 3e 46 ce 00 3e
       0.06849512 -0.50741136 0.14410043 0.12578687
000210 58 7d 7a 3e ad 31 b2 3d b4 61 f4 bc cc 8b 09 3e
       0.24461877 0.08700881 -0.029831745 0.13432235
000220 28 56 b5 be ce c4 3f bc 7f 8e 7d 3e 78 6b ce bd
       -0.35417295 -0.011704637 0.24761389 -0.10079092
000230 65 bd 97 be 8d 07 0f 3f 3a 46 ad 3e 08 5f a1 be
       -0.29636684 0.55870897 0.3384264 -0.31517816
000240 19 57 1f be bb 1a 8e be 56 f5 2f be 62 a1 32 be
       -0.15560569 -0.2775477 -0.17183432 -0.17444375
000250 08 c3 9d bd 86 dd 22 bd 95 93 73 be bc a7 9d be
       -0.07703215 -0.039762042 -0.23786767 -0.30792034
000260 c6 ef 1c bd 62 0d fc bc 35 15 c9 bd 8f c9 46 be
       -0.038314603 -0.0307681 -0.09818498 -0.19412826
000270 4a 69 44 be 31 49 82 be bf 34 2b 3e 3c 50 97 bd
       -0.1918079 -0.25446466 0.1671934 -0.0738835
000280 26 60 89 bd 18 21 63 3d b1 e6 99 3d 7f 1f 14 3f
       -0.06707792 0.055451483 0.07514704 0.5786056
000290 e2 28 8b be 11 8e b0 be 3d 00 2b be f5 d2 87 be
       -0.2717963 -0.34483388 -0.1669931 -0.26528135
0002a0 10 5e e9 be cd ea 97 be 96 11 dc 3e 64 4d 69 be
       -0.45579576 -0.29671326 0.42982167 -0.22783428
0002b0 24 49 72 3e af 10 2b 3f 45 75 88 be bb e2 86 be
       0.23660713 0.6682233 -0.2665197 -0.26344857
0002c0 a4 45 92 be 8c 7a 5a be 19 9b 03 bf 14 21 d4 3e
       -0.28568757 -0.2133581 -0.51408535 0.41431487
0002d0 8a f9 02 bf 45 c5 f5 bd 7e 27 93 be f4 1d 9b 3d
       -0.51162016 -0.12000517 -0.28741068 0.075740725
0002e0 b3 e2 b8 be 1f a3 ee bc 80 90 f0 be 48 40 09 3e
       -0.36110458 -0.029130517 -0.46985245 0.13403428
0002f0 da ea c7 bc eb 2a 08 be 71 8d 1d 3f f5 e2 5c 3e
       -0.024403978 -0.13297622 0.6154395 0.21570952
000300 87 23 92 3e bc 55 2e be b8 de 93 be b4 40 5a 3d
       0.2854273 -0.17024893 -0.28880858 0.053284362
000310 63 4a 11 3f 5e 95 89 3d 6c 29 c0 bd ab 0b 16 be
       0.5675413 0.06717943 -0.093829006 -0.14652888
000320 3c 98 88 3e e1 4c 90 be 29 75 86 be cc 22 8d 3d
       0.26678646 -0.28183654 -0.2626126 0.068914026
000330 57 7c aa be 0e 12 c8 3c 45 e2 db 3e 58 eb 50 3d
       -0.3329799 0.024422672 0.42946067 0.05100569
000340 0c 98 a3 bc 89 62 4c 3c 16 2e fd 3e 4f 1a c5 bc
       -0.019969963 0.0124746645 0.49449223 -0.024060396
000350 2f 1d 87 be 47 05 16 3e 06 7e c4 3c 0f cd ef be
       -0.26389453 0.1465045 0.023985874 -0.46836135
000360 c6 70 5e be a5 ab 9d be 5b d2 53 bc 84 49 bc 3e
       -0.21722707 -0.30795017 -0.012928571 0.36774838
000370 27 c0 b2 3c 03 28 4e be 3f c3 48 be 57 30 4e bd
       0.021820141 -0.20132451 -0.1960573 -0.05033907
000380 fa 9f 04 3d f3 87 a0 be b0 6d 63 be 31 71 a4 bc
       0.032379128 -0.3135372 -0.22209811 -0.020073505
000390 35 8c cf be e4 93 19 be a0 f7 9a 3d a7 ea 9f be
       -0.40536657 -0.14997822 0.07566762 -0.31233713
0003a0 07 8c 91 3e c5 8b 28 be 58 bd 3f 3e 15 a1 f3 bd
       0.28427145 -0.16459568 0.18724573 -0.11895958
0003b0 78 4e cf be ee dd 53 3f f6 d6 ee bd fa 16 b7 be
       -0.40489554 0.8276051 -0.11662094 -0.35759717
0003c0 0c ab 8d be f2 ae 26 3e d7 58 f9 bd c5 46 b5 be
       -0.2766956 0.16277674 -0.12175148 -0.35405555
0003d0 69 2c 84 be 13 28 f9 bd 84 cc f3 be fa d7 34 bc
       -0.25815132 -0.12165847 -0.4761697 -0.011037821
0003e0 da 11 3d bd 12 da 05 bf 2e 46 cc be 71 ec 2e 3e
       -0.046159603 -0.52285874 -0.39897293 0.17082383
0003f0 db a8 9d 3d ae ae f0 3e e3 04 52 be 52 37 0b be
       0.07698222 0.4700827 -0.20509677 -0.13595322

linear2.weight f4 [3, 256]
000000 2f 17 25 bd cb 64 22 be 30 af da b9 61 b1 c8 3e
       -0.040305313 -0.15858762 -0.00041710725 0.3919783
000010 d8 be c0 be d0 e4 d5 3e ae e1 13 3e 10 05 c6 bc
       -0.37645602 0.41776133 0.14441559 -0.024172336
000020 99 6f a2 3e 7c c4 a5 3e ab bf 93 3d 88 e9 d0 3e
       0.31725767 0.32376468 0.07214292 0.4080317
000030 66 2e 15 bf a2 14 0c 3f 0f 5d 0f bd ee bd 4b 3d
       -0.58273923 0.54718983 -0.035000857 0.049741678
000040 24 71 a2 3d 39 eb eb be cb 80 24 3d db f5 ca 38
       0.07931736 -0.46077898 0.04016189 9.677905e-05
000050 08 ab f4 3b 59 74 1e be 2c c7 e9 3d 09 bc 30 be
       0.0074666776 -0.1547407 0.11414942 -0.1725923
000060 4d e3 f0 bd 5d 8a 87 bc fe 61 fb bd 5b d7 45 3d
       -0.11762104 -0.016545469 -0.1227455 0.048301082
000070 76 2d 02 bf e8 c0 5f bc 8b 93 d6 3e b0 9e 86 bc
       -0.5085062 -0.013656832 0.4190944 -0.01643309
000080 13 ba fe 3d cf 21 a4 bd 55 01 f2 3e 20 1a 14 bf
       0.124378346 -0.08014261 0.4726664 -0.57852364
000090 31 d7 d9 bd c4 ec b5 bc 11 20 82 bd ce 29 31 3b
       -0.10636748 -0.022207625 -0.063537724 0.0027032974
0000a0 22 15 3d 3e 9a 40 47 bf 65 12 18 3f c5 20 0b bf
       0.18465093 -0.7783295 0.5940307 -0.5434688
0000b0 1c 81 fc bc c2 d5 18 bd 31 01 0c 3f f5 d9 85 be
       -0.030823283 -0.03731323 0.5468932 -0.2614285
0000c0 99 2b c3 be 67 f8 c1 bc ee b2 6c 3d c5 6d 5e be
       -0.381192 -0.023678018 0.05778783 -0.21721561
0000d0 4d 7b 77 3e 68 55 03 3c e0 56 e2 bc ef 20 02 3e
       0.2416813 0.008015968 -0.027629316 0.12707876
0000e0 2b 11 88 bc 94 44 1b bf 0a 2f 64 3d be 13 a5 3e
       -0.016609749 -0.60651517 0.055708922 0.32241625
0000f0 1a 95 a4 3e 6c ce ec 3d ce 81 c9 bd 92 10 81 be
       0.32145005 0.11562809 -0.098392114 -0.25207955
000100 ba 1c 95 3d 3c f6 58 bf 01 3f 8e 3d 64 bd a3 be
       0.0728087 -0.84750724 0.06945611 -0.3198043
000110 b1 67 09 bb f3 6a 08 3c a8 c8 47 be 84 a8 e6 3d
       -0.0020966346 0.00832628 -0.19510138 0.112626106
000120 93 3f 97 3e 42 5a da bb c7 2c 27 bd e8 2a 49 bf
       0.2954069 -0.0066635916 -0.040814187 -0.78581095
000130 90 6c 90 3e 3e 6d 02 3f c3 d7 ed be 52 e7 84 3c
       0.28207827 0.5094794 -0.46453676 0.016223583
000140 2c fc 94 3e e0 ee 5b bf 96 37 24 be 5e b9 f9 be
       0.29098642 -0.8591137 -0.1603683 -0.48774236
000150 87 00 97 3e 07 9d 22 bf f9 5c 33 be d5 fe 31 3d
       0.2949259 -0.63520855 -0.17515935 0.043455917
000160 e8 c6 00 be aa c8 ed be f4 5a 78 bd 99 d6 08 bf
       -0.12575877 -0.46442157 -0.060633615 -0.5345245
000170 0b b4 df 3d 74 f9 8d 3c 60 1e 0a bf 57 4c ba bb
       0.10923012 0.017330863 -0.539526 -0.00568537
000180 e2 58 51 bb 6d e7 33 be 63 de 0b be c7 d6 c2 be
       -0.0031943847 -0.1756875 -0.13659053 -0.38054487
000190 ed a7 e9 bb 25 5b 32 bd 8e 17 f6 3e ec 55 1e bc
       -0.007130614 -0.043543953 0.48064846 -0.00966404
0001a0 bb 49 d2 bc 73 07 b0 be 59 1f d2 3e 76 5f 16 be
       -0.025669923 -0.34380683 0.4103954 -0.14684853
0001b0 28 7e a1 3b 96 3d 0c bd 44 c0 60 bc 8d c2 45 be
       0.004928369 -0.03423842 -0.013717715 -0.19312496
0001c0 ff df d3 be cd 6b db bb f7 d2 9d be d6 bf e8 bd
       -0.41381833 -0.0066962005 -0.30825016 -0.11364715
0001d0 a8 a6 42 bc 5f d5 26 3d 02 0d b8 3d 65 45 2b be
       -0.011880554 0.04073083 0.08986856 -0.1672569
0001e0 b2 52 87 be 09 69 8a 3e a9 a5 e5 bd 15 fb 1b be
       -0.2643028 0.2703326 -0.11213238 -0.15232499
0001f0 a5 2c ac 3e 03 55 8c 3e 9b 66 27 be 20 de b9 3c
       0.3362781 0.2740861 -0.16347735 0.022688925
000200 47 a2 de 3e c0 67 81 bd 3c e8 1d be 9b d7 d4 3e
       0.43483183 -0.06318617 -0.15420622 0.41570744
000210 4d e8 21 3f 55 cd f9 3d 85 1f 51 bf c5 d0 0f 3e
       0.6324509 0.12197367 -0.8168872 0.14044483
000220 78 3d de 3c f1 3e 2f bf 28 82 95 3e 55 3f 9d 3d
       0.02712892 -0.68455416 0.29200864 0.07678095
000230 7a 78 8c bc 40 54 73 3e 3d 24 39 3e 55 c1 31 be
       -0.017147291 0.23762608 0.1808023 -0.17358907
000240 83 69 fb 3d a5 8c 33 3d c3 e5 10 3c b2 91 93 be
       0.12275984 0.0438353 0.008843842 -0.28822094
000250 ab 6b 88 3d 7d 22 27 be d2 61 48 bd ce 6b ec be
       0.06661161 -0.1632175 -0.048921414 -0.46175998
000260 e4 43 de 3c 8e e1 0f 3e a5 a8 06 3b a2 44 28 be
       0.027131982 0.14050886 0.0020547297 -0.16432431
000270 22 ac 20 bd db 38 66 be 5a 30 0b 3f 21 f6 7c 3d
       -0.03922666 -0.22482626 0.54370654 0.061758164
000280 81 13 c3 bb e7 b0 e2 3d cd 9d bc 3e 24 84 37 3e
       -0.005953253 0.11068898 0.36839142 0.17921501
000290 28 d6 6f bd 0b 7e 10 be 18 1c ca bd 16 a3 81 3d
       -0.058553845 -0.14110582 -0.0986864 0.06329934
0002a0 26 d3 43 be f8 90 36 3c 11 a6 f9 3e 75 83 2d 3c
       -0.19123515 0.011142962 0.4875951 0.010590424
0002b0 a3 38 0f 3f aa 0e da 3e 07 0a 9b be 18 c3 51 be
       0.55945796 0.42589313 -0.30281088 -0.20484579
0002c0 b0 2c 67 3d b6 76 8a be 06 7d 39 3d 56 1d e3 3e
       0.0564391 -0.27043694 0.045285247 0.4435832
0002d0 04 26 01 be d1 9d 9f bd 06 58 6c bb 6d 2c af bb
       -0.12612158 -0.07793773 -0.0036063208 -0.005345872
0002e0 02 1d 84 bd f4 25 00 3d 59 05 42 bd 09 d2 02 3d
       -0.06450845 0.031286195 -0.04736838 0.031938586
0002f0 47 79 c0 3e 7f d5 2b bc 8e 8f 9b 3e 89 2a e5 3e
       0.37592527 -0.010487913 0.3038296 0.44759014
000300 f8 fb 18 3e d9 a3 2a bd b8 78 01 3c 11 25 1a be
       0.14939868 -0.041660164 0.007902317 -0.15053202
000310 dd 2e 7f 3e a8 22 51 be b1 d0 df bb dd a6 a7 3a
       0.2492022 -0.20423377 -0.006830298 0.0012790818
000320 a3 c0 d5 3d b3 df 04 bd e3 59 cc 3d 31 49 4f 3e
       0.10437133 -0.0324399 0.09978082 0.20242764
000330 06 59 24 bc 90 a9 18 3e fa 5f 17 3e ec db ab 3e
       -0.0100309905 0.14908433 0.14782706 0.33566225
000340 98 f6 38 bd a6 a2 08 3f 82 41 4f 3e 03 3d fa 3e
       -0.045157045 0.5337318 0.20239833 0.48874673
000350 eb 97 62 be 8a 63 c1 3d c0 f2 a2 3e 2b c2 54 bc
       -0.22128265 0.09442814 0.3182583 -0.012985746
000360 e1 4f 51 bf dd e8 9e bd ee 53 a7 3c ca 12 0a 3e
       -0.8176251 -0.07759259 0.020425763 0.1348373
000370 cd ec 19 be 01 e9 fb be e8 28 86 bd de 1c 94 3e
       -0.15031739 -0.49201205 -0.06550771 0.28928274
000380 a0 53 bd 3e 78 e9 6c be 65 94 84 3d cc fb cb be
       0.36977863 -0.23135936 0.064736165 -0.39840543
000390 7f 90 bb bc d9 3e 1e bd 93 98 08 3e 8b 1d 37 bc
       -0.02289605 -0.038634155 0.13339452 -0.011176477
0003a0 05 95 8c 3e c4 c5 64 be 48 64 e1 3e 8f fa 99 be
       0.27457443 -0.22341067 0.4402182 -0.30073974
0003b0 d7 1d 1e be 78 53 b2 3e d0 bd 6e 3d fa 62 8e bc
       -0.1544107 0.34829307 0.058286488 -0.01738118
0003c0 54 80 11 be 5d c6 79 3d 9a 9f da 3e a8 45 41 bd
       -0.1420911 0.06098019 0.4269989 -0.04718557
0003d0 64 da 9a be a5 59 d3 bc b5 86 1a 3b c4 2f 89 be
       -0.30244744 -0.025799582 0.0023578827 -0.26794255
0003e0 e5 4a bc be 31 ca a8 be 11 50 4c be f9 5e 9f 3e
       -0.3677589 -0.3296676 -0.19952418 0.31127146
0003f0 5f 55 18 3d f5 f3 4d 3e ed 6e a9 bd 7d d5 b9 3c
       0.03719079 0.20112593 -0.082731105 0.022684807

linear2.bias f4 [3]
000000 96 76 9d 3e 30 4e d8 3d a4 08 0a 3e
       0.30754536 0.10561788 0.13479859
