groupe13/snake_dqn_model.pth (torch, 846731 bytes, 18 tensors)

fc1.weight f4 [256, 11]
-0.22031276 -1.1192976 -0.16314732 0.252066 0.020121412 0.33028355 -0.2826053 -0.14685841
0.43508375 -0.007592864 0.30251813 -0.52699375 1.2151272 -0.9073387 0.15650146 0.74073505
-1.4884554 -1.5537752 0.21543741 -0.32853523 -0.12335488 0.35012364 0.22682995 -0.13238066
0.013538022 0.12768392 -0.16895841 0.19522807 0.12604694 -0.22996603 -0.23273706 -0.22398333
-0.25404555 0.6618665 -0.023677807 0.30053437 0.6596991 -0.020311505 -0.35116035 0.33301437
-0.9602605 -0.58955264 0.712699 -0.52355254 -0.60214996 1.0552325 -0.22122549 -1.8255808
-0.41976768 0.19088972 0.65553737 0.14119737 -0.61161035 0.5728629 0.43496105 1.2466346
1.6695906 0.3513931 0.020908501 0.023877878 -2.3913596 0.79296595 -0.038561102 -0.13555394
0.12458112 -0.08822182 -0.27135062 0.380175 -0.92506886 -1.3974273 0.30884108 0.68218076
0.013052678 0.22673337 -0.91611224 0.69409037 0.06548145 -0.85187805 -0.47111073 0.22495408
-0.7159716 0.61643744 0.19976026 -0.44119972 -0.27720422 0.24232781 0.20589124 -0.7654852
-0.28925657 -0.8491411 -0.06543914 0.01333296 0.35533556 -0.10290995 0.71948946 0.21809697
-0.16351579 -0.15413284 0.19073904 -1.0925682 -0.97519827 0.76198477 -0.5245917 0.96761054
-1.0082364 0.4245462 -0.24307221 0.4062209 -0.059451498 0.28031176 1.1594106 -0.074065745
0.9955369 0.47932598 -1.1570237 0.3721855 -0.1056798 0.5205059 0.1370301 -0.10578309
-0.23591238 -0.050640423 -0.06037237 -0.06252834 -0.19826654 -0.29203355 -0.07657672 -0.039754774
0.26370206 0.08604998 -0.08230182 -0.033030998 -0.09332263 -0.19832268 1.1143441 -1.096872
0.169776 0.18529382 0.5272668 -0.31063536 0.13723984 0.17692225 -1.2744126 -0.1560453
0.1434525 0.62726337 0.68882775 0.26224905 0.13703217 -1.1197252 -0.19248311 -0.48173726
-0.29649052 0.23596035 -0.29337016 -0.7490685 -0.6037491 0.68849736 0.024021465 -0.01161509
0.5917683 -0.038565326 0.49476522 0.24582136 0.43703824 -0.5337804 -0.59941244 0.23216663
-0.015132393 -0.19031374 0.27230784 0.66575533 -0.022844253 0.19745146 -0.12805927 -0.4515792
-0.08739823 -1.3484033 0.2611193 0.35905465 -0.14445674 0.51677376 0.22537538 0.096233934
-0.18752807 0.0047862963 0.25843033 -0.8549845 -0.60674703 0.2881771 0.5009454 0.45194447
0.04479538 -0.14816403 -0.05487485 0.49503803 0.41065317 0.23155913 1.4508469 0.3629676
0.78494406 0.4535457 -0.8520516 -0.51185966 0.40652794 -0.48451054 -0.37140986 0.33639777
-0.37659025 -0.8136956 0.9182403 -0.08615391 0.07859867 -0.38952717 0.43282238 0.1084573
0.29089826 0.16555098 -0.41842604 -0.57270765 0.32926825 -0.9411425 -0.119866095 -0.59384644
-0.6440114 0.017220324 0.13401198 -1.187718 -0.12008197 0.34808323 -0.50011307 0.97217464
-1.3557593 0.5704111 0.13179101 0.28995135 -0.31901914 -0.91267926 -0.94256926 0.29163605
0.04651765 -0.029467335 0.123776026 -0.10480464 -0.8428818 0.6681358 -0.48249322 0.43409428
0.12515455 -0.20786132 0.31350183 0.33575875 -0.021356434 -0.0036011 -0.48813123 0.8842805
00000000: ab99 61be 2545 8fbf 1710 27be cb0e 813e
00000010: a9d5 a43c ed1a a93e a4b1 90be 0d62 16be
00000020: 4cc3 de3e 8fcd f8bb a8e3 9a3e 10e9 06bf
00000030: 4a89 9b3f 5947 68bf eb41 203e d0a0 3d3f
00000040: b585 bebf 1be2 c6bf a09b 5c3e c535 a8be
00000050: 7ca1 fcbd 6843 b33e 1c46 683e cc8e 07be
00000060: 94ce 5d3c 93bf 023e 6f03 2dbe dee9 473e
00000070: 7312 013e 377c 6bbe a052 6ebe e35b 65be
00000080: 4212 82be 1570 293f f6f7 c1bc a4df 993e
00000090: 0ae2 283f 5064 a6bc 4acb b3be dc80 aa3e
000000a0: a2d3 75bf ecec 16bf 7173 363f 8a07 06bf
000000b0: 8026 1abf dc11 873f ef88 62be a2ac e9bf
000000c0: caeb d6be 9878 433e 4cd1 273f 0b96 103e
000000d0: 7f92 1cbf 25a7 123f 37b3 de3e b991 9f3f
000000e0: 25b5 d53f cce9 b33e 4e48 ab3c 8a9b c33c
000000f0: 090c 19c0 d1ff 4a3f 3ff2 1dbd a7ce 0abe
00000100: 6324 ff3d a4ad b4bd 78ee 8abe 4ca6 c23e
00000110: 50d1 6cbf e6de b2bf 6b20 9e3e 66a3 2e3f
00000120: e6da 553c cb2c 683e 5586 6abf e8af 313f
00000130: 231b 863d ae14 5abf 6d35 f1be 5d5a 663e
00000140: ea49 37bf d8ce 1d3f f48d 4c3e eee4 e1be
00000150: b6ed 8dbe c824 783e 27d5 523e d7f6 43bf
00000160: 7019 94be 5061 59bf f504 86bd 7d72 5a3c
00000170: 8bee b53e 74c2 d2bd 7630 383f d054 5f3e
00000180: af70 27be 00d5 1dbe 1851 433e 46d9 8bbf
00000190: 98a6 79bf 6f11 433f a44b 06bf 53b5 773f
000001a0: e40d 81bf 1f5e d93e ece7 78be 30fc cf3e
000001b0: 6a83 73bd 0685 8f3e 9167 943f c8af 97bd
000001c0: 82db 7e3f 376a f53e 5a19 94bf 198f be3e
000001d0: a76e d8bd e03f 053f 9e51 0c3e cea4 d8bd
000001e0: 0493 71be 556c 4fbd 0549 77bd dc0e 80bd
000001f0: 6206 4bbe 6c85 95be 41d4 9cbd e7d5 22bd
00000200: f503 873e f93a b03d db8d a8bd 834b 07bd
00000210: ef1f bfbd 1a15 4bbe d4a2 8e3f 4d66 8cbf
00000220: c2d9 2d3e aabd 3d3e f5fa 063f 990b 9fbe
00000230: 9a88 0c3e 1b2b 353e f41f a3bf 57ca 1fbe
00000240: 36e5 123e 5594 203f 0457 303f 8245 863e
00000250: 2952 0c3e 2853 8fbf 4b1a 45be 44a6 f6be
00000260: 9bcd 97be 979f 713e 9d34 96be f4c2 3fbf
00000270: 4d8f 1abf 5d41 303f aac8 c43c 384d 3ebc
00000280: 217e 173f adf6 1dbd de51 fd3e 98b8 7b3e
00000290: 7ac3 df3e d5a5 08bf 1873 19bf 17bd 6d3e
000002a0: dbed 77bc 9be1 42be ef6b 8b3e f16e 2a3f
000002b0: df23 bbbc b730 4a3e f821 03be 6435 e7be
000002c0: d8fd b2bd 7b98 acbf 6eb1 853e 03d6 b73e
000002d0: 78ec 13be 494b 043f cec8 663e 4c16 c53d
000002e0: 5c07 40be 5dd6 9c3b fb50 843e 44e0 5abf
000002f0: c653 1bbf f38b 933e f53d 003f 4465 e73e
00000300: 5c7b 373d 50b8 17be 73c4 60bd a075 fd3e
00000310: 2241 d23e d61d 6d3e 5ab5 b93f e4d6 b93e
00000320: 18f2 483f 2437 e83e 0e20 5abf 3c09 03bf
00000330: 6e24 d03e c411 f8be 6f29 bebe 543c ac3e
00000340: 70d0 c0be 5b4e 50bf cc11 6b3f 7671 b0bd
00000350: 57f8 a03d 1b70 c7be e59a dd3e dc1e de3d
00000360: 9ef0 943e 3286 293e f03b d6be f89c 12bf
00000370: d995 a83e b7ee 70bf 5b7c f5bd 5206 18bf
00000380: eedd 24bf a311 8d3c 703a 093e 2507 98bf
00000390: 89ed f5bd f737 b23e 6907 00bf 70e0 783f
000003a0: 8589 adbf 7606 123f 39f4 063e 8174 943e
000003b0: 7a56 a3be 59a5 69bf 384c 71bf 5251 953e
000003c0: 4b89 3e3d 7b65 f1bc 497e fd3d d1a3 d6bd
000003d0: 1ac7 57bf f30a 2b3f 5a09 f7be 9b41 de3e
000003e0: 8428 003e 99d9 54be 5083 a03e 92e8 ab3e
000003f0: b0f3 aebc 6f00 6cbb 56ec f9be 3560 623f

fc1.bias f4 [256]
0.5137608 -0.24905358 -0.2944775 -0.16098548 0.24547619 0.39102247 0.089161426 -0.04636915
0.4499158 0.11800315 -0.44215238 -0.25249407 -0.18108805 -0.32038933 0.53769153 0.5585036
0.41311577 0.4194425 -0.19986275 -0.25697282 0.059500813 -0.32371694 0.35302415 -0.07981833
0.5856508 0.34148446 -0.44967416 0.3121175 0.4584719 0.47373244 -0.3419554 -0.014525765
0.45982933 0.015830157 -0.3491145 0.4873076 0.23673278 0.19193575 0.10740352 -0.3115837
0.12331882 0.25711855 0.52945733 0.44843856 -0.3244971 -0.060889322 0.012656935 -0.6644601
-0.33868933 0.41401792 -0.14151812 0.39811307 0.013550165 0.58543044 0.63965327 0.14653847
-0.15867454 0.03760966 0.6300525 0.20700872 -0.090642445 0.4527338 0.5985347 -0.09576675
-0.25706372 -0.06667634 -0.17527236 -0.18462226 0.68731946 0.57374406 0.529518 0.30899453
0.24444245 0.0964922 0.3006685 -0.50077635 -0.07215342 0.027215095 0.5154636 0.48477268
-0.08939597 -0.31988725 0.3925487 0.30311382 0.041506868 0.5424782 -0.18430406 -0.33531684
0.1014631 0.028823327 0.17140095 0.078624144 -0.1545869 0.46143836 0.2897757 0.7217822
-0.17738622 0.2504155 0.11153166 -0.2537221 0.56803125 0.5524004 -0.13788798 -0.42045444
0.05480668 -0.04544731 0.16153869 0.18900597 0.1142813 0.27944446 0.46645144 0.013436836
0.24722685 0.43334645 -0.017087674 -0.092854396 0.8227814 -0.29903665 0.7163096 0.49594465
-0.23833488 0.5681465 0.49579084 -0.29304352 -0.06453991 -0.16185498 0.18127461 0.20332669
0.4444097 -0.35048005 0.7057042 -0.14952298 0.37575808 0.11068482 0.40414783 0.21383956
0.5584852 0.08518951 -0.24060649 0.6386106 -0.24957263 -0.41389662 -0.47314876 0.17632836
0.4166998 0.12118077 -0.002362285 -0.2523134 0.16545422 -0.1311155 -0.011355043 -0.11746037
0.29249075 0.008398937 0.172328 -0.3958621 -0.29925472 0.29537386 0.2713022 0.23655288
0.054666474 0.6341798 -0.12093691 0.8604611 -0.13651493 -0.09190383 0.076030545 0.5649593
-0.49706814 0.020952022 -0.013095501 0.5040213 -0.31066668 -0.17027067 -0.0024152962 0.0059538037
0.6111284 0.28733674 0.6329326 -0.13514863 -0.02170241 0.7616068 0.48587942 0.7767956
0.15362127 0.24058448 0.4530676 -0.2719222 -0.13968837 -0.2597535 -0.47628862 -0.44588792
0.18236566 0.4591366 -0.3320071 0.29202542 0.69756883 0.11431625 0.5285647 0.2403846
-0.14837535 -0.048385415 0.49668282 0.09543405 0.43869826 0.12513232 0.51728565 0.49391708
0.44232628 0.3289696 -0.36400712 0.55306995 0.5855489 0.45395824 0.42190707 -0.12912199
-0.24101155 0.49347886 0.28741786 -0.25010923 0.49525425 0.13061269 -0.07939846 -0.43329385
0.19304718 -0.24668673 0.5186241 0.23431037 -0.116196916 -0.11958907 0.5033704 -0.090860106
-0.55279475 0.42031306 0.75248647 -0.5948687 -0.09118475 0.11652018 0.29721215 -0.032474793
-0.34512138 0.5000933 0.38668832 0.5045939 -0.04908373 0.16197494 0.6426392 -0.06473105
0.12069583 -0.33180037 0.23685227 0.21487735 -0.0288176 -0.14596654 0.39011467 0.04408789
00000000: d485 033f e707 7fbe c1c5 96be 61d9 24be
00000010: 1c5e 7b3e 1934 c83e 449a b63d 94ed 3dbd
00000020: 5d5b e63e a3ab f13d cc61 e2be e746 81be
00000030: 256f 39be 120a a4be 27a6 093f 18fa 0e3f
00000040: e983 d33e 2bc1 d63e d2a8 4cbe f191 83be
00000050: 20b7 733d 3abe a5be 95bf b43e cb77 a3bd
00000060: 36ed 153f 0dd7 ae3e b13b e6be ddcd 9f3e
00000070: d4bc ea3e 0f8d f23e c714 afbe 79fd 6dbc
00000080: c06e eb3e 3fae 813c 23bf b2be 6280 f93e
00000090: 146a 723e ce8a 443e 60f6 db3d e687 9fbe
000000a0: 948e fc3d 0ba5 833e 848a 073f bd99 e53e
000000b0: 7c24 a6be 1567 79bd 085f 4f3c 0f1a 2abf
000000c0: b068 adbe 28fa d33e 20ea 10be 7ad5 cb3e
000000d0: 8301 5e3c c5de 153f 51c0 233f 2e0e 163e
000000e0: 947b 22be 960c 1a3d 1f4b 213f 18fa 533e
000000f0: bfa2 b9bd bacc e73e 9239 193f 5c21 c4bd
00000100: db9d 83be 9b8d 88bd 997a 33be 9e0d 3dbe
00000110: 2bf4 2f3f e4e0 123f 7e8e 073f 8834 9e3e
00000120: 1f4f 7a3e b49d c53d 39f1 993e e132 00bf
00000130: 2cc5 93bd 31f2 de3c 6cf5 033f 2034 f83e
00000140: 3c15 b7bd 43c8 a3be 25fc c83e bc31 9b3e
00000150: 1b03 2a3d dadf 0a3f 34ba 3cbe a6ae abbe
00000160: e3cb cf3d e61e ec3c bb83 2f3e b205 a13d
00000170: 074c 1ebe a641 ec3e 7b5d 943e b8c6 383f
00000180: bca4 35be 7636 803e b66a e43d dde7 81be
00000190: 7f6a 113f 1d6a 0d3f 8232 0dbe ce45 d7be
000001a0: f87c 603d f526 3abd 666a 253e c88a 413e
000001b0: 500c ea3d 5813 8f3e b9d2 ee3e 2d26 5c3c
000001c0: 0929 7d3e 96df dd3e 73fb 8bbc 722a bebd
000001d0: cda1 523f 551b 99be 1160 373f 75ec fd3e
000001e0: 0f0e 74be 0d72 113f 4cd8 fd3e cd09 96be
000001f0: 802d 84bd 50bd 25be 0da0 393e df34 503e
00000200: ab89 e33e 1f72 b3be 08a9 343f 8d1c 19be
00000210: 5d63 c03e b9ae e23d 77ec ce3e c2f8 5a3e
00000220: e3f8 0e3f d677 ae3d 8c61 76be fc7b 233f
00000230: f88f 7fbe 42ea d3be 8e40 f2be 6c8f 343e
00000240: ad59 d53e a02d f83d 91d0 1abb 392f 81be
00000250: d56c 293e 2443 06be 810a 3abc 108f f0bd
00000260: 59c1 953e b29b 093c c076 303e 70ae cabe
00000270: ea37 99be 3e3b 973e 1fe8 8a3e eb3a 723e
00000280: f4e9 5f3d 9b59 223f c5ad f7bd 2e47 5c3f
00000290: 92ca 0bbe 1338 bcbd e7b5 9b3d 2ca1 103f
000002a0: b77f febe 93a3 ab3c 838e 56bc 8a07 013f
000002b0: b40f 9fbe 6f5b 2ebe f249 1ebb 2018 c33b
000002c0: e972 1c3f cd1d 933e df07 223f 6764 0abe
000002d0: 41c9 b1bc aaf8 423f 30c5 f83e 14dc 463f
000002e0: e54e 1d3e c75b 763e 7af8 e73e 6339 8bbe
000002f0: 780a 0fbe 69fe 84be 1adc f3be 6c4b e4be
00000300: 10be 3a3e f413 eb3e d6fc a9be 5b84 953e
00000310: df93 323f a31e ea3d 0450 073f 6127 763e
00000320: b5ef 17be c92f 46bd 364d fe3e ed72 c33d
00000330: 0f9d e03e b022 003e d56c 043f b3e2 fc3e
00000340: 9778 e23e b46e a83e 245f babe fe95 0d3f
00000350: 88e6 153f 376d e83e 3404 d83e 8e38 04be
00000360: bbcb 76be 43a9 fc3e 6f28 933e 510e 80be
00000370: f791 fd3e 55bf 053e a99b a2bd b1d8 ddbe
00000380: 29ae 453e 729b 7cbe 8dc4 043f 0fef 6f3e
00000390: a6f8 edbd 1deb f4bd e2dc 003f dd14 babd
000003a0: f583 0dbf 4633 d73e f4a2 403f 5149 18bf
000003b0: 12bf babd 22a2 ee3d 312c 983e 4a04 05bd
000003c0: c0b3 b0be 1d06 003f 03fc c53e 112d 013f
000003d0: 050c 49bd c2dc 253e 0184 243f b691 84bd
000003e0: 602f f73d bde1 a9be 6789 723e cf08 5c3e
000003f0: e312 ecbc 4178 15be 1cbd c73e 8195 343d

fc2.weight f4 [256, 256]
-0.16874714 -1.1411526 0.0431664 0.9138478 0.28031206 -0.3816696 0.43943113 -0.27543634
0.046514202 -0.25240552 0.74148375 -0.058623888 -0.6298883 0.5173886 0.16958259 0.06713538
0.27722558 -0.045833 -0.6683412 -0.6117806 -0.7968871 -0.076172195 0.13206941 0.5608836
0.1927004 0.45699736 -0.19073328 -2.2350338 0.17403868 -0.77000916 0.14587812 -0.7357339
-0.75716496 -1.0070319 0.03574677 0.12272147 -0.15441813 0.29673427 -0.20868437 -1.2028784
1.0185751 0.39365354 -0.22491412 0.42447197 0.29240692 -0.70467675 -0.32622987 0.46796227
0.5089214 -0.17588097 0.008643492 0.03206327 -0.6507001 0.2903433 0.19879276 -0.9112584
0.98277426 -0.10204757 0.0573415 0.09006938 0.09642829 0.1862949 -0.021835545 0.48279116
0.41930854 0.35922012 -0.29487357 -0.116362855 -0.36938816 0.6146114 -0.025692811 0.7604445
0.49826935 0.26341528 -0.7438338 -0.110163994 -0.7591666 0.11995682 -0.08791448 0.30993015
-0.88226444 1.3942835 0.006541747 -0.25800088 0.69846386 0.14042692 0.2264888 0.1381416
0.649591 -0.8990191 0.27078015 -0.17424285 0.079594314 -0.024532098 -0.29635444 0.15128006
0.08761542 0.3891806 0.07661968 -0.06952266 0.08712767 -0.055289518 0.18897542 0.064169995
0.6117646 -0.66438305 0.8825003 0.12680247 -0.028975736 -0.08012701 -1.4871465 -0.1798906
0.3708672 1.137158 0.07111199 -0.36111516 -0.41280335 0.8455414 0.012161159 0.3220704
0.946044 -0.5089311 0.30068776 0.03724841 0.47721606 0.41795117 -0.59272885 -0.53571486
-0.2135089 -1.5016748 -0.891894 0.008190541 -0.2305741 1.4864823 -1.7282321 -0.020629417
-0.24548423 0.19244087 0.44721058 0.18484198 -0.16394958 -1.2856798 -1.0533636 -2.0856545
-0.37646288 0.74022436 -0.7120998 -1.3501045 -2.2994711 0.31426656 -0.25819165 0.75915045
-0.05846635 -0.35710263 -0.65025204 -0.86582077 0.02581916 -0.73983866 0.14544037 0.1781634
-0.78540206 0.112082355 -1.0109035 0.332693 -0.052126274 -0.91355944 0.059596702 -0.0074905227
-0.51262707 0.47840258 -0.70312184 -0.090482906 -0.3342934 -0.75095713 -0.47528028 0.19009435
0.3598009 0.27533817 -0.24963453 0.3531656 0.10173516 -0.52921206 0.24067986 0.032680824
-0.17750758 0.26168707 -0.1318856 -2.3543396 0.67847705 0.12876007 0.14575452 0.7693041
-0.059457425 0.25105405 -0.40755147 0.016195528 0.14609665 -0.29709265 0.10915151 -0.44595423
-1.6105388 -1.2738132 -0.301636 -0.26412863 1.347375 -0.24731432 -0.4717683 -0.14172146
0.32871163 0.6540504 0.24616599 -0.38214368 -0.031598438 -0.50368345 -0.21067981 0.21053582
-0.064645335 -0.3634218 0.22655304 0.577599 -0.08744124 -0.024837483 0.4179586 0.79119337
0.06474962 -0.3364043 -0.067718334 -0.33942014 0.5003407 -0.67256045 0.077040784 0.09146533
-0.43722308 -0.021284232 -0.035514772 0.64643055 0.2140393 0.33691654 -1.051131 -0.7546604
-0.0029110687 0.15213178 -0.44261438 0.16035977 0.2658477 0.5650749 0.16194682 1.6490221
-1.1016904 0.94342005 -0.6625377 0.2506757 1.2559222 2.0306664 -1.1027578 0.028740725
00000000: 0dcc 2cbe 4a11 92bf 40cf 303d eef1 693f
00000010: 1085 8f3e 336a c3be 1efd e03e fe05 8dbe
00000020: ad85 3e3d 4c3b 81be e1d1 3d3f 9a1f 70bd
00000030: 5c40 21bf 9473 043f 0fa7 2d3e 467e 893d
00000040: 83f0 8d3e 62bb 3bbd 6918 2bbf a79d 1cbf
00000050: cb00 4cbf 2b00 9cbd 343d 073e 1196 0f3f
00000060: 4153 453e 8ffb e93e 964f 43be cb0a 0fc0
00000070: 3237 323e 521f 45bf 1361 153e 0f59 3cbf
00000080: 90d5 41bf 6ce6 80bf 356b 123d 6555 fb3d
00000090: c91f 1ebe 8eed 973e 5bb1 55be ebf7 99bf
000000a0: ab60 823f f58c c93e e34f 66be 6454 d93e
000000b0: 5cb6 953e b265 34bf 9a07 a7be c098 ef3e
000000c0: ac48 023f 241a 34be 6f9d 0d3c c754 033d
000000d0: 4894 26bf e1a7 943e 5490 4b3e 3b48 69bf
000000e0: 1897 7b3f 51fe d0bd ecde 6a3d 4c76 b83d
000000f0: 327c c53d 17c4 3e3e 75e0 b2bc 6730 f73e
00000100: 9caf d63e b3eb b73e abf9 96be a64f eebd
00000110: 7220 bdbe 2c57 1d3f bb79 d2bc 7eac 423f
00000120: 291d ff3e 5ede 863e e46b 3ebf a99d e1bd
00000130: be58 42bf ecab f53d 820c b4bd 2aaf 9e3e
00000140: 15dc 61bf e277 b23f 275c d63b b118 84be
00000150: 87ce 323f 13cc 0f3e aeec 673e fe74 0d3e
00000160: 994b 263f 1e26 66bf b2a3 8a3e b86c 32be
00000170: 5802 a33d 8af7 c8bc c5bb 97be 29e9 1a3e
00000180: b76f b33d ae42 c73e c7ea 9c3d e561 8ebd
00000190: fe6f b23d 4377 62bd c682 413e 8f6b 833d
000001a0: 9b9c 1c3f 0215 2abf 8aeb 613f 82d8 013e
000001b0: 865e edbc a119 a4bd d15a bebf 3e35 38be
000001c0: 4ee2 bd3e 658e 913f 2aa3 913d 16e4 b8be
000001d0: f65a d3be 6775 583f 993f 473c 69e6 a43e
000001e0: f12f 723f 4f49 02bf bff3 993e ca91 183d
000001f0: aa55 f43e b2fd d53e 14bd 17bf 9c24 09bf
00000200: 14a2 5abe e136 c0bf 2a53 64bf 9e31 063c
00000210: 9e1b 6cbe 0d45 be3f b636 ddbf 06ff a8bc
00000220: 3860 7bbe 380f 453e c9f8 e43e 3747 3d3e
00000230: 66e2 27be 2891 a4bf 9ed4 86bf 5d7b 05c0
00000240: bebf c0be 587f 3d3f 2c4c 36bf 39d0 acbf
00000250: 892a 13c0 8ce7 a03e b231 84be af57 423f
00000260: 697a 6fbd 28d6 b6be eb76 26bf 6ea6 5dbf
00000270: b482 d33c 1166 3dbf 52ee 143e 7770 363e
00000280: 1c10 49bf 6f8b e53d 4965 81bf bd56 aa3e
00000290: 5c82 55bd 08df 69bf ac1b 743d 0f73 f5bb
000002a0: 873b 03bf 2ff1 f43e cbff 33bf 1a4f b9bd
000002b0: 8128 abbe ba3e 40bf f057 f3be 18a8 423e
000002c0: d337 b83e 20f9 8c3e 32a0 7fbe 1fd2 b43e
000002d0: 865a d03d 717a 07bf c874 763e 54dc 053d
000002e0: 8cc4 35be d9fb 853e 050d 07be 80ad 16c0
000002f0: acb0 2d3f aed9 033e ac40 153e 1df1 443f
00000300: a189 73bd 288a 803e 96aa d0be 7cac 843c
00000310: 5c9a 153e 871c 98be d48a df3d 1d54 e4be
00000320: 2326 cebf 500c a3bf 0970 9abe de3b 87be
00000330: c976 ac3f f73f 7dbe 9d8b f1be 6e1f 11be
00000340: e44c a83e d96f 273f f012 7c3e 56a8 c3be
00000350: 5d6d 01bd 66f1 00bf 73bc 57be b496 573e
00000360: c664 84bd 6c12 babe 85fd 673e 87dd 133f
00000370: 6514 b3bd fa77 cbbc abfe d53e a68b 4a3f
00000380: 739b 843d 2f3d acbe e9af 8abd 7ac8 adbe
00000390: 5416 003f ec2c 2cbf 8fc7 9d3d 2d52 bb3d
000003a0: b4db dfbe 455c aebc f077 11bd 797c 253f
000003b0: 1e2d 5b3e 5380 ac3e 768b 86bf 6d31 41bf
000003c0: a1c7 3ebb 6fc8 1b3e 5a9e e2be 5a35 243e
000003d0: 311d 883e c0a8 103f 63d5 253e 2813 d33f
000003e0: 3104 8dbf fa83 713f 129c 29bf 9158 803e
000003f0: 0fc2 a03f 70f6 0140 2b27 8dbf ab71 eb3c

fc2.bias f4 [256]
0.04979863 0.052836005 -0.12011003 -0.044693355 0.25361982 -0.05845111 0.565855 0.0020339133
-0.009312778 -0.071471855 -0.04385804 -0.06522362 0.30837274 -0.030555038 -0.019358361 0.650685
0.64414555 0.7279687 0.016589127 0.58209944 0.57810926 -0.05712815 -0.029345661 -0.020799424
-0.006346452 0.5315807 -0.09233354 0.02756623 0.4536756 0.5495589 -0.08772209 -0.07335747
0.40986755 -0.02218377 0.13231546 0.8145892 0.024337003 0.62249607 -0.034078345 -0.07097129
-0.04308213 0.19800173 -0.067056604 0.0036630672 0.7324375 0.027270185 0.5289529 -0.025638144
0.12139775 0.36278015 -0.061083682 -0.011675065 0.25066957 -0.030743228 -0.0010042501 -0.058554884
0.12968768 -0.089993425 -0.017909355 0.069020055 -0.06689466 -0.03621547 -0.08661783 0.020301586
-0.03075878 -0.033751346 0.30519205 0.6431991 -0.075300284 -0.08623909 0.23921494 0.2769479
0.6069687 0.60594857 0.7406811 -0.030728519 0.56369394 0.0013762667 0.03891521 0.6215864
0.092447884 -0.028632222 -0.0039504576 -0.009580822 0.69998956 -0.03506829 -0.049779307 0.025222467
-0.09272544 0.39797285 0.20894344 -0.03374877 0.71159405 0.031082394 -0.0448784 0.43277356
0.29725233 -0.03338469 0.5337835 0.7356403 -0.010604999 -0.044874787 -0.06361462 -0.1251032
-0.03185973 0.6146515 0.021425886 0.76122195 -0.061363857 -0.021097131 -0.017352846 -0.060092293
-0.06461992 0.63730675 -0.0577976 0.73549086 -0.10672846 0.019526677 0.23947391 -0.0640844
0.51562595 -0.07894735 0.15272826 0.17298761 0.59844065 -0.048830044 0.59352624 0.07677266
0.61198425 0.31154254 -0.09670857 0.031102723 -0.039033063 -0.072809584 0.702903 -0.070719115
0.6379256 -0.017095063 -0.07272374 -0.07876101 0.03917962 -0.07646167 0.63186884 0.0057018423
-0.027070448 -0.050393913 -0.07388968 -0.056458265 0.025457427 0.012730519 0.011483242 -0.036979318
0.0009415629 0.6336168 -0.061153322 -0.095157094 0.01782485 -0.2632955 0.38871846 -0.050054833
-0.054249544 -0.081318855 0.6318708 -0.04936711 0.0028037236 -0.01684776 0.38287395 0.5781111
-0.038778443 0.0554033 -0.040773485 0.3574902 0.23392512 -0.013194751 0.5813463 0.45517555
0.012900023 -0.081440866 0.62796855 0.23461063 0.0041852943 -0.03303598 -0.02639257 0.5799029
0.024450457 -0.051488917 -0.01217217 0.022048669 0.1785684 0.68876314 0.2503518 -0.029164523
0.6657753 0.5917434 -0.013420416 0.040840942 -0.007193002 -0.034492385 -0.016356787 -0.026069911
0.023797665 0.5316827 0.5195295 -0.04823122 0.015240429 0.0018080723 -0.05533754 0.23286721
0.021628978 -0.07561797 -0.04595913 -0.05275543 0.022259831 -0.06554176 0.061522134 0.015734656
-0.061395854 0.09605401 0.41847667 0.16106674 0.761163 -0.017552061 0.36111814 0.025867635
-0.028303603 -0.027131202 -0.10703479 0.17853731 0.053744774 -0.018160207 0.030999953 -0.05215139
-0.00082550483 -0.009411023 -0.0056906207 -0.0939602 -0.051132616 -0.028021486 0.58680266 0.12311639
0.69892186 0.14421706 0.16301422 -0.04423978 0.037653778 0.30709702 -0.046182077 0.10143169
-0.021230653 -0.026320437 -0.061414212 0.417441 -0.040575303 0.72167754 0.6356256 -0.06996562
00000000: a6f9 4b3d 916a 583d 3ffc f5bd 6110 37bd
00000010: 75da 813e 6e6a 6fbd e0db 103f 674b 053b
00000020: 9f94 18bc d65f 92bd 7da4 33bd f693 85bd
00000030: 08e3 9d3e 8f4e fabc 6d95 9ebc 4b93 263f
00000040: b9e6 243f 285c 3a3f ece5 873c 7804 153f
00000050: f8fe 133f 35ff 69bd 5066 f0bc 8e63 aabc
00000060: e6f5 cfbb ac15 083f 5e19 bdbd 93d2 e13c
00000070: 2b48 e83e e4af 0c3f a4a7 b3bd 713c 96bd
00000080: 29da d13e bdba b5bc b47d 073e eb88 503f
00000090: 655e c73c e75b 1f3f bc95 0bbd 6559 91bd
000000a0: e376 30bd f7c0 4a3e f954 89bd 1210 703b
000000b0: 0681 3b3f b965 df3c 7569 073f 1607 d2bc
000000c0: 629f f83d 52be b93e e232 7abd c648 3fbc
000000d0: c357 803e 39d9 fbbc 0ba1 83ba 3fd7 6fbd
000000e0: d9cc 043e 794e b8bd a4b6 92bc 635a 8d3d
000000f0: 1100 89bd ac56 14bd b064 b1bd 834f a63c
00000100: d6f9 fbbc da3e 0abd 2242 9c3e b2a8 243f
00000110: 0937 9abd 1f9e b0bd c3f4 743e 1dcc 8d3e
00000120: 4d62 1b3f 721f 1b3f 479d 3d3f 60ba fbbc
00000130: 3f4e 103f d963 b43a 8e65 1f3d 4920 1f3f
00000140: 5155 bd3d 1f8e eabc d772 81bb e1f8 1cbc
00000150: 8432 333f c4a3 0fbd 63e5 4bbd 599f ce3c
00000160: d6e6 bdbd 19c3 cb3e 45f5 553e 263c 0abd
00000170: 072b 363f 81a0 fe3c 6ad2 37bd 7f94 dd3e
00000180: 7531 983e 62be 08bd 09a6 083f ec52 3c3f
00000190: 97c0 2dbc a0ce 37bd 6248 82bd 0e1b 00be
000001a0: 597f 02bd cd59 1d3f 5785 af3c 71df 423f
000001b0: ab58 7bbd e4d3 acbc 8e27 8ebc 5623 76bd
000001c0: 7357 84bd 8926 233f 2dbd 6cbd 2149 3c3f
000001d0: 7394 dabd 69f6 9f3c a638 753e af3e 83bd
000001e0: 1000 043f 26af a1bd cc64 1c3e aa23 313e
000001f0: 6833 193f 0302 48bd 56f1 173f fc3a 9d3d
00000200: 00ab 1c3f 8182 9f3e 250f c6bd 23cb fe3c
00000210: 22e1 1fbd 311d 95bd 73f1 333f 2fd5 90bd
00000220: 184f 233f f20a 8cbc 2ff0 94bd 744d a1bd
00000230: cf7a 203d f097 9cbd 28c2 213f 85d6 ba3b
00000240: d8c2 ddbc d969 4ebd 7953 97bd c840 67bd
00000250: 188c d03c ab93 503c 3524 3c3c a077 17bd
00000260: 37d3 763a b634 223f e87b 7abd b9e1 c2bd
00000270: 6b05 923c abce 86be 1b06 c73e 4c06 4dbd
00000280: c534 5ebd 808a a6bd 49c2 213f 2b35 4abd
00000290: adbe 373b 5004 8abc 0e08 c43e 17ff 133f
000002a0: 25d6 1ebd 92ee 623d 1902 27bd f508 b73e
000002b0: 118a 6f3e cc2e 58bc 1cd3 143f c50c e93e
000002c0: 9e5a 533c 78ca a6bd 8cc2 203f c53d 703e
000002d0: cb24 893b bc50 07bd 3b35 d8bc 8474 143f
000002e0: 534c c83c 0be6 52bd c86d 47bc 699f b43c
000002f0: a2da 363e c852 303f 1c2e 803e 70ea eebc
00000300: 4070 2a3f 7f7c 173f 4ee1 5bbc d548 273d
00000310: 46b3 ebbb e347 0dbd abfe 85bc 9190 d5bc
00000320: 52f3 c23c 5c1c 083f e3ff 043f 1a8e 45bd
00000330: feb2 793c d7fc ec3a 9ea9 62bd be74 6e3e
00000340: 412f b13c 98dd 9abd a43f 3cbd 1416 58bd
00000350: 405a b63c c23a 86bd a2fe 7b3d f7e5 803c
00000360: 387a 7bbd f7b7 c43d 9342 d63e aeee 243e
00000370: 94db 423f 57c9 8fbc 7ae4 b83e 5de8 d33c
00000380: f5dc e7bc 4142 debc 0e35 dbbd 7cd2 363e
00000390: 7b23 5c3d b7c4 94bc 9df3 fd3c b29c 55bd
000003a0: b166 58ba b130 1abc 6378 babb 356e c0bd
000003b0: 6f70 51bd 518d e5bc b338 163f 7224 fc3d
000003c0: 8bec 323f a3ad 133e 33ed 263e c634 35bd
000003d0: d93a 1a3d d23b 9d3e 6b29 3dbd 6bbb cf3d
000003e0: e8eb adbc f59d d7bc 788d 7bbd d4ba d53e
000003f0: 4a32 26bd dcbf 383f 5cb8 223f 234a 8fbd

fc3.weight f4 [4, 256]
-0.23390713 0.2091758 -0.028714523 0.041537337 -0.01262065 0.0036351644 0.1837086 0.011718885
0.008122346 0.027928155 0.043995123 0.020241236 0.18509068 0.04239123 -1.2339859 0.2317929
0.42070484 0.26979107 0.0013458567 0.46447542 0.414018 -0.0024182084 -0.0040750727 2.5472372
0.0043378174 0.33818823 0.014413576 -0.0275046 0.4773328 0.19851042 -0.0068949834 -0.023726761
0.025889445 0.027943028 -1.5095727 0.38110557 -0.0017343801 0.41526425 -0.011982358 0.014337018
0.008962105 0.5375879 -0.02964237 0.03124342 0.2547802 0.015813626 0.1319195 0.014565707
-1.04359 0.0891856 0.029812362 0.054209672 0.37619033 0.028067403 0.03320102 -0.027976628
-0.4614824 0.051112007 0.019363044 -0.15876374 0.032864142 0.04275804 0.01481104 0.03305653
-0.021995889 -0.05136644 -0.25130638 0.08676804 -2.3682706 0.021714935 1.1170119 1.3603399
0.24400483 0.2429453 0.35323328 0.0042531304 0.12678155 -0.025640363 0.7280661 0.41971704
1.295117 -0.02990523 0.026308484 0.0014914594 0.33635923 -0.03660468 0.031713914 0.01439758
-0.023848088 0.87710065 -0.1634732 -0.006925983 0.33048123 -0.33740968 -0.18752486 0.19653507
0.8129475 0.026346453 0.24422926 0.41528025 0.027204104 -0.0122654345 -0.033172213 0.09748543
0.049884316 0.23433024 -0.019767463 0.35763735 0.0506732 -0.06013932 -1.4166765 -0.030432018
0.039969932 0.16901307 -0.0031455941 0.24682368 0.04086447 -0.06537651 -0.582954 -0.02706875
1.2554884 0.043988034 -1.0922564 0.82785815 0.13380998 -0.023749098 0.1972965 2.7505999
0.22420748 0.17103378 -0.0022244537 0.03410683 0.037426203 -0.03255613 0.2425145 -0.024773892
0.2383906 0.0066839154 -0.006630687 -0.023675432 -0.37788618 -0.054764953 0.3449795 0.006268941
-1.683015 0.055492796 0.00090881356 -0.011277745 0.025439054 -0.010832764 0.0032599154 -0.010556997
0.013216447 0.27792874 0.025360249 -0.04552537 0.027556105 -1.0186197 1.0660074 -0.0019981856
-0.0026939982 0.21429618 0.3403302 -0.009167531 -0.019493131 0.003728564 0.031308174 0.73670095
0.05100273 0.21493426 0.033188205 0.3901176 0.60313445 0.0107339155 0.19648565 -0.1520923
-0.059079006 0.03131239 0.33704665 0.10169887 -0.06771504 0.030944431 -0.042470794 0.29235026
-0.02960866 0.018890543 0.012453501 -0.22277015 0.79865336 0.26844442 0.8624139 -0.04087828
0.21841478 0.24128737 3.5232167 -0.024481723 0.04278385 0.010624248 0.0421397 -0.031381734
-0.010122914 0.17627843 0.21598598 0.006251591 -0.065439045 0.025338294 0.025786633 -1.3373598
0.027046636 -0.04534037 0.05375307 0.028326217 0.029913664 0.5652986 -0.34828785 0.060593344
-0.022440128 0.8350783 0.18244588 1.0621325 0.32140443 -0.0007967561 0.24555019 0.24345206
-0.021905705 0.011955879 0.0055515086 0.24173449 -0.047378562 0.042816415 0.0450377 -0.029159691
-0.070022255 -0.0019541131 -0.015891775 0.05155668 0.034902997 0.040770598 0.37804022 1.4990145
0.28513637 -0.5596614 -2.0033789 0.020915953 0.27652702 0.83016986 0.030623715 0.65184855
0.041391972 -0.022635508 -0.028870335 1.5085198 -0.011695638 0.4379994 0.21285996 -0.04913642
00000000: 5a85 6fbe 2e32 563e b83a ebbc 0e23 2a3d
00000010: d8c6 4ebc f03b 6e3b 1b1e 3c3e 9100 403c
00000020: 9713 053c 96c9 e43c 3b34 343d f3d0 a53c
00000030: 6988 3d3e 6da2 2d3d 40f3 9dbf 1e5b 6d3e
00000040: a066 d73e 0e22 8a3e 7567 b03a b9cf ed3e
00000050: 2bfa d33e ce7a 1ebb 3088 85bb ef05 2340
00000060: 4024 8e3b 0227 ad3e eb26 6c3c 5451 e1bc
00000070: f764 f43e 5146 4b3e 50ef e1bb a05e c2bc
00000080: 1a16 d43c c7e8 e43c ae39 c1bf 4520 c33e
00000090: 2454 e3ba 849d d43e a751 44bc d0e5 6a3c
000000a0: cbd5 123c 5c9f 093f 8ed4 f2bc 33f2 ff3c
000000b0: 8d72 823e 948b 813c e815 073e 01a5 6e3c
000000c0: 5b94 85bf f1a6 b63d 0e39 f43c f60a 5e3d
000000d0: 059c c03e 9ced e53c cbfd 073d 3e2f e5bc
000000e0: 6c47 ecbe d35a 513d 3f9f 9e3c f692 22be
000000f0: 8d9c 063d 0e23 2f3d 01aa 723c 4966 073d
00000100: b930 b4bc 9e65 52bd 3bab 80be 71b3 b13d
00000110: bf91 17c0 85e3 b13c 3ffa 8e3f 9e1f ae3f
00000120: 67dc 793e a7c6 783e feda b43e d85d 8b3b
00000130: 06d3 013e bd0b d2bc 8a62 3a3f 27e5 d63e
00000140: 65c6 a53f d0fb f4bc e484 d73c 137d c33a
00000150: 4737 ac3e caee 15bd 73e6 013d d4e3 6b3c
00000160: 115d c3bc ab89 603f 8565 27be 5bf3 e2bb
00000170: d634 a93e f6c0 acbe 8406 40be 7d40 493e
00000180: 541d 503f 84d4 d73c 3c17 7a3e 9d9f d43e
00000190: 24db de3c f6f4 48bc 96df 07bd 71a6 c73d
000001a0: 7f53 4c3d 44f4 6f3e 60ef a1bc 3e1c b73e
000001b0: b48e 4f3d a654 76bd a855 b5bf 914c f9bc
000001c0: 83b7 233d c311 2d3e 5026 4ebb 59bf 7c3e
000001d0: 8161 273d 1fe4 85bd 793c 15bf 48bf ddbc
000001e0: d8b3 a03f cc2c 343d 0fcf 8bbf 83ee 533f
000001f0: 7c05 093e 788d c2bc 1808 4a3e d409 3040
00000200: a596 653e 7b23 2f3e 24c8 11bb 9ab3 0b3d
00000210: 384c 193d 9459 05bd b955 783e 9ef2 cabc
00000220: aa1c 743e bf04 db3b 3c46 d9bb fbf2 c1bc
00000230: 4c7a c1be 3751 60bd 27a1 b03e b06b cd3b
00000240: 096d d7bf 6a4c 633d 723d 6e3a 4ac6 38bc
00000250: 9065 d03c e87b 31bc 4ea4 553b 41f7 2cbc
00000260: cc89 583c ad4c 8e3e 4cc0 cf3c cf78 3abd
00000270: 57bd e13c 2162 82bf ee72 883f fef3 02bb
00000280: ca8d 30bb 7570 5b3e c33f ae3e 6933 16bc
00000290: 0fb0 9fbc ec5a 743b 003d 003d 6f98 3c3f
000002a0: 3de8 503d ba17 5c3e 5bf0 073d 7ebd c73e
000002b0: 0567 1a3f 4edd 2f3c 8933 493e 15be 1bbe
000002c0: d4fc 71bd 6c41 003d 6191 ac3e 7f47 d03d
000002d0: 2fae 8abd 2d7f fd3c dbf5 2dbd efae 953e
000002e0: dc8d f2bc 57c0 9a3c c509 4c3c dc1d 64be
000002f0: 8c74 4c3f 8c71 893e 28c7 5c3f fc6f 27bd
00000300: 20a8 5f3e 0914 773e 627c 6140 e58d c8bc
00000310: 1e3e 2f3d 5311 2e3c ae9a 2c3d 228a 00bd
00000320: 94da 25bc 5582 343e 6e2b 5d3e 25da cc3b
00000330: e804 86bd 4192 cf3c 7d3e d33c 9b2e abbf
00000340: e890 dd3c d3b6 39bd 2e2c 5c3d 620c e83c
00000350: 800d f53c 69b7 103f c952 b2be ba30 783d
00000360: 5cd4 b7bc b1c7 553f 18d3 3a3e f5f3 873f
00000370: 1f8f a43e 66dd 50ba 8271 7b3e 7f4b 793e
00000380: 9873 b3bc 97e2 433c 6ee9 b53b 3f89 773e
00000390: 0610 42bd 4460 2f3d 7479 383d 4ee0 eebc
000003a0: d467 8fbd 9410 00bb 782f 82bc 192d 533d
000003b0: 72f6 0e3d 12ff 263d 7d8e c13e b5df bf3f
000003c0: 65fd 913e f845 0fbf 5c37 00c0 ef57 ab3c
000003d0: f394 8d3e 0386 543f 96de fa3c 8cdf 263f
000003e0: a18a 293d 1a6e b9bc 7b81 ecbc 2d17 c13f
000003f0: 109f 3fbc 7541 e03e f6f7 593e 4543 49bd

fc3.bias f4 [4]
0.5853493 0.61117864 0.53736204 0.64869076
00000000: 74d9 153f 3476 1c3f 8f90 093f 9910 263f

exp_avg f4 [256, 11]
-0.51236314 -0.033891235 -0.2311764 -1.1756822 1.1574236 -0.44382167 0.0818133 1.0958068
-1.4805758 -2.0566201 1.6926488 -1.9380425 -1.9346023 0.13708971 0.29616803 -2.8951664
0.0021193838 2.958081e-18 0.035189793 -2.4623792 -3.5541062 0.5835334 0.0 0.0
0.0 0.0 0.0 0.0 0.0 0.0 0.0 0.0
0.0 -0.0061579435 -0.19265608 -0.12701716 0.26542076 -0.3218996 0.089839764 0.07241648
-0.042142063 0.23493092 0.067931384 0.037061945 0.6353002 -0.55835253 -0.3040382 -7.078552e-31
1.6549462 0.90270406 1.674985 4.6857057 -0.31196618 2.1560464 2.1756275 1.7922987
0.40615082 -0.0046346923 1.1182691 1.0638889 -0.2860345 0.0508106 0.8932215 1.1539375
0.25791994 1.4872041 0.3513507 -2.5386667 0.34475926 6e-45 -2.6094217 1.454391
0.87581676 8.148586 -7.9161005 -7.089963 6.3678184 0.04330956 -0.023827445 0.5306955
2.4079252e-32 1.5116082 -1.8444054 -0.018316472 0.89860904 -0.966012 -1.1108835 0.72787595
-0.22597547 -0.07134252 -0.19604406 -1.1452063 1.7079678 -0.43716702 -0.0118429 1.4603462
-1.1351699 -1.8030571 1.7170995 -0.11617818 -0.006285257 -0.972083 -1.0377162 1.579719
0.003691077 0.048285022 1.2008686 -0.6346709 -0.65782094 0.70062435 0.9055642 0.19462824
0.30759144 0.6250823 0.0066087754 0.61627644 0.10476482 1.5891811 -0.23927608 -0.29604518
1.5544052 0.0 0.0 0.0 0.0 0.0 0.0 0.0
0.0 0.0 0.0 0.0 0.5397826 1.0151501 -0.11269756 0.0030000305
1.0250973 -0.86665493 -0.6133993 -0.4188033 0.20648058 -0.4918741 -0.14540257 0.35249174
0.028246716 0.20080398 0.3566752 0.19101138 0.0075109364 6e-45 0.56599945 -0.03826327
0.12754568 0.3691262 -0.06650655 -0.2942855 -0.4756807 -0.063414834 0.96234614 -0.7376406
-0.26133877 1.0773922 -1.436768 -0.99392873 1.3841977 0.23322792 -0.04194825 0.15850945
0.26874572 0.31835997 -1.3963754 -0.34610462 0.9819785 -1.8176254 -1.8973732 0.86363715
0.0096423095 1.0171522e-38 -0.13571687 -0.99635893 1.3675566 -0.27193007 -0.09676071 1.815521
-1.5707105 -2.022759 1.981597 -1.430421 -0.52973545 -0.43456477 -1.043724 1.1241459
-1.1137369 -0.5668982 -0.032969672 -1.6964834 -2.4264083 0.7815086 7.342607 2.5604832
1.1415688 3.4075136 2.9479806 -0.7539117 0.5577736 6.39779 -0.22408104 -0.5812907
6.960814 0.21566853 -0.27154958 0.049891043 -0.077852055 0.065848894 -0.6783302 -0.15484075
0.31290373 -1.1580144 0.29193947 -0.2356665 -0.00015721256 6e-45 -0.12018119 0.01129195
1.35087585e-05 -1.2207166 0.18512759 6e-45 -0.6223287 -0.93163705 6e-45 -0.20353478
8.5637926e-35 -0.2974051 -0.8947456 0.6642706 -0.20022643 -0.06837651 -0.02152569 -0.58507186
-0.7075081 0.1581104 1.2081672 0.49267605 -0.03843408 0.23882599 0.34398854 -0.42867148
1.3646561 1.697564 0.14987978 -0.29953766 2.1385307 1.1228197 0.09369557 -0.84266746
00000000: 3b2a 03bf 89d1 0abd 82b9 6cbe c17c 96bf
00000010: 7526 943f 983c e3be bb8d a73d 6643 8c3f
00000020: 8283 bdbf aa9f 03c0 b7a8 d83f c711 f8bf
00000030: 0ca1 f7bf 3f61 0c3e 56a3 973e 684a 39c0
00000040: 5ce5 0a3b 9244 5a22 2c23 103d 9f97 1dc0
00000050: 7a76 63c0 7262 153f 0000 0000 0000 0000
00000060: 0000 0000 0000 0000 0000 0000 0000 0000
00000070: 0000 0000 0000 0000 0000 0000 0000 0000
00000080: 0000 0000 93c8 c9bb a347 45be c910 02be
00000090: 3be5 873e 06d0 a4be e9fd b73d 174f 943d
000000a0: 289d 2cbd bb91 703e 9c1f 8b3d 44ce 173d
000000b0: 09a3 223f 31f0 0ebf e5aa 9bbe 4fb6 658d
000000c0: 47d5 d33f 9d17 673f e965 d63f 4df1 9540
000000d0: 08ba 9fbe aafc 0940 7b3d 0b40 0b6a e53f
000000e0: 00f3 cf3e 9ede 97bb 7123 8f3f 832d 883f
000000f0: 1d73 92be c71e 503d 2aaa 643f 39b4 933f
00000100: 150e 843e b45c be3f 3de4 b33e 8479 22c0
00000110: 4984 b03e 0400 0000 c400 27c0 7c29 ba3f
00000120: 8735 603f 9c60 0241 b250 fdc0 fae0 e2c0
00000130: 2bc5 cb40 5d65 313d c631 c3bc a9db 073f
00000140: a20d fa0a 617c c13f 7a15 ecbf 6d0c 96bc
00000150: 3e0b 663f 904c 77bf 6e31 8ebf 1456 3a3f
00000160: 1d66 67be 071c 92bd c6bf 48be 1f96 92bf
00000170: b09e da3f 5bd4 dfbe b908 42bc a0ec ba3f
00000180: 3f4d 91bf 93ca e6bf ebc9 db3f d3ee edbd
00000190: 8ff4 cdbb 6eda 78bf e2d3 84bf 3b34 ca3f
000001a0: ffe5 713b 84c6 453d 10b6 993f cb79 22bf
000001b0: f466 28bf 1e5c 333f 0ed3 673f a04c 473e
000001c0: a07c 9d3e 6505 203f 6d8e d83b 4bc4 1d3f
000001d0: f08e d63d 496a cb3f ca04 75be 3c93 97be
000001e0: c0f6 c63f 0000 0000 0000 0000 0000 0000
000001f0: 0000 0000 0000 0000 0000 0000 0000 0000
00000200: 0000 0000 0000 0000 0000 0000 0000 0000
00000210: 312f 0a3f 70f0 813f facd e6bd 299c 443b
00000220: 6336 833f 19dd 5dbf bd07 1dbf 636d d6be
00000230: a56f 533e ecd6 fbbe 69e4 14be cc79 b43e
00000240: a865 e73c 8f9f 4d3e 229e b63e 7d98 433e
00000250: 4d1e f63b 0400 0000 57e5 103f f2b9 1cbd
00000260: 569b 023e 1cfe bc3e 9634 88bd 97ac 96be
00000270: 6c8c f3be a3df 81bd 515c 763f 04d6 3cbf
00000280: 32ce 85be fde7 893f 04e8 b7bf 1d72 7ebf
00000290: 642d b13f 4dd3 6e3e eed1 2bbd 4d50 223e
000002a0: 0a99 893e 1400 a33e 6ebc b2bf a034 b1be
000002b0: f162 7b3f f3a7 e8bf 20dd f2bf 5317 5d3f
000002c0: c7fa 1d3c 11c2 6e00 5df9 0abe 6111 7fbf
000002d0: 180c af3f 6b3a 8bbe 7b2a c6bd fe62 e83f
000002e0: 0b0d c9bf e274 01c0 f8a4 fd3f 0918 b7bf
000002f0: be9c 07bf 467f debe bf98 85bf 03e4 8f3f
00000300: ee8e 8ebf 3e20 11bf 350b 07bd 5e26 d9bf
00000310: 464a 1bc0 f310 483f a3f6 ea40 f5de 2340
00000320: ed1e 923f b414 5a40 b7ab 3c40 5b00 41bf
00000330: 40ca 0e3f b2ba cc40 8075 65be 78cf 14bf
00000340: fdbe de40 36d8 5c3e 8c08 8bbe 8d5a 4c3d
00000350: e670 9fbd c9db 863d 0ca7 2dbf 938e 1ebe
00000360: eb34 a03e d139 94bf 1779 953e 8f52 71be
00000370: 6dd9 24b9 0400 0000 8e21 f6bd df01 393c
00000380: ada3 6237 7140 9cbf 1692 3d3e 0400 0000
00000390: ef50 1fbf c47f 6ebf 0400 0000 6c6b 50be
000003a0: 27aa e306 7b45 98be 0c0e 65bf a30d 2a3f
000003b0: 2808 4dbe fc08 8cbd a556 b0bc 45c7 15bf
000003c0: 401f 35bf b1e7 213e 39a5 9a3f 0940 fc3e
000003d0: 0e6d 1dbd cd8e 743e 441f b03e d47a dbbe
000003e0: 0dad ae3f c749 d93f 167a 193e 005d 99be
000003f0: b0dd 0840 8eb8 8f3f 77e3 bf3d 0eb9 57bf

exp_avg_sq f4 [256, 11]
65.565346 7.135749 30.486547 84.72739 213.83752 134.26581 24.053171 155.83011
299.16116 246.06573 204.48811 73.45932 103.06013 3.926058 2.5287046 141.49582
0.16496958 0.021750659 17.60219 125.259605 37.410362 101.763374 0.0 0.0
0.0 0.0 0.0 0.0 0.0 0.0 0.0 0.0
0.0 4.2456603 2.3106754 4.0251603 4.1926966 8.6870775 0.25632864 1.540232
3.199668 9.356438 14.099179 0.8355795 36.333225 59.538437 19.556028 0.00022134064
170.9971 270.71652 122.96719 332.57956 215.26485 414.6076 157.40929 43.329544
22.48768 13.416242 24.04796 18.634195 2.9527757 12.627365 21.910526 36.4868
23.256971 34.59787 38.74476 28.133032 9.028069 7.952133e-07 525.2947 336.78802
75.8586 500.1238 384.05762 818.6802 141.42879 10.01315 3.3197181 9.292561
0.053487305 66.30727 55.683395 0.3334996 29.450493 83.57526 111.2306 3.689702
54.667294 24.99602 29.614555 76.77754 203.6339 139.42726 46.771767 195.13919
274.45465 256.55502 206.0982 82.65377 39.61423 126.89068 22.138968 341.17032
3.4245088 64.3681 94.955086 280.83307 212.34097 169.49918 18.270962 11.454258
9.364546 9.729971 1.8345363 5.848042 11.624831 21.348043 7.583186 15.7309675
12.077438 0.0 0.0 0.0 0.0 0.0 0.0 0.0
0.0 0.0 0.0 0.0 14.826409 16.852844 18.454165 0.3409835
15.938585 8.921657 15.975509 16.475082 19.747604 31.713839 2.8441274 5.3992496
2.2794788 5.292824 3.2611732 3.4141595 1.9310975 1.1878155e-25 4.4049277 3.797619
1.4345864 6.865482 46.979763 11.400199 20.850805 63.2414 150.1207 101.093
33.798695 125.874596 231.92741 217.51149 136.7806 4.9918795 2.832684 15.524146
25.755482 46.578217 73.41273 13.767813 49.685112 112.20487 100.92366 52.606514
62.520767 0.006467968 12.048509 81.751396 167.06093 164.35736 26.260036 168.21664
270.57474 235.44844 204.13852 68.93584 38.681957 29.785202 71.63572 248.55402
114.75057 21.48418 146.62625 307.7953 231.48201 211.06012 604.35077 111.06187
118.32504 540.9793 129.33751 19.385612 94.881256 493.63455 275.1796 253.87592
535.0851 0.1756607 4.5511303 1.5591502 1.1397159 0.7791668 33.697884 4.0952306
26.834661 12.476777 26.24759 0.9509606 1.2793311 7.021109e-21 0.67090666 0.06850698
0.00032706844 14.413731 2.350428 1.461346e-23 12.11431 16.794313 5.5532513e-07 9.413595
0.015529463 5.8663836 12.240991 11.168006 1.0957146 0.6492826 2.7516 20.345945
15.716853 7.589723 51.394787 17.004707 8.917508 69.343285 137.68196 151.33562
42.85562 115.206665 292.17163 263.403 147.65141 98.36659 2.5040154 90.99278
00000000: 7521 8342 0e58 e440 73e4 f341 6c74 a942
00000010: 68d6 5543 0c44 0643 e56c c041 82d4 1b43
00000020: a194 9543 d410 7643 f57c 4c43 2ceb 9242
00000030: c91e ce42 8944 7b40 4cd6 2140 ee7e 0d43
00000040: c9ed 283e 702e b23c 49d1 8c41 eb84 fa42
00000050: 36a4 1542 d986 cb42 0000 0000 0000 0000
00000060: 0000 0000 0000 0000 0000 0000 0000 0000
00000070: 0000 0000 0000 0000 0000 0000 0000 0000
00000080: 0000 0000 73dc 8740 1be2 1340 1dce 8040
00000090: 922a 8640 45fe 0a41 823d 833e 5226 c53f
000000a0: 5cc7 4c40 f8b3 1541 3d96 6141 8ae8 553f
000000b0: 3955 1142 5c27 6e42 bf72 9c41 ad17 6839
000000c0: 42ff 2a43 b75b 8743 34ef f542 2f4a a643
000000d0: cd43 5743 c64d cf43 c768 1d43 7451 2d42
000000e0: c5e6 b341 eda8 5641 3962 c041 d512 9541
000000f0: 47fa 3c40 b009 4a41 c248 af41 7cf2 1142
00000100: 470e ba41 3864 0a42 a2fa 1a42 7310 e141
00000110: f872 1041 a476 5535 dc52 0344 de64 a843
00000120: 9ab7 9742 d90f fa43 6007 c043 88ab 4c44
00000130: c56d 0d43 dd35 2041 4376 5440 54ae 1441
00000140: 8115 5b3d 529d 8442 ccbb 5e42 76c0 aa3e
00000150: 9c9a eb41 8826 a742 1176 de42 1424 6c40
00000160: 4fab 5a42 d9f7 c741 9cea ec41 1a8e 9942
00000170: 47a2 4b43 616d 0b43 4a16 3b42 a223 4343
00000180: 323a 8943 0b47 8043 2419 4e43 bb4e a542
00000190: f974 1e42 07c8 fd42 9b1c b141 cd95 aa43
000001a0: 272b 5b40 78bc 8042 01e9 bd42 a26a 8c43
000001b0: 4a57 5443 ca7f 2943 ee2a 9241 a444 3741
000001c0: 2ed5 1541 f6ad 1b41 16d2 ea3f 2923 bb40
000001d0: 4fff 3941 cbc8 aa41 76a9 f240 0bb2 7b41
000001e0: 303d 4141 0000 0000 0000 0000 0000 0000
000001f0: 0000 0000 0000 0000 0000 0000 0000 0000
00000200: 0000 0000 0000 0000 0000 0000 0000 0000
00000210: f938 6d41 a0d2 8641 21a2 9341 6495 ae3e
00000220: 7204 7f41 1bbf 0e41 af9b 7f41 f8cc 8341
00000230: 18fb 9d41 f1b5 fd41 2f06 3640 a7c6 ac40
00000240: fbe2 1140 d05e a940 10b7 5040 9781 5a40
00000250: 342e f73f 600b 1316 2bf5 8c40 310c 7340
00000260: 87a0 b73f 07b2 db40 47eb 3b42 3767 3641
00000270: 73ce a641 32f7 7c42 e61e 1643 9e2f ca42
00000280: dd31 0742 cbbf fb42 6bed 6743 f182 5943
00000290: d5c7 0843 7abd 9f40 b24a 3540 e762 7841
000002a0: 3a0b ce41 1850 3a42 51d3 9242 f648 5c41
000002b0: 8ebd 4642 e568 e042 ead8 c942 126d 5242
000002c0: 4415 7a42 40f1 d33b b1c6 4041 b780 a342
000002d0: 990f 2743 7c5b 2443 8e14 d241 7637 2843
000002e0: 9149 8743 cd72 6b43 7623 4c43 26df 8942
000002f0: 53ba 1a42 1848 ee41 7d45 8f42 d48d 7843
00000300: 4b80 e542 9adf ab41 52a0 1243 cce5 9943
00000310: 657b 6743 640f 5343 7316 1744 ad1f de42
00000320: 6ca6 ec42 ad3e 0744 6756 0143 bc15 9b41
00000330: 34c3 bd42 39d1 f643 fd96 8943 3ce0 7d43
00000340: 72c5 0544 66e0 333e dca2 9140 3c92 c73f
00000350: 36e2 913f 7a77 473f a2ca 0642 210c 8340
00000360: 63ad d641 e1a0 4741 10fb d141 2772 733f
00000370: 1fc1 a33f 00a0 041e 8ac0 2b3f 634d 8c3d
00000380: 627a ab39 a49e 6641 6a6d 1640 2d55 8d19
00000390: 37d4 4141 c15a 8641 a711 1535 169e 1641
000003a0: 4a6f 7e3c 6ab9 bb40 19db 4341 27b0 3241
000003b0: 6040 8c3f 6237 263f 371a 3040 7fc4 a241
000003c0: 3b78 7b41 03df f240 4394 4d42 a409 8841
000003d0: 1dae 0e41 c3af 8a42 95ae 0943 eb55 1743
000003e0: 286c 2b42 d069 e642 f815 9243 96b3 8343
000003f0: c3a6 1343 b2bb c442 ca41 2040 4efc b542

exp_avg f4 [256]
-0.38026702 -2.596879 0.0 0.10577743 4.2326355 1.946934 -0.27921426 -0.35111365
0.113751754 0.5939791 1.3527322 0.0 -0.4519571 0.5551976 -0.10004708 -1.1553744
0.0025070705 -1.6002125 6.159357 -0.8451739 -1.0242835 -0.49907798 1.5188003 -1.0050108
0.5248395 2.3464956 0.5530923 -0.36679098 0.77570194 -4.093095 0.559585 6.6371737
0.6742238 -0.8757943 1.2226433 -0.6914929 5.2279196 1.6051041 -0.37725073 -1.5474803
-1.066935 1.9055994 -1.2541488 1.6061288 6e-45 4.9725466 -0.42980897 0.8548499
1.1468176 -1.5977768 -0.75729537 0.22820655 0.4816551 -0.3006513 -1.7303421 -0.5590738
2.1078851 1.4790652 -1.4676644 0.043165375 1.3569098 -0.25878108 -0.7453069 2.7648406
0.28660616 1.6252375 1.9521576 -0.29685885 -1.6024603 -5.989554 0.08567642 -0.33285612
5.774612 2.9512951 -1.3248045 0.6166763 1.6850699 0.29184473 -0.59956247 -1.0739441
-1.6846122 0.9774364 -0.35359785 -1.7098054 0.93420535 -1.2464055 -0.5339784 -1.9674677
0.6172791 1.6555189 1.408156 2.9805098 0.56793964 -0.4085151 3.4246867 0.01876858
5.94046 2.258308 -1.0849205 -1.291704 1.5752271 -0.2937509 -1.2524477 6e-45
0.40522426 0.036974754 0.99491745 -4.4279795 0.2789539 0.21846226 1.4134783 0.27885222
-0.002163459 -1.0295601 0.27345815 -0.91197336 0.73650503 0.03979164 0.021266459 1.0155255
-1.7904599 -0.10308527 -0.55379575 6e-45 -0.2190843 0.50237185 -0.734262 0.87015224
0.6677203 0.8357887 -0.75785047 2.341939 1.0516168 -1.0360646 -0.73937553 -0.93903893
-0.9920728 -3.4368134 1.8386261 -0.34300512 -3.2559226 1.2325052 -0.545641 -2.268745
-1.4887829 -0.12545936 0.20006633 -1.5792537 1.1225516 2.1422606 -0.21377133 -4.63145
-2.0181546 0.24924742 3.1876316 -0.22726743 0.0 -2.0542812 -0.548929 -0.24177973
-0.67010474 -0.5095666 -2.8738415 0.8169886 6e-45 2.7164788 -9.207902 -1.1733443
0.5200997 -0.34422946 0.30765834 -0.44024593 3.8839405 0.5186348 1.4494406 0.60194
-0.11264739 2.0026104 0.10362576 -0.13811897 4.7492456 0.95255303 1.6085849 -1.2449914
-1.1829257 -0.076652475 -0.89830905 -3.6635437 3.7858863 -0.3225459 -0.19168329 -2.7799346
0.7066679 -0.7179901 -0.8531936 0.34682822 -0.056586448 -0.116335176 -1.189058 -1.0530118
1.3022462 -0.95085233 -0.8445088 -0.15614243 -0.03955329 -0.33639237 -3.9239025 0.39653984
-1.5683787 -4.7761707 2.6290474 0.43778604 0.008084103 -1.7013344 -0.7234955 0.9335872
6e-45 -1.4102134 -0.563422 6e-45 1.7590216 -1.2089306 3.617656 -0.50887674
1.2349823 -0.6376871 -0.6630596 1.1227179 3.0107768 2.4554293 -2.308648 -2.8544223
-0.7770014 2.8679712 -1.3879684 -0.35540107 0.53202826 0.2760412 -1.6815355 1.1110655
1.5882416 -0.5416091 1.8761414 -0.14125489 -1.9348761 -0.93972397 -0.91312325 0.56438637
1.6555207 0.4695822 -3.8641758 1.4539857 1.2382756 -1.9472092 -1.1737784 3.7117093
00000000: 5cb2 c2be 4433 26c0 0000 0000 d6a1 d83d
00000010: c071 8740 2235 f93f 2cf5 8ebe 2bc5 b3be
00000020: aef6 e83d 040f 183f 5426 ad3f 0000 0000
00000030: ec66 e7be 6e21 0e3f 7ce5 ccbd 4fe3 93bf
00000040: aa4d 243b c3d3 ccbf 7419 c540 515d 58bf
00000050: b91b 83bf 2687 ffbe 0c68 c23f 32a4 80bf
00000060: e25b 063f fc2c 1640 7597 0d3f 07cc bbbe
00000070: 6794 463f a2fa 82c0 f640 0f3f ba63 d440
00000080: ee99 2c3f 0e34 60bf 937f 9c3f ae05 31bf
00000090: 1e4b a740 0d74 cd3f 0227 c1be d613 c6bf
000000a0: 5391 88bf aeea f33f f387 a0bf a195 cd3f
000000b0: 0400 0000 1a1f 9f40 ec0f dcbe 71d7 5a3f
000000c0: ebca 923f f383 ccbf 1cde 41bf faae 693e
000000d0: 7f9b f63e f8ee 99be da7b ddbf 761f 0fbf
000000e0: 97e7 0640 0252 bd3f 6ddc bbbf 2dce 303d
000000f0: 38af ad3f f47e 84be 6fcc 3ebf 26f3 3040
00000100: 0bbe 923e c807 d03f 4de0 f93f e2fd 97be
00000110: 6b1d cdbf 6daa bfc0 1e77 af3d 1e6c aabe
00000120: 9fc9 b840 05e2 3c40 3293 a9bf 7fde 1d3f
00000130: 5fb0 d73f ac6c 953e ed7c 19bf 0077 89bf
00000140: 5fa1 d7bf 4639 7a3f c70a b5be e7da dabf
00000150: 1528 6f3f 378a 9fbf cfb2 08bf fbd5 fbbf
00000160: 0106 1e3f 0be8 d33f 753e b43f acc0 3e40
00000170: 7e64 113f e428 d1be 112e 5b40 91c0 993c
00000180: 4018 be40 1e88 1040 adde 8abf 8f56 a5bf
00000190: 0ba1 c93f 8566 96be 3550 a0bf 0400 0000
000001a0: 8e79 cf3e d772 173d e9b2 7e3f 02b2 8dc0
000001b0: 0cd3 8e3e 92b4 5f3e dbec b43f b8c5 8e3e
000001c0: d2c8 0dbb a0c8 83bf b502 8c3e 1677 69bf
000001d0: 988b 3c3f 8ffc 223d ff36 ae3c bdfc 813f
000001e0: ca2d e5bf 5f1e d3bd 8fc5 0dbf 0400 0000
000001f0: a257 60be 719b 003f 98f8 3bbf 4cc2 5e3f
00000200: b8ef 2a3f 40f6 553f 7d02 42bf 54e2 1540
00000210: 619b 863f c49d 84bf b747 3dbf db64 70bf
00000220: 7cf8 7dbf c0f4 5bc0 1a58 eb3f 5e9e afbe
00000230: 0961 50c0 bbc2 9d3f 21af 0bbf 1e33 11c0
00000240: 7090 bebf 6b78 00be 30de 4c3e fc24 cabf
00000250: c5af 8f3f cc1a 0940 dfe6 5abe d734 94c0
00000260: 7229 01c0 b73a 7f3e 2802 4c40 cbb8 68be
00000270: 0000 0000 5879 03c0 9c86 0cbf 1b95 77be
00000280: fc8b 2bbf f572 02bf 05ed 37c0 2a26 513f
00000290: 0400 0000 cada 2d40 9153 13c1 2530 96bf
000002a0: 4125 053f d83e b0be 6585 9d3e ea67 e1be
000002b0: 7b92 7840 40c5 043f 4587 b93f bd18 1a3f
000002c0: adb3 e6bd c52a 0040 be39 d43d 0f6f 0dbe
000002d0: d2f9 9740 84da 733f 1ce6 cd3f e15b 9fbf
000002e0: 1c6a 97bf f9fb 9cbd 95f7 65bf 8077 6ac0
000002f0: f64b 7240 bc24 a5be a048 44be 73ea 31c0
00000300: 30e8 343f 33ce 37bf e56a 5abf 7893 b13e
00000310: 31c7 67bd 2341 eebd 0d33 98bf 17c9 86bf
00000320: 01b0 a63f 0f6b 73bf bb31 58bf cde3 1fbe
00000330: a102 22bd 9f3b acbe 3821 7bc0 4507 cb3e
00000340: a2c0 c8bf 64d6 98c0 5042 2840 7e25 e03e
00000350: 3073 043c 53c5 d9bf 0037 39bf 92ff 6e3f
00000360: 0400 0000 df81 b4bf 6d3c 10bf 0400 0000
00000370: 9f27 e13f 3dbe 9abf ad87 6740 bf45 02bf
00000380: e613 9e3f 763f 23bf 46be 29bf 38b5 8f3f
00000390: 91b0 4040 c125 1d40 e4c0 13c0 dbae 36c0
000003a0: 90e9 46bf d78c 3740 f3a8 b1bf 21f7 b5be
000003b0: 0133 083f 4655 8d3e 8e3c d7bf 6537 8e3f
000003c0: 804b cb3f e5a6 0abf 6725 f03f 1fa5 10be
000003d0: 05aa f7bf c091 70bf 72c2 69bf a07b 103f
000003e0: 1ae8 d33f 146d f03e a84e 77c0 341c ba3f
000003f0: d17f 9e3f 273e f9bf 5f3e 96bf a58c 6d40
