groupe13/snake_dqn_model.pth (torch, 846731 bytes, 18 tensors)

fc1.weight f4 [256, 11]
000000 77 31 3a 3d 56 68 66 3f a2 4d 2a 3f 61 be 3f 3f
       0.04545733 0.90002954 0.6652471 0.7489987
000010 78 35 ef bd cd e1 58 3e 8b bf d5 be 40 48 6d be
       -0.1168012 0.21179886 -0.41747698 -0.23172092
000020 36 45 e3 be f7 1c 53 be a3 83 a6 3e 5c d2 d4 be
       -0.4438874 -0.20616518 0.32522306 -0.4156674
000030 33 00 0a 3f 6b 4a 87 3e f8 0e e5 be e8 b9 f9 3d
       0.53906554 0.26423964 -0.44737983 0.12193662
000040 c9 ae fa 3e 03 d8 97 3d 08 51 16 be 47 e9 f1 3d
       0.48961475 0.07414248 -0.14679348 0.11812072
000050 9c 3f 70 bf 30 b5 de bd 35 0e b2 bd 5b 1a f8 be
       -0.9384706 -0.108744025 -0.08694116 -0.48457608
000060 bf 0f f7 3e 91 e3 a1 bd d0 50 15 3e c7 1d 58 3e
       0.482542 -0.07904733 0.14581609 0.21105109
000070 62 25 56 be 2d 13 ce be 39 3a d7 be 4d ca c2 bd
       -0.20912698 -0.40249005 -0.42036608 -0.09511242
000080 72 a3 aa be 65 59 bc bd 32 12 3c 3f 46 9c 98 3e
       -0.33327824 -0.09196738 0.73465264 0.29806727
000090 37 c0 bc be 8a 49 81 be 06 52 22 3e 02 1e 3b bf
       -0.36865398 -0.25251418 0.15851602 -0.73092663
0000a0 25 bc 30 bf 77 7f ac bc a5 80 7d bf 59 a0 5d 3d
       -0.69037086 -0.021056874 -0.9902442 0.054107998
0000b0 d5 8c 0f bf c6 de c8 3e fb 43 21 3e e8 67 0a be
       -0.5607427 0.39232463 0.15748589 -0.135162
0000c0 c0 a8 d4 3e 6e 2a 0d bf 31 50 81 3e bc a3 14 bf
       0.41534996 -0.5514287 0.25256494 -0.5806234
0000d0 e9 36 43 bf d7 93 58 3e 9a 43 b7 3e 3f 24 1f 3e
       -0.7625566 0.21150146 0.35793763 0.1554117
0000e0 7b a2 bc 3e a1 d2 78 3f ec 38 47 bf 8e cd 46 3f
       0.36842713 0.97196394 -0.7782123 0.776574
0000f0 6d 86 dc 3c ee f9 7b be a1 a0 1f bf 50 e6 24 be
       0.026919568 -0.2460706 -0.62354475 -0.16103482
000100 40 6e 02 bf 43 c2 d3 3d fa fe cd 3e 80 1b b8 be
       -0.5094948 0.10339787 0.40233594 -0.3595848
000110 f0 b9 a5 3d 0a 99 95 be 2c e1 08 be 94 33 a3 3e
       0.080921054 -0.29218322 -0.13367146 0.31875288
000120 0b f6 3f ba 0e 71 94 be 75 f2 e6 3d 66 63 aa be
       -0.0007322735 -0.28992504 0.11276714 -0.3327896
000130 bc 02 a5 be 6b 7e 96 be d2 38 54 bf 3b 15 b4 3e
       -0.3222865 -0.29393324 -0.828992 0.35172448
000140 7c bb f0 3d 24 b6 45 3f 04 d8 9c be d4 fe a7 3e
       0.1175451 0.7723105 -0.30633557 0.32811606
000150 10 dd 1a be a9 9d ac 3e 5b 61 5d 3e 87 6e 0e 3f
       -0.15123391 0.33714035 0.2161917 0.556374
000160 7f f9 a1 be df fd 70 bf 92 5f b9 3d d7 6e 24 be
       -0.31635663 -0.94137377 0.09051432 -0.16057907
000170 41 fe 20 3e a1 50 9d 3d d3 d4 5f be 06 2a 16 3e
       0.1572199 0.07681394 -0.2185853 0.14664468
000180 82 e7 af 3e a5 ab 53 bc 8c f7 b7 3e 3c 93 23 bf
       0.34356314 -0.012919341 0.3593105 -0.63896537
000190 82 57 28 bf 88 10 9c 3d cb 95 63 3e a5 d0 93 3e
       -0.65758526 0.076203406 0.2222511 0.2887012
0001a0 c5 43 f2 3e 77 5f bf be 63 90 8a be 6e 91 41 3e
       0.4731733 -0.3737752 -0.27063283 0.18903133
0001b0 f1 71 c3 be 04 c5 b9 3e f4 4c f8 3e 2e 75 41 be
       -0.38172868 0.36283123 0.4849621 -0.18892357
0001c0 f3 d1 c6 3e 6b 36 3a be 00 57 a2 3e b0 c9 d9 be
       0.38832054 -0.18184821 0.31707 -0.42536688
0001d0 df 01 f6 bd 23 0f 46 3e cb 80 a6 3c 12 87 30 bf
       -0.12012076 0.19341712 0.020325085 -0.689561
0001e0 80 e1 0d bf a9 3d 26 bd c3 aa c4 be 89 b3 c0 be
       -0.5542221 -0.040586147 -0.3841153 -0.37636974
0001f0 cd d1 7e be 35 d4 5f 3e c5 65 8a be 19 63 ff bb
       -0.2488472 0.21858294 -0.2703077 -0.007793796
000200 5d 02 d2 be e0 59 de be d3 b7 67 3d 15 bb 12 be
       -0.41017428 -0.43427944 0.056571793 -0.14329179
000210 4b 37 54 3f 69 d7 a1 3e 6f c9 bc 3e 41 9e fb 3d
       0.8289687 0.31609657 0.36872432 0.12286044
000220 0a 29 ac bc 2b b2 b3 be 0c 96 54 3c 64 fb 09 bf
       -0.021015663 -0.3509687 0.012975227 -0.53899217
000230 46 bd bf be 40 b2 f8 3d df cb 0a bf 00 9c 17 3f
       -0.37449092 0.121433735 -0.5421733 0.5922241
000240 c2 19 c0 be 35 38 14 3f 85 79 f9 be 4f 72 21 bf
       -0.37519652 0.57898265 -0.48725525 -0.63065046
000250 83 64 8d 3e 42 6c dd be 41 cd d5 be 52 3f ff 3d
       0.27615747 -0.43246657 -0.4175816 0.12463249
000260 71 28 9d bd 52 de eb 3c d1 ff 08 bf 23 03 c1 3d
       -0.07673729 0.028792534 -0.53515345 0.094244264
000270 0b b5 a2 3e e2 d6 d5 bd 52 2d e8 be 14 f9 4f be
       0.3177875 -0.10441376 -0.45347077 -0.2030986
000280 1b 82 1e 3e e4 c1 2d 3e 00 9e 97 be 0a 00 08 be
       0.15479319 0.16968495 -0.29612732 -0.13281265
000290 80 23 09 bf e7 01 90 3e 5c 70 01 bf f6 38 d0 3e
       -0.53569794 0.2812645 -0.5056207 0.40668458
0002a0 f5 7d 2d bf 97 1f 04 3f 8e e1 eb bd a1 74 f2 bd
       -0.6777032 0.516107 -0.115176305 -0.118386514
0002b0 e7 51 a0 3d 55 23 01 3f 83 d4 18 be d3 33 b0 3e
       0.07828122 0.5044454 -0.14924817 0.3441454
0002c0 37 e3 96 3e da 16 41 be 08 00 07 3f 08 87 37 3e
       0.29470226 -0.18856373 0.5273442 0.17922604
0002d0 7f 1a 3f 3e a5 ce 41 bf c7 cc 01 be 5f 03 d8 be
       0.18662451 -0.7570594 -0.12675773 -0.42190072
0002e0 2b ef e8 be fc 59 9d 3e c7 a0 12 bf d7 4b ff 3d
       -0.4549497 0.30732715 -0.57276577 0.12465637
0002f0 c7 53 19 3e 82 b5 3e 3f e6 4f 73 3e 37 96 77 bd
       0.14973365 0.7449571 0.23760948 -0.06044599
000300 bf f5 df 3e fb 90 11 bf a3 17 84 be c0 0b 62 3e
       0.43742177 -0.5686185 -0.25799283 0.22074795
000310 4a c1 1b bf d2 7f 39 3e dc 77 22 bf 69 bf aa 3d
       -0.6084181 0.18115166 -0.6346414 0.0833729
000320 d4 fb b5 bd cd 6e 53 3e 96 83 86 3e 5b 63 53 3e
       -0.08885923 0.20647736 0.26272267 0.2064337
000330 76 82 73 3e e2 bb 6f 3e 3c 78 31 3e 9f 31 86 bf
       0.23780236 0.23411515 0.17331022 -1.0483893
000340 82 a4 61 bf a9 cc 19 3f 31 b6 79 bf 0d 76 a5 3e
       -0.88141644 0.6007791 -0.9754363 0.32316628
000350 19 c4 16 be 37 3a a1 be 0c 98 24 3f ee 51 fa 3e
       -0.14723243 -0.31489727 0.64294505 0.48890632
000360 c4 9a 6f 3e 01 e9 42 be 21 ae b9 be 8b e0 3f be
       0.23398882 -0.19034196 -0.36265662 -0.18738
000370 02 aa 34 bf 9c 84 3c 3f 7a 3c 2b 3e 7f dd de be
       -0.7057191 0.73639846 0.16722289 -0.43528363
000380 7e e8 21 bf a4 4e a5 3e d7 dd 00 be 78 f7 ac be
       -0.6324538 0.3228656 -0.12584625 -0.33782554
000390 20 e5 bf 3e fd e0 3e 3d 64 0c a0 be 23 75 11 bf
       0.37479496 0.046601284 -0.31259453 -0.5681936
0003a0 67 d9 11 3f 9a c6 ca be 20 e7 47 bd bf 20 85 3e
       0.56972355 -0.39604646 -0.048804402 0.26001546
0003b0 0a 0a 9d be 1b 78 a2 be 7d 8d 9c be 0c 8a 3a 3e
       -0.30671722 -0.31732258 -0.30576697 0.18216723
0003c0 03 0a 9e be 9c 7f 78 3e 52 e2 ca 3e ef 73 4b bf
       -0.30867013 0.24267429 0.39625794 -0.79473776
0003d0 f9 94 c2 be a6 fe 92 be ed b1 65 bd f3 17 b7 3e
       -0.38004282 -0.28709906 -0.056077886 0.3576046
0003e0 12 14 80 3d fd 24 90 3e 6a 4d 33 be c2 85 33 3e
       0.06253828 0.2815322 -0.1751 0.17531493
0003f0 3e c5 75 3d 46 55 4b be e5 73 c1 3e 0b 57 aa 3e
       0.060002558 -0.19856748 0.37783733 0.33269534

fc1.bias f4 [256]
000000 3c 31 fb be e8 20 bf be 10 b0 a8 be de 90 dd bd
       -0.49061 -0.37329793 -0.32946825 -0.10818647
000010 dc dd ad bd a8 fe 8c be 3a 16 c3 bd d4 97 83 bd
       -0.08489582 -0.27538037 -0.09525724 -0.06425443
000020 ed e0 3d 3e d6 19 bb 3e f4 0f 9b be 7c 9e d7 bb
       0.18542834 0.3654315 -0.3028561 -0.006580172
000030 7a 53 48 be 7d 38 8e be 1f 04 33 be c9 0f a5 be
       -0.19563094 -0.27777472 -0.17482041 -0.32238606
000040 0b e1 2a be 16 d0 4c be 3e d4 9f 3e 42 89 15 3d
       -0.1668741 -0.20001253 0.31216615 0.036507852
000050 61 5b fe be 15 cc 6c be 2d 17 d5 3e 7b f0 20 3e
       -0.49679092 -0.23124726 0.41619244 0.15716736
000060 a8 da 2c be 71 48 2b 3e f5 b5 90 be 21 b5 23 3d
       -0.16880286 0.16726853 -0.28263822 0.03996766
000070 f7 a6 de bd 57 80 ee be 09 1f 17 3e 25 30 11 3f
       -0.1087169 -0.4658229 0.14757933 0.5671409
000080 9a 73 91 3e 4b 1d e9 ba 82 25 d1 be 71 81 2f 3d
       0.2840851 -0.0017785219 -0.4084893 0.042848054
000090 70 fe 28 bf 04 eb d2 3d 06 69 f8 3e 1a 34 77 3e
       -0.6601324 0.10298732 0.48517627 0.24140969
0000a0 97 7c b8 be 0f b0 cb bd 90 f3 0e 3f ca a8 d1 3e
       -0.36032555 -0.0994569 0.55840397 0.40949088
0000b0 1c d5 a8 3e cc 86 8a 3e 83 77 8a be 5e af f8 be
       0.3297509 0.27055967 -0.27044305 -0.48571295
0000c0 53 83 1a 3e 08 ac 31 3f b4 31 ad be b9 66 4d 3d
       0.15089159 0.69403124 -0.33826983 0.050146792
0000d0 aa 75 21 3d 4e 0d f9 3e 45 d5 82 be 87 3d 59 3d
       0.039418854 0.48642963 -0.25553337 0.053037193
0000e0 8a 19 75 be 02 86 29 bd 0f f0 8c be 11 36 a6 3e
       -0.23935524 -0.041387565 -0.275269 0.32463124
0000f0 82 a2 3a be 66 5f 80 3e a3 e1 53 be c3 a6 87 be
       -0.18226054 0.25072783 -0.20691542 -0.26494417
000100 dd 64 27 be 01 ae 0f 3f 34 00 f0 3e cf 75 3c 3e
       -0.1634707 0.56124884 0.46875155 0.18404315
000110 fd ba b5 be 4f 71 a2 bd 62 b2 a5 3d 0e 86 c8 be
       -0.35494223 -0.07931768 0.080906644 -0.39164776
000120 6b 65 50 be 99 3f a4 be 57 f1 b2 3d 67 63 cb be
       -0.20351188 -0.3207977 0.08737438 -0.39724275
000130 63 58 aa be 05 99 61 3d 8a be 46 be 61 83 7c be
       -0.3327056 0.05507757 -0.19408622 -0.24659492
000140 d5 13 57 3d ef d3 c5 3c a3 24 ef be 6b 36 95 bd
       0.052509148 0.02414891 -0.4670764 -0.0728577
000150 65 7c cd bd 52 63 89 bd 20 95 e6 be 08 af 7b 3e
       -0.10033492 -0.06708397 -0.45035648 0.24578488
000160 6e 2f 9a be 64 c2 0d bf c8 71 e8 bd 0d 88 e3 be
       -0.3011431 -0.5537474 -0.11349827 -0.44439736
000170 1e 6d ed be 38 98 0e 3f 26 2c 9f bd 70 05 9b be
       -0.46372312 0.5570102 -0.077720925 -0.30277586
000180 d6 01 af be df 7e b3 3d e7 c0 0e 3f c1 67 a0 be
       -0.34181088 0.08764433 0.55763096 -0.31329158
000190 61 7d a5 3e 06 b5 ca bd 66 77 f2 be 5b 6c da bd
       0.3232222 -0.09897809 -0.4735672 -0.106651984
0001a0 7a c7 aa bd c2 4f 43 bd 24 6c 3f be 6f e2 8f be
       -0.083388284 -0.047683485 -0.18693596 -0.28102443
0001b0 a8 7f c6 3e 1d 24 4c bd 2b 0a e3 be 38 c7 47 3e
       0.3876927 -0.049839128 -0.44343695 0.1950959
0001c0 65 a9 72 be d3 58 c7 be d2 70 c0 be f3 65 bc be
       -0.23697431 -0.38934955 -0.37586075 -0.3679653
0001d0 bb 1b 5b be bd 91 d1 3d 20 b4 46 be b8 ab 9f be
       -0.21397297 0.102328755 -0.1940465 -0.31185699
0001e0 3e 6a 20 3e 98 16 40 be 9b 8d 98 bd a7 3b 1a be
       0.15665528 -0.18758619 -0.07448884 -0.15061818
0001f0 9f bd f2 bd 25 b4 32 bf 3d d6 5e 3e bc c0 75 bd
       -0.118525736 -0.6980613 0.21761413 -0.05999826
000200 f7 c0 87 be 95 e7 ed 3e 00 cc 0e 3e 12 cd a6 be
       -0.26514408 0.46465746 0.13945007 -0.3257833
000210 fa c2 99 be 68 da b4 3d 68 36 e0 bc 09 38 36 3e
       -0.30031568 0.0883072 -0.027369693 0.17794813
000220 c8 7f 81 3d 94 48 78 bd 65 58 8a 3e 01 2d 24 3e
       0.063232005 -0.06061609 0.27020565 0.16032793
000230 7c 40 41 3e ca 45 27 3e bc 86 10 bd 7d 9d 0c be
       0.18872255 0.16335216 -0.035284743 -0.13731952
000240 fe f5 03 3f 7b aa 94 be ff 0d e1 be 7a 13 bc be
       0.5154723 -0.29036316 -0.4395599 -0.3673361
000250 ac 90 a3 be 47 31 ef 3e 2a 5c e5 3e 76 e2 98 3e
       -0.31946313 0.46717283 0.44796878 0.29860276
000260 a0 60 96 3e 65 30 3c 3e 90 a9 ba 3e 88 80 d7 3e
       0.29370594 0.18377836 0.3645749 0.4209025
000270 a2 f1 7d be fa 8f b3 bd 77 4f b6 be 73 8a 8b 3e
       -0.24799207 -0.08767696 -0.35607502 0.27254066
000280 88 6d 79 3e ea 22 96 bd 90 4f ba be fd a5 4a be
       0.24358189 -0.07330878 -0.36388826 -0.19789882
000290 77 56 4e 3e 8a bc ed bd d5 ca a1 be b1 81 a3 be
       0.20150171 -0.116082266 -0.3160006 -0.31934884
0002a0 47 23 0d 3f 92 2b 82 3e 28 33 da bc 01 df 60 bd
       0.55131954 0.25423867 -0.026635721 -0.054900173
0002b0 32 02 c2 bd ce 3e d9 be 90 7b 1a be e7 9c 0e 3f
       -0.09473075 -0.4243073 -0.15086198 0.55708164
0002c0 24 7e 09 3f fa a7 9b 3e 3d 62 6c be e1 5f 82 3e
       0.537081 0.30401593 -0.2308435 0.25463775
0002d0 ab e5 25 3e af 10 08 bf eb 71 1e 3f 5c c5 3f 3d
       0.16200893 -0.5315046 0.61892575 0.046819076
0002e0 d3 5d e2 3d 15 82 43 3e 80 16 cb be a0 0d c7 be
       0.11053052 0.19092591 -0.39665604 -0.38877583
0002f0 70 ff d6 be 47 fb 1f be ab a7 25 3c b4 e1 be be
       -0.41991758 -0.15623198 0.010110776 -0.37281573
000300 17 44 be be 7e 97 2f bd f1 e2 06 3f b1 a2 f1 3d
       -0.37161323 -0.042869084 0.52690035 0.11798609
000310 48 43 6e 3e 8b e2 d3 bb 9d ec 1c 3e ca 87 19 bf
       0.23267853 -0.006466215 0.15324636 -0.5997282
000320 ec c2 a9 3d 17 3f 90 be f3 de b8 be 83 53 bf be
       0.082891315 -0.28173134 -0.36107597 -0.37368402
000330 5e 82 5e be 7d 38 3d be e7 a0 74 be a2 89 7d be
       -0.21729419 -0.1847858 -0.23889504 -0.24759534
000340 d5 a7 a0 be 25 0a 0a 3e 87 4e 33 3d 7e 2f 40 3e
       -0.31378046 0.13480432 0.04377606 0.18768117
000350 07 63 e6 3e 8e 74 2c be ad 37 97 bd cf 56 8f be
       0.44997427 -0.16841337 -0.07383666 -0.27995917
000360 20 0d fc 3e 71 83 fd 3e 57 3f a1 3e 17 b4 a2 3e
       0.49228764 0.49514344 0.31493637 0.31778023
000370 5e 6d 00 3e ea c7 ca bd 9b 09 00 be 4c ae fe bd
       0.1254172 -0.09901412 -0.12503664 -0.12435588
000380 50 8d 2d be b0 52 8d 3e 06 ef 85 be b5 fc ad be
       -0.16948438 0.27602148 -0.26158923 -0.33981863
000390 08 b0 ae be 43 34 24 bd f6 fe 98 be 25 57 ae be
       -0.34118676 -0.040088903 -0.2988202 -0.3405086
0003a0 4a 74 f9 bd 3f 5a 0a 3f e0 b5 ba be 81 9c ba bd
       -0.121803835 0.54043955 -0.36466885 -0.09111882
0003b0 58 f4 cb be 40 e0 09 bf d6 4b be bd 1e 4f 21 be
       -0.39834857 -0.53857803 -0.09291808 -0.15752837
0003c0 82 15 54 be 53 b9 82 3e 01 4b 0c bd 50 d0 bd bd
       -0.2071133 0.25532016 -0.034251217 -0.09268248
0003d0 e3 4a e6 bd 9f c9 88 be c4 24 3f be 6b 24 1b 3f
       -0.11244752 -0.26716325 -0.18666369 0.60602444
0003e0 8c 04 ab be 9e db e2 3e 8d 18 f8 be 80 ed ae 3e
       -0.33401906 0.4430818 -0.4845623 0.34165573
0003f0 a9 a2 25 3f 4a 78 90 bd b8 b2 4b be b3 9d 95 be
       0.64701325 -0.07054193 -0.19892395 -0.29221877

fc2.weight f4 [256, 256]
000000 ff 52 6b bf f1 4c 41 be 77 c2 1a 3f 5e a7 2b bf
       -0.91923517 -0.18877007 0.6045298 -0.6705226
000010 bb 0a df 3e db c3 96 3e fe ea a4 be 11 40 31 be
       0.43562874 0.294463 -0.32210535 -0.17309596
000020 fa 88 e1 bd a6 31 08 bf 15 ba 65 bf 51 dc 84 be
       -0.11012454 -0.5320076 -0.89737064 -0.25949338
000030 a2 3b fa 3d 60 ec 05 be 96 1c 48 bf dd 3d b7 be
       0.12218405 -0.13078451 -0.7816862 -0.35789385
000040 0c 4c 96 3e 0d 05 24 be e1 49 b0 3d c2 b6 65 bf
       0.29354894 -0.16017552 0.08607841 -0.8973199
000050 1b 1f 13 3f 11 8c 40 3e c7 65 ad be af 0a 3a 3e
       0.5746934 0.18803431 -0.33866712 0.18168138
000060 8a 8b 91 3e 7d 33 d0 be 5a 3a 17 bf 77 48 11 3f
       0.28426772 -0.40664282 -0.5907341 0.567512
000070 4e 48 1f bf e8 e7 10 3f 61 ab 91 3e 9b 20 09 3f
       -0.62219703 0.5660386 0.28451064 0.53565377
000080 b8 0b 18 bf cf c3 5e bf 29 92 5e 3e e5 56 82 3e
       -0.5939288 -0.8701753 0.21735443 0.2545692
000090 07 99 07 bc 67 1a 07 3f 65 8b 91 3d c9 ac 61 3d
       -0.008276231 0.5277466 0.071066655 0.05509642
0000a0 40 d0 13 3f 25 b6 5d be a8 7d 02 be 9d c5 79 3d
       0.5773964 -0.21651514 -0.12743247 0.060979474
0000b0 c2 e0 0a 3e 52 69 17 bc fd c9 b9 be 84 3c 20 3f
       0.13562301 -0.009241419 -0.36286917 0.6259234
0000c0 af 97 a4 3d b4 0d c3 be 19 87 3f bc 74 89 d4 be
       0.08036744 -0.38096392 -0.011689925 -0.41511118
0000d0 5e 0a 0b 3f ad c3 fe 3d f8 0d 05 3f 77 7b 4c bf
       0.54312694 0.12439666 0.5197444 -0.7987589
0000e0 d1 a6 f6 3c 67 b6 29 bf b5 8e 0c bf 03 a5 c5 bc
       0.030108841 -0.6629395 -0.54905254 -0.024126535
0000f0 18 f5 ac bd 06 c6 37 bf f5 a2 0a 3e a0 45 11 3b
       -0.084451854 -0.71786535 0.13538726 0.0022166744
000100 a8 a5 08 bf 77 25 62 3e 3a 12 9f be 6f 06 45 bf
       -0.5337777 0.22084604 -0.31068593 -0.7696294
000110 b1 63 0c be 85 c9 25 bf 9b 4b 69 be 78 96 c8 bf
       -0.13709904 -0.6476062 -0.22782747 -1.567092
000120 a4 ff 4b 3f ab c2 63 3e 64 a1 34 bf 8c a2 6f 3f
       0.7968695 0.22242229 -0.7055876 0.936074
000130 2d d5 1a 3e c1 60 3e 3f 9c ab 9d 3e 35 00 2a bf
       0.15120383 0.74366385 0.3079499 -0.66406566
000140 90 9a 8c 3d 61 bb 1a be a3 45 47 bf 6e 15 62 bf
       0.06865418 -0.15110542 -0.7784063 -0.8831395
000150 0a a7 13 3d b5 75 59 3e 56 e0 2e 3e 76 83 37 bf
       0.036047973 0.21236308 0.17077765 -0.7168497
000160 20 cc cb be 27 a2 4a 3e 41 16 fe 3e ec 14 5b be
       -0.39804173 0.19788419 0.49626353 -0.213947
000170 45 e9 9e 3c a3 07 83 be d2 63 00 bf 11 2d 16 bf
       0.019398341 -0.25591764 -0.50152314 -0.58662516
000180 c4 a3 23 3f 6c 0e 98 bf b5 31 b9 be e9 27 58 be
       0.6392176 -1.1879401 -0.36170736 -0.21108975
000190 bf 3a 0e 3e da 0a ab bd be 8a ac 3e 35 bb 2d bf
       0.13889597 -0.08351679 0.33699602 -0.6786378
0001a0 4a a2 4c bc c9 3c 82 be 84 5a b5 be fa 94 5a 3d
       -0.012489865 -0.25437 -0.3542062 0.05336473
0001b0 75 14 2f 3f d7 53 40 3e cd c1 ce 3e 96 c9 4d 3e
       0.6839059 0.18781982 0.40382233 0.2009643
0001c0 12 26 89 bd 61 95 26 bf 55 57 2a 3e cb 3d 05 bf
       -0.066967145 -0.65071684 0.16634877 -0.52047414
0001d0 1b e2 7a be da 15 1a 3e aa 45 ff be 9a 52 b2 3e
       -0.24500315 0.15047398 -0.49857837 0.34828645
0001e0 82 82 b7 3d b0 66 12 3f bb be 85 3d e2 0c e6 bd
       0.08960439 0.5718794 0.065305196 -0.11232926
0001f0 42 e2 fa 3e 72 24 b7 be 8c 61 28 bf 2f 42 69 3e
       0.49000746 -0.35769993 -0.65773845 0.22779153
000200 ec 3c 29 bf d0 36 68 be 1e 31 45 be 2e ae 09 3f
       -0.66108584 -0.2267716 -0.19257018 0.537814
000210 c1 de fb 3e ad 85 8f bc c6 d0 19 bf 94 c4 da 3d
       0.49193385 -0.017519796 -0.6008419 0.106820256
000220 9b b3 10 3e 71 5b 9a 3e fc b3 28 be 0c c2 1d bf
       0.14131014 0.3014789 -0.16474909 -0.6162422
000230 19 4e 03 3e 1d 71 a1 be 20 49 3c be 75 d5 2c 3e
       0.1282276 -0.3153161 -0.1838727 0.16878302
000240 96 f8 9e be 61 75 84 bf 7c 94 3c 3f 16 df 32 be
       -0.3104903 -1.0348321 0.7366407 -0.17467913
000250 50 3f 1b 3f 16 07 95 bf dc 34 c2 3c 3a 6d e5 bd
       0.6064348 -1.1642787 0.023706846 -0.11202474
000260 37 b0 26 bf 67 0a b0 3e fe 61 4d be 70 60 c9 be
       -0.6511263 0.34382936 -0.20056912 -0.39331388
000270 59 32 40 bd 42 dd d2 3e 43 76 36 be 41 56 51 3e
       -0.046923015 0.4118443 -0.17818551 0.2044306
000280 91 37 77 be 9b fb d0 3d 87 31 25 3f e3 09 8c 3c
       -0.2414229 0.1020424 0.645287 0.017094558
000290 c9 87 a5 be 76 a6 21 3f ce 07 ee be a0 25 e8 3c
       -0.32330158 0.63144624 -0.4649033 0.028338253
0002a0 c8 e8 11 bf c5 ee 2d bf ff 1c 90 3d 28 97 68 bf
       -0.5699582 -0.6794246 0.070367806 -0.90855646
0002b0 67 12 33 bf cc 68 32 bf 48 2c 92 3e 60 46 dd bd
       -0.69949955 -0.6969116 0.2854941 -0.108044386
0002c0 99 fa 85 be f4 d3 a5 3e c1 74 65 bf 27 bd 99 3e
       -0.26167753 0.3238827 -0.8963128 0.30027124
0002d0 d4 07 14 3f e2 a5 cd be 1c 43 79 bd 3c c0 8a bf
       0.57824445 -0.4016562 -0.060855016 -1.0839915
0002e0 be 60 52 3e 73 41 1a 3f f1 a6 97 bf c8 69 8f be
       0.20544717 0.6025612 -1.1847821 -0.28010392
0002f0 27 fb ce 3e 8e ca f7 be e1 aa 4d bf 84 7a 77 bf
       0.4042599 -0.48396724 -0.80338866 -0.9667132
000300 15 46 4c 3f e8 dc a8 3e 36 ae 62 be 59 d5 a4 be
       0.79794437 0.32981038 -0.22136769 -0.3219402
000310 ee 84 52 bf 5b 81 dd bf 5e 61 d6 3e 0c df 30 3f
       -0.82234085 -1.7305101 0.4187116 0.6909034
000320 56 0f 02 be 9f f7 2b bf ce 18 d7 3e 76 82 75 bd
       -0.12701163 -0.67174715 0.42011112 -0.05993887
000330 97 29 cb 3e 5e 85 c7 3e ef a2 92 3e 71 5b cd be
       0.39680168 0.3896894 0.28639933 -0.40108827
000340 0c d8 c3 be 2c 42 ef be e6 8c 00 3e f9 70 d1 bc
       -0.38250768 -0.46730173 0.12553748 -0.025566565
000350 80 75 af bd dc b5 95 bf fc 0a 39 3e c3 4c bb 3e
       -0.08567333 -1.1696124 0.18070596 0.36582002
000360 02 d5 8d be 01 71 2b 3e f0 cc 5e bd a2 43 5b be
       -0.27701575 0.16742326 -0.054394662 -0.21412519
000370 c2 24 4b 3f 01 59 2c 3e 5a ec 0d 3f 7e 12 13 3f
       0.7935296 0.16830827 0.5543877 0.5745009
000380 3d 0d 89 3e 66 34 1c bc ca 3f ff 3e cd 4b 7b bf
       0.26767913 -0.009533977 0.49853355 -0.9816254
000390 57 62 7b be 4b be c6 bd 95 e9 10 be ad e8 68 bf
       -0.24549232 -0.09704264 -0.14151604 -0.90980035
0003a0 80 2c f8 3d 11 5b c8 bd ab 03 35 bd 84 d7 66 3e
       0.12117863 -0.097829945 -0.04419295 0.2254315
0003b0 0a e6 43 3d 98 c7 8d 3e 34 3c 94 3e aa c0 84 3e
       0.047826804 0.2769134 0.2895218 0.2592824
0003c0 95 33 8d bd 44 b6 76 bd 00 0b 26 bf f3 73 ed 3d
       -0.06894604 -0.060232416 -0.64860535 0.11594381
0003d0 9d 57 90 be 88 12 01 3d 66 3d 66 bd 90 a3 33 bf
       -0.28191844 0.031511813 -0.056210898 -0.7017145
0003e0 d0 f4 c5 3e 33 db 2b bd ed 0e d9 3e 9f ec 8f 3e
       0.3866334 -0.04195709 0.423942 0.28110215
0003f0 ee 62 a0 be 95 3d 9f be 72 98 0c 3f 74 a1 ba be
       -0.31325477 -0.3110167 0.54920113 -0.36451304

fc2.bias f4 [256]
000000 9e db f6 3d da aa be 3c e3 3b 4b bd f8 65 e1 3c
       0.120536074 0.023274828 -0.04961766 0.027514443
000010 c0 d9 ee 3c 25 58 67 3e 9e 93 0b bd 58 06 93 bd
       0.029156566 0.22592218 -0.034076326 -0.07178944
000020 70 1a 6c bd 19 74 2e 3f 2d bf 05 3f ae 1f 1c 3f
       -0.0576424 0.681459 0.52244836 0.6098584
000030 87 6b 29 3f ee 77 b7 3e 17 bd 1e be 7a 5a d9 bc
       0.661797 0.35833687 -0.1550182 -0.0265324
000040 0f 08 7f 3d c9 ab 97 be 94 0c 88 bd 06 4d 4b 3f
       0.062263545 -0.2962325 -0.06643024 0.79414403
000050 67 8c ba 3c 39 0e d7 be f6 46 8e bd c0 e9 43 bc
       0.022772027 -0.4200304 -0.069471285 -0.011957586
000060 fc 28 57 bc e2 fd 30 3f aa 49 cd 3c cf ef b9 bd
       -0.01313233 0.69137394 0.02505954 -0.09078943
000070 4c 2a 9e be 68 3d a3 3b 04 17 db bd 0b f9 b9 3e
       -0.30891645 0.0049816854 -0.10697749 0.36322817
000080 ac a7 21 be ee 33 20 3f 47 aa 98 b9 d5 49 36 be
       -0.15786618 0.6257924 -0.00029118566 -0.17801602
000090 ce f7 85 bd 74 b3 37 3f 83 8f 9b bd 6a 8c 1d 3f
       -0.065414056 0.717582 -0.07595732 0.6154238
0000a0 0e d1 c8 bc e0 9a 84 3c 39 07 42 3e f4 59 a7 be
       -0.024513748 0.016187131 0.18948068 -0.32685816
0000b0 d2 9e 3e bd 7f a9 4d bd 05 73 0a bd 2b e3 d8 bd
       -0.04653818 -0.050210472 -0.033801097 -0.10590204
0000c0 4a 07 2c 3e f3 02 bf bd 19 6c df 3c 0a a0 92 bc
       0.16799656 -0.093267344 0.027273225 -0.017898578
0000d0 db 05 ec 3e b4 d8 40 3c d5 90 13 3f a5 7b 39 bd
       0.46098217 0.011770416 0.5764287 -0.045283932
0000e0 6e ef 8f bd de 9f cb 3c dd 9c 45 bd bc fa 7a bd
       -0.070280895 0.024856504 -0.0482453 -0.061274275
0000f0 97 40 31 be 80 e2 c7 bd 0e 21 b5 bd 55 8c 97 bb
       -0.17309795 -0.09759998 -0.08844195 -0.004624883
000100 d1 fe bf bd 7f 0f 20 bd f4 68 dc bd 98 a0 82 bb
       -0.09374774 -0.03907728 -0.10762206 -0.0039864294
000110 37 f9 9b bd 19 2c 87 bd ff 04 02 bc 40 46 6b 3e
       -0.07615893 -0.06600208 -0.0079357615 0.22976017
000120 53 55 15 bd 8c 15 0e bd 2b 29 be bc a5 6e 8c be
       -0.036458325 -0.034688517 -0.02321299 -0.27428165
000130 f0 1f a0 bc c1 30 69 3e 50 fb 66 3d 72 13 83 bc
       -0.019546479 0.22772504 0.056392014 -0.016000483
000140 cd 52 bd 3b 82 b9 91 bd 84 9a 6e be d8 93 c2 3e
       0.005777693 -0.07115461 -0.2330113 0.3800342
000150 26 5c 1f bd 12 be 08 3e 3f c3 09 3e 99 7d 90 be
       -0.03890624 0.13353756 0.13453387 -0.28220823
000160 74 c7 b1 bc a3 8e 7f bd 19 98 1b 3f d8 e6 35 be
       -0.021701552 -0.06239189 0.6077896 -0.17763841
000170 e7 0a 2a bd c0 17 ab bd ee 7e ac bd 56 38 11 3f
       -0.041514304 -0.08354139 -0.084226474 0.56726587
000180 f7 5c 71 be a2 eb 38 be 88 c5 15 bd 9b c9 69 be
       -0.2357062 -0.18058637 -0.036565334 -0.22830813
000190 6e bf fb 3d 44 51 ce bd 66 f8 b1 3c 10 bf 11 bc
       0.12292372 -0.10074094 0.02172489 -0.0088956505
0001a0 73 09 33 bd 1e 6c f7 bd b0 3d aa 3b 34 58 8f bd
       -0.043710183 -0.120811686 0.005195342 -0.06999245
0001b0 28 61 be bb 0b 2a 03 bd 6c 0c 78 3c 37 43 35 bd
       -0.005809922 -0.032022517 0.01513968 -0.044253554
0001c0 dc d7 1c 3f 76 79 36 bd 6e bc 25 bd ff ce f8 3e
       0.61266875 -0.044549428 -0.040462904 0.48595425
0001d0 c0 3b 28 3b 83 4e 99 bd 04 5b 1c 3f d6 1f 8a 39
       0.002567038 -0.07485678 0.6107638 0.0002634513
0001e0 11 04 0d be 25 1c 86 bc 14 9d a7 be 75 7b 15 3f
       -0.13771082 -0.016370842 -0.3273703 0.58391505
0001f0 f6 2e bd bd e7 c5 d2 bd b3 1c 06 3e 7e ab 8c be
       -0.09237473 -0.10291653 0.13096885 -0.27474588
000200 81 d3 a1 bd 98 93 0f 3f cd 8e 46 bd 1e 45 b2 bc
       -0.07901669 0.56084585 -0.04847603 -0.021761473
000210 b9 54 eb bd 84 c3 4b bc 65 a4 2f 3f 80 25 01 3f
       -0.11490769 -0.012436751 0.6861022 0.50447845
000220 13 eb f6 3d 26 17 1b be 12 8e 07 3f 7f c7 38 bd
       0.120565556 -0.15145549 0.5295116 -0.04511213
000230 4d 60 21 3f b9 0e b5 bc ee 5c d2 bd ec 87 61 bd
       0.6303757 -0.022101747 -0.10271631 -0.055061266
000240 f2 02 60 bd e2 5d ac bd 94 31 72 bd a5 9d 19 bd
       -0.05469031 -0.08416344 -0.059129313 -0.037503857
000250 e9 32 08 3f 19 e8 51 bc 98 57 89 bd c6 5a fc 3e
       0.5320268 -0.012811684 -0.0670616 0.49288005
000260 85 8b 98 3d 90 75 77 bd 57 91 55 3e da 05 7e bc
       0.07448486 -0.06041485 0.20856224 -0.015504325
000270 7a b6 83 be e0 71 46 bd e0 64 91 3d bb 63 74 bd
       -0.25725156 -0.048448443 0.070993185 -0.059665423
000280 28 f9 2f 3f af 1a 1d 3f 76 de a8 bd 79 f7 1b 3f
       0.6873956 0.6136884 -0.08245556 0.6092449
000290 28 b9 f6 bc ad 51 47 3e 5c 95 1f bc ea 80 01 3f
       -0.030117586 0.1946475 -0.0097402 0.5058733
0002a0 a9 b9 a0 bd f1 63 6d bd e8 01 98 bd 3b 28 a7 3d
       -0.07847912 -0.05795664 -0.074222386 0.0816197
0002b0 b6 8d 61 be cf e9 91 bd ed 82 55 3c 40 5b d6 3c
       -0.22026715 -0.071246736 0.013031703 0.026166558
0002c0 2d 33 bf bd 5c d7 8a bd 7b 6c 9f be 82 6d 2b bd
       -0.09335933 -0.06779358 -0.31137452 -0.04185248
0002d0 58 15 3b be f1 27 90 bc 45 d3 19 3f 39 29 8a 3d
       -0.1826986 -0.01759717 0.60087997 0.06746144
0002e0 27 e4 5d 3d c7 fb ff 3e 06 24 c2 bc 23 46 07 bd
       0.05417266 0.49996778 -0.023698818 -0.033025872
0002f0 06 56 1a bc 3e 05 57 3c b8 61 dc bd 6f 77 b7 bd
       -0.009419924 0.013123808 -0.10760826 -0.08958327
000300 8e 1f 52 bd f3 7c 30 bd cf c1 10 3d 51 75 bf bd
       -0.051299624 -0.04308791 0.03534108 -0.09348548
000310 bf 15 4d bc 5e 82 38 3f 73 9d 17 bd 64 6f 6d bd
       -0.012517392 0.72073925 -0.03701539 -0.05796756
000320 ad 89 a7 bd 61 dc 5d be 17 2b 18 3f 7c 4c a0 ba
       -0.081805564 -0.21666099 0.5944075 -0.0012229825
000330 3f e1 33 3f ba 0b 8a bd 3e 72 e6 bc 2e f2 9c 3e
       0.70265573 -0.06740518 -0.028130647 0.30653518
000340 df 53 ea bc 39 e2 bb bd b9 34 c0 bd bb 45 4c be
       -0.028604446 -0.09174008 -0.09385056 -0.19948475
000350 1f 51 6f 3e bc 3a ab bd 93 3b 00 3f 65 fd 55 bd
       0.23370789 -0.08360812 0.50090903 -0.05224361
000360 0a 3c 76 3d 9f 8e db 3e d4 6e 6d 3e 54 f7 24 3f
       0.06011585 0.4288225 0.23186809 0.6443989
000370 80 33 9f bd 20 c8 33 3c 99 3a 6f bc d8 06 d3 3d
       -0.07773495 0.0109730065 -0.014601373 0.1030404
000380 15 53 88 be 38 5b 1d bd d3 f2 51 bd 27 c4 3e bd
       -0.26625887 -0.03841707 -0.051256966 -0.046573784
000390 c9 2c 93 3b 90 ca 58 3d 86 3d cf bb 26 36 e6 bd
       0.004491423 0.052927554 -0.006324473 -0.11240797
0003a0 76 d0 1e bd 1b 6e c7 3e a5 b3 a8 bd b0 7e 66 bd
       -0.038773023 0.3895119 -0.082373895 -0.056273162
0003b0 0e c2 3b 3d 24 c1 05 3f 46 7d d0 3e e3 fc c7 3c
       0.04583936 0.52247834 0.40720576 0.024412578
0003c0 57 2a 8d be a1 5f 70 3d 42 3b 1f 3c f4 97 06 bb
       -0.27571365 0.05868495 0.009718718 -0.0020537348
0003d0 fd 59 4e 3c 81 ac a4 bd db ff 68 3a 86 a7 0f bc
       0.012594697 -0.08040715 0.0008888223 -0.008767968
0003e0 a2 80 be bc 99 37 9f 3d a1 4a a0 bb 76 b3 fe bb
       -0.023254696 0.07774276 -0.004891709 -0.0077728583
0003f0 cb ca 29 be dc e8 38 bd e8 9d 76 3d dc 3a fe bb
       -0.16581266 -0.045143947 0.060209185 -0.0077584814

fc3.weight f4 [4, 256]
000000 80 4e 16 bf 14 2d d2 bc ad a8 7a 3d 68 7c cd bc
       -0.5871353 -0.02565626 0.061196018 -0.025083736
000010 7e 15 63 bd 3c 6b 2a 3b 9e a4 02 3d 0a 8b fd 3c
       -0.05544042 0.0026003858 0.031895272 0.030950088
000020 d2 50 e9 3d 2e 99 a4 3e 1a 43 61 3e 6f 05 7d 3e
       0.113923684 0.32148117 0.21998253 0.24709104
000030 e7 2a 87 3e 07 16 73 bf ff 11 ae 3f 7e 9b d2 be
       0.2639992 -0.94955486 1.3599242 -0.41134256
000040 b3 3f 54 3f 14 68 8a 3d 9b e7 8a 3d af c6 a7 3e
       0.829097 0.067581326 0.067824565 0.3276877
000050 ea 3e 39 3c 0d ee 02 3f 74 18 41 3d 51 01 69 3c
       0.011306504 0.51144487 0.04714246 0.014221505
000060 b2 08 90 3c 1c f8 84 3e 80 d5 9b 3d e8 e8 65 bc
       0.017582271 0.25970542 0.07609081 -0.01403258
000070 26 21 37 be fa 72 5f 3d f0 59 9a be a5 83 4c be
       -0.17883739 0.05455301 -0.30146742 -0.19972093
000080 f7 e3 dc 3e 64 24 a4 3e 68 88 05 bd 86 b3 81 be
       0.43142673 0.32059014 -0.03260079 -0.25332278
000090 28 ed 26 bd 7e a0 99 3e 5f 30 b5 3c cb 96 64 3e
       -0.040753514 0.30005258 0.022117792 0.22323148
0000a0 04 1f 90 bb a3 b6 3f bf bb 4b 6a 3f 34 4a c8 be
       -0.0043982286 -0.74888057 0.91521806 -0.39119112
0000b0 17 9a dc bc e9 44 83 bc d0 e8 5d bc 95 67 31 3a
       -0.026928945 -0.01602407 -0.013544276 0.0006767449
0000c0 f9 ef 84 bd 3a f4 ff 3c 82 19 09 3c 8a a5 53 3d
       -0.06491084 0.031244386 0.008367898 0.051671542
0000d0 02 e4 00 bf 8e 6f 1e 3d 26 8f 54 3e e9 c3 9e bc
       -0.5034791 0.038680606 0.20757732 -0.019380527
0000e0 21 1e ce 3f 27 c8 73 bc 5c f9 18 3d d8 02 ce 3c
       1.6102945 -0.014879263 0.037347183 0.02514784
0000f0 82 79 9f be e2 00 8c 3f 4a c1 19 bd 14 ee 3a bd
       -0.3114739 1.093777 -0.03753785 -0.045637205
000100 46 69 14 bd f2 17 47 3c 31 12 2d be d9 c8 d0 3b
       -0.03623321 0.012151705 -0.1690147 0.006371599
000110 bd cc 88 bd a2 ec 46 3c b0 da 67 3c 35 a9 d2 3e
       -0.06679676 0.012141379 0.01415126 0.4114472
000120 eb e9 28 3d ec b4 01 3d c5 ba e2 bb 3d 35 91 3f
       0.041238707 0.03166668 -0.0069192373 1.1344372
000130 08 5a 01 bf db 37 a3 3e b8 87 02 bf ad df 1a bd
       -0.50528 0.31878552 -0.5098834 -0.03781097
000140 a5 10 5c bd d0 97 1d 3b f7 66 ed be 09 60 80 bd
       -0.05372681 0.0024046786 -0.46367618 -0.06268317
000150 d3 88 ee bc bb fe ae 3c 0a 49 b8 3c 83 cc f3 3e
       -0.029117977 0.0213617 0.022495765 0.47616968
000160 36 65 6b bc d8 1d 14 3d 50 22 7b 3e 10 9d 8b 3f
       -0.014367392 0.036161274 0.24524808 1.0907307
000170 2f 41 99 3c 62 5a 6a bc 62 6f 32 be 06 14 87 3e
       0.01870784 -0.0143037755 -0.17425302 0.26382464
000180 a5 01 83 3d ef aa 4b 3f 5b 1c 47 3b 42 9f 01 3c
       0.06396798 0.795577 0.0030381891 0.007911505
000190 05 b6 62 be ee b0 a7 3f 18 a1 ba bc 38 43 cd bc
       -0.22139747 1.310087 -0.022781894 -0.025056466
0001a0 24 22 38 bd ec ac 55 3c b6 c1 d1 3c 90 56 24 3c
       -0.044954434 0.013041716 0.025605064 0.010030404
0001b0 80 b9 be bc 39 98 37 bd 1b 07 4b 3d e5 09 4d 3d
       -0.023281813 -0.044822905 0.049567323 0.050058264
0001c0 5e d6 92 3e 57 58 05 bd dd a6 53 3d 10 dc 14 3e
       0.28679174 -0.03255495 0.051672805 0.14537072
0001d0 f8 a8 3a 3d 3c d7 b9 3c ed 69 66 3e 58 f6 92 be
       0.045571297 0.02268564 0.22501345 -0.2870357
0001e0 bc 9c 80 3c 29 2a 8f bc 14 26 ca 3f e7 3d 90 3e
       0.015699737 -0.017476158 1.579287 0.28172228
0001f0 b6 58 27 3d 3e 3e 4b 3d a0 a8 56 bf 9a 1a 20 be
       0.040856086 0.049619906 -0.8385105 -0.15635148
000200 f6 6e 48 bc bf 84 9a 3e ee 58 b0 bc b0 e8 b8 bc
       -0.012233486 0.30179402 -0.02152678 -0.022571892
000210 64 64 32 be d6 68 28 3c db 08 88 3e 40 4f 1a bf
       -0.17421108 0.010278901 0.26569256 -0.60277176
000220 15 24 26 bf 3c 6d 53 3d 3b 1f 52 3e f0 15 3a 3d
       -0.64898807 0.051617846 0.20519726 0.045431077
000230 05 6c a1 3e 96 d2 95 3c 70 65 8f bd be a7 7e bd
       0.31527725 0.018288892 -0.070017695 -0.06217169
000240 5d 80 a7 3c 9b 5d 72 3c 0a 57 89 3a 1f dd 21 be
       0.02044695 0.014792825 0.001047821 -0.15807007
000250 8e 71 58 3e 2c 28 3a bc 98 11 41 3f 94 04 05 bf
       0.21137068 -0.011362117 0.7541747 -0.5196011
000260 50 66 20 3f f1 11 05 3c 87 5f a0 be a7 71 0c bd
       0.62656116 0.008121953 -0.31322882 -0.034288075
000270 2d 1a 43 bf 9d 59 d6 3e 5b d7 02 3f a5 50 1a bc
       -0.76211816 0.41865245 0.51109856 -0.009418641
000280 b4 6d 9d 3e f5 68 47 3e ec ee 4c 3d 9a 4e d3 3e
       0.3074776 0.19473632 0.05003254 0.41270906
000290 34 08 c6 3c 73 b1 0a bf a6 c6 0a bf 2f 37 21 3e
       0.024173833 -0.54177016 -0.54209363 0.15743707
0002a0 10 c9 52 3e 64 f5 fa 3c d6 1d 9d b6 6b 42 08 bf
       0.20584512 0.03063459 -4.682438e-06 -0.53226346
0002b0 4c 14 26 3e 2c 90 26 bd 0a 0d c2 3c d2 b6 80 3e
       0.1621868 -0.040664837 0.023687858 0.2513948
0002c0 be de e7 3c 56 62 ba 3c f3 78 2c 3f c9 ff 77 3d
       0.028304454 0.022751968 0.67372054 0.06054667
0002d0 d6 99 a0 be c3 b5 8a 3c 7f eb 03 bf 80 61 bd 3e
       -0.31367368 0.016932374 -0.51531214 0.3698845
0002e0 7d fb 40 bf fc 94 55 3e eb bb 2b 3d 2e 44 06 3c
       -0.7538374 0.20857614 0.04192726 0.008194966
0002f0 ac 02 1b bc f5 9c 14 3f 64 56 ea bd a0 ac bf bb
       -0.009461086 0.58052 -0.11442259 -0.005849436
000300 85 12 5a 3f 88 f3 7c 3d c8 44 91 bc 88 38 22 bd
       0.8518451 0.061755687 -0.017732993 -0.039604694
000310 80 b6 c2 bb 9e 93 a7 3e de 4d 38 bd d8 b4 c1 3b
       -0.005942166 0.3272981 -0.044996135 0.005911451
000320 d6 54 58 3d 60 7a d9 3d 35 a2 f6 be 9e 41 98 3e
       0.05281528 0.10619044 -0.4817063 0.29737562
000330 83 98 97 3e 4e 65 0a bd 35 30 80 3c cf fa c3 3d
       0.29608545 -0.033788018 0.015647987 0.09569322
000340 1b 14 ad be 4b b1 ae bc 24 ae 11 3f b8 33 a0 bd
       -0.33804402 -0.021324774 0.5690634 -0.078223646
000350 a0 6d 30 3f 8a 8c 73 3d e3 e1 2f 3e 25 cf fb bc
       0.68917274 0.0594602 0.17176013 -0.030738423
000360 6f 0a 12 3e 59 fc 4a 3e 13 24 38 3f 71 d8 a7 3e
       0.14261793 0.19822825 0.71930045 0.3278232
000370 c3 ae ff bc dc c3 5b bd b5 2a 17 bd b2 cb 6a be
       -0.031211263 -0.053653583 -0.036905963 -0.22929266
000380 1f 01 85 bf 3d 3d 25 bd f7 9b 08 3d 88 c5 03 bd
       -1.0390967 -0.040341605 0.033351865 -0.032170802
000390 bc bd 41 3d 84 05 23 be a7 3b 02 3c 65 3c 21 bd
       0.047300085 -0.15920073 0.007948793 -0.039364237
0003a0 42 17 63 3d 69 e9 a1 3d 6e c4 ef 3b 7e ff 45 3d
       0.055442102 0.079058476 0.0073171174 0.04833936
0003b0 a7 d5 ae 3c 66 6b 87 3e 46 90 09 3e ba 1b 19 3f
       0.021342112 0.26449126 0.13433942 0.5980793
0003c0 7a ca 49 3f b5 68 2c 3f 41 1b fd bb 50 cb 5f 3c
       0.7882458 0.6734727 -0.007724196 0.013659313
0003d0 5e b1 11 bc 5c 05 2b 3d ff 7f 8e 3d d3 6e c9 3c
       -0.008892385 0.041753158 0.06958007 0.024588978
0003e0 07 c0 1a 3c 2e 95 ac 3f 56 62 8f 3c f6 5c 0d bc
       0.009445197 1.3483026 0.017502945 -0.008628121
0003f0 cc ba 03 be b4 59 29 3c c7 ae 19 3e b6 14 1e bc
       -0.12864226 0.010336328 0.15008079 -0.009648493

fc3.bias f4 [4]
000000 15 2a 1e 3f 06 65 28 3f da f4 0d 3f 96 d6 13 3f
       0.6178296 0.6577915 0.5545174 0.5774931

exp_avg f4 [256, 11]
000000 06 d4 1c bc 7d f9 63 bc 77 a9 e8 bc 27 d6 53 3d
       -0.009572035 -0.013914463 -0.02840112 0.051717903
000010 8a 15 3e 3a 69 1a 18 3d b4 48 87 b6 db 2b b1 3d
       0.00072511344 0.03713456 -4.0317773e-06 0.08650943
000020 1b 44 02 bd e6 8f 43 bd 0e f4 19 3e 04 00 00 00
       -0.03180323 -0.047744654 0.15034506 6e-45
000030 04 ae 5d 37 9b 44 4d 3b 30 ac a6 23 c5 d3 50 3c
       1.3213143e-05 0.003132141 1.807068e-17 0.012745802
000040 80 db bd 3d 6c 7f 0e bb 07 3d 5f 37 17 d6 f0 3c
       0.09270382 -0.002174343 1.3306045e-05 0.029398961
000050 04 00 00 00 ee 2d 15 3d 04 00 00 00 04 00 00 00
       6e-45 0.036420755 6e-45 6e-45
000060 fd 99 56 30 04 00 00 80 04 00 00 00 fd 99 56 30
       7.8071577e-10 -6e-45 6e-45 7.8071577e-10
000070 04 00 00 80 04 00 00 00 04 00 00 00 04 00 00 00
       -6e-45 6e-45 6e-45 6e-45
000080 fd 99 56 30 a9 36 69 3c 59 29 6e 39 e7 9d fc bc
       7.8071577e-10 0.014234223 0.00022712852 -0.030837012
000090 6e 8d 47 ac d7 29 6e 39 58 7d 4d 3e 04 00 00 80
       -2.835811e-12 0.00022713035 0.20067346 -6e-45
0000a0 f6 2c 6e 39 40 7b c6 3c 04 00 00 00 4e 73 c7 3d
       0.00022714198 0.024228692 6e-45 0.097387895
0000b0 97 c0 6e b0 32 85 ff b7 66 7e 2b 3e 17 8c de bc
       -8.685758e-10 -3.0460393e-05 0.16747436 -0.02716641
0000c0 a5 a8 2f 3e 04 00 00 80 5f c1 e9 3d 07 1b 99 3e
       0.17154177 -6e-45 0.11413836 0.29903433
0000d0 42 10 58 3b 95 b4 e9 3d 89 dd 13 3e aa af 78 bd
       0.0032968675 0.114113964 0.14439978 -0.0607144
0000e0 8f a5 fe 3b 93 00 46 3f f5 fb 1b b9 15 89 3d 3f
       0.007771201 0.77344626 -0.00014875813 0.74037296
0000f0 9c 23 17 3d 91 90 c1 bb 16 03 44 3f ec 51 28 bd
       0.036899194 -0.0059071262 0.7656721 -0.04109375
000100 fe f7 41 3f 9b a1 18 3e a2 79 8f 3e 04 00 00 00
       0.7576903 0.14905398 0.28022486 6e-45
000110 d8 bf f6 bc 04 00 00 00 a0 42 0d be cd fa 97 3e
       -0.030120775 6e-45 -0.13794947 0.29683533
000120 91 fc a5 be 3b 60 01 3d 32 cb 2c be 6a 61 c2 be
       -0.32419255 0.031585913 -0.16874388 -0.37964946
000130 d1 d5 6a 3d 13 84 28 bf 39 34 4a ba bd 3a 13 3e
       0.057332817 -0.6582653 -0.000771347 0.14377876
000140 e9 8a 12 bf 8e 47 6a 3e fc ed 50 be 96 b1 f8 be
       -0.5724321 0.22878858 -0.20403284 -0.48572987
000150 d8 26 be be 52 2f 39 bf a2 9c 06 bf 83 99 16 bf
       -0.3713901 -0.7233783 -0.5258275 -0.5882799
000160 d5 11 9a 3d 4b 87 03 29 33 6b bd 3c 88 72 02 bf
       0.075229324 2.920519e-14 0.023122406 -0.5095601
000170 28 cb f3 3d 3b dd 90 3d 7c fd 3b bd fb 50 f1 be
       0.11903983 0.07073446 -0.04589604 -0.47132096
000180 07 fd 31 3d 95 86 c8 3d 81 e7 02 bf aa 28 da 3e
       0.043454196 0.097912945 -0.51134497 0.4260915
000190 b2 ce 9a 38 75 cf da be 10 66 35 bf f1 af 44 bd
       7.381792e-05 -0.42736402 -0.7085886 -0.048019353
0001a0 55 71 af 3e b2 48 12 be 9a 0e 49 bf 7d 46 96 3d
       0.34266153 -0.14285544 -0.78537905 0.07337663
0001b0 b7 e2 be 3e f5 0c 67 bf c6 ce 36 be 04 00 00 80
       0.37282345 -0.90254146 -0.17852315 -6e-45
0001c0 00 f7 91 3d aa b8 d2 aa 7d 24 29 be 04 00 00 00
       0.0712719 -3.743163e-13 -0.16517825 6e-45
0001d0 2f 91 5f 3d 2a 36 3f 3d ba 0d 21 be 15 fd cb 39
       0.054581817 0.046682514 -0.15727893 0.00038907738
0001e0 4a 3c 09 bc 96 30 8b 3c 04 00 00 00 04 00 00 00
       -0.00837619 0.016990941 6e-45 6e-45
0001f0 04 00 00 00 97 ad ee bc 04 00 00 00 0a dc 96 3c
       6e-45 -0.029135508 6e-45 0.01841547
000200 04 00 00 80 04 00 00 00 14 16 ce 3b 11 57 8b bc
       -6e-45 6e-45 0.006289253 -0.01700929
000210 3f 09 43 3f d3 64 15 3c 91 f4 e4 3a f0 f4 80 bd
       0.76185983 0.009118277 0.0017467906 -0.06296718
000220 02 cc 11 3c 94 01 4b 3e 4b 69 0b 3f 76 94 d3 bc
       0.008898737 0.19824821 0.5445754 -0.025827628
000230 fd b7 45 3f 45 8a 1c 3f 08 a9 7a 3b da d1 53 3f
       0.7723387 0.6114848 0.0038247723 0.82742083
000240 04 00 00 00 ae 29 03 bd 2f 0e 18 3d 04 00 00 00
       6e-45 -0.03202217 0.0371229 6e-45
000250 33 cd 3a 3f 84 07 15 bb cd d7 43 3c ae a9 26 3f
       0.7296936 -0.0022740075 0.011953306 0.6510266
000260 68 77 f7 3e ee 4b 60 3e 04 00 00 00 f2 82 11 b8
       0.48333287 0.21903965 6e-45 -3.4692646e-05
000270 b2 72 59 bc 82 55 df bb 04 00 00 00 16 f7 69 2e
       -0.013271974 -0.0068156132 6e-45 5.3197523e-11
000280 da 09 85 3b 51 91 43 bb ab 9f 6f 39 e1 ac 37 3c
       0.0040600123 -0.0029841254 0.00022852297 0.011210651
000290 04 00 00 00 27 72 1a bf 38 9e a2 bb 01 12 bd 3e
       6e-45 -0.6033043 -0.004962709 0.36927798
0002a0 a2 de 0f bd bf 52 ac 3e 6f fb 95 bd e7 10 f7 be
       -0.03512443 0.3365688 -0.07323348 -0.48255083
0002b0 b3 57 8e 3e d4 11 14 bf e7 b7 e7 bd 52 53 1a be
       0.27801284 -0.57839704 -0.113143735 -0.15070847
0002c0 e6 df 42 3d 59 69 b9 3b ef e6 83 be 54 5b a8 3d
       0.047576807 0.0056583104 -0.25762126 0.082205445
0002d0 ed a0 a2 be 04 00 00 00 de 6d 42 3d 41 37 88 be
       -0.31763402 6e-45 0.04746806 -0.26604655
0002e0 b9 e2 5c bb 66 7c 48 be 44 fc 48 23 67 6c 29 be
       -0.0033704473 -0.19578704 1.0895441e-17 -0.16545258
0002f0 67 0a e6 ba 0d d3 65 3c 07 e7 98 3d d7 68 3e 3b
       -0.0017550708 0.014027369 0.0746594 0.0029054189
000300 68 1e b5 bd 7f 30 c1 3b 61 88 be 3c d1 81 07 bd
       -0.0884369 0.0058956738 0.02325839 -0.033082787
000310 50 8b ad 3b 0d 19 1c 3d ce eb 6f be 04 00 00 80
       0.0052961484 0.038109828 -0.23429796 -6e-45
000320 e8 66 f6 3d f0 48 8a be 5e 61 04 be 7b 04 f6 3d
       0.120313466 -0.27008772 -0.12927768 0.12012573
000330 c3 62 32 3f e2 6f 3a bd 02 1b ed 3e 04 00 00 00
       0.6968195 -0.045516856 0.46309668 6e-45
000340 04 00 00 80 50 1b ce 3e 04 00 00 80 58 f4 31 be
       -6e-45 0.40255213 -6e-45 -0.17378366
000350 f6 7c a2 bc 4b 1f c0 bd 31 59 3e be 97 34 e4 3e
       -0.019834977 -0.09380969 -0.18588711 0.44571373
000360 2c df 9a bd ef d1 f3 3d 5d 37 80 3d 57 66 a4 3d
       -0.07562098 0.11905276 0.0626056 0.08027332
000370 04 00 00 00 76 73 c8 2a a9 05 94 3c 76 73 c8 2a
       6e-45 3.5607254e-13 0.018069105 3.5607254e-13
000380 04 00 00 00 02 d3 dd 3e 04 00 00 00 04 00 00 00
       6e-45 0.4332505 6e-45 6e-45
000390 02 d3 dd 3e 2c 32 0b 3f cd 07 94 3c 1b 5a 6b b1
       0.4332505 0.5437343 0.018070126 -3.424822e-09
0003a0 c4 2c 1f b8 1d d0 a1 ba dc dd ce bd 93 22 86 bd
       -3.7950245e-05 -0.0012345348 -0.1010091 -0.06549563
0003b0 04 00 00 00 04 00 00 00 17 29 1f b8 2d 97 29 be
       6e-45 6e-45 -3.7946822e-05 -0.16561575
0003c0 04 00 00 00 bb a9 42 be 70 93 00 3e 81 59 89 3b
       6e-45 -0.1901006 0.12556243 0.004191578
0003d0 db 72 a7 be ee d1 0b bf 03 18 da bd 7e 3f 08 3e
       -0.32704815 -0.546172 -0.10649111 0.1330547
0003e0 b8 65 fd bd 07 42 2c bf a6 26 48 bd d0 be a0 be
       -0.12372917 -0.6728825 -0.048864983 -0.31395578
0003f0 e6 5f f1 be 58 2a 60 be 8a 49 8a bb 6f 6d d6 bd
       -0.47143477 -0.21891153 -0.0042201923 -0.104700916

exp_avg_sq f4 [256, 11]
000000 d6 b3 d3 3f 5c 55 ca 3f 5f 34 94 3e f1 19 e0 3f
       1.6539257 1.58073 0.28946206 1.7507917
000010 63 a5 71 3e dc 18 b3 3c 41 a4 9f 36 2a 11 e9 3f
       0.23598246 0.02186244 4.757691e-06 1.8208363
000020 22 38 1f 3e ea 15 c1 3f 7b 9d 03 3f c2 b5 8b 34
       0.15548757 1.5084813 0.5141217 2.6023014e-07
000030 b9 0e e2 3a 58 50 64 3f 86 1f 6e 3a 76 9a 1a 3f
       0.0017246819 0.89185095 0.0009083677 0.6039194
000040 81 fb 49 3e 7b 6c 88 3e 28 5a 67 3b 67 be 85 3f
       0.19724847 0.26645264 0.003530154 1.0448731
000050 7b b3 c9 36 c8 c9 df 3e f0 43 09 31 06 1d 13 2d
       6.011161e-06 0.43708634 1.9974742e-09 8.362427e-12
000060 6d 90 85 3b e4 58 9d 37 84 4f 6b 3b b1 3b ea 39
       0.004076055 1.8757251e-05 0.003590555 0.00044676432
000070 cc 2c b0 37 7e 3a af 39 f0 f7 6d 3b 40 38 d2 39
       2.1001695e-05 0.0003342218 0.0036311112 0.0004009623
000080 c1 71 90 38 5c 62 cd 3c fa 94 9c 3d b2 42 36 3e
       6.8876434e-05 0.025071315 0.076456025 0.1779888
000090 16 ad 17 3d 9f 70 84 3d b3 3b 57 3f f4 10 ca 2d
       0.037030302 0.06466793 0.8407547 2.297227e-11
0000a0 10 ae 98 3c 8f 31 3f 3f 2e 95 71 32 bc f0 53 3f
       0.018637687 0.74684995 1.4061966e-08 0.82789207
0000b0 ea 4e 98 3b 59 8c d5 3b 1b f7 b3 3d f1 7b 39 3e
       0.004648079 0.006516975 0.08787366 0.18113686
0000c0 57 73 ff 3e c5 d2 07 33 e2 c3 96 3e e1 7c c6 3e
       0.49892685 3.162383e-08 0.29446322 0.3876715
0000d0 13 e9 28 3c 86 63 d7 3e 6c 8c 0a 3f 00 4d 2f 3e
       0.0103094755 0.42068118 0.54120517 0.17119217
0000e0 49 d3 50 3d c4 fc fa 40 a9 7d cb 3b 5c cd f9 40
       0.050982747 7.843355 0.006210048 7.8063183
0000f0 b4 4c cd 3c ed 33 f6 3e e8 ba 97 40 e8 0c 5b 40
       0.025060989 0.4808649 4.7415657 3.4226627
000100 c0 fe 8c 40 ee 56 b3 3f 5b 52 2c 40 6c 0f c8 34
       4.4060974 1.4010904 2.6925266 3.7264124e-07
000110 3f b7 0a 3e 97 55 aa 34 c9 22 19 3f 24 b2 07 40
       0.13546465 3.1727242e-07 0.598187 2.1202478
000120 39 44 ff 3e 47 a9 80 3e ca 18 24 40 43 ab 01 40
       0.49856737 0.25129148 2.564013 2.026078
000130 f7 27 7d 3e 4c 6b 0a 40 5d c5 cd 3b e3 c9 6e 3f
       0.24722277 2.162799 0.006279631 0.93276805
000140 e3 16 02 40 30 c1 87 3f 9f b2 2c 3e f1 90 ba 3f
       2.032647 1.0605831 0.16865014 1.4575483
000150 0e f0 3c 3f 94 7b 6e 40 e7 1d 18 40 d8 dd ef 3f
       0.73803794 3.7262926 2.376825 1.8739576
000160 15 43 c0 3e 0f b2 14 3c 84 74 97 3e ea 3e 4e 3f
       0.3755118 0.009075656 0.29581082 0.8056475
000170 16 97 b8 3e 57 04 81 3e 1d fe a3 3e 7f 60 19 3f
       0.3605277 0.25198624 0.3202981 0.59912866
000180 2c 95 94 3f d6 41 6d 3f 93 4d 2b 3f be 7a 3b 40
       1.1608024 0.9267858 0.66915244 2.9293666
000190 8b d9 9e 3d dd 9d 8c 40 48 71 d5 40 54 bf a2 40
       0.07756337 4.3942704 6.6700783 5.0858555
0001a0 20 59 09 40 e3 11 08 40 07 e0 67 40 4e d5 41 41
       2.1460648 2.1260917 3.6230485 12.114576
0001b0 8a 36 97 40 04 79 10 41 53 1a 31 3f a6 e5 10 3a
       4.7254076 9.029545 0.6918079 0.00055273843
0001c0 9b 02 bc 3f f9 12 d9 3b 15 3f 0a 40 33 69 ea 38
       1.4688295 0.006624576 2.1601002 0.000111775844
0001d0 7a 9a db 3a 45 34 ca 3c 42 f0 08 40 a0 c1 ea 3b
       0.0016754412 0.024683127 2.1396642 0.007164195
0001e0 49 94 03 3c c5 50 84 3c bc 61 15 24 cf 8e 8f 33
       0.008030959 0.016151795 3.239201e-17 6.684933e-08
0001f0 6f 65 21 31 83 02 19 3c d9 d3 ba 34 be d7 a7 3c
       2.3486242e-09 0.009338978 3.479934e-07 0.020488616
000200 39 03 f7 38 ad 33 33 3a 2f 00 bc 3c fa 50 b6 3b
       0.00011778478 0.00068360084 0.022949306 0.0055638524
000210 69 3c 19 40 97 41 c9 3f 34 1a 03 3d 75 45 de 3f
       2.3943121 1.5723141 0.03200741 1.7364947
000220 f1 a9 6b 3e c1 3d aa 3d 75 86 07 3f 04 5b cf 3f
       0.23014046 0.0831256 0.5293954 1.6199651
000230 59 c7 38 3f 02 6d 1b 40 c2 f7 23 3d ee 6f bd 3f
       0.7217918 2.4285283 0.040031202 1.4799783
000240 2c c7 fd 33 40 39 35 3d 96 ed b5 3e d4 94 1d 3a
       1.181746e-07 0.04424405 0.35532826 0.0006011252
000250 92 9d a0 3f 6b 6a fd 3d 0c 19 53 3e af 09 a8 3f
       1.2548087 0.12373813 0.20615023 1.3127955
000260 c9 1d 94 3f 23 42 02 3f 61 d5 53 1d e6 a5 c5 3a
       1.157159 0.50882167 2.8035932e-21 0.0015079349
000270 07 e5 b1 3c b2 09 27 3a dd bf 75 2e ad 55 c7 3a
       0.021715654 0.0006371989 5.587696e-11 0.0015208028
000280 bb 43 b0 3c a3 65 c0 3c 9d 6b 1d 39 2f aa b6 3c
       0.021516671 0.023485964 0.00015012776 0.022297947
000290 19 f8 9d 31 81 d8 09 40 c7 22 22 3d f7 c9 ef 3f
       4.597507e-09 2.1538393 0.039583948 1.873351
0002a0 51 ec a9 3f 51 52 08 40 c5 af 78 3d ef 1d 28 3f
       1.3275243 2.1300242 0.060714502 0.65670675
0002b0 06 a1 57 3f 60 c3 53 40 16 ff b4 3f c1 06 d0 3f
       0.8423008 3.3087997 1.4140346 1.6252061
0002c0 ff 2d 86 40 99 9d 36 3f ca 47 b9 3f 05 8f 5c 40
       4.1931148 0.71334225 1.4475033 3.4462292
0002d0 d3 16 bb 3f 46 64 c0 1d 33 de 9f 3f 00 6a 04 40
       1.461634 5.0925657e-21 1.2489685 2.0689697
0002e0 4c 3c 2d 40 b4 91 b6 40 fb 6d d1 38 27 4a 3a 3e
       2.7068052 5.705286 9.986382e-05 0.1819235
0002f0 73 e7 ac 3c a1 2d d7 3e 48 db a8 3e 31 6b 49 3e
       0.021106457 0.42027 0.32979798 0.19669797
000300 c0 35 4c 3e 0a 31 60 3e 61 b3 9f 3d 46 44 61 3f
       0.19942379 0.21893707 0.07797886 0.879948
000310 6c 57 e4 3c 0f 3c 5a 3f 94 39 be 3f f8 66 dc 37
       0.027873717 0.8524789 1.4861321 2.6273992e-05
000320 c6 42 98 41 d7 77 cc 3f 6c 84 a9 41 5e c0 3f 3f
       19.032604 1.5974072 21.18966 0.74902904
000330 2d f5 9a 3f 06 cd 2c 40 c1 7e b0 41 3e c3 0e 39
       1.2106072 2.7000136 22.061892 0.00013614909
000340 66 6e c8 3b 90 15 9e 3f 48 3d 09 39 ca c5 be 3f
       0.006116676 1.235033 0.00013088167 1.490411
000350 42 88 55 3f 4c 51 c0 3f 2a b7 6b 3f 6b fc 96 3f
       0.8341104 1.502481 0.9207636 1.1795782
000360 0f f4 13 40 08 4d ed 3f e2 fd f9 3f 0a 63 01 40
       2.3117712 1.8539133 1.9530604 2.0216699
000370 f4 01 00 00 8f 2a 6d 3e 3b 64 fc 3c 6c 79 cf 39
       7e-43 0.23160766 0.030809512 0.00039572583
000380 01 71 5c 33 34 ba 95 3f c4 43 e3 3a ba 74 b3 3a
       5.1325518e-08 1.169745 0.0017338921 0.0013691403
000390 4c d9 95 3f 3e df 89 3f ca a6 02 3d b4 bd 2d 3b
       1.1706939 1.0771253 0.031897344 0.0026510777
0003a0 0c f8 d5 3b e5 14 94 3d 76 45 c2 3d 30 8a 35 3e
       0.0065298136 0.07230548 0.09485905 0.17728496
0003b0 03 95 9b 37 61 37 90 37 17 ef 8c 3a cf d1 78 3e
       1.8546829e-05 1.7191926e-05 0.0010752407 0.24298786
0003c0 81 94 25 39 c3 dd 82 3e bb 46 54 40 0b 86 a2 3e
       0.00015790948 0.25559816 3.316817 0.31742892
0003d0 69 98 59 3f 96 7d 74 40 65 bb 8d 3f 03 f2 2f 3f
       0.84998184 3.8201652 1.1072813 0.68728656
0003e0 ee 6b 21 3f f0 e1 08 40 e3 4e 7c 40 3f 05 95 40
       0.6305531 2.1387901 3.9423149 4.6568904
0003f0 77 f8 de 3f 87 74 bf 3e 3b 89 0d 3e 80 7c 0e 3f
       1.7419575 0.3739359 0.1382188 0.5565872
