groupe13/snake_dqn_model.pth (torch, 846795 bytes, 18 tensors)

fc1.weight f4 [256, 11]
0	0x3fad9493	1.3560966
1	0x3e35632c	0.17713612
2	0xbef66d60	-0.48130322
3	0xbee58665	-0.44829097
4	0xc0051eb5	-2.0799992
5	0xbffa0732	-1.9533446
6	0x3f3b5d8a	0.73189604
7	0xbfd09fb0	-1.6298733
8	0x3f576099	0.8413177
9	0xbf8a3a50	-1.0799046
10	0xbf6d0550	-0.9258623
11	0xbef29424	-0.47378647
12	0xbf9682fb	-1.1758722
13	0x3ec48a18	0.38386607
14	0x3c9dc1d5	0.019257465
15	0x3d4a7280	0.049425602
16	0x3ec1d50b	0.3785785
17	0x3f0ce0a7	0.5503029
18	0x3c6818d3	0.014166075
19	0x3ddc8aac	0.10768637
20	0x3e902cd6	0.28159207
21	0x3e8e27eb	0.2776483
22	0x3f72162b	0.94565076
23	0x3fa1f43d	1.2652661
24	0x3f8dafa0	1.1069221
25	0xbd70076c	-0.058600828
26	0xbcecb46f	-0.028894631
27	0xbe81c591	-0.25346044
28	0x3dd17695	0.10227696
29	0x3ea72689	0.32646587
30	0x3db2fe5e	0.08739923
31	0xbd41384d	-0.047172833
32	0xbea4c894	-0.3218428
33	0xbfaba53e	-1.3409803
34	0xbf0ca269	-0.5493532
35	0x3d8c1409	0.06839759
36	0xbe1c4c2c	-0.15263432
37	0x3f681bf8	0.90667677
38	0x3f2c97a3	0.6741888
39	0xbe799200	-0.24372101
40	0xbe8429a0	-0.25813007
41	0x3ebb2593	0.36552104
42	0xbe8c4223	-0.27394208
43	0xbe96b93d	-0.294382
44	0x3f9a4c42	1.2054522
45	0x3f934d8f	1.1508044
46	0xbf60781f	-0.8768329
47	0xbe0726de	-0.1319842
48	0xc00c1d10	-2.1892738
49	0xbdd489ad	-0.10377822
50	0x3eaae740	0.33379555
51	0x3dc51cac	0.09624609
52	0x3c2ba5a7	0.010476506
53	0xbf62af3b	-0.8854863
54	0xbe4b1399	-0.19831695
55	0x3f463b32	0.77434075
56	0xbf594b03	-0.84880084
57	0xba0ec35d	-0.00054459815
58	0xbef542b9	-0.47902468
59	0x3eefcab6	0.46834344
60	0x3e83bfad	0.25732175
61	0xbf177c65	-0.59174186
62	0x3e98ad5e	0.2981977
63	0xbf007b03	-0.501877
64	0xbd273e6f	-0.040831026
65	0xbf08f872	-0.535041
66	0x3fa8497c	1.3147426
67	0xbf0fcdd8	-0.5617347
68	0xbef4ad16	-0.47788304
69	0x3efebf07	0.49755117
70	0x3f24ebac	0.64422107
71	0xbd6e1241	-0.058122877
72	0xbffa8331	-1.9571286
73	0x3e44f6a9	0.19234718
74	0x3f31faff	0.69523615
75	0x3e716296	0.23572764
76	0xbf42d66e	-0.76108444
77	0xbeb371d6	-0.35047787
78	0xbf665684	-0.8997576
79	0xbe8f5577	-0.27994892
80	0x3f438adf	0.76383775
81	0xbd6ccdcc	-0.05781345
82	0x3c423ac0	0.011854827
83	0x3e64e8a1	0.22354366
84	0x3ee54148	0.44776368
85	0xbe6c1a43	-0.23056893
86	0x3e9334b0	0.28751135
87	0xbf04cb66	-0.5187286
88	0x3e9a8786	0.3018152
89	0xbe414139	-0.18872537
90	0x3f1ff09c	0.62476516
91	0xbf08ea7e	-0.53482807
92	0x3eba5bb3	0.36398086
93	0x3e58f335	0.21186526
94	0x3dc39b0e	0.09551059
95	0x3f280652	0.65634644
96	0xbf90a48f	-1.1300219
97	0xbf1e6fde	-0.61889446
98	0xbe5a1907	-0.2129861
99	0x3f8d7d3e	1.1053846
100	0x3ebbafea	0.3665765
101	0xc02412d9	-2.5636504
102	0x3e8700f3	0.26367912
103	0xbdacfdcc	-0.084468454
104	0x3f9249a6	1.1428726
105	0xbf7c4bd2	-0.9855319
106	0xbeff8861	-0.49908736
107	0xbe5fd86a	-0.21859899
108	0x3e06f007	0.131775
109	0x3e174849	0.14773668
110	0x3eb7d828	0.35907102
111	0xbfcf3a00	-1.6189575
112	0xbf014e04	-0.5050967
113	0x3ee74e9a	0.45177156
114	0xbf801798	-1.00072
115	0xbd246222	-0.04013265
116	0x3ee96ae5	0.45589367
117	0x3eaa243a	0.33230764
118	0x3ec11daf	0.3771796
119	0xbf1a7d32	-0.6034728
120	0xbe8bcae9	-0.27303246
121	0x3ec01d7e	0.375225
122	0x3f126345	0.57182723
123	0x3ef41fd4	0.47680533
124	0x3f46cd89	0.7765737
125	0x3e019144	0.1265307
126	0xbfa3d43f	-1.2799147
127	0xbf0a1279	-0.5393444
128	0xbe73207d	-0.23742862
129	0x3ed5e1e4	0.41773903
130	0xbece83c5	-0.40334907
131	0xbf624a29	-0.8839441
132	0x3f016c77	0.5055613
133	0x3fde875e	1.7385061
134	0xbfa3d6d9	-1.2799941
135	0xbd0afbbf	-0.03393149
136	0xbf98d7fd	-1.1940914
137	0x3f530aa6	0.82438123
138	0x3d609ff3	0.05484004
139	0xbe00bf33	-0.12572937
140	0xbf8735b0	-1.0563259
141	0x3dd2df16	0.102964565
142	0x3ea50444	0.32229817
143	0xbec61136	-0.38685006
144	0xbe3829b3	-0.17984657
145	0x3fbcc857	1.4748639
146	0x3f47f1e4	0.7810347
147	0xbfe074c0	-1.7535629
148	0x3f3256c0	0.6966362
149	0xbfa2f25e	-1.2730215
150	0xbe97922e	-0.29603714
151	0xbef627b7	-0.48077175
152	0x3ed4cf22	0.4156428
153	0x3eac4e5d	0.33653536
154	0x3ee1db06	0.44112414
155	0x3fd2e4c4	1.6476064
156	0x3f869ddd	1.0516926
157	0x3f88d7ca	1.0690854
158	0xbffa7395	-1.9566523
159	0xbf3250bd	-0.69654447
160	0x3e6b39a9	0.22971214
161	0x3de9e24d	0.114201166
162	0xbf2bb3a9	-0.67071015
163	0xbf2b6e13	-0.66964835
164	0x3e1af7c8	0.15133584
165	0x3fa87573	1.3160843
166	0xbf342c1f	-0.70379823
167	0xbfb1316c	-1.3843207
168	0xbf4a64c4	-0.79060006
169	0x3f19af0d	0.6003273
170	0x3f8811ca	1.0630429
171	0xbfb5cc63	-1.4202999
172	0x3d12ca4e	0.035837464
173	0x3d6154a8	0.055012375
174	0x3e3d4d8c	0.18486613
175	0xbdc47cc0	-0.09594107
176	0x3ed72103	0.42017373
177	0xbecb71cd	-0.3973526
178	0x3eff1347	0.49819395
179	0xbe9d951e	-0.3077783
180	0x3dc0d86b	0.094162785
181	0xbe91e9f6	-0.2849881
182	0xbe16e307	-0.14735042
183	0x3d449f3a	0.048003413
184	0xbf75c397	-0.9600157
185	0xbf6eb9dc	-0.9325235
186	0x3e4e537b	0.20149033
187	0xbf0adbd0	-0.5424166
188	0xbf242dce	-0.6413239
189	0x3c4c1f0f	0.012458577
190	0x3ed5510a	0.4166339
191	0x3ebf48ed	0.37360325
192	0x3f29dea2	0.66355336
193	0x3dccf315	0.10007302
194	0xbdb83cee	-0.089959964
195	0xbe9526b2	-0.29131085
196	0xbe8f49a4	-0.2798587
197	0x3d4c2a8b	0.04984526
198	0xbf7f0f9b	-0.9963319
199	0x3f1a9d11	0.60395914
200	0x3f260945	0.64857894
201	0x3f1e8392	0.6191951
202	0x3e0e34c1	0.13887312
203	0xbf1e1584	-0.6175158
204	0xbf4127bc	-0.75451255
205	0xbd473040	-0.04863
206	0xbf108c00	-0.56463623
207	0xbef64806	-0.48101825
208	0xbd190172	-0.037354894
209	0x3eead649	0.45866612
210	0xbfcd84fe	-1.6056211
211	0x3e1939cb	0.14963453
212	0xbe80b5d2	-0.25138718
213	0x3ed59d62	0.41721636
214	0x3eb088d4	0.34479392
215	0x3d5d4b31	0.054026786
216	0x3ec2f4bf	0.3807735
217	0x3e96ecf8	0.29477668
218	0xbed85c69	-0.42258003
219	0xbe459b65	-0.1929756
220	0x3f219ea6	0.63132703
221	0xbfa296ae	-1.2702234
222	0x3f417729	0.7557245
223	0xbe14e1bb	-0.14539234
224	0x3e06e527	0.13173352
225	0x3decfeab	0.115720116
226	0x3e02d72e	0.12777397
227	0xbbf5648a	-0.007488792
228	0x3d942202	0.07233049
229	0xbe7817fd	-0.24227901
230	0xbe19f2b1	-0.15033986
231	0x3f1e6fa6	0.6188911
232	0x3f3a5a15	0.72793704
233	0x3fb771df	1.4331626
234	0xbf9dcf96	-1.2328975
235	0x3f893cc2	1.0721667
236	0xbda67906	-0.08128552
237	0xbd9f932a	-0.07791741
238	0x3d2cc00b	0.042175334
239	0xbf123ac5	-0.57120925
240	0xbf45fc45	-0.7733806
241	0xbf47a66b	-0.7798831
242	0xbf2d7c6f	-0.67767996
243	0x3ea3ee24	0.32017624
244	0xbfae9573	-1.3639358
245	0x3eef115e	0.46692938
246	0x3f8d02a7	1.1016434
247	0x3e36453c	0.17799848
248	0xbf6965ce	-0.91170967
249	0x3d40b2c1	0.047045473
250	0x3ec3e3ee	0.38259834
251	0x3f60bb30	0.87785625
252	0x3c49c5e1	0.012315244
253	0xbf901f09	-1.1259471
254	0x3f2da11b	0.6782395
255	0x3fad62fd	1.3545834

fc1.bias f4 [256]
0	0xbe958934	-0.2920624
1	0x3eaa9e45	0.33323875
2	0xbe9b9fef	-0.30395457
3	0x3f312091	0.6919032
4	0xbed270b0	-0.411016
5	0x3deab4f0	0.11460292
6	0x3e17d0e1	0.14825775
7	0x3e93c048	0.28857636
8	0xbe288b58	-0.16459405
9	0x3ea55e4f	0.32298514
10	0x3f070313	0.52739066
11	0x3d0082fb	0.031374913
12	0xbdcf7fe8	-0.10131818
13	0xbe76890e	-0.2407572
14	0x3bc27cc4	0.0059352834
15	0xbe3ce462	-0.18446496
16	0xbe98b06d	-0.29822102
17	0x3f4e7bb9	0.80657536
18	0x3e83294a	0.2561744
19	0x3e9f770d	0.31145516
20	0x3ec4844e	0.3838219
21	0xbeb15f79	-0.34643152
22	0x3f1f1b31	0.62150866
23	0xbec1986d	-0.37811604
24	0xbe5111ac	-0.20416898
25	0xbe86bb36	-0.26314706
26	0x3ee03155	0.43787637
27	0xbe8d8f41	-0.27648357
28	0xbe852e40	-0.26011848
29	0x3c81b15f	0.015831647
30	0xbeb737ed	-0.35784855
31	0xbe5bbeee	-0.21459553
32	0x3d05a012	0.032623358
33	0x3ecb1630	0.39665365
34	0x3eeb4f3a	0.45958883
35	0x3cb986fb	0.022647372
36	0x3e882160	0.26587963
37	0xbeff94de	-0.49918264
38	0x3f21b57e	0.6316756
39	0x3f1b7f56	0.60741174
40	0xbce8f9b8	-0.028439388
41	0x3d08f4e0	0.033436656
42	0x3f30e6d1	0.691022
43	0x3ee34210	0.4438634
44	0x3bba49e2	0.005685077
45	0x3d32300c	0.043502852
46	0x3dae4bab	0.08510526
47	0xbeba8077	-0.36426136
48	0x3b8f719f	0.0043775584
49	0x3ed8fe16	0.42381352
50	0x3e8d8650	0.27641535
51	0xbdb29cad	-0.0872129
52	0xbe5c52fb	-0.2151603
53	0xbe975599	-0.29557493
54	0xbe9d0c18	-0.3067329
55	0x3f690d2e	0.91035736
56	0xbde4b92b	-0.111681305
57	0x3df2e0f8	0.11859316
58	0xbe3a95cb	-0.18221204
59	0x3e981c5d	0.2970914
60	0x3ed9e14b	0.42554697
61	0x3ea633a7	0.32461283
62	0x3cc746c0	0.024325728
63	0xbf464e9f	-0.77463716
64	0xbf0a998d	-0.5414055
65	0xbed07a14	-0.40718138
66	0x3d697033	0.056991767
67	0x3f49c608	0.78817797
68	0x3f5cf76d	0.8631504
69	0x3ec3a69c	0.3821305
70	0x3ed7cde7	0.4214928
71	0x3f30b3e7	0.6902451
72	0x3e7a3863	0.24435572
73	0xbe09ff87	-0.13476382
74	0xbef964f3	-0.4870983
75	0xbdc85f06	-0.09783749
76	0x3d0c96bf	0.03432345
77	0x3e76c8bb	0.2410001
78	0xbdb3eda2	-0.08785559
79	0xbd8e2a91	-0.06941713
80	0x3e399026	0.18121395
81	0xbd5ef970	-0.0544371
82	0x3f4f38dd	0.8094614
83	0xbd068ee8	-0.03285113
84	0xbea8e638	-0.32988143
85	0x3e938348	0.28811097
86	0x3f1187ff	0.5684814
87	0xbeaa9b82	-0.33321768
88	0x3e1c7f5f	0.15282963
89	0xbe94b760	-0.29046154
90	0x3f1f73ab	0.6228587
91	0x3e84d7a9	0.25945786
92	0x3ec66321	0.38747504
93	0xbf1508bb	-0.58216447
94	0x3e7e22de	0.24817988
95	0xbdbade30	-0.0912441
96	0x3ee3b256	0.44471997
97	0x3f4ed7c1	0.80797964
98	0x3f2ec0d0	0.6826296
99	0xbebd8854	-0.37018073
100	0x3efd9a70	0.4953189
101	0x3f18671b	0.59532326
102	0xbed45f37	-0.41478893
103	0xbef74abe	-0.4829921
104	0x3e68fd51	0.22752883
105	0xbdc4c9e4	-0.0960882
106	0x3de28bb5	0.11061803
107	0xbe10128f	-0.1406958
108	0x3f3c517c	0.73561835
109	0xbf11ffe5	-0.5703109
110	0x3ebcfc01	0.36911014
111	0x3e87f2f6	0.26552552
112	0x3edd7c3f	0.43258855
113	0xbe5b0b62	-0.21391061
114	0xbce2e053	-0.027694857
115	0xbe31cbe9	-0.17362942
116	0xbe20e843	-0.15713601
117	0xbe773db7	-0.24144636
118	0x3e22ecaf	0.159106
119	0x3f23b9da	0.6395546
120	0xbdfbf06e	-0.12301718
121	0xbe152621	-0.14565326
122	0xbe249c25	-0.1607519
123	0xbe1bec8a	-0.15226951
124	0x3f0523bc	0.5200765
125	0x3ead1b0e	0.33809704
126	0x3ee70e2c	0.45128
127	0x3ee2d8b6	0.44305962
128	0x3be1ba61	0.006888673
129	0x3ec9ea60	0.39436626
130	0xbeb24c25	-0.3482372
131	0xbec839c1	-0.39106563
132	0x3ca18f6f	0.019721715
133	0x3d0b4eaa	0.034010567
134	0x3d752afc	0.059855446
135	0xbeecdb62	-0.46261126
136	0x3f07339c	0.52813125
137	0xbe12d5f3	-0.14339428
138	0x3cbe7e50	0.02325359
139	0xbe433f4d	-0.19067116
140	0x3f09260d	0.53573686
141	0xbf1cfab9	-0.6132007
142	0xbe97480f	-0.29547164
143	0x3f0c1862	0.54724705
144	0x3d22782b	0.039665382
145	0x3e0c881b	0.13723795
146	0xbe676ddd	-0.22600503
147	0xbc1683bb	-0.00918668
148	0x3f0e426c	0.555701
149	0xbf0a7519	-0.54084927
150	0x3e1428a7	0.14468633
151	0x3e3063b7	0.17225538
152	0x3e226eef	0.1586263
153	0x3e520d6b	0.20512931
154	0xbd3a5f3e	-0.045500986
155	0x3e4a2984	0.197424
156	0x3e5abaa9	0.21360268
157	0xbc01c107	-0.007919556
158	0x3e5080b9	0.20361604
159	0x3f3ea4a1	0.74469954
160	0xbec8e053	-0.39233646
161	0x3e69cca2	0.22831967
162	0xbce404e0	-0.027834356
163	0xbd0064ea	-0.03134624
164	0x3ee3c5d8	0.4448688
165	0x3e9fc9d7	0.3120868
166	0x3f11be5a	0.5693108
167	0xbe79d96e	-0.24399349
168	0x3db32cab	0.08748754
169	0x3d8cf9c5	0.06883577
170	0xbe826cc2	-0.254736
171	0x3eeeb9e7	0.46626207
172	0xbeb77570	-0.35831785
173	0x3f343410	0.7039194
174	0xbcb07293	-0.021539008
175	0xbedcc7f0	-0.4312129
176	0x3f2d4d55	0.67696124
177	0x3f429a66	0.76016843
178	0x3cd35615	0.025797883
179	0x3ed58830	0.41705465
180	0x3e0fe946	0.1405383
181	0x3e20d173	0.15704899
182	0x3e1f4fd3	0.15557794
183	0x3f29534d	0.6614273
184	0x3eb50502	0.35355383
185	0x3eb0dcd6	0.34543484
186	0x3f568748	0.8380017
187	0x3eb9fd60	0.36326122
188	0x3f10147f	0.56281275
189	0xbf0523bb	-0.52007645
190	0x3f02fd4f	0.5116777
191	0x3f253d77	0.6454691
192	0x3ea36f05	0.3192064
193	0x3c509f8a	0.01273335
194	0x3f242022	0.6411153
195	0x3ef6d623	0.48210248
196	0xbed1b9d7	-0.40962097
197	0x3eaa34bf	0.33243367
198	0xbdbad3ae	-0.09122406
199	0x3ec64451	0.38723996
200	0x3d110df6	0.035413705
201	0x3e15fde2	0.1464763
202	0x3f24ead7	0.6442084
203	0x3e26583a	0.16244593
204	0xbdfa7541	-0.12229396
205	0x3f29ec4e	0.663762
206	0xbf04db45	-0.5189708
207	0xbd631ffb	-0.05545042
208	0x3efc5f8d	0.4929165
209	0x3f44af22	0.7682973
210	0x3f3c6844	0.73596597
211	0xbf2281f2	-0.6347953
212	0x3ec42ed7	0.38316986
213	0x3f2d82cc	0.67777705
214	0x3b50efd8	0.003188124
215	0xbee8d629	-0.4547589
216	0x3efb9ea4	0.4914447
217	0x3e9c1914	0.30487883
218	0xbe62c168	-0.22144091
219	0xbe410211	-0.18848445
220	0x3f09c050	0.5380907
221	0xbd808299	-0.062749095
222	0xbe03f770	-0.12887359
223	0x3f2915d7	0.6604895
224	0x3e716978	0.2357539
225	0x3eda9da7	0.42698404
226	0xbd916298	-0.070988834
227	0x3f2656a9	0.6497598
228	0xbe7d0e85	-0.2471257
229	0x3f0a424a	0.540074
230	0x3ed2455a	0.41068536
231	0xbed94765	-0.42437282
232	0x3e0117b8	0.12606704
233	0xbdd61f48	-0.10455185
234	0xbe857594	-0.26066267
235	0x3f1ce610	0.6128855
236	0x3ef24626	0.47319144
237	0xbed8d386	-0.4234888
238	0x3e6ada16	0.22934756
239	0x3e503ff0	0.2033689
240	0xbe65073f	-0.22366045
241	0x3ebb2582	0.36552054
242	0x3f5668ec	0.8375385
243	0xbca1b4d3	-0.019739544
244	0x3f120811	0.5704356
245	0xbf180a08	-0.59390306
246	0x3e424d42	0.18974784
247	0xbe5b23d9	-0.21400394
248	0xbe25e19a	-0.16199341
249	0x3e518846	0.2046214
250	0x3e1973d3	0.1498559
251	0xbe8626f7	-0.26201603
252	0x3ecc0674	0.39848673
253	0x3f160b74	0.58611226
254	0x3ea39cb2	0.31955487
255	0xbe445f59	-0.19176997

fc2.weight f4 [256, 256]
0	0x3dc8b640	0.098003864
1	0x3e26165b	0.16219465
2	0xbf18fc99	-0.59760433
3	0x3f38318f	0.7195062
4	0xbf0aa7b8	-0.5416217
5	0x3ea468b8	0.32111144
6	0x3ee2b53b	0.44278893
7	0x3e2db597	0.16963802
8	0x3e969b5e	0.2941541
9	0x3f2a9351	0.66631037
10	0x3f03034e	0.5117692
11	0xbdf2dcd3	-0.11858525
12	0x3ebcf8dd	0.36908618
13	0xbd73ae58	-0.05949244
14	0x3dd606f7	0.10450547
15	0x3ea5e143	0.32398424
16	0x3d519e37	0.051176276
17	0x3ecaebd0	0.39633036
18	0xbc6aa511	-0.014321581
19	0x3df99c2c	0.121879905
20	0x3da2a88b	0.07942303
21	0x3e9092dd	0.28237048
22	0x3ea1b651	0.3158441
23	0xbe5b2e3e	-0.21404359
24	0x3e10759b	0.14107363
25	0x3ea716d0	0.32634592
26	0x3eb53944	0.35395253
27	0x3e1d0e78	0.1533755
28	0x3d504df2	0.050855584
29	0x3e4bba29	0.19895233
30	0xbe131065	-0.14361723
31	0xbddd2858	-0.107987106
32	0x3e2fb476	0.17158684
33	0x3e63e152	0.22253922
34	0x3f197646	0.59946096
35	0x3e13c1c6	0.14429387
36	0x3e02b2d0	0.12763524
37	0x3eabddfe	0.33567804
38	0x3eb74a2f	0.35798785
39	0x3f00bb27	0.5028557
40	0x3ee306d1	0.44341138
41	0x3de37696	0.11106603
42	0x3ec71eb7	0.3889062
43	0x3e28d527	0.16487561
44	0xbb2c7075	-0.0026312147
45	0x3e01bd5b	0.1266989
46	0x3daeb585	0.08530716
47	0xbd8cf946	-0.06883483
48	0x3dbbaba7	0.091635995
49	0x3e26509b	0.16241686
50	0x3e8de7f1	0.2771602
51	0x3e5a1c45	0.21299846
52	0x3d96eba3	0.07369163
53	0xbc0fbea0	-0.008773476
54	0x3e73ac2b	0.23796146
55	0x3f133d80	0.57515717
56	0xbd28e2df	-0.041231986
57	0x3dc435e4	0.09580591
58	0x3d38ec3f	0.045147177
59	0x3e6d0670	0.23146987
60	0x3e15171e	0.145596
61	0x3e02517e	0.127264
62	0xbe475ce3	-0.19469027
63	0xbfb636e4	-1.4235501
64	0x3dbfdcfe	0.09368323
65	0xbe1a97b1	-0.15096928
66	0xbd5361c3	-0.051606905
67	0x3f06edc3	0.52706546
68	0x3ed885ea	0.42289668
69	0x3e32abf8	0.17448413
70	0x3f2079c0	0.62685776
71	0x3eaec14d	0.34131852
72	0x3e3e96bc	0.18612188
73	0x3d061700	0.03273678
74	0xbe972947	-0.2952368
75	0x3dd502f6	0.104009554
76	0x3abc4e70	0.0014366638
77	0x3d17497e	0.036935322
78	0x3cab597d	0.020916695
79	0x3d6f074f	0.05835658
80	0x3e0cdc35	0.13755877
81	0x3ddd942c	0.10819277
82	0x3f0838e8	0.5321183
83	0xbd6ac6da	-0.057318546
84	0xbe93a608	-0.2883761
85	0x3ea963ed	0.3308405
86	0x3ec3f464	0.38272393
87	0x3d83935f	0.06424593
88	0x3e3e6ea7	0.18596898
89	0x3e2ebb25	0.17063577
90	0x3eabab34	0.33529055
91	0x3da2ad1e	0.07943176
92	0x3e3bc0fe	0.1833534
93	0x3e0ff38a	0.14057747
94	0x3f144db9	0.57931095
95	0x3d7dfd92	0.0620094
96	0x3f39fd4c	0.72652125
97	0x3ed5c466	0.41751403
98	0x3e917265	0.2840759
99	0x3e34cb27	0.17655621
100	0x3ef7be6d	0.4838747
101	0x3efe0cef	0.49619243
102	0xbe684101	-0.22681047
103	0xbcb734ad	-0.022363985
104	0x3daedca5	0.08538178
105	0x3e1c3169	0.15253223
106	0x3d2843f5	0.041080434
107	0x3f1221e3	0.5708296
108	0x3ec5320a	0.3851474
109	0xbe9e0528	-0.3086331
110	0x3dd84db2	0.10561694
111	0x3e6edf83	0.2332745
112	0x3e850127	0.25977442
113	0xbfa80f42	-1.3129656
114	0x3d813f3e	0.063108906
115	0x3dfb9744	0.12284711
116	0x3e019423	0.12654166
117	0xbdbed19e	-0.09317325
118	0x3e2006fd	0.15627666
119	0x3edac595	0.42728868
120	0x3eb6c6a6	0.35698432
121	0x3db1eaf6	0.08687393
122	0x3cde4302	0.027131561
123	0xbe39dbd4	-0.18150264
124	0x3edff83c	0.43744075
125	0x3f33edac	0.70284534
126	0x3e8da16c	0.27662218
127	0x3e1b904c	0.15191764
128	0x3ea99f28	0.3312924
129	0x3e6e8d5c	0.23296112
130	0x3f2d1895	0.67615634
131	0xbd07970a	-0.033103026
132	0x3f111203	0.5666811
133	0x3c6fb459	0.014630401
134	0x3f8315d0	1.0241032
135	0xbca398d4	-0.019970335
136	0x3e7bd1cb	0.24591748
137	0x3e8fc344	0.28078663
138	0x399b1c13	0.0002958482
139	0x3c06dcb1	0.008231328
140	0x3eaa9e9b	0.3332413
141	0xbe647d81	-0.22313501
142	0x3e01a9a5	0.1266237
143	0x3e6fe784	0.2342816
144	0x3eab0c03	0.33407602
145	0x3e20be25	0.15697534
146	0xbe1446a4	-0.14480072
147	0xbec53496	-0.38516682
148	0x3e8d7e01	0.27635196
149	0x3c20b043	0.009807649
150	0x3ead6667	0.3386719
151	0x3f69be04	0.91305566
152	0x3da942cd	0.08264694
153	0xbea9b667	-0.33146974
154	0x3ec6adbc	0.38804424
155	0x3ea99665	0.33122554
156	0x3ea5fb64	0.32418358
157	0x3f29a795	0.66271335
158	0x3e07a029	0.1324469
159	0x3ef2546e	0.4733004
160	0xbf034561	-0.5127774
161	0xbd8c7159	-0.06857557
162	0x3f1a1862	0.60193455
163	0xbe9fb0da	-0.31189615
164	0x3e9f7e8e	0.3115124
165	0x3e7b4c14	0.2454074
166	0x3ec60163	0.38672933
167	0x3eabf57e	0.33585733
168	0x3ed82f82	0.42223746
169	0xbf459edc	-0.77195525
170	0xbe7b3a5f	-0.24533986
171	0x3e34b658	0.17647684
172	0x3ec8fa95	0.3925368
173	0x3f1554df	0.5833263
174	0x3ea17a61	0.3153868
175	0xbfad4f8f	-1.3539904
176	0x3e731de6	0.23741874
177	0x3ed084b1	0.40726236
178	0x3f1b1779	0.6058269
179	0x3e914fd1	0.28381208
180	0x3e041325	0.12897928
181	0x3e38a0b0	0.18030047
182	0x3e138a51	0.14408232
183	0x3f2e5e93	0.6811306
184	0xbd810f47	-0.06301742
185	0x3e784e61	0.24248649
186	0x3eebee42	0.46080214
187	0x3f17cac4	0.5929377
188	0x3e9ffd80	0.31248093
189	0xbe3a221c	-0.18177074
190	0x3d9900df	0.07470869
191	0x3ee53cad	0.44772854
192	0x3eb9995f	0.36249825
193	0xbe8b1478	-0.27164054
194	0x3e888dfb	0.26670823
195	0x3ef97df6	0.48728913
196	0x3f3df721	0.74205214
197	0x3f408311	0.7519999
198	0xbdb2159c	-0.08695528
199	0x3e9c8d91	0.30576757
200	0xbf3d3a8a	-0.7391745
201	0x3db73ade	0.08946775
202	0x3e942132	0.28931576
203	0x3e3d00e2	0.18457368
204	0x3eb93387	0.36172125
205	0x3ecf0035	0.40429845
206	0x3e3f99c1	0.18710996
207	0x3d1729ed	0.036905218
208	0x3f256810	0.6461191
209	0x3f0c3bc2	0.54778683
210	0x3f385fd2	0.7202121
211	0xbd1a0407	-0.037601497
212	0x3ec278e8	0.3798287
213	0x3eb773ed	0.35830632
214	0xbd001222	-0.031267293
215	0x3e3c68ac	0.18399304
216	0x3e9b47d8	0.3032825
217	0x3e0c5c1a	0.13707009
218	0xbf460ac5	-0.77360183
219	0x3bdd6ebb	0.006757585
220	0x3ec2be3c	0.38035762
221	0x3cb36ee6	0.021903466
222	0x3f0c7c83	0.5487749
223	0x3e8bf647	0.27336332
224	0x3e1eb323	0.15498023
225	0x3dc1a466	0.09455185
226	0xbc8a447a	-0.016878355
227	0x3ecc3976	0.3988759
228	0xbe336552	-0.1751912
229	0x3eb560fe	0.35425562
230	0x3e290215	0.165047
231	0x3da04319	0.07825298
232	0x3eb00bd4	0.34384024
233	0xbf6d3d7b	-0.92671937
234	0xbd5bc20e	-0.05365186
235	0x3e98b8ff	0.2982864
236	0x3e246d26	0.16057262
237	0xbd519e06	-0.051176094
238	0x3e8056af	0.25066134
239	0x3ea11529	0.31461456
240	0x3d15b640	0.03655076
241	0x3e0a620d	0.13513966
242	0x3e95f8a5	0.29291263
243	0x3d0bb4ce	0.034107976
244	0x3f19548f	0.5989465
245	0xbe11cbc9	-0.14237894
246	0x3e93641e	0.2878732
247	0x3d6be1f9	0.05758855
248	0x3c293528	0.010327615
249	0x3da08839	0.078384824
250	0x3e0ee65f	0.13955067
251	0xbe01a170	-0.1265924
252	0x3ecd9943	0.40155992
253	0x3e8e6c34	0.27816927
254	0x3ec4e7aa	0.38457996
255	0x3e149582	0.14510158

fc2.bias f4 [256]
0	0x3f3940e7	0.7236466
1	0x3c7b5039	0.015338951
2	0x3f3c6188	0.7358632
3	0xbdb956ef	-0.090497844
4	0xbd84638c	-0.064642996
5	0xbd561586	-0.05226662
6	0x3f047fa8	0.5175729
7	0xbd858df5	-0.06521217
8	0xbd29667c	-0.041357502
9	0x3f360728	0.7110467
10	0xbd4fd236	-0.050737582
11	0x3cc2cf41	0.023780467
12	0x3e18087f	0.14846991
13	0x3f36545a	0.7122246
14	0x3eab82d8	0.33498263
15	0xbc0123ab	-0.007882039
16	0xbda73c7f	-0.081658356
17	0xbdd4c4dd	-0.10389111
18	0xbdc9c010	-0.09851086
19	0x3ec47ed7	0.3837802
20	0xbbfc6885	-0.0077028894
21	0x3d389c0b	0.04507069
22	0x3f320feb	0.6955554
23	0xbd80bd47	-0.06286102
24	0xbd38ce66	-0.045118712
25	0xbd2b9860	-0.041893363
26	0x3f09813e	0.5371283
27	0x3f41474f	0.75499433
28	0xbd7b85d9	-0.061406944
29	0x3d879ade	0.066213354
30	0x3d1e3cc8	0.038632184
31	0x3b9b1627	0.0047328654
32	0xbda011b2	-0.07815875
33	0xbd98187a	-0.074265435
34	0xbd1c6896	-0.03818568
35	0x3df8c838	0.12147564
36	0xbe02aeb5	-0.12761958
37	0xbdb15b0c	-0.08659944
38	0xbda1cd26	-0.07900457
39	0x3ef1c2e7	0.4721901
40	0x3f40c51b	0.7530076
41	0x3bf3e22d	0.0074427337
42	0x3f2e4f75	0.6808999
43	0xbd3eec4a	-0.04661206
44	0x3ee0aac9	0.438803
45	0x3f2d424c	0.67679286
46	0xbd740b70	-0.05958122
47	0xbd8048f6	-0.06263916
48	0xbd64c307	-0.055850055
49	0xbd1e683e	-0.03867363
50	0x3eccba92	0.39986092
51	0xbcd60e4f	-0.02612987
52	0x3e4cc061	0.19995262
53	0x3b020552	0.0019839597
54	0xbd91d044	-0.07119802
55	0xbd894466	-0.06702499
56	0x3df13585	0.11777786
57	0xbeacd393	-0.33755168
58	0xbcc1ecb7	-0.023672445
59	0xbd9dbe71	-0.077023394
60	0x3d2fd8ab	0.04293124
61	0x3e926c13	0.2859808
62	0xbd5239f6	-0.051324807
63	0xbd8e1c7b	-0.06939026
64	0x3f155d74	0.58345723
65	0x3f22e908	0.6363683
66	0x3de68be2	0.11257149
67	0x3f3277d1	0.69714075
68	0x3f2ede7c	0.68308234
69	0xbd8cf0a3	-0.06881835
70	0xbcff24e4	-0.03114552
71	0x3aa3b38c	0.0012489422
72	0x3ecffdcf	0.40623328
73	0x3d610cd6	0.054943882
74	0xbaeadd94	-0.0017918819
75	0x3f2261f9	0.63430744
76	0xbd910181	-0.07080365
77	0xbcb45cf4	-0.02201698
78	0xbd8f2c4a	-0.06990869
79	0xbd553ca3	-0.05205978
80	0xbd6b8b3e	-0.05750584
81	0x3b810262	0.0039370516
82	0x3f385765	0.72008353
83	0x3ce0e6ef	0.027453868
84	0x3f2cd202	0.67507946
85	0x3f429053	0.7600147
86	0xbdaced85	-0.08443741
87	0x3f39fe2a	0.7265345
88	0x3d848b0f	0.06471836
89	0xbb8a7185	-0.0042249584
90	0x3f42a5c8	0.7603421
91	0xbd64e71d	-0.05588447
92	0x3f43d992	0.7650386
93	0xbd9b0508	-0.07569319
94	0xbd5352a7	-0.051592495
95	0xbe8c3ad3	-0.2738863
96	0xbca28de6	-0.019843053
97	0x3f409b6c	0.75237155
98	0xbc87f06a	-0.01659413
99	0x3e703c48	0.23460495
100	0xbd5cd9e3	-0.05391873
101	0x3f3e16f7	0.7425379
102	0xbd07588f	-0.03304344
103	0xbcf4e1bb	-0.029892793
104	0x3f410fa0	0.75414467
105	0xbd8e5ba4	-0.06951073
106	0xbda7dba4	-0.0819619
107	0x3f3b5835	0.7318147
108	0xbdac8641	-0.084240444
109	0xbdb48368	-0.08814126
110	0xbd813f94	-0.06310955
111	0xbc1111ed	-0.0088543715
112	0xbd847b57	-0.06468838
113	0x3c03aba3	0.008036527
114	0x3d0c5060	0.03425634
115	0xbd77d4dd	-0.060505737
116	0x3dbc1ffb	0.09185787
117	0xbd0b7910	-0.034051
118	0xbe91a58e	-0.2844662
119	0xbe5a7e54	-0.21337253
120	0x3c5ced19	0.013484263
121	0xbdc47401	-0.095924385
122	0xbd3a43c8	-0.045474797
123	0x3d0938c4	0.0335014
124	0x3f18ef91	0.5974055
125	0x3e1e04e7	0.15431558
126	0x3f2a41a6	0.6650642
127	0x3e0db73c	0.1383943
128	0xbcc76a74	-0.024342753
129	0xbd5a0943	-0.05323149
130	0x3f378864	0.7169249
131	0xbd9e43ab	-0.077277504
132	0x3f0c4b42	0.54802334
133	0xbd84f55f	-0.06492113
134	0x3f2cf2ae	0.675578
135	0x3c23524b	0.009968351
136	0xbd7cfb20	-0.06176293
137	0xbd7d5bbd	-0.061855067
138	0x3cad4959	0.021153139
139	0xbda6c3a7	-0.081427865
140	0xbccac14b	-0.024750372
141	0xbd3d7f0a	-0.046263732
142	0x3f5c7110	0.8611002
143	0xbe0d5897	-0.13803326
144	0xbe0db19a	-0.13837281
145	0x3e27c529	0.16383804
146	0x3e47105d	0.19439836
147	0xbc8e469c	-0.017367654
148	0x3f1993b2	0.5999099
149	0x3dd508b6	0.10402052
150	0xbd934d1c	-0.07192442
151	0x3d3eede0	0.046613574
152	0x3ea99947	0.33124754
153	0xba57bf15	-0.00082300726
154	0xbde5d77b	-0.1122274
155	0x3f2cb353	0.6746113
156	0xbcd8f666	-0.02648468
157	0x3d9f1aae	0.077687606
158	0x3f3e1a92	0.74259293
159	0xbd0f2ba5	-0.034953732
160	0xbd315179	-0.04329059
161	0xbce903f4	-0.028444268
162	0x3c99c93a	0.01877271
163	0xbddd23bc	-0.107978314
164	0x3f5e33e4	0.8679793
165	0x3f2dbadd	0.67863256
166	0x3c826783	0.015918499
167	0xbd83af56	-0.06429927
168	0x3c004b90	0.0078305155
169	0xbd5d23cd	-0.05398922
170	0xbb00160c	-0.001954439
171	0x3cadfa16	0.021237414
172	0x3d4744ea	0.048649706
173	0x3f332420	0.69977
174	0x3f056b1e	0.5211657
175	0x3e613992	0.21994618
176	0xbdac876d	-0.08424268
177	0x3c0eba66	0.008711433
178	0xbd212b25	-0.039347786
179	0xbcd96ca3	-0.02654106
180	0xbd1aa419	-0.037754152
181	0x3c2a3ac9	0.010389992
182	0xbda08ab9	-0.07838959
183	0x3c64a9a1	0.013956458
184	0xbc71511c	-0.014728811
185	0x3f3c6c7b	0.7360303
186	0x3f2f0b4e	0.68376625
187	0x3ef61864	0.48065484
188	0x3d5a36af	0.053274807
189	0x3d1d71d1	0.038438622
190	0x3d1d644c	0.03842573
191	0x3f0df3ac	0.5544994
192	0x3c79d4c3	0.01524848
193	0x3ba8f1a1	0.0051557575
194	0x3cc3ad41	0.023886325
195	0x3e810068	0.25195622
196	0x3bee72bf	0.0072768624
197	0x3d194dc3	0.037427675
198	0x3e108a16	0.14115176
199	0x3f11ed02	0.5700227
200	0xbdd157b1	-0.10221804
201	0xbeadd8ef	-0.3395457
202	0xbda61402	-0.08109285
203	0xbd33e4c5	-0.043919344
204	0xbdace25d	-0.08441613
205	0x3d3b001c	0.0456544
206	0xbe817f29	-0.25292328
207	0xbebd41e5	-0.36964336
208	0xbd9502cf	-0.07275926
209	0x3d3060d3	0.04306109
210	0x3c70114d	0.014652562
211	0x3cf51a4e	0.02991977
212	0xbcd1f27d	-0.025628323
213	0xbdd66e00	-0.104701996
214	0x3e5770b4	0.21039087
215	0xbd8070ef	-0.062715404
216	0x3f37c4ba	0.71784556
217	0x3dc3f935	0.09569017
218	0x3e82330a	0.25429565
219	0xbdcc1717	-0.099653415
220	0x3bb4d0c9	0.005518053
221	0x3f0b5ece	0.54441535
222	0xbd06b1d1	-0.032884423
223	0xbdfd5d61	-0.12371326
224	0xbde35170	-0.11099517
225	0x3c9e7f35	0.019347766
226	0xbd9c5de3	-0.07635095
227	0xbcc7e3bd	-0.024400586
228	0xbd9e65d7	-0.07734268
229	0xbd4d7eb6	-0.05016967
230	0xbd0c17f3	-0.034202527
231	0xbd137e68	-0.036009222
232	0x3d044254	0.032289818
233	0x3f2e5201	0.6809388
234	0xbcb747ee	-0.022373166
235	0x3ecbd4b8	0.3981073
236	0x3e68ae27	0.22722684
237	0xbc86a036	-0.016433816
238	0xbd630396	-0.05542334
239	0x3d281fa9	0.04104582
240	0x3f011652	0.50424683
241	0xbd8f380c	-0.06993112
242	0xbe4a3501	-0.19746782
243	0xbd33ff74	-0.04394479
244	0x3f2ccc78	0.67499495
245	0x3f205084	0.6262286
246	0x3c8fadec	0.017538987
247	0xbd853132	-0.06503524
248	0xbcd804c0	-0.026369452
249	0xbda9d18c	-0.08291921
250	0x3d0e4e84	0.034742847
251	0xbc06ccc1	-0.008227528
252	0x3f32d07b	0.69849366
253	0xbd6712b3	-0.056414317
254	0xbc4acfec	-0.012378674
255	0xbd06994e	-0.032861046

fc3.weight f4 [4, 256]
0	0x3ec791cb	0.3897842
1	0x3cb49e72	0.022048209
2	0x3ed32fa4	0.41247284
3	0x40159f62	2.337853
4	0xbca53b54	-0.020169891
5	0x3c845e75	0.016158322
6	0x3e3fb2fc	0.18720621
7	0x3c5cc593	0.01347484
8	0x3d550c18	0.052013487
9	0x3eebf633	0.46086273
10	0x3d0199be	0.03164076
11	0xbf06e676	-0.52695405
12	0x3d206827	0.039161827
13	0x3e9bae93	0.30406627
14	0x3e4abf2c	0.19799489
15	0xbdfe916f	-0.12430083
16	0x3ce32bc4	0.02773083
17	0x3d2da0ac	0.042389557
18	0x3d088783	0.03333236
19	0x3f07e5f5	0.5308526
20	0x3d16d581	0.036824707
21	0xbf9d3fcc	-1.2285094
22	0x3ed92afa	0.424156
23	0xbd2c3573	-0.04204316
24	0x3dbe8d9a	0.09304352
25	0x3a08ad80	0.0005213842
26	0x3e674bca	0.22587505
27	0x3e783110	0.24237466
28	0xbd03aa44	-0.0321448
29	0xbfbcd640	-1.4752884
30	0x3d29b3a6	0.04143109
31	0x3d1d8bfc	0.038463578
32	0xbb1b7ad9	-0.0023724346
33	0xbc311814	-0.010808963
34	0x3d696a14	0.05698593
35	0xbeb14d65	-0.3462936
36	0xbe388763	-0.18020396
37	0xbfab4152	-1.3379309
38	0x3d10016f	0.035157617
39	0x3ef4a4c7	0.47781965
40	0x3e6da34f	0.23206829
41	0xbccaea29	-0.02476986
42	0x3eaaf27c	0.33388126
43	0x3f92f9ba	1.148246
44	0x3ea033ab	0.3128942
45	0x3ec48a32	0.38386685
46	0x3c8184d4	0.015810408
47	0x3c203938	0.009779267
48	0xbd9be577	-0.07612126
49	0xbdb6e7ad	-0.089309074
50	0x3e35271b	0.17690699
51	0x3d0d58b9	0.03450844
52	0xbf2e732f	-0.68144506
53	0xbe0feabf	-0.14054392
54	0xbbbb37bc	-0.005713431
55	0x3c3b3050	0.011425093
56	0xbf475d36	-0.77876604
57	0xbf37df75	-0.71825343
58	0xbc052cb1	-0.008128331
59	0xbb0ef3c9	-0.0021812788
60	0x3f6de6f6	0.92930543
61	0x3e24de06	0.1610032
62	0x3d4097d6	0.047019802
63	0x3c68c3b0	0.014206812
64	0x3e63b00b	0.22235124
65	0x3ed4a61c	0.4153298
66	0xbf93d78a	-1.1550152
67	0x3eb79d56	0.35862225
68	0x3ea94fdc	0.3306874
69	0xbdb98e9a	-0.09060402
70	0x3d304d1e	0.043042295
71	0x3d18e09f	0.03732359
72	0x3e854ac0	0.26033592
73	0xbf284fa8	-0.65746546
74	0x3cff49d3	0.031163132
75	0x3e67d81e	0.22641036
76	0x3bcd1ad1	0.0062593003
77	0x3c8ada3c	0.016949765
78	0xbf1a475f	-0.60265154
79	0x3d650af6	0.055918656
80	0xbe091173	-0.13385563
81	0xbdb25b10	-0.08708775
82	0x3e8d9ad5	0.2765719
83	0x3f457af2	0.77140725
84	0x3ebc7ca2	0.36813837
85	0x3e85ed29	0.261575
86	0x3d45524b	0.048174184
87	0x3ede735a	0.4344738
88	0xbef4124b	-0.47670206
89	0x3cac8871	0.021061154
90	0x3e9e5f02	0.3093186
91	0x3c442382	0.011971356
92	0x3ecddac7	0.40205976
93	0xbcc91ebe	-0.024550792
94	0x3a81d134	0.0009904266
95	0xbea50762	-0.32232195
96	0xbddbb22d	-0.10727344
97	0x3ec49570	0.38395262
98	0x3ca11ae9	0.019666152
99	0xc02c8867	-2.6958253
100	0xbe140cd4	-0.14458019
101	0x3ea01f8e	0.31274074
102	0x3c26fab4	0.010191608
103	0x3ce60412	0.028078113
104	0x3e80bfdd	0.2514638
105	0xbd3930de	-0.04521262
106	0xbc87ef8c	-0.016593717
107	0x3ec1351b	0.3773583
108	0xbcf50c58	-0.029913113
109	0x3c68e5b3	0.014214921
110	0x3c894865	0.016758153
111	0x3d0e4d90	0.034741938
112	0xbd50d272	-0.050981946
113	0xbdb5fddf	-0.08886313
114	0x3d436ac5	0.047709245
115	0xbe094375	-0.13404639
116	0xbf87cce1	-1.0609399
117	0xbcc07b37	-0.023496253
118	0xbeee41ff	-0.46534726
119	0x3f4c9fec	0.7993152
120	0xbcb8ee04	-0.022574432
121	0xbcefd9ba	-0.029278625
122	0x3b96e17f	0.004604518
123	0x3baefa0a	0.0053398656
124	0xbe6fee6f	-0.23430799
125	0x4043f17c	3.061614
126	0x3e7b65ba	0.24550524
127	0xbfddf0b1	-1.7339078
128	0xbf0d9aa5	-0.55314094
129	0x3b801e37	0.003909852
130	0x3ebac01e	0.364747
131	0xbe84e097	-0.25952598
132	0x3f4dfab1	0.8046065
133	0x3c9bd9f9	0.019024836
134	0x3edb061a	0.42778093
135	0x3d2ae598	0.041722864
136	0x3c4f6c6b	0.012660126
137	0x3f8c9de7	1.0985688
138	0xbd527c9e	-0.051388375
139	0x3c84c995	0.016209403
140	0xbb98cdc8	-0.004663203
141	0x3c242651	0.010018901
142	0x3ee11419	0.43960646
143	0xbf948be4	-1.1605191
144	0xbdcb0fc9	-0.0991512
145	0x3f08875d	0.5333155
146	0xbf6e8f3c	-0.9318731
147	0x3c5367c8	0.012903161
148	0x3eac888f	0.33697936
149	0xbfd86575	-1.6905962
150	0xbd4e8d4c	-0.05042772
151	0x3d331772	0.04372353
152	0xbfaf41f3	-1.3692001
153	0x3d0d4162	0.034486182
154	0x3d8e327b	0.06943222
155	0x3e7a3495	0.24434121
156	0x3a946c99	0.0011323869
157	0xbfb161a1	-1.3857919
158	0x3e6bcb91	0.23026873
159	0xbcf9b809	-0.030483263
160	0x3d70171b	0.058615785
161	0x3c5c9996	0.013464352
162	0x3f8c30b0	1.0952358
163	0x3e8c93f5	0.27456632
164	0x3f011bdc	0.50433135
165	0x3ea31d0c	0.31858099
166	0x3d21cd5b	0.039502483
167	0xbcf086ce	-0.029361155
168	0x3cdaef4e	0.026725437
169	0x3ce3263e	0.027728196
170	0xbcd17e53	-0.025572931
171	0x3df05e5f	0.1173675
172	0xbf72ce6e	-0.94846237
173	0x3e7e1fce	0.2481682
174	0x3e29fe80	0.1660099
175	0x3f53065d	0.82431585
176	0xbcf00854	-0.029300846
177	0xbeea3361	-0.45742324
178	0x3c0795cc	0.00827546
179	0xbd67b6ee	-0.05657094
180	0xbe0dbcc9	-0.13841547
181	0x3d0f8834	0.035042003
182	0x3c9aea1a	0.018910456
183	0xbfee0226	-1.8594406
184	0x3da04603	0.07825854
185	0x3ec05b72	0.37569767
186	0x3ee5f490	0.4491315
187	0xbedc5bc9	-0.43038777
188	0xbf8be0ef	-1.0928019
189	0xbe0fded3	-0.14049844
190	0xbced0b5d	-0.028936082
191	0x3e3594f0	0.17732596
192	0xbfa9e9fe	-1.3274534
193	0x3c9f4108	0.019440189
194	0x3d558024	0.052124158
195	0xbe8d9726	-0.2765438
196	0xbbf8cdd6	-0.007592897
197	0x3d49e939	0.049294684
198	0xc0255e27	-2.5838716
199	0x3eed8496	0.46390218
200	0x3d2713ee	0.04079049
201	0xbfba78aa	-1.4568074
202	0xbcf5358d	-0.029932762
203	0x3d8d48ba	0.06898637
204	0xbde9900c	-0.11404428
205	0x3d31b478	0.043385
206	0xbf1e7c6b	-0.61908597
207	0xbf280a47	-0.6564068
208	0xbb8420ab	-0.0040322146
209	0x3d3e0cc6	0.0463989
210	0xbc0ae7d8	-0.008478127
211	0xbd175fa9	-0.036956463
212	0x3cb411fc	0.021981232
213	0x3eaa066d	0.33208027
214	0xbd8b34ac	-0.06797156
215	0xbfd2d690	-1.6471729
216	0x3ebb44e5	0.36576
217	0xbdfd8836	-0.12379496
218	0x3ec33037	0.38122723
219	0x3c622fc2	0.013805332
220	0x3c0a8405	0.0084543275
221	0x3ea7c9db	0.3277119
222	0x3d2873e7	0.041126158
223	0x3f99b65f	1.200878
224	0xbe8562f0	-0.26052046
225	0xbf897d0b	-1.0741285
226	0x3c62bd43	0.013839069
227	0xbf862f01	-1.0483094
228	0xbfcd9a07	-1.606263
229	0xbc726824	-0.014795337
230	0xbf9d1bb8	-1.2274084
231	0xbcdf8b09	-0.027287977
232	0xbd52ab0e	-0.05143266
233	0x3ecf7091	0.4051557
234	0x3c904fcc	0.017616175
235	0x3ed2df42	0.41185957
236	0x3c233879	0.009962195
237	0xbcadeaed	-0.021230185
238	0x3f66587a	0.89978755
239	0x3c5bfb31	0.013426588
240	0x3eeafed9	0.45897558
241	0xbd25002d	-0.04028337
242	0x3fb8a108	1.4424143
243	0xbd83bd85	-0.06432632
244	0x3e9bd8a3	0.30438718
245	0x3e50dacf	0.20395969
246	0xbd5403ad	-0.051761318
247	0xbcd98aa2	-0.026555363
248	0x3d541d58	0.051785797
249	0x3c3683cb	0.01113982
250	0xbd40c9ad	-0.047067333
251	0x3c839071	0.016060086
252	0x3eca07ef	0.39459178
253	0x3e5ba79b	0.21450655
254	0x3c93c0fc	0.018036358
255	0xbd50cb16	-0.050974928

fc3.bias f4 [4]
0	0x3f1283fc	0.5723264
1	0x3f126861	0.5719052
2	0x3f299290	0.6623926
3	0x3f2172ca	0.6306578

exp_avg f4 [256, 11]
0	0xbf09bb56	-0.53801477
1	0xbd8569e5	-0.065143384
2	0xbd0770e4	-0.033066645
3	0xbfcd8467	-1.6056031
4	0x00000004	6e-45
5	0x1fb6295c	7.714842e-20
6	0xc095b4ff	-4.6783442
7	0x00000004	6e-45
8	0xc0c91618	-6.283947
9	0xbf96551f	-1.1744727
10	0xc09a605e	-4.8242636
11	0xbed7ff93	-0.42187175
12	0xbf630884	-0.8868487
13	0xc09b7ed9	-4.8592343
14	0xc102016c	-8.125347
15	0x3fa2d97b	1.272262
16	0x40720126	3.78132
17	0xbfaa0964	-1.3284116
18	0xc0e06d13	-7.0133147
19	0xc05e41d5	-3.472768
20	0xc08971d6	-4.295146
21	0x3deb8767	0.11500435
22	0x3ee086c3	0.43852815
23	0x3f72b3e1	0.94805723
24	0x40a00bf2	5.001458
25	0x406ff2c8	3.7491932
26	0x3e22e912	0.15909222
27	0x3f14c6b2	0.58115685
28	0xc0c72f9a	-6.2245607
29	0xc03ab5ab	-2.9173381
30	0x3ef73c3e	0.4828815
31	0xc0afd0f8	-5.494259
32	0x402a3fd9	2.660147
33	0x3de1f640	0.110332966
34	0x3f176480	0.59137726
35	0xc15bb284	-13.731083
36	0xc1a90401	-21.126955
37	0x3ff3b409	1.9039317
38	0x40ea4e64	7.322069
39	0xc103c995	-8.236714
40	0xc19cc2f9	-19.595201
41	0xc13db8cf	-11.857619
42	0xc19114c5	-18.135141
43	0x40a6cbe8	5.212391
44	0x3ecd7ad1	0.40132764
45	0x3d914209	0.07092673
46	0xbc66fc56	-0.0140982475
47	0x3db9112e	0.0903648
48	0x00000004	6e-45
49	0x3e9bdbed	0.30441228
50	0x3d601538	0.054707736
51	0x3ec5c5c4	0.38627446
52	0x3c94943b	0.018137088
53	0x3de8972f	0.11356961
54	0x3e76802b	0.2407233
55	0xbe781e77	-0.24230371
56	0xbb02b903	-0.0019946701
57	0xbe2c477d	-0.16824146
58	0xbe157c8e	-0.14598295
59	0xbf1311c2	-0.5744897
60	0xbfa819bd	-1.3132855
61	0x3bfbb3b8	0.0076813363
62	0xbfe74991	-1.8069326
63	0x3ed16a94	0.40901625
64	0xc00f010b	-2.2344387
65	0xbf10da75	-0.5658334
66	0x3f95be7c	1.1698756
67	0xbcc14438	-0.0235921
68	0xbfde86a3	-1.7384838
69	0xc0d88ba8	-6.767048
70	0xbfa70d19	-1.3050872
71	0xc0b5afa0	-5.6776886
72	0xb898544b	-7.2636256e-05
73	0xc14eae3d	-12.917539
74	0x3e330d68	0.17485583
75	0xc11c0efd	-9.753659
76	0x3eec5efb	0.46166214
77	0xbec83e14	-0.39109862
78	0xbe0a64ec	-0.13515061
79	0xc0b51653	-5.658975
80	0xc148d603	-12.552249
81	0x3ff670fc	1.925323
82	0xc04361e2	-3.0528493
83	0x402e545f	2.7238996
84	0xc1070891	-8.439591
85	0xbf85e37e	-1.046005
86	0xc0d01322	-6.5023355
87	0xc06f0e2b	-3.7352397
88	0xbe600fd6	-0.21881041
89	0x3f1ff822	0.62487996
90	0xbe205239	-0.15656365
91	0xbf36bc63	-0.71381205
92	0x3e14a7ed	0.14517184
93	0xbf9e2a8f	-1.2356738
94	0xbfb00762	-1.3752253
95	0xc0564574	-3.347989
96	0x80000004	-6e-45
97	0x3eba73e8	0.36416554
98	0xc0194e1c	-2.3953924
99	0x3f9307c3	1.1486744
100	0xbf08a017	-0.5336928
101	0xa588ddd3	-2.3742553e-16
102	0xc0e19a83	-7.0501113
103	0x3ebb333d	0.3656253
104	0x3f6a1a9e	0.91446865
105	0xbb8ead35	-0.004354144
106	0xc138e7bc	-11.556576
107	0xbdc2098b	-0.094744764
108	0xc1249cb2	-10.288256
109	0x41006f1c	8.027126
110	0xbf023eea	-0.5087725
111	0x00000004	6e-45
112	0xc09252fa	-4.572629
113	0xc13f55a4	-11.958408
114	0xb10771c8	-1.9709763e-09
115	0x4096dcf5	4.7144723
116	0xbeb0aff5	-0.34509245
117	0xc10f7b05	-8.967534
118	0xc0cd6a94	-6.41926
119	0xc0749690	-3.8216896
120	0x4000a9f1	2.0103724
121	0xbd93f918	-0.07225245
122	0xbdb133ac	-0.08652434
123	0xbe713bda	-0.23557988
124	0x3f91ebbd	1.1400067
125	0xbff3599d	-1.9011723
126	0x80000004	-6e-45
127	0xbda00a0c	-0.07814416
128	0x3ec09984	0.37617123
129	0xbfb50f58	-1.4145308
130	0x3f8b8d0a	1.0902417
131	0xbb520ad2	-0.0032049906
132	0x3d3ac3f4	0.04559703
133	0xbfbfa3b2	-1.4971831
134	0xc00fa09c	-2.2441778
135	0xbfbca3d2	-1.4737494
136	0x3d5aa5a0	0.05338061
137	0xbe95e2b8	-0.29274535
138	0xc056cf42	-3.3564
139	0xc0ad94ad	-5.424399
140	0x3f4ee769	0.80821854
141	0x3e0ca927	0.13736401
142	0xc090d727	-4.5262637
143	0xbf22ecdc	-0.6364267
144	0xbea561a2	-0.3230105
145	0xc1328800	-11.158203
146	0xc1587b1e	-13.530058
147	0x00000004	6e-45
148	0x403d81d5	2.9610493
149	0x3ea57cb5	0.32321706
150	0xc102eb87	-8.182502
151	0xc08dc628	-4.430439
152	0xc0d3a146	-6.6134367
153	0xbfee3eb5	-1.8612887
154	0x3f0debde	0.5543803
155	0xbfbb5f3c	-1.4638438
156	0xbf4bbb88	-0.79583025
157	0x406829f0	3.6275597
158	0xbf5fe19b	-0.8745362
159	0x3eb6bf36	0.35692757
160	0x3e2ad2c7	0.16681968
161	0x3fee6934	1.8625855
162	0x3f8e4aa1	1.1116525
163	0x3e30eaeb	0.17277114
164	0x3f823ee3	1.0175442
165	0x3e7dc7ca	0.24783245
166	0xbd9524a3	-0.072823785
167	0xa52a4d28	-1.4771291e-16
168	0x3f572d95	0.8405393
169	0x3ee37496	0.44424886
170	0xbf0821bb	-0.5317647
171	0x00000004	6e-45
172	0xc01450e6	-2.3174376
173	0x3eebd27f	0.46059033
174	0xc00966f8	-2.1469097
175	0x3fd067b5	1.6281649
176	0x3c77e822	0.015131028
177	0xbb5042ad	-0.0031778023
178	0x3e676d0a	0.22600189
179	0x3e6c73b0	0.23091006
180	0x3b85f474	0.004087979
181	0x3c047e6a	0.00808678
182	0x3cada42e	0.021196451
183	0x3e85ce91	0.2613416
184	0x00000004	6e-45
185	0x00000004	6e-45
186	0x3e8751ab	0.26429495
187	0xbe82c069	-0.25537422
188	0xbf9c4b96	-1.2210567
189	0xc1139f48	-9.226387
190	0xc188aca9	-17.084307
191	0x3ff5a703	1.9191593
192	0x40bac26f	5.8362346
193	0xbfbd5e5c	-1.4794421
194	0xc1534518	-13.204369
195	0xc0e6e70d	-7.2157044
196	0xc0ce0f6b	-6.439382
197	0xc00d35dd	-2.2064126
198	0xba03fd43	-0.00050349924
199	0x3e80c092	0.2514692
200	0xbefe93d7	-0.49722168
201	0xc002cde4	-2.0438166
202	0xbc028aa5	-0.007967626
203	0x3d824623	0.06361034
204	0x3d8dfbd4	0.06932798
205	0xbffce2f8	-1.9756765
206	0x3e116963	0.14200358
207	0xbf6d0bb6	-0.92595994
208	0xbf2b8da9	-0.6701303
209	0xbe639d38	-0.22227943
210	0x00000004	6e-45
211	0xc009982d	-2.149913
212	0xc0741218	-3.8136044
213	0x3df9690a	0.12178238
214	0x3fd25e2e	1.6434991
215	0x3d0a42f2	0.03375525
216	0xc059efb1	-3.4052546
217	0xbff2850f	-1.8946856
218	0xbfbba650	-1.466013
219	0x3f34caa4	0.70621705
220	0xbdc93594	-0.09824672
221	0x39ddc82c	0.00042301544
222	0xbff5d9d6	-1.9207103
223	0xc0179d5c	-2.3689795
224	0x3e7d2fb8	0.24725235
225	0x3f95f2c5	1.1714712
226	0x3e2c35da	0.16817418
227	0xc00ba706	-2.1820693
228	0xbf9a0243	-1.203194
229	0xbf962b89	-1.1732036
230	0x3f4a6b1d	0.7906969
231	0x3e236435	0.15956195
232	0x3f2e642a	0.6812159
233	0x3ed18535	0.4092194
234	0xb85a11bf	-5.1991778e-05
235	0x3f273245	0.6531108
236	0xbd98c356	-0.074591324
237	0xbe7247b1	-0.2366016
238	0x3ea2dab3	0.3180748
239	0xbe42ae7d	-0.19011874
240	0x3f86f827	1.054448
241	0xbef41bb4	-0.47677386
242	0xbea4ca12	-0.32185417
243	0x3f140d37	0.57832664
244	0xbeaa609d	-0.33276835
245	0xc1367b0c	-11.405041
246	0x40862ef7	4.193233
247	0x40cf7244	6.4826984
248	0x404b352a	3.1751199
249	0xc0ac9686	-5.3933744
250	0xc09fc254	-4.9924717
251	0xc0be2c79	-5.942929
252	0x40ee4182	7.4454966
253	0xbd855ab8	-0.06511444
254	0xbda1be2c	-0.078976005
255	0xc1085980	-8.521851

exp_avg_sq f4 [256, 11]
0	0x41676186	14.461309
1	0x414654e5	12.395726
2	0x414b150d	12.692639
3	0x418f0905	17.879404
4	0x2d2358e4	9.285215e-12
5	0x3ca36172	0.019943926
6	0x43af5182	350.63678
7	0x189b80bb	4.0196545e-24
8	0x43bcafc4	377.37317
9	0x41c5c9f9	24.72362
10	0x439d7d00	314.97656
11	0x42e191d6	112.784836
12	0x429fd079	79.90717
13	0x434072a9	192.44789
14	0x43bf8806	383.06268
15	0x43f0cca1	481.59866
16	0x442c16e8	688.3579
17	0x43941292	296.14508
18	0x445ab8d7	874.8881
19	0x44470ba5	796.18195
20	0x4473460b	973.0944
21	0x444480fc	786.0154
22	0x4380e336	257.7751
23	0x42d4b978	106.36224
24	0x43c4eb5a	393.83868
25	0x42ff2146	127.56499
26	0x43214353	161.26299
27	0x438063b9	256.77908
28	0x43b77be0	366.96777
29	0x4448ff20	803.9863
30	0x42d021e7	104.066216
31	0x440437fe	528.8749
32	0x43b438b6	360.44305
33	0x4003287f	2.0493467
34	0x420f930e	35.89361
35	0x447d795d	1013.8963
36	0x45178488	2424.2832
37	0x4564da01	3661.6252
38	0x458b8762	4464.923
39	0x43f01d8e	480.2309
40	0x45625a29	3621.635
41	0x45c1b8dd	6199.108
42	0x45cb1ad2	6499.3525
43	0x456e804d	3816.0188
44	0x43dc5be7	440.718
45	0x40edd75b	7.4325385
46	0x408e8306	4.453494
47	0x40d7b067	6.7402835
48	0x31a51280	4.8042352e-09
49	0x43d8a3b8	433.27905
50	0x40812de1	4.0368505
51	0x43dbf6dd	439.92862
52	0x405fcf11	3.4970133
53	0x409da603	4.926515
54	0x43d561e3	426.76474
55	0x4202e57a	32.7241
56	0x3deeaf88	0.11654574
57	0x434529c8	197.16321
58	0x3fca2f13	1.5795616
59	0x4465e7fb	919.6247
60	0x44047071	529.7569
61	0x3e063ffb	0.13110344
62	0x443decfa	759.70276
63	0x4420455e	641.08386
64	0x448637b4	1073.7407
65	0x434e47ac	206.27997
66	0x4258f840	54.24243
67	0x401464f9	2.318663
68	0x444bac53	814.69257
69	0x448a49e1	1106.3087
70	0x44f6d380	1974.6094
71	0x449ebc1c	1269.8784
72	0x389fc778	7.618865e-05
73	0x4508edfb	2190.8738
74	0x44fac67b	2006.2025
75	0x455bb85e	3515.523
76	0x440821fd	544.53107
77	0x4137b1e1	11.480927
78	0x411fd14a	9.988596
79	0x438116a6	258.17694
80	0x446def73	951.7414
81	0x44141f20	592.4863
82	0x4426f07d	667.7576
83	0x4390bac1	289.459
84	0x44ae4af9	1394.3429
85	0x4465550a	917.32874
86	0x44e8f17a	1863.5461
87	0x43fa37c9	500.43582
88	0x41374062	11.453218
89	0x40cb40a0	6.351639
90	0x42a7b52c	83.85385
91	0x422b80a6	42.875633
92	0x433566d4	181.40167
93	0x43c4034a	392.0257
94	0x4386aec2	269.3653
95	0x446551ff	917.2812
96	0x3373a2ec	5.6726023e-08
97	0x43d54516	426.53973
98	0x43abced3	343.6158
99	0x42e02d8b	112.08895
100	0x41dc2066	27.51582
101	0x3f599395	0.8499082
102	0x445bcf6c	879.24097
103	0x44e6263d	1841.195
104	0x452ce035	2766.013
105	0x3db37518	0.08762568
106	0x44e1895c	1804.2925
107	0x454ac317	3244.193
108	0x455681a7	3432.1033
109	0x44aa1c32	1360.8811
110	0x43550710	213.02759
111	0x2aba01f2	3.3041587e-13
112	0x4339f1bb	185.94426
113	0x44883d9b	1089.9252
114	0x3c095a8f	0.008383407
115	0x44b3a577	1437.1708
116	0x441debc0	631.6836
117	0x44e3b842	1821.758
118	0x448f7690	1147.7051
119	0x44af9429	1404.63
120	0x44b7e01e	1471.0037
121	0x400d6780	2.2094421
122	0x41d41020	26.507874
123	0x424e05eb	51.50578
124	0x4215993f	37.399654
125	0x425daf9e	55.4215
126	0x2056fd15	1.8210243e-19
127	0x41c40db2	24.506687
128	0x41f2168d	30.261011
129	0x42ac01f4	86.003815
130	0x4242ea5b	48.728863
131	0x41b4f67d	22.620356
132	0x430b49b6	139.28793
133	0x438ae09f	277.75485
134	0x438744ba	270.53693
135	0x41b2e1f1	22.360323
136	0x3f84d8eb	1.0378698
137	0x446be881	943.6329
138	0x43a8d9fe	337.70306
139	0x448be231	1119.0685
140	0x4104be98	8.296532
141	0x440764ad	541.57306
142	0x440dbf63	566.9904
143	0x44233a2c	652.90894
144	0x419b90b4	19.445656
145	0x4402eb7c	523.67944
146	0x4436fc18	731.93896
147	0x30929685	1.0665678e-09
148	0x448d630d	1131.0953
149	0x40f55e88	7.6677895
150	0x44ab93f3	1372.6234
151	0x43570229	215.00844
152	0x440f5aac	573.41675
153	0x449a1874	1232.7642
154	0x4393bcbd	295.47452
155	0x429a248e	77.071396
156	0x42ea976b	117.29574
157	0x4301b8f4	129.72247
158	0x40af9771	5.4872365
159	0x43943d65	296.47964
160	0x42ffe7a3	127.952415
161	0x43f78463	495.03427
162	0x42448014	49.125076
163	0x42cdee9f	102.96606
164	0x43d5638e	426.77777
165	0x43c92968	402.3235
166	0x3fa2a6e1	1.2707177
167	0x3e250718	0.16115987
168	0x4170c524	15.04813
169	0x441a721b	617.7829
170	0x445bcae3	879.1701
171	0x343c2acb	1.7524432e-07
172	0x443d0888	756.1333
173	0x44233d31	652.9561
174	0x4426cf3e	667.23816
175	0x442c3087	688.75824
176	0x3f3ab4f2	0.7293235
177	0x3eb12e4c	0.34605634
178	0x4093dd6c	4.620779
179	0x3feca9d0	1.8489323
180	0x3f3db3f2	0.741027
181	0x403af832	2.9213986
182	0x3e040d74	0.12895757
183	0x409f70c8	4.9825172
184	0x335a106b	5.0772012e-08
185	0x3591d261	1.086457e-06
186	0x40b61019	5.689465
187	0x43c40924	392.0714
188	0x437aec41	250.92287
189	0x444227a0	776.61914
190	0x44e615d2	1840.6819
191	0x4509c1b8	2204.1074
192	0x453da7f1	3034.4963
193	0x449f88ab	1276.2709
194	0x457d46b4	4052.419
195	0x4560d92b	3597.573
196	0x4591e8bd	4669.0923
197	0x4550a80e	3338.5034
198	0x3fa4215c	1.282268
199	0x40e0d309	7.025761
200	0x420160f1	32.34467
201	0x420f973f	35.8977
202	0x4205b1eb	33.423748
203	0x4031c694	2.7777452
204	0x401b8a8e	2.4303317
205	0x4242af4e	48.671196
206	0x416dbc94	14.85854
207	0x41f58ee1	30.694765
208	0x42104d48	36.07547
209	0x432386c1	163.52638
210	0x2f8499ec	2.4120028e-10
211	0x423b8d6c	46.888107
212	0x42826d1c	65.213104
213	0x438dce7e	283.61322
214	0x43b6a6cf	365.3032
215	0x42844c2a	66.14876
216	0x43cf9b84	415.21497
217	0x43a12661	322.29984
218	0x43c5182a	394.18878
219	0x43b2146a	356.1595
220	0x42850427	66.50811
221	0x3f30f872	0.691291
222	0x422a7afa	42.620094
223	0x427749b8	61.82199
224	0x42b13409	88.60163
225	0x43126245	146.38387
226	0x41c055b3	24.041845
227	0x432fc518	175.7699
228	0x42f2c35f	121.381584
229	0x43252e69	165.18129
230	0x43140275	148.0096
231	0x409386ef	4.6102214
232	0x4142438b	12.14149
233	0x438077cd	256.93594
234	0x3e6c36fc	0.2306785
235	0x43049ef6	132.62094
236	0x43072fe9	135.18715
237	0x41000ba7	8.002845
238	0x43629080	226.56445
239	0x422bae84	42.920425
240	0x42e88c44	116.27396
241	0x430819d1	136.10085
242	0x4266a929	57.665195
243	0x4282a8a7	65.3294
244	0x4319980d	153.59395
245	0x44a58714	1324.2212
246	0x44e21e80	1808.9531
247	0x450e4854	2276.5205
248	0x439d6ea8	314.8645
249	0x44f5e328	1967.0986
250	0x4540a28d	3082.1594
251	0x4557e893	3454.536
252	0x44dc77b2	1763.7405
253	0x3fc8a501	1.5675355
254	0x40e3185c	7.0967236
255	0x43d0f0f7	417.88254
