groupe01/best_model.pth (torch, 148473 bytes, 6 tensors)

linear1.weight f4 [256, 11]
000000 c5 2c 48 3e 80 f5 23 3e 2e 51 5a bc 6d ad 67 bc
       0.19548328 0.1601162 -0.013325019 -0.014140469
000010 20 dc de bd af f2 ec 3d 87 6c 06 3e aa 49 f3 bd
       -0.10881829 0.11569726 0.13127337 -0.11879285
000020 ec a5 92 3d 87 6c f3 bc 73 4c de 3d cf 27 a0 3d
       0.07160553 -0.029714836 0.10854425 0.07820093
000030 11 6b 4e 3c 6a d2 1d 3e 7b f1 c3 bc bd 65 36 bd
       0.012598769 0.15412298 -0.023918858 -0.04453062
000040 66 32 b2 3b 24 43 64 bc cf 3b 0e 3d e1 11 03 3e
       0.005438137 -0.013932023 0.034725007 0.12799789
000050 a9 97 b6 3d e7 d0 9a 3d d4 ad ac 3d b3 11 f7 3b
       0.08915646 0.07559376 0.084315926 0.0075399517
000060 ed 64 ab bd a9 66 a4 3c b7 66 b9 bd 77 e2 c8 bc
       -0.083688594 0.020068483 -0.090527944 -0.02452205
000070 2c a1 0d 3e d6 20 73 3d af d9 87 3b d0 80 bb bd
       0.13831013 0.059357487 0.004145823 -0.091554284
000080 01 6d 70 3d e4 d0 6b 3d 04 71 be 3d b1 e7 fa 3d
       0.058697704 0.05757226 0.092989 0.12251223
000090 4c f8 02 3c 91 01 7d bc f1 c8 06 be 44 46 9c 3b
       0.007993769 -0.015442268 -0.1316259 0.0047691185
0000a0 0d 31 8f 3d 7a 65 ed bd 64 06 9c 3d ab bb f9 3c
       0.069917776 -0.11591621 0.076184064 0.030484995
0000b0 7f 16 12 be bf 74 16 3e 18 29 b5 3d 46 3d 11 3e
       -0.14266394 0.14692973 0.08845729 0.1418353
0000c0 f8 bc cb 3c dd 6e 52 bd fb 47 85 3d da 87 80 bd
       0.02487038 -0.05137526 0.0650787 -0.06275912
0000d0 93 6e 34 3e c8 f0 ab ba 3c 0e 7a bd ea 44 b0 3b
       0.17620306 -0.0013118023 -0.06104873 0.005379309
0000e0 f1 52 1e 3e ec c9 e4 3d 5b 94 01 3e 54 e3 50 bd
       0.15461327 0.11171326 0.1265425 -0.050998047
0000f0 d2 84 e5 3c 60 3b 63 bb 3f 5d bb bd 1a f2 76 bd
       0.028017435 -0.0034672841 -0.09148645 -0.06028948
000100 1f fe c4 bd 5a 74 c9 3d 71 49 2d 3e 0a 6b 58 bd
       -0.09618782 0.098366454 0.16922547 -0.052836455
000110 89 9c ee bd 39 c2 09 3e a7 6d 5e 3d c5 af 0b 3e
       -0.116509505 0.13452996 0.05430379 0.1364127
000120 bc e7 05 be e0 a4 0d 3e 84 4e a5 bd 8d bf bf bd
       -0.13076681 0.13832426 -0.08071616 -0.09362707
000130 96 4b 28 bc 25 97 ce 3d c1 48 21 be 41 ec 9e bd
       -0.010271927 0.10087422 -0.1575041 -0.077599056
000140 71 cd a2 3d e2 2e e1 3d 50 27 69 3c 17 51 98 bd
       0.07949341 0.1099527 0.014230564 -0.07437342
000150 90 51 99 3d 0c 03 de 3d cb a0 ad 3d 1b cc a4 3d
       0.0748626 0.10840425 0.084779344 0.080467425
000160 fc 1a 0b 3e 20 6b 17 3e b4 83 d5 bd 7f fa 00 3e
       0.13584512 0.14786959 -0.10425511 0.12595557
000170 30 49 c9 3d a1 2f 02 be aa 26 66 bd 3e 46 48 3b
       0.098284125 -0.12713481 -0.056189217 0.0030559446
000180 fb 73 a1 3c 06 6c bf 3d e1 11 20 bd 7e db c8 bc
       0.019708624 0.09346776 -0.03907955 -0.024518725
000190 6f 39 ad bd 0b eb 04 be b9 0e c3 bd 71 ca 90 3d
       -0.0845822 -0.12980287 -0.095242925 0.07069863
0001a0 ae 28 08 3b 3c 97 4e bd dd d1 e2 3c 34 22 93 bd
       0.00207762 -0.050437197 0.027687961 -0.07184258
0001b0 f0 2c 01 3d b6 df 07 be a0 ed 17 be 43 a9 64 3d
       0.031536996 -0.13268933 -0.1483674 0.055825483
0001c0 5e de be bd 8a e2 00 bc 0c 5f 03 bd 08 74 60 3d
       -0.09319757 -0.007866511 -0.032073066 0.054798156
0001d0 a0 28 f7 3d 13 8d c4 bd 90 da d8 bb 03 04 4a 3d
       0.120682955 -0.0959722 -0.0066178516 0.049320232
0001e0 2f 37 c4 bb be 9d e1 bd 3e a9 f2 3d b4 57 11 bc
       -0.0059880237 -0.11016415 0.11848687 -0.008871008
0001f0 23 e7 9b 3c 97 1b 07 3a 50 60 27 3e f0 0f ba 3d
       0.019031113 0.00051539525 0.16345334 0.09085071
000200 86 0e 3d 3d 9e 93 f5 3d 3a d8 5a bd 67 cb ed bd
       0.04615643 0.11991046 -0.053428866 -0.116110615
000210 39 32 5d 3e 8e fa f1 bc d8 d4 52 3d 9d 81 a8 3c
       0.2160119 -0.02953842 0.051472515 0.020569617
000220 68 68 15 3c 54 08 a0 bd 5c ce 43 bd c5 6b b1 3d
       0.009119131 -0.078140885 -0.04780422 0.086631335
000230 92 fa 17 3e c3 12 78 3d 4d 9d 13 3e ce d2 b6 bd
       0.14841679 0.060564768 0.14415474 -0.089269266
000240 60 f8 d4 bd c5 63 e5 3d 1a a5 07 3e 3a 91 16 bb
       -0.10398936 0.1120067 0.13246575 -0.0022974745
000250 3f 6c 42 3b a6 d5 1f bd 3d b4 52 3d 8e 53 3f 3e
       0.002966657 -0.03902211 0.05144142 0.18684217
000260 b9 4e 8a bd a0 91 b4 bd c6 87 f7 bd 89 ef 08 3e
       -0.067532964 -0.08816838 -0.120864436 0.13372625
000270 50 4a 53 bd 8c 85 d3 bd 32 1d e3 bc dc 9c 21 3e
       -0.05158454 -0.103282064 -0.027723882 0.15782493
000280 e5 31 d1 3c 54 8e ad bd 77 e7 a2 bb b1 15 04 3e
       0.025536487 -0.084744126 -0.0049714404 0.128989
000290 bc ba f9 3d 29 74 bf bd dd fe 26 be 2b b3 8c bd
       0.1219382 -0.09348328 -0.1630816 -0.06870111
0002a0 33 2a 63 bd a1 25 ab bd 35 2c 1f be 3e e8 f6 bd
       -0.055460166 -0.083567865 -0.15544207 -0.120560154
0002b0 6c ab 1e 3d 01 1c fc bd a0 a0 c1 bd 32 30 c4 3d
       0.0387377 -0.12310029 -0.09454465 0.09579505
0002c0 80 8a 5d 3d 57 a5 28 3e 95 7f 2a bc ad 63 8d bd
       0.054087162 0.16469322 -0.0104063945 -0.06903777
0002d0 ae 25 2b ba cc ab 11 3d c3 8b 93 bd be bf e3 bd
       -0.0006528747 0.03556423 -0.07204392 -0.11120556
0002e0 25 13 d2 3d 21 a5 b4 bd 32 d6 2f 3e 17 a1 08 3c
       0.10257558 -0.08820558 0.17171553 0.008339188
0002f0 cb cf a9 bd 94 d9 40 3c 7d 48 4d bd d3 b0 d2 3c
       -0.082915865 0.011770625 -0.05011796 0.025719082
000300 fe 9a dd 3d 66 20 12 be f2 ad f4 bd 33 81 84 bd
       0.10820578 -0.14270172 -0.1194724 -0.06469955
000310 b2 4b 15 3d fe f4 4c bc 2a 8f 13 be a4 94 07 3c
       0.03644914 -0.012509583 -0.14410082 0.008275185
000320 aa 83 52 bd 25 39 a2 bd 4a 1f e3 bd 9a ed eb bd
       -0.051395096 -0.07921056 -0.11089952 -0.11519928
000330 72 27 e4 3c 3f da cb bd 4a 23 a7 3d 97 5d 97 ba
       0.02785084 -0.099537365 0.08161028 -0.0011548278
000340 ec 2c 49 3b fa 79 ef bd b1 1d 9d 3d 04 97 f7 bd
       0.0030696942 -0.11693187 0.07671679 -0.12089351
000350 de ec e8 bd 96 30 3f bc 0c 54 4e bd b6 21 26 bd
       -0.11373304 -0.011669299 -0.050373122 -0.040559493
000360 0e 7a 37 bc d6 ab f6 bb f3 f1 a4 3b 31 87 10 be
       -0.011198534 -0.0075278087 0.0050337254 -0.14114071
000370 3d 19 14 be 18 e3 e0 bd 4b 02 22 be 3d 8e a9 3d
       -0.14462753 -0.10980815 -0.15821187 0.08279083
000380 9c 79 2d 3d a5 40 a4 3d a4 ba 02 be 26 65 16 bd
       0.042352304 0.080201425 -0.1276651 -0.036717556
000390 55 1b f4 3d 79 cb 39 be 6b 87 83 3d 7a be 09 be
       0.11919276 -0.18144025 0.06422313 -0.13451567
0003a0 57 09 00 be 92 c0 9d bd a7 c5 9c 3d 21 c3 1a 3e
       -0.12503563 -0.077027455 0.07654887 0.15113498
0003b0 8f 60 7a bd 1c f1 99 bd 1e 12 df 3d df b3 c3 3c
       -0.06112724 -0.07516691 0.108921275 0.02388948
0003c0 00 34 dd bd 76 5c b7 bd 33 22 01 be 04 c6 ad bd
       -0.10800934 -0.089531824 -0.12610702 -0.08485034
0003d0 83 d5 a7 bd 52 2f a9 3c 34 4c c0 3d d6 e0 55 3d
       -0.08195021 0.020652447 0.093895346 0.052216373
0003e0 e5 7f f2 bc e1 3a 8a 3d 8b ba d9 3d d4 26 fc bd
       -0.029602 0.067495115 0.106312834 -0.123120934
0003f0 41 21 d5 3c 8e 92 74 3d ed 8a dc 3b 5a 1f d6 3c
       0.026016833 0.059710078 0.0067304284 0.026137996

linear1.bias f4 [256]
000000 cc 2f 85 3e 7f 6b 4d bd da 1d 8f 3e f9 a3 98 3e
       0.2601303 -0.050151344 0.27952462 0.298126
000010 70 d1 87 3d 1b 07 40 3e db 24 c4 3d 74 14 3d bd
       0.06631744 0.1875271 0.09577342 -0.046162084
000020 4f ae 47 3e 62 d1 94 bd 9e 41 a5 3e 04 74 1f be
       0.19500087 -0.07266499 0.32276624 -0.155716
000030 5f 56 0d 3e 3e 9b 05 3e 9a 90 a1 3e 61 26 20 3e
       0.13802479 0.13047501 0.31555635 0.1563964
000040 b1 03 86 3d 09 97 96 3e fb 39 86 be 7a 45 4e 3e
       0.06543673 0.29412106 -0.2621611 0.2014369
000050 86 56 b3 bd 56 ba 54 be b2 9a 51 bd 4b 22 91 be
       -0.087567374 -0.20774207 -0.05117292 -0.28346476
000060 1c 61 61 be 66 cb 78 be af d1 8d be 25 d0 48 3e
       -0.220097 -0.2429634 -0.27699038 0.19610651
000070 88 c2 23 bd 4c a6 1c bd 84 70 e9 3d ca 4d 9d 3e
       -0.03998044 -0.03824453 0.11398414 0.3072341
000080 7a a8 24 be dc 73 8e be 14 ea 8b 3e c9 10 7c be
       -0.16079894 -0.2782277 0.27327025 -0.24615778
000090 c1 48 96 be ee 05 5b be 10 96 5f 3c 6c f9 85 3d
       -0.29352382 -0.21388981 0.0136466175 0.06541714
0000a0 23 6f 6e 3e cd d0 34 bd 30 86 82 3e ff 48 49 3e
       0.23284583 -0.04414444 0.25493002 0.19656752
0000b0 3d 99 92 be 9f 4d 1b be 37 a6 e7 bd 48 db e6 bb
       -0.28632537 -0.15166329 -0.11311 -0.0070451833
0000c0 ce c4 ef 3c 7c 24 97 3e 69 92 82 be d4 25 19 3e
       0.029268648 0.29520023 -0.25502327 0.14955837
0000d0 b7 38 9d bd 05 6b 1b 3e 91 49 9b be 13 6d 13 be
       -0.07676833 0.15177543 -0.30329564 -0.14397077
0000e0 79 ac 78 3c ce ed 41 be fd e5 86 3d 9d ed 8f be
       0.015177839 -0.18938372 0.065868355 -0.28110972
0000f0 ab f3 5d 3e 64 3b 16 be 87 d0 15 be 2e c6 b6 3c
       0.21674983 -0.14671093 -0.14630328 0.022311296
000100 0a 34 9d bd 7f 33 91 be 53 cb e0 bd 41 ef 89 3e
       -0.07675941 -0.283596 -0.10976281 0.2694035
000110 33 2b 1e 3c 58 a7 39 be 29 1b 38 be ba e9 97 3e
       0.009653854 -0.18130243 -0.17979111 0.29670507
000120 56 4a fe bd 7b 59 04 3e eb ff 97 be 8f 4b 03 be
       -0.12416522 0.12924759 -0.29687437 -0.12821792
000130 3d 41 39 be 23 77 c4 bd 21 4c 06 3e 01 e4 a4 bd
       -0.18091293 -0.09593036 0.13114978 -0.08051301
000140 c5 6f 24 be e3 13 6f 3e fa df 09 bc 65 5b fa bd
       -0.16058262 0.2334743 -0.008415217 -0.122244634
000150 54 19 63 3e 61 54 38 be 38 cd 84 3e 4f cf 87 3e
       0.2217763 -0.18000938 0.2593782 0.2652535
000160 85 57 7e bd c3 a3 1f 3e cf ae 9b 3e 8d 12 8a 3e
       -0.062095184 0.15589814 0.30406806 0.26967278
000170 dc b3 99 bd dd 5e 83 be b1 4d 83 be 77 12 7b be
       -0.075050086 -0.25658312 -0.2564521 -0.24518763
000180 be b8 73 be 67 7a 0f be 87 b7 ba 3e 47 14 42 3d
       -0.23800942 -0.14011537 0.36468145 0.04738262
000190 16 68 78 bb 36 b1 49 3d fb 53 52 be 39 1a 19 be
       -0.0037903837 0.049241267 -0.20539849 -0.1495141
0001a0 07 8e 63 be 43 ba 45 3e 69 d2 c6 bd 58 92 26 be
       -0.22222148 0.19309334 -0.09708101 -0.16266763
0001b0 ed 18 25 3e 46 f1 14 be b1 27 6b 3e c4 3f 6a be
       0.1612279 -0.14545164 0.2296436 -0.22875887
0001c0 57 06 aa 3d b8 84 8e be 4e 3a 95 3d e7 01 34 3e
       0.083019905 -0.2783563 0.07286511 0.1757885
0001d0 97 a8 83 be da e5 85 be 15 03 73 3e cf ee 90 be
       -0.2571456 -0.26151925 0.23731644 -0.28307196
0001e0 95 a7 0d be be 0f f0 bd 32 f5 57 3e 9f 96 50 be
       -0.13833459 -0.117217526 0.21089628 -0.20369957
0001f0 5f ad 21 be 19 35 49 39 86 25 37 3e 9a f2 62 be
       -0.15788792 0.00019188634 0.17885408 -0.22162858
000200 54 3d 1c be fc e5 74 3e d0 0a f5 3d bc e7 04 be
       -0.1525777 0.23915857 0.11964953 -0.12979025
000210 b3 08 65 3e 71 dd 3a 3e a4 65 0c bc 37 dc 24 3d
       0.223666 0.18248536 -0.008569155 0.040249076
000220 b7 96 a6 bd 2c 3c e5 bd ec 96 1c be a5 5d 05 3e
       -0.08134215 -0.111931175 -0.15291947 0.13024004
000230 51 4f 98 3d 38 f4 b1 3d 5f f0 6b 3e 5b 8f f0 bd
       0.074370034 0.08689159 0.23040913 -0.11746093
000240 cc 2a 67 bd ce 8c 7b be 0b 5e 10 bd 54 e8 54 be
       -0.0564373 -0.24565431 -0.035245936 -0.20791751
000250 ee 2d 25 be ca 95 46 3a 14 ea 5b be 39 99 83 3e
       -0.16130802 0.0007575421 -0.21476012 0.25702837
000260 17 42 c0 3d 97 49 b9 bd 82 00 5c be f3 1c 4d bd
       0.09387606 -0.09047239 -0.21484569 -0.050076436
000270 76 8c 72 3d d0 a8 23 be 66 ba e7 3c 0e 90 84 bd
       0.059215985 -0.15982366 0.028287124 -0.06472789
000280 93 5a 77 3e 2a 4b 23 bd 3d 03 93 be c5 80 3b be
       0.24155645 -0.039866604 -0.28713408 -0.1831084
000290 f7 72 13 bd bc 9c 93 be 61 0b cd bd 26 b9 2c 3e
       -0.03599831 -0.28830516 -0.10011936 0.16867504
0002a0 f0 64 83 3d a3 e7 2a 3e 31 f6 2b 3d 34 5a 2f 3e
       0.06415737 0.16689925 0.041982833 0.17124254
0002b0 50 40 2e be 59 1a 92 be 13 4f 8a 3e 86 ed 6d bc
       -0.17016721 -0.28535727 0.27013454 -0.014521962
0002c0 f0 f8 40 3e 67 98 61 3e 35 6f 7b 3e 7b 3c 43 be
       0.18844962 0.22030793 0.24554141 -0.1906604
0002d0 f8 a1 7c be e7 d6 90 be f6 03 8d 3e 17 c9 d1 bd
       -0.24671161 -0.28288957 0.27542084 -0.10243433
0002e0 eb 65 df bc a2 46 5d be 52 87 1d be b5 30 6b be
       -0.027270278 -0.21608976 -0.15383652 -0.22967799
0002f0 9d 31 69 be 56 6c c4 3d 06 55 29 be ef f4 95 bd
       -0.22772832 0.09590976 -0.1653634 -0.07322108
000300 0d e0 79 be ee f2 ef 3c 65 f8 7a bd bf d0 bf bd
       -0.24401875 0.029290643 -0.061272044 -0.09365987
000310 55 20 7a be 05 73 40 3e 4b 62 49 be 4f e4 5b 3e
       -0.24426396 0.18793876 -0.19666402 0.21473812
000320 4e cb dd 3d 8b 41 8a 3e 34 7c 80 3e a6 cf 8a 3c
       0.10829793 0.2700313 0.2509476 0.016944718
000330 99 39 36 bd 46 5b e5 bd 98 7f 35 3e 85 84 25 3e
       -0.044488523 -0.1119905 0.17724454 0.16163833
000340 a6 74 05 be 11 dd 81 bd 3f a0 66 3e 92 65 0c 3e
       -0.13032779 -0.06340993 0.22522067 0.13710621
000350 e4 ed ea 3d 88 75 a1 3d 41 d0 49 be 2b 83 5a 3e
       0.11471155 0.078837454 -0.19708349 0.21339099
000360 d0 9e 86 bd 88 39 70 3e af f1 5d 3e 0a f5 9c 3e
       -0.0657326 0.23459446 0.21674226 0.306557
000370 6d 5b 74 be 06 e3 f5 3d 4f ef 4e be 54 80 7f 3e
       -0.23863001 0.12006192 -0.20208476 0.24951297
000380 cc 07 9c 3e 80 21 fe 3d a0 9e 92 be 7f 77 2f be
       0.304747 0.12408733 -0.28636646 -0.17135428
000390 82 59 8e bd e5 54 6b 3e 87 2d 82 3e e7 33 71 be
       -0.06950666 0.22981603 0.2542536 -0.23554955
0003a0 f9 c6 13 be a2 9f 86 3e 25 9f 85 3e 65 62 60 3e
       -0.14431371 0.26293665 0.2609798 0.21912535
0003b0 70 99 6e 3e f9 17 67 be a7 6d 5f be 2e 16 51 3e
       0.2330072 -0.22567739 -0.21819173 0.20418617
0003c0 a2 b0 dd bd f0 e8 9a 3e 55 7c 2b be b3 37 0d be
       -0.10824706 0.30255842 -0.16746648 -0.13790779
0003d0 3c 65 34 3e 77 28 4e 3e 3a db ba 3d f6 36 84 be
       0.17616743 0.20132624 0.091238454 -0.25823182
0003e0 ed 32 c1 bc f0 48 1b bd dc a9 f7 3b 59 a9 39 be
       -0.023583854 -0.037911355 0.0075580906 -0.18131007
0003f0 75 08 97 be eb ab 1f 3e b9 e3 73 3d 2c 41 a0 3d
       -0.2949864 0.15592925 0.059543345 0.078249305

linear2.weight f4 [128, 256]
000000 27 e1 f6 3a cd 13 22 3d 3a 00 5c 3b 55 f4 e3 bd
       0.0018835411 0.039569665 0.003356947 -0.11130587
000010 80 31 da 3d af 02 3d 3d ae c8 99 bc 5e d5 98 bd
       0.106539726 0.046145137 -0.01877245 -0.074625716
000020 53 a2 ef bd fc 0e d8 3d 51 68 ac 3d b8 5e d2 3d
       -0.11700883 0.10549733 0.08418334 0.102719724
000030 b6 a8 00 be 72 d4 7b bd a3 c4 91 bd af 1e 99 3d
       -0.12564358 -0.0614819 -0.071175836 0.074765556
000040 ea e5 04 3d 45 ae 40 bd 00 6e 47 3a 52 f8 a1 3d
       0.032445826 -0.047041196 0.0007607639 0.079086915
000050 77 aa 91 bc 32 fd c9 bd 76 68 39 bd 72 a9 a3 bd
       -0.01778148 -0.09862746 -0.045265637 -0.079913035
000060 88 7e f3 3c 90 04 94 bd c6 c6 f9 bd 66 29 97 bc
       0.02972342 -0.07227433 -0.12196116 -0.018452358
000070 a8 1e b0 3c 28 be 51 3d b2 c7 22 3d 16 75 b9 bd
       0.021498993 0.051206738 0.039741226 -0.090555355
000080 a0 c0 e8 bd 50 79 fe bd 68 73 e4 bd 70 ed cb bc
       -0.11364865 -0.12425482 -0.111548245 -0.024893492
000090 08 0f cc 3c e2 ed eb bd f0 71 be bd 1c d3 48 bc
       0.024909511 -0.11519982 -0.092990756 -0.012257364
0000a0 fd 53 39 3d f8 58 2c bd 8b 43 12 bd 38 fd e5 bd
       0.045246113 -0.042077035 -0.035708945 -0.11229938
0000b0 88 ad a8 bc 18 ed 8f bc 24 b5 8a bd 17 b3 c1 bc
       -0.020590559 -0.01756911 -0.06772831 -0.023644967
0000c0 0f ce c5 bd 40 94 7a bb ac a6 63 bd 80 29 f2 bd
       -0.09658443 -0.0038235337 -0.055578873 -0.11824322
0000d0 2c 2c c5 3d 68 6a a2 3c 9a 9a c2 3d 5c 3b af 3d
       0.09627566 0.01982613 0.09502144 0.08556244
0000e0 46 58 e1 bd 50 b1 34 3d 06 5b 32 bd 7e cd 94 3d
       -0.11003165 0.04411441 -0.043543838 0.07265757
0000f0 59 9c 90 bc 20 82 b3 3b b6 e6 c8 bd 8e 43 82 3d
       -0.017652677 0.0054781586 -0.098096296 0.06360541
000100 54 16 c3 3d 90 d9 80 bc e6 57 b3 bd bf bc 55 bd
       0.09525743 -0.015728742 -0.08757 -0.052181955
000110 58 a1 4a bd e6 f6 61 3d 3a 22 13 3d 98 75 69 3d
       -0.049470276 0.0551671 0.035921313 0.05699691
000120 32 4b e1 bd c3 96 2d 3d b4 76 b6 bd 90 3a ac bd
       -0.110006705 0.042380106 -0.089093596 -0.084096074
000130 13 59 57 bd 24 a5 cc 3d c6 52 8f 3d 7e 06 57 bd
       -0.052575182 0.099924356 0.0699821 -0.052496426
000140 fc 60 d9 3d 90 8a 21 bd d0 af 81 bc f6 d8 91 3d
       0.106142014 -0.039438784 -0.015830904 0.0712146
000150 d1 ea 26 3c 6d 3f e4 3d 34 24 15 bd bc 6e 15 3d
       0.0101878205 0.1114491 -0.03641148 0.036482558
000160 a2 ed 3b 3d 41 24 6d 3d af 3b 1b bd ec 3d 8a 3d
       0.04588092 0.057895903 -0.037898716 0.06750092
000170 10 8c b5 3d a8 23 c6 bc 98 2a 81 3c 60 69 7e 3c
       0.088646054 -0.024186924 0.01576738 0.015528053
000180 0e a6 f7 bd 44 e6 4c 3d a0 32 44 bd 12 0f 84 bd
       -0.12092219 0.050024286 -0.047899842 -0.06448187
000190 88 91 bd bd d5 5a f4 3c d8 2c d8 bd 31 0b 95 bd
       -0.092562735 0.029828468 -0.10555428 -0.07277525
0001a0 c2 fd ff 3d b6 8e 08 3d fe 7f e9 bd 09 b3 ee 3d
       0.12499572 0.033339225 -0.11401366 0.11655242
0001b0 f2 03 d8 3d 08 c1 79 bd f2 f4 4f 3d 9c a1 b1 bd
       0.105476275 -0.060975105 0.050770707 -0.08673403
0001c0 48 8f 20 bd a0 49 5e 3d 10 93 98 3d fe 2a df 3d
       -0.039199144 0.054269433 0.07449925 0.10896872
0001d0 b4 4c ee 3d 10 34 e7 bd 5d 06 9a 3d da 17 a8 bd
       0.11635724 -0.11289227 0.07520745 -0.08207674
0001e0 00 ab 01 3c 00 3f 4b bb f3 1c ac bd 20 1e c1 bb
       0.007914305 -0.0031012893 -0.08403959 -0.0058934838
0001f0 53 81 c5 3d 10 55 3d bd 54 62 f1 bd 06 76 85 3d
       0.09643807 -0.0462237 -0.11786333 0.06516652
000200 a6 94 f0 bd f4 e3 d6 3d 34 b4 bb bd 9d 8d 2e bd
       -0.117471024 0.10492697 -0.091652304 -0.04261552
000210 6e 5f a2 3d c3 a1 a0 bd 0d d9 fd bd 08 17 61 bd
       0.07928358 -0.078433536 -0.12394915 -0.054953605
000220 67 69 9f bd ba 27 de 3d b4 1f d4 3d 78 d2 c9 3d
       -0.07783776 0.10847421 0.103576094 0.09854597
000230 2c f0 4a bd 58 3c 83 bd 1c d9 9d bd 56 33 84 bd
       -0.049545452 -0.06407994 -0.07707426 -0.06455104
000240 20 4a c3 bd 98 4f 66 bd 76 ed d6 3d c6 2f e9 3d
       -0.095356226 -0.05622825 0.10494511 0.11386065
000250 0e 58 95 bd c0 7a de bd 50 13 a0 bd dd 51 c9 bd
       -0.07292186 -0.108632565 -0.078161836 -0.09830067
000260 2f 8c ae bd 40 e5 71 3c a0 e4 df 3c be ce e9 bd
       -0.08522832 0.01476413 0.027330697 -0.11416386
000270 a2 46 1b 3d a0 d4 14 3c 23 47 c9 3c 41 8d a5 bc
       0.037909158 0.009083897 0.024570053 -0.020208957
000280 d4 4d b9 bd 79 4e 33 bd 70 55 d4 bd 00 30 95 3c
       -0.09048048 -0.04377601 -0.103678584 0.018211365
000290 7e cb 8d bc a8 c7 a3 bc 6e 73 dc bd 93 70 a2 bd
       -0.017308947 -0.019992664 -0.10764204 -0.07931628
0002a0 7f 25 7f bc 5c 13 4c 3d 70 49 92 3c 36 e1 62 3c
       -0.015572905 0.04982315 0.017857283 0.01384764
0002b0 8e 96 81 bd d0 0c 9f 3d f3 e7 4c 3d ae 31 b5 3d
       -0.06327544 0.07766116 0.05002589 0.08847366
0002c0 d2 83 16 3d d1 f3 75 bd 8c 89 cd bd 04 27 3f bd
       0.036746807 -0.060046975 -0.100360006 -0.046668068
0002d0 50 2a 83 bd 78 8b e6 3d b8 6c 5f 3d 15 c5 b1 bd
       -0.06404555 0.1125707 0.05454704 -0.086801685
0002e0 ff d4 6b 3d 98 b0 db 3c 30 57 eb bd 82 23 be 3d
       0.057576176 0.026817605 -0.11491239 0.09284116
0002f0 c8 38 b8 3d 80 55 cf 3c b0 34 df bc 68 55 b2 bc
       0.08995205 0.025309324 -0.027246803 -0.02176924
000300 88 ec 71 3d 3d 3a 26 bd 90 ac bb 3d 32 e2 46 bd
       0.059063464 -0.040582884 0.09163773 -0.04855556
000310 1e 9b e8 bd a4 e0 98 bc c0 28 da 3c 18 25 97 3b
       -0.11357711 -0.018661804 0.02663076 0.004612576
000320 f9 5e d8 3d 90 2a e0 bc 41 97 c1 bc ee 01 80 3c
       0.105649896 -0.027364045 -0.023631694 0.01562592
000330 54 4a c5 3d e2 a3 6f 3d 1c 99 2b 3d 58 66 0e 3d
       0.096333176 0.0585059 0.041894063 0.03476557
000340 a8 5c bb 3c ce 8e 9f bd 6e 40 77 bc 50 eb 9a 3d
       0.02287133 -0.0779091 -0.015091045 0.075644135
000350 85 4e 22 bd 13 9e 83 bd 50 e8 50 bd a9 aa 8c bd
       -0.039625663 -0.06426635 -0.0510028 -0.06868488
000360 60 f7 b3 3d 17 ea d2 bd 20 ea 81 3d 88 09 9b 3c
       0.087874174 -0.10298555 0.06343484 0.018925443
000370 e2 d8 a0 bd ce ed cd bc 74 29 9a bd 6a 8b 70 bb
       -0.07853867 -0.025137808 -0.07527438 -0.003670419
000380 81 05 48 bd 37 6e 0a be da 2c 87 bd 92 6c df bd
       -0.048833374 -0.13518606 -0.06600352 -0.1090938
000390 70 46 a7 3d a5 89 04 bd 79 8c db bd 0e b9 d6 3d
       0.08167732 -0.03235783 -0.107201524 0.10484515
0003a0 a3 0e c7 3d 43 90 f6 bc 62 3f 59 bc 8d 6e da 3c
       0.097195886 -0.030098086 -0.013259741 0.026664043
0003b0 c6 a1 be ba e0 13 ee bc 3c b3 cd 3d 37 ce 9c bd
       -0.0014544062 -0.029062212 0.10043952 -0.0765652
0003c0 50 e2 8f 3d 45 78 58 3d d1 3a 3b 3c 40 02 8c 3d
       0.070255876 0.052849073 0.011427597 0.06836367
0003d0 df b0 24 3d bb 6e a1 bc 5b 78 1e 3d c0 22 e9 bc
       0.04020774 -0.01970612 0.038689 -0.028458953
0003e0 57 1c b2 3a 3a 13 d0 bd 00 14 70 bb 5c fe 9c bd
       0.0013588768 -0.10159917 -0.0036633015 -0.07665703
0003f0 20 12 98 3d a3 33 57 bd 01 85 b8 3d e8 ef e3 bd
       0.07425332 -0.05253948 0.090097435 -0.11129743

linear2.bias f4 [128]
000000 7d 6c 0c 3c 00 e0 e9 bc 26 2c e7 bb b2 f7 4e 3d
       0.0085707875 -0.028549194 -0.0070548235 0.05052919
000010 a9 32 ce 3c 81 ba 02 3d 04 3d b6 3c d4 c9 29 3d
       0.025170641 0.031916145 0.022245891 0.041452244
000020 c2 1d 6c 3d 00 9f 58 bd 26 34 2e bd 20 10 44 bb
       0.057645567 -0.05288601 -0.0425302 -0.0029916838
000030 17 cb 0f 3d 05 dc 9a bc cd 36 88 3a 67 eb 4f 3d
       0.03510579 -0.018903742 0.0010392308 0.050761607
000040 a6 1a 1f bd b0 71 39 3d 1a 92 a6 3c a0 4a ad bc
       -0.038843773 0.045274436 0.020333339 -0.021153748
000050 f5 1d 6c bd 7a 12 da 3c 26 b0 64 bc b3 95 ad bc
       -0.057645757 0.026620138 -0.013958013 -0.021189546
000060 8f 3b 59 bd 4c 58 87 3d 58 6d 98 bc 0f 9d b5 bc
       -0.053035315 0.06608638 -0.018606827 -0.022169618
000070 39 7f f0 3c 20 08 8b bb d5 ab 70 bd d4 ed c6 3d
       0.02935754 -0.004242912 -0.05875762 0.09713331
000080 aa 3a 22 3d b6 bb fb bc 21 29 a5 bc 00 f6 fe b9
       0.039606728 -0.030729156 -0.020161213 -0.0004862994
000090 41 d3 66 3c 9d 45 bd 3c 32 25 97 3d c9 88 ab 3d
       0.014088453 0.023104483 0.07380141 0.08375699
0000a0 ce 01 91 3c 91 9c 70 bd 6b 57 1b bd 7e cf 23 bd
       0.017701056 -0.058743063 -0.037925165 -0.0399928
0000b0 af 13 3b bd 6a a0 73 bd 3c 52 2f 3d 51 ce a8 3c
       -0.04567307 -0.059479155 0.042803034 0.020606192
0000c0 40 b6 f9 ba b3 35 96 3b 84 c8 1d bd 2a f9 2b bd
       -0.0019051507 0.004584038 -0.038521305 -0.04198567
0000d0 f7 fe bd 3c 22 3e d3 bc f4 20 0b bd 64 69 87 bd
       0.023192866 -0.025786463 -0.033966973 -0.066118985
0000e0 e6 12 23 bd ed 0b 59 bc 9e 2d 98 3b 1c ef 6a bd
       -0.039812945 -0.013247472 0.00464411 -0.05735694
0000f0 f2 a8 3a 3d 0e de e2 bc 6e 7a 66 bd df f5 2f 3d
       0.045571275 -0.027693775 -0.0562691 0.04295909
000100 55 50 7d bd 78 16 37 3d 59 3a dd 3c 14 81 9b bd
       -0.06184419 0.044699162 0.027005361 -0.07592979
000110 f4 35 b7 3c a6 0f 39 3d 13 f9 47 3d c0 7c c6 bc
       0.022364594 0.04518094 0.04882152 -0.024229407
000120 d3 ea 4e bb 1b 28 58 3c 70 ef 52 3d fc a9 5c 3d
       -0.0031573072 0.013193156 0.051497877 0.053873047
000130 10 a2 c6 bc 25 39 a8 bc 76 79 61 3d 0f f3 db bc
       -0.0242472 -0.020535061 0.055047475 -0.026849298
000140 96 89 59 3c f1 3c 7a bc 3d a2 5e bd 84 0c 8a 3d
       0.013277432 -0.015273319 -0.05435394 0.067406684
000150 47 16 91 3b 74 3c 00 3d 85 3b d7 3d bc ac b4 3b
       0.0044277045 0.031307653 0.10509399 0.0055137556
000160 f5 6b 96 bc f7 cb 5e bd e9 a7 67 3c 49 f0 80 bb
       -0.018362025 -0.054393735 0.014139154 -0.003934894
000170 36 f9 8c bd 6b ea 9a bc d6 73 15 3b 0e 3a 4e bc
       -0.06883471 -0.018910607 0.002280464 -0.0125870835
000180 ba dc 16 3d 8c 65 2f bc 93 df d2 3c 84 87 97 3c
       0.036831595 -0.010705363 0.025741374 0.018497236
000190 a5 42 fa 3c ef a4 c6 3c e4 1a 31 bd f9 d9 dc 3c
       0.030549357 0.024248568 -0.043238536 0.026959406
0001a0 f8 e7 53 bd 45 ad 17 3d 18 2e 29 bd 61 78 06 3c
       -0.051734895 0.037030477 -0.041303724 0.0082074115
0001b0 e8 e8 3e 3d b4 ed cf bc 00 c6 f1 3b 08 69 8a bd
       0.046608835 -0.0253819 0.00737834 -0.06758314
0001c0 93 25 82 3c 5d 92 70 bd 1f ba d3 bc ac e5 7d 3d
       0.015887057 -0.058733333 -0.025845585 0.06198661
0001d0 b5 b6 81 3b ca 97 17 3d 72 45 06 bd 76 05 be bb
       0.003958548 0.03700999 -0.032781072 -0.005798991
0001e0 f6 f3 97 bd a3 37 d4 3b d6 b0 5e 3d ca c8 33 bd
       -0.07419579 0.006476359 0.054367863 -0.04389266
0001f0 cf db 18 bd 1b ff 01 3d dd 87 07 bd 38 06 b2 3b
       -0.037319 0.03173743 -0.033088554 0.0054328702

linear3.weight f4 [3, 128]
000000 52 ff ec 3b 1b 77 30 3e 5d ab af bb 18 7b 95 3d
       0.007232585 0.17232935 -0.0053610043 0.07298869
000010 ad 50 ba bd d5 17 02 3d 50 dd 23 bd a8 8b 46 be
       -0.09097419 0.03176101 -0.040005982 -0.19389212
000020 be ee 30 be b5 25 ee 3c 97 aa d2 3d fc 8e dd bb
       -0.17278573 0.029070714 0.10286444 -0.00676143
000030 8b d5 49 be 53 9c 72 be cc 1c ef bd c5 e3 6b be
       -0.19710366 -0.23692445 -0.116754144 -0.23036106
000040 d9 8f 64 bb 0e fe 19 be b2 f3 b2 bd 43 b6 51 be
       -0.003487578 -0.1503832 -0.087378874 -0.20479684
000050 35 43 0b 3e 60 56 a2 bc 8c 5f d9 3d b9 a5 c1 3d
       0.13599856 -0.019816577 0.10613927 0.09455437
000060 0b 0e 5c be 26 50 37 bd 76 63 0f 3e 40 be 64 3e
       -0.21489732 -0.04475417 0.14002785 0.223382
000070 b5 8f 00 3e 44 5d ef 3d 04 cf cd 3d d7 c3 e5 bd
       0.1255482 0.11687711 0.10049251 -0.11218994
000080 38 53 13 3e 4b c9 ce 3c b4 32 1f 3c 9e cd 0e 3e
       0.14387214 0.025242468 0.009716678 0.13945624
000090 3f 29 55 bd 8a 9f 5a be 1e 40 ae bd 62 82 e2 bc
       -0.05204129 -0.21349922 -0.08508323 -0.027650062
0000a0 6b c9 97 3d d2 2d 31 3e 59 1e e7 3d c3 d5 1a 3e
       0.07411464 0.17302635 0.11285085 0.15120606
0000b0 49 29 2d 3d a0 0a b0 3d 0d d2 ec 3d b0 bb a2 3d
       0.0422757 0.085957766 0.115635015 0.07945955
0000c0 6b a0 13 3e 3e 15 30 be 3b 19 4d 3d 94 5a db bc
       0.14416663 -0.17195603 0.05007289 -0.02677659
0000d0 c5 50 47 3d fa 12 51 be 2b f7 04 3d e3 6d 0f be
       0.048661012 -0.20417395 0.03246228 -0.14006762
0000e0 4e 11 0f 3e d8 47 36 3e fd 02 ef 3c 50 ef fd 3d
       0.13971445 0.17800844 0.02917623 0.12399161
0000f0 8f c3 80 bd 93 ca 1f 3e 2d 9b b3 bc 6a e2 59 bc
       -0.062873 0.1560462 -0.02192458 -0.01329861
000100 e9 e3 d6 3c bb 70 fe 3d 6f 38 9a 3c 2a a0 4f 3c
       0.026231723 0.124238454 0.018825738 0.012672463
000110 70 20 13 be 5e 04 ad bd 09 f7 4b be 82 ec fe bd
       -0.14367843 -0.084480986 -0.19918455 -0.12447454
000120 ac df cb 3c 74 97 b6 3c 70 fe 6c 3d 8e 92 01 3e
       0.024886928 0.022289015 0.057859838 0.12653562
000130 4f a6 05 3e 23 4a bf bd 58 d9 53 be b5 03 d1 bd
       0.13051723 -0.09340312 -0.20688379 -0.10205785
000140 31 25 09 be 31 30 c4 3c 49 cb 2a 3e 97 dc ef 3d
       -0.13393094 0.02394876 0.1667911 0.11711996
000150 93 54 35 bd 7b 66 03 be c5 98 87 bd 90 e2 1a 3e
       -0.04427011 -0.12832062 -0.06620935 0.15125489
000160 87 ac ca 3d 4f 89 8c 3d ba c9 43 3d 1a b1 45 be
       0.09896188 0.06862127 0.047799803 -0.1930584
000170 89 2b 0c bd 17 a0 17 3e 4d 9a 0f be 21 c0 d6 3c
       -0.034221206 0.14807163 -0.14023705 0.026214661
000180 29 3c 52 3e f6 89 44 3c f0 2a dc bd 6f da 25 3d
       0.20530762 0.011995783 -0.10750377 0.040491518
000190 41 21 ce 3d bf 54 3b be 66 e7 3c 3e e1 41 1e 3e
       0.100649364 -0.18294047 0.18447646 0.15454818
0001a0 e0 59 94 3a d5 95 42 be 96 d6 96 3d 34 6a ad bd
       0.0011318289 -0.19002469 0.07365148 -0.08467522
0001b0 4a e3 d3 bd 8f aa ef 3d f9 dc 54 be 49 87 33 3e
       -0.10346086 0.11702453 -0.2078742 0.17532076
0001c0 44 18 bf bd b5 c6 4a be 11 3f 59 be 2f 75 2d be
       -0.093308 -0.19802363 -0.21215464 -0.16939233
0001d0 58 66 06 3e 94 32 bd bd aa 3a 1d be 68 d8 e3 bd
       0.13124979 -0.09238163 -0.1535441 -0.111252606
0001e0 85 3a 7b 3b 09 f7 c2 3c e8 9d 58 be e1 1d 9b bc
       0.003833444 0.023799436 -0.21153986 -0.018935146
0001f0 4a d6 f4 bd c5 82 17 3d 5a cc 3f be 1e eb 8c bc
       -0.11954935 0.036989946 -0.18730298 -0.017201956
000200 b1 d0 9f 3c 36 dc 2b be 30 51 dc 3d 7b b2 10 be
       0.019508692 -0.16783223 0.10757673 -0.14130585
000210 b6 a3 9e 3d 56 81 7b be b1 9a 1c 3e 89 0b 2c 3d
       0.07746069 -0.24561056 0.15293385 0.04200319
000220 39 9b 86 bd 99 4c 89 bd 58 2c 1f be bd a5 99 3d
       -0.06572575 -0.06704063 -0.1554426 0.07502315
000230 18 18 c3 bd a0 86 6d be 29 c3 1e 3e 2b 40 88 be
       -0.0952608 -0.23195887 0.15504135 -0.26611456
000240 02 fb e9 3d ee 76 53 3e 09 ef 70 bd 96 8f fe 3d
       0.11424829 0.20650837 -0.05882171 0.124297306
000250 56 4e 36 be 5e 34 e9 bc 6e a0 0a 3e e0 28 b7 bd
       -0.1780332 -0.028467353 0.13537762 -0.08943343
000260 15 63 12 be b9 0e 3b be da 36 2e 3e 26 40 61 3d
       -0.1429561 -0.18267335 0.17013112 0.054992817
000270 fe 36 54 be 55 ed 03 3d 36 a4 18 be 6b 51 dd bd
       -0.20724103 0.03220876 -0.14906392 -0.10806545
000280 e2 25 ae bd 6c f3 5d bd 54 e5 8a bd 6b e1 50 be
       -0.08503319 -0.054187223 -0.06782022 -0.2039849
000290 86 54 71 bd 3a 51 90 3d c1 3c ba bd 27 58 06 be
       -0.0589185 0.07046743 -0.09093619 -0.13119565
0002a0 7c 3e 85 3d c3 5d 01 3e 48 6f 72 be de 90 eb 3d
       0.065060586 0.12633424 -0.23675263 0.115022406
0002b0 de e6 10 3e 17 04 d9 bc 35 07 99 3d 9d f3 33 3e
       0.14150569 -0.026491208 0.07472078 0.175734
0002c0 aa cc 17 3e f1 90 29 be 22 f1 88 3d 85 cd ef bd
       0.14824167 -0.16559197 0.066866174 -0.117091216
0002d0 25 de 92 bd f5 5d 6e 3d 6e da 39 bc 74 b7 10 be
       -0.07171277 0.058195073 -0.011343582 -0.14132482
0002e0 de 73 36 3e ff c0 08 3d b1 97 ec bd 08 9d 97 bb
       0.17817637 0.03338718 -0.1155237 -0.004626874
0002f0 57 5b e5 bd 16 9e 90 bd ff 84 b9 bc 5d 52 73 bd
       -0.11199062 -0.070614025 -0.022646425 -0.05940472
000300 17 b1 f1 bc f9 6a c3 bd da 87 bb bd 6d c3 4e 3e
       -0.029503388 -0.09541888 -0.09156771 0.20191737
000310 31 52 2e bd f7 48 ad bd e6 25 0c be 74 f8 16 be
       -0.042558853 -0.084611826 -0.13686332 -0.14743215
000320 92 29 e8 3d 0a b4 6b be 2f 57 1d be 11 55 44 bd
       0.11336054 -0.23017898 -0.15365289 -0.04793269
000330 e9 99 a5 bd 25 98 4d bd 06 5a 48 bd 2f 55 0c 3d
       -0.08085997 -0.050193924 -0.048913978 0.034260925
000340 2f 7b d8 3d 20 57 33 3e 75 43 32 3d 1c 3c 2a be
       0.105703704 0.17513704 0.043521363 -0.16624492
000350 47 dd d8 bd 91 ce cf bd 5a d5 5e bd 03 53 a6 3d
       -0.1058908 -0.10146821 -0.054402687 0.08121302
000360 ca b9 23 3d ac 4b e6 3c 02 7b 04 3e 0c bb 53 be
       0.039972104 0.028112255 0.12937549 -0.20676821
000370 3e 0f e7 bb 97 9f 35 be 07 ac 0e bd c3 15 cf 3d
       -0.0070513776 -0.1773666 -0.034832027 0.101115726
000380 33 54 0f bc 1f 53 00 be 7e 6c f6 bc 22 c5 a2 3d
       -0.008748102 -0.12531708 -0.03008103 0.07947756
000390 eb d6 48 3e 1e 71 0d be 1f 65 74 3d 4a 70 64 bd
       0.19613235 -0.13812682 0.05966675 -0.05577115
0003a0 28 4c 29 3e c9 86 35 bd 05 68 03 3e a4 db 19 bd
       0.16532958 -0.044317994 0.12832649 -0.03756298
0003b0 91 a4 23 bd 0b ee 02 3e d7 34 77 be 30 a0 ee 3d
       -0.039951865 0.12786119 -0.2414125 0.11651647
0003c0 29 b2 f6 3d 8f b9 2e 3e 53 c7 4a bd 69 f8 5f 3d
       0.120457 0.17062972 -0.049506497 0.05468026
0003d0 e6 b2 08 be b8 3d 86 be d5 2c 13 3e 5f bd af bb
       -0.13349494 -0.26218963 0.14372571 -0.005363151
0003e0 3a 7c 46 3e 1a 3a fa 3d 67 c9 96 3d 35 18 c0 bd
       0.19383326 0.12218113 0.07362633 -0.09379617
0003f0 26 c9 02 3e 21 af 32 3d d0 38 97 3d c3 b1 2c be
       0.12772045 0.043624047 0.07383883 -0.16864686

linear3.bias f4 [3]
000000 3c 8c 9d bd ad 6d 2f bc 0d 8a a6 bd
       -0.07692763 -0.010707301 -0.081318
