groupe01/best_model.pth (torch, 148473 bytes, 6 tensors)

linear1.weight f4 [256, 11]
00000000: dc26 c13d a747 a83e 5372 19be f723 1fbe
00000010: 6558 c53d 5fc6 ebbd e615 a53b f0f0 0ebe
00000020: 117e ab3d de5c 4c3d 735e 06be 73cf 55be
00000030: a402 373e d8b3 443d c340 0f3e f976 d83d
00000040: 6b3e 68bd 3113 df3d f9e5 f2bc 0dc5 173e
00000050: b541 7dbb 5671 473d 3e86 d7bd e90c 03bd
00000060: 12a6 04be 2e98 8ebd 9925 913d 87f0 0fbe
00000070: aee9 123d 5796 e3bd f4a2 2bbd d7dc 24bd
00000080: 8d5f 483d d398 683e 492c ea3d 3cf4 2d3e
00000090: 0d1e 97bd 5c15 453b 2ce4 023e 001a 3fbc
000000a0: d59a 0d3e e58b ce3b 5d6c 413e 902f abbd
000000b0: 9b9a 333e 3279 a03e 539f 88be b5de 62bd
000000c0: 3a62 8abd ef91 0c3d ff7b 21bd 6871 ce3b
000000d0: 2ec6 293e dbaa d0bd 0166 383e fa3a 8cbd
000000e0: b2b7 c23d c2fe 043d bd9d 8bbd 8f74 9fbd
000000f0: 642e bd3c fb76 a13c 57fa 9c3d ce1f 9d3d
00000100: 30af 103e c405 ce3d 3e8c 543e a478 5bbd
00000110: f1f6 3abd 3237 1fbd 1673 f1bc 9e85 f33d
00000120: 192a eb3d 2431 bf3d e5c2 83bd 2092 003e
00000130: dd67 a1bd 1c28 593d 3e92 c2bd 17ca 5bbd
00000140: e8d4 973d 87ed ca3d 8d2e b2bb 8184 ca3d
00000150: 6c9c 06be bad1 d1bd 9d4a cabd e855 12bc
00000160: 3dba 8b3e 647d 7d3e c278 0bbe da35 d9bd
00000170: 662f 66bb 8323 79bd 9037 163e 6177 da3d
00000180: ccdb 6a3c 4a8a 72bd a5a7 cf3c 4695 39bd
00000190: 24ff 8c3d 7b95 82bd b821 fabd 99c1 cb3d
000001a0: 9d43 413d 00c2 0c3e 82ba 7cbd b1c8 24bd
000001b0: 4288 3dbd 2678 f9bb b8f1 343e 3aab 913e
000001c0: 0e5f db3d a925 863d 79a8 193d 6b35 93ba
000001d0: 0284 b1bd 23c7 743c 5578 15be 8a0c b33d
000001e0: dd43 c1bc eb9e c8bd f6b5 25be a816 173e
000001f0: 0571 35be fb8c 2b3d 4618 e7bd e255 92bd
00000200: 9bee 0dbd 40d6 1cbc fecc 87be 0bfc 823d
00000210: 9090 cd3e 01de 32bc e524 46be b34b a5bd
00000220: 46ff 57bd c6d1 6d3d 45b9 95bd 85b9 283e
00000230: 193a ba3c 391f c2bd 2e76 943c 5e08 85be
00000240: 3d5f 51be 6d48 883e dcc8 803d 2dea f53d
00000250: 0a47 553d 4c96 453b f7ae 36bd 5c8d 95bc
00000260: b53d af3c cca0 833d 39c8 7e3d 2d44 38bd
00000270: a207 f43d db8a 05be 8ccb d53d 9859 263d
00000280: 1ae0 073e f098 c33d 1f4d e73d 8edc d03b
00000290: 4b0c b9bd a1ac 51be 4fa0 25bc 4fe9 373e
000002a0: ae61 243b 9f41 073d 8301 89bd 3e23 60be
000002b0: 0b85 0d3d ecf5 ec3d 8bd2 1e3c 800f 59be
000002c0: 2e6b debd 7005 e8bc 1583 293e fc90 473d
000002d0: f3da 5e3d ce9c 0bbd fe27 903d 7966 10be
000002e0: 1bee cc3c 1ef9 b43d a876 5f3d 6835 243e
000002f0: 24f2 37bd 3666 07be f26c afbc fdf1 47bd
00000300: df71 cfbd 9cf1 2b3e ee5f 51bd 1cb3 debc
00000310: fc03 3b3d aeb6 6cbe b1ce ac3e f742 1e3e
00000320: 92c7 a2bd 09b7 b7bc 10f4 efbc 97e1 cf3d
00000330: a373 f0bd 36f0 0c3e f348 2a3e 0e82 fbbd
00000340: 6d0a 363e b502 02be eaf4 083d 022f 083e
00000350: 2c87 68be 3a4b 893d fb58 163e dccf 34bc
00000360: cdb9 38be a381 973d 48e1 4ebe 382c 4cbd
00000370: 8eb1 84bd 4a1a ae3d fbd6 163e addd 39bb
00000380: 2459 45bd 4c05 c83d fb3c b5bc 4f4a 0abe
00000390: 75c5 25be 5e67 9e3d d096 f93d 5a3e 92bd
000003a0: e892 573e 3bef d43c affd 05be a5ca 8bbd
000003b0: 99a0 bbbd 434d ba3d 6f2e 8dbd ff0c 7d3d
000003c0: a9a9 053e afbb 033d 2b38 6cbb 2d2f 8e3c
000003d0: abb6 cebc ec99 1c3d 93bc 973d 75bb 09be
000003e0: 7971 0a3e 94c9 0d3e 230c 2a3b 6149 ca3d
000003f0: f293 173c 4d0e 3e3e de9e b83d 6b8e 32bd
0.0943124 0.32867166 -0.14985017 -0.15541063 0.096360005 -0.11512446 0.005038011 -0.13959098
0.08373655 0.049893253 -0.13121967 -0.20879917 0.17872101 0.048023075 0.13989548 0.10569567
-0.05670015 0.10892332 -0.029650675 0.14821263 -0.00386439 0.04869207 -0.105236515 -0.031994734
-0.12953976 -0.0696262 0.07087249 -0.14056598 0.035867386 -0.111126594 -0.04190345 -0.04024967
0.04891925 0.22714548 0.11434228 0.169877 -0.073787786 0.0030072546 0.12782353 -0.011663914
0.13828595 0.006303298 0.18888994 -0.08358681 0.17539446 0.31342465 -0.26684055 -0.05538817
-0.067570165 0.03431886 -0.039424893 0.00630014 0.16579506 -0.10188838 0.18007661 -0.068471864
0.09507693 0.03246952 -0.068171956 -0.07785904 0.02309341 0.019710055 0.07664936 0.07672082
0.14129329 0.100596935 0.20756623 -0.05358185 -0.045645658 -0.038870998 -0.029473823 0.1189072
0.11482639 0.09335545 -0.064336576 0.12555742 -0.078811385 0.053016767 -0.0950055 -0.053659525
0.074136555 0.09908586 -0.005437678 0.09888554 -0.13145608 -0.1024508 -0.098775126 -0.008931614
0.27290526 0.24754864 -0.13620284 -0.106059745 -0.0035123467 -0.060824882 0.14669633 0.10667301
0.01433463 -0.059213914 0.025348494 -0.045308374 0.06884602 -0.063761674 -0.122134626 0.09949035
0.04718362 0.1374588 -0.061701305 -0.040230457 -0.046272524 -0.0076131998 0.17670333 0.28450948
0.107114896 0.06550152 0.037514184 -0.001123113 -0.086677566 0.014940056 -0.14596684 0.08742626
-0.02359193 -0.09795936 -0.16182694 0.14754736 -0.17718895 0.041882496 -0.11283927 -0.07145287
-0.03465138 -0.009572566 -0.26523584 0.0639573 0.40149355 -0.010917188 -0.19350012 -0.08071079
-0.052733682 0.058061384 -0.07310728 0.1647702 0.022732781 -0.094786115 0.018122759 -0.25982946
-0.20446487 0.26617756 0.06288311 0.12007556 0.0520697 0.0030149398 -0.044600453 -0.018255882
0.021391729 0.06427154 0.062202666 -0.044986892 0.11915518 -0.1304125 0.10439214 0.040612787
0.13269082 0.09550655 0.112940066 0.0063739484 -0.09035548 -0.20476009 -0.010109021 0.17960094
0.0025082636 0.033021566 -0.066897415 -0.21888444 0.034550708 0.115703434 0.009693752 -0.21197319
-0.10860287 -0.028322905 0.1655391 0.048722252 0.054408025 -0.034085087 0.07038878 -0.1410159
0.025015881 0.08836578 0.05455652 0.16035998 -0.044908658 -0.13222584 -0.021414254 -0.048814762
-0.10129141 0.16791385 -0.051116876 -0.027185015 0.045658097 -0.23116562 0.33751443 0.15455233
-0.07948221 -0.022426145 -0.029291183 0.1015045 -0.11740806 0.13763508 0.1662939 -0.12280665
0.17777415 -0.12696345 0.033436693 0.13299182 -0.22707814 0.067038015 0.14682381 -0.011035886
-0.18039627 0.07397773 -0.20203125 -0.049846858 -0.06479178 0.08501108 0.14730446 -0.0028360889
-0.048180714 0.09766635 -0.022123804 -0.13504909 -0.16188605 0.077345595 0.12186968 -0.07140799
0.21052134 0.02599298 -0.13085054 -0.06825761 -0.09161491 0.09096768 -0.06893622 0.061779972
0.13053001 0.03216141 -0.003604422 0.01735648 -0.025233587 0.03823273 0.074090146 -0.13450415
0.13519849 0.13846427 0.0025947175 0.09877277 0.0092515815 0.18560143 0.090146765 -0.04359285

linear1.bias f4 [256]
00000000: 9d57 203e 993a 40be e4cd c13d 4fb5 a03d
00000010: 097a 44be e811 a43c 7611 803e 8963 c5bd
00000020: 5cc0 443e f3c2 85be 363b 023e 26bc 203e
00000030: c13a 13bd 07d1 253e 7e68 87be e66d df3d
00000040: deb2 253e 5055 cb3c 7a4b 2dbe 0d88 7e3d
00000050: ec92 aabd b326 893e ae80 383e 219c d33d
00000060: 24d1 8c3e 8d57 4e3d a117 b63c 7092 2abd
00000070: ef67 8a3e 7b7e 213e 1910 a63d 9772 d1bd
00000080: a15b 2ebd 59c3 21bc 8b43 5a3d f518 0a3e
00000090: 9fe2 373d 1e83 4bbd 1c7d 01be 7bec 3f3d
000000a0: 6059 57bd a381 8cbe fd0f 543e 2c15 1b3b
000000b0: c900 313e 3df4 8e3d f628 20be 623f fe3d
000000c0: e8d3 4ebe abad 0cbe 9699 6c3d ce0f fc3d
000000d0: 948d 30be b363 873d 107e 1b3e d11b 803e
000000e0: 509d 0f3e 5fac 023e 8369 a9be d5e6 413e
000000f0: 751d 3a3e 6fce 03be 09af 77bb 1953 873e
00000100: eca6 76bd f3cd 34bd c371 303b 2db5 ba3d
00000110: 1d82 263e 9a99 8fbe 1e21 2f3e 7218 0b3e
00000120: 4a19 563d 36d4 5b3e 6669 283e c934 40bd
00000130: ad36 96be d9e4 403d 5d52 4fbe 0423 c73d
00000140: 3496 11be 71c6 0bbd c2a6 043e e00f 72be
00000150: 93c5 653e 86f0 593e b86b 893d a1b6 1cbe
00000160: 1d38 9c3e 96ff 3dbe 75e3 9c3e f56d d2bd
00000170: 34a0 443d 481c 27bd be43 8bbe 0818 5a3e
00000180: a5ee 0ebe 28b6 9abe d9ee 2fbd ee05 28be
00000190: 654e b7bd f7e1 01be a2ca 673d 5663 94be
000001a0: 302b 20be cc8d 54bc 29f2 453e 861e a33d
000001b0: cfdc 29be 8a32 123e aead 26bc 658d a53d
000001c0: 6ad3 d5bd 66f8 7a3e 763e 1e3e 5706 eb3d
000001d0: 3dd4 923e 56ad a1be 280b 313d c191 4dbe
000001e0: 429a 02bd cd13 0a3d 6b0d 9b3c a3f6 783e
000001f0: ba57 78be dad9 f33b 8f75 573d 20f5 42be
00000200: c913 543e 88d3 ff3d 525b 0abe 4f52 63be
00000210: 1f12 51be 6315 88be 8667 863c a33d 96bd
00000220: cf27 1bbe a00a 14be db4a b93d 34a9 8cbe
00000230: 1193 333e 8c78 24be 4df4 8f3d f232 c2bd
00000240: 3e4a f43d 98a8 56be 31d6 633d 1c30 94be
00000250: 4b70 143e 0c42 1c3e 398f 71be a05d 6dbe
00000260: 70d1 0ebe 5667 703d e7fa 02be b59a 96be
00000270: ba8e 21be 3db3 d83d 0c98 3d3e 1e8e febd
00000280: 1f8f 5a3e 1fab 083d 6618 d5bd 4dc5 2d3d
00000290: 988c 843e 072a b3bd b719 16be c378 35be
000002a0: e6c8 cf3d 6fc0 883e 0e7d dc3d b1ae 723e
000002b0: e8d7 07bd f7fd 933d d180 8fbe d049 123e
000002c0: 106f 8ebd b617 8cbe 761d b6bd 90e4 063e
000002d0: fe9c 44be 3be8 da3d 8c5e 953d 3d35 8cbe
000002e0: 45be 2ebd 4f6b 6dbe 0926 913e 8550 0cbe
000002f0: 863b 813e b6bd 75be ac6f 793d 5a7c e43b
00000300: c46f 823d e679 23be 2c79 0a3e cb21 0d3e
00000310: 03ef 6abe 81fb 09be 0b3c 23be 457a aabd
00000320: e969 f33c 726f 72be 75a0 943e 6d0b 2bbe
00000330: 5a81 ccbc 1644 173e 8b79 c73d 7732 16be
00000340: a249 36bd b8b4 cbbc 9aaa c339 b995 dc3d
00000350: 6151 ec3d d437 92be 587f 59be 1d50 29bd
00000360: 9bd8 bd3b e58b 933d 7db3 25be 2ef8 f9bb
00000370: 239c 073e 19b9 293e bdc1 213e 51ce 76be
00000380: 8d39 03be 8417 f7b9 1f78 ea3d 196a 513e
00000390: f80b 523e c461 c3bc 5664 f8bd 22cd 2d3d
000003a0: 758f 0a3e e936 313e 55f9 98be 9853 83bd
000003b0: c788 1a3e aaca 013e d6c8 88be 2973 3d3e
000003c0: ff6a eb3d 7ae4 82bb e32d 9b3d 39bd d33d
000003d0: dc9c a13b 85af 0dbe d15f adbd b3f8 7f3e
000003e0: ef8d b03d 20f8 3bbd 8fd2 cabd 0bdb 81be
000003f0: e88f ba3d 5c93 823e 054e c7bd 5b50 803e
0.15658422 -0.18772353 0.09463099 0.07847082 -0.19187178 0.02002807 0.25013322 -0.096381254
0.19214004 -0.26125297 0.127179 0.15696773 -0.035944704 0.16193019 -0.2644691 0.10909633
0.16181514 0.024820954 -0.16923323 0.062141467 -0.083288044 0.26787338 0.18017837 0.103325136
0.27503312 0.050376464 0.022228064 -0.04164356 0.2703242 0.15770905 0.08108539 -0.102269344
-0.042567853 -0.009873235 0.05328707 0.13486083 0.044893857 -0.04968559 -0.12645382 0.046856385
-0.05257547 -0.27442655 0.20709224 0.0023663742 0.17285456 0.069801785 -0.15640625 0.12414433
-0.20198023 -0.13738124 0.05776366 0.12307702 -0.17241508 0.06610813 0.15184808 0.25021222
0.14024854 0.12761067 -0.33088312 0.18935712 0.181753 -0.12871717 -0.0037793538 0.26430586
-0.060217783 -0.04414172 0.0026923276 0.09116588 0.16260572 -0.28046876 0.17102477 0.13583544
0.05227021 0.21467671 0.16446456 -0.04692534 -0.2933859 0.047093246 -0.20246263 0.097234756
-0.14217454 -0.034124795 0.12954238 -0.23638868 0.2243865 0.21283159 0.06709999 -0.15304042
0.3051156 -0.1855453 0.30642286 -0.10274879 0.048004344 -0.040798455 -0.2720012 0.2129823
-0.13958223 -0.302171 -0.042952392 -0.16408512 -0.089504994 -0.12683855 0.05658973 -0.28982037
-0.15641475 -0.01297326 0.19330658 0.07964806 -0.16588138 0.14277092 -0.010173244 0.080836095
-0.10440715 0.24508819 0.15453514 0.114758186 0.2867755 -0.31577557 0.04322353 -0.20075132
-0.031885393 0.03371029 0.018927297 0.24312834 -0.24252215 0.0074417414 0.052602347 -0.1903882
0.20710672 0.12491518 -0.13511398 -0.22199367 -0.20417069 -0.26578817 0.016406786 -0.07335975
-0.15151905 -0.14457178 0.09047481 -0.27472842 0.1753657 -0.1606161 0.070290186 -0.09482373
0.11928223 -0.20962751 0.05562419 -0.28942955 0.14495961 0.1525957 -0.23589791 -0.23180246
-0.13947082 0.0586923 -0.12791024 -0.29414907 -0.15777102 0.10581062 0.18515033 -0.124294505
0.21343659 0.03336632 -0.10405044 0.04242449 0.25888515 -0.087482505 -0.14658247 -0.17721848
0.1014574 0.26709315 0.1076604 0.23699452 -0.03316489 0.07226174 -0.28027967 0.1428597
-0.06954777 -0.2736184 -0.08892338 0.13173127 -0.19200513 0.10688826 0.07293424 -0.27384368
-0.042661924 -0.23185466 0.2834933 -0.13702591 0.25240725 -0.2399815 0.060897514 0.0069728317
0.06368974 -0.1596447 0.13522786 0.13782422 -0.22942738 -0.13474847 -0.15940873 -0.08324102
0.029713588 -0.23675326 0.2902867 -0.16703577 -0.024964023 0.14772066 0.09739979 -0.14667688
-0.044503815 -0.024866447 0.00037320406 0.10770745 0.11538959 -0.28558218 -0.21239984 -0.041336168
0.0057936436 0.07204417 -0.1618175 -0.0076284623 0.13243155 0.16574515 0.15796562 -0.24102141
-0.12814923 -0.00047129032 0.114486925 0.2045063 0.20512378 -0.02385033 -0.121285126 0.042431958
0.13531287 0.17306103 -0.29877725 -0.064124286 0.15091239 0.12674966 -0.26715726 0.18500961
0.11495017 -0.0039945217 0.075771116 0.10338826 0.004932029 -0.13836487 -0.08465541 0.24997215
0.08620822 -0.045890927 -0.09903442 -0.2536243 0.09109479 0.2550305 -0.09731678 0.25061306

linear2.weight f4 [128, 256]
00000000: 0aa8 9cbd 7f64 153d 67f6 ec3d 6516 523c
00000010: fcab d3bd 9d8a 6f3a d51b 3c3d bc55 86bd
00000020: 9312 b8bc 6c91 95bd f6f2 0ebd f3e1 e9bd
00000030: 1f68 ff3c 8a26 333d fd62 d5bc 2a36 92bd
00000040: 73f0 b93d 035e 983d cbc2 f3bd 3e67 363d
00000050: 3e96 b93d f5bd 10bd f6ed 87bd 32d1 99bc
00000060: d7cd a3bd f88d 373d ecfe 06be c6c9 9739
00000070: b62c 18bd 089d 3fbd 9a12 babc 9a06 2fbc
00000080: 1e09 3f3d 27d3 053d 0fc7 47bd 10dc a0bd
00000090: 6bd4 03bd b5ea ed3d d0b9 043d 5309 b73d
000000a0: a73c f4bd e0e3 b4bb 77d1 db3b 6fb7 0a3d
000000b0: cdf7 a63c da7f d03c d825 0d3d bee5 ddbd
000000c0: 241c a3bd 2426 29bd 7b5a 60bd 4483 96bd
000000d0: 95ed d0bd f5e7 d9bb 9f63 aabc 6f5b fc3d
000000e0: f638 46bd 0254 163d 14a9 2c3b fcaa 05be
000000f0: 3830 353d 587d 003e dcdf ac3d 0d9f 1e3d
00000100: 040c 02bd 9891 1ebd ae71 b0b9 10b4 a9bd
00000110: ab1b 853d 07a2 b93d aa35 fcbd 5171 d73d
00000120: e951 bbbd 84ca 54bd e97a eebd 5d8e 08be
00000130: b4f0 82bd aa57 58bd bc36 7d3d 62a8 30bd
00000140: 045d 933d 491c 8d3d eb0e 58bc 6077 71bd
00000150: a03a 2a3d a3f8 d53d 9b35 acbc 92bc 95bd
00000160: 894d 18bc ea61 f0bd 348a 373d 2c84 dd3d
00000170: ca44 d4bd 82c6 94bd 8673 99bd 347e a4bd
00000180: 49f1 bb3d c039 7dbc e717 f33d 58c3 99bc
00000190: 460d 813d ae18 9fbc 0ab8 fdbd 40e9 2b3c
000001a0: db8e 543d e632 93bd 4da6 7fb9 d53e fabc
000001b0: ed03 aabd ba4f ef3c f66d 973d f36a 3f3d
000001c0: e0a1 9cbd c638 83bd adba b1bd 9cd7 50bd
000001d0: c633 c93d caec e3bd 9cec 8cbd e6a7 b1bb
000001e0: 590a 12bc 80e8 8ebd caf9 ec3d eaeb 9f3d
000001f0: 5e6d d73d 0070 523d 80eb aabb c2ca 9dbd
00000200: 7a60 fdbd 540c cfbd 5698 bfbd e05c a3bc
00000210: 2783 afbd a15f 043e 4bc6 153d 4da4 43bd
00000220: fc8a f3bd 8ed4 82bd 9b69 84bd 8a9f b03d
00000230: 45db 553c 38d0 643d 5f8a e5bd cfa1 e63d
00000240: 54ee 8d3d 207a b3bc 7260 75bd f0f1 c33d
00000250: dbb2 8c3c e19c 1abd 6a4a c9bd 21ff bd3d
00000260: 26e3 573d 32dd a53c 65fe a53d 1c1c 4b3d
00000270: 8897 903d 50b8 983d 8d57 08be 847a 343d
00000280: 24e9 45bd d4a5 bd3d a757 943d 6a90 c4bd
00000290: 8fc6 993d 26e8 73bd 3835 763d 3afe fabd
000002a0: 78df afbc 7d55 1f3c 0a32 a43b 2d75 d73b
000002b0: bfb3 903d b288 8a3d a6d9 843d fe2d f2bd
000002c0: 570d d5bd ba07 fbbd ac95 9bbd 3806 c03d
000002d0: 1f7a 95bd 563b 753d 0ff0 8dbd 6ee5 90bd
000002e0: e324 763d b05c 6c3c a709 85bd 25d3 91bd
000002f0: 75f1 a93d e8f6 fc3d ab2b 303d 81f3 66bd
00000300: b379 373c 4807 88ba 3efd f13d a964 333d
00000310: 7f01 af3d 774a d13d eb29 e43d df5d 1ebe
00000320: 5922 2bbd 5225 d53d 6bbd c8bd 3be4 0e3d
00000330: 5e43 57bd 818e c43d 2280 d13d b7c0 653c
00000340: bc2b babd 9dc2 d13d d2b7 db3d 64b4 5bbd
00000350: 4a28 76bc 888d 9d3d 5f77 2e3d e631 883d
00000360: a7ba d33d 207b 003d c8f7 5a3d 1e99 3b3a
00000370: deb5 a1bc 3e15 01bd 248c 24bd fcf0 143d
00000380: 87d9 02be 1440 9fbd 62c9 a83d 5997 debc
00000390: bd9f 833d c1ae 513d c482 96bd 667a 873d
000003a0: a601 56bd 1c02 cb3d 0e64 be3d d524 963d
000003b0: 0730 693d 1549 66bd d4bc 0bbd 840d 34bd
000003c0: a1a3 c63c f258 523d 9112 d33d 7673 433c
000003d0: 2ca4 87bd 8668 9b3d b89b e5bd b051 5cbd
000003e0: 5bc1 313d c29d 9a3d 4fd9 b73d 3f29 f4bd
000003f0: 03fc b73d d329 74bd 4fea bfbb 5f31 243c
-0.076492384 0.036472794 0.11570435 0.012822722 -0.10335538 0.00091377815 0.04592498 -0.06559321
-0.022469794 -0.07303128 -0.034899674 -0.114200495 0.031177578 0.043737926 -0.026048178 -0.07139237
0.09079065 0.07439806 -0.11902388 0.044532053 0.090618595 -0.035337407 -0.06637184 -0.01877651
-0.07998245 0.044813126 -0.13183182 0.00028951297 -0.037152015 -0.046780616 -0.022713948 -0.010682726
0.046639554 0.032672074 -0.04877382 -0.078544736 -0.032185 0.116170324 0.032403767 0.08937325
-0.11925631 -0.005520329 0.0067083198 0.033866342 0.020381832 0.02545159 0.03445992 -0.108348355
-0.07964352 -0.04129614 -0.05477379 -0.07349256 -0.10201565 -0.006649966 -0.020799456 0.12322127
-0.048394166 0.03670121 0.0026345896 -0.13053507 0.044235438 0.12547815 0.08441135 0.0387259
-0.03174974 -0.038713068 -0.00033654034 -0.08286297 0.06499418 0.090641074 -0.12314923 0.1051966
-0.091464825 -0.051950946 -0.11644537 -0.13335557 -0.06393567 -0.052817978 0.061819777 -0.043129332
0.07195476 0.068901606 -0.0131871505 -0.058951735 0.041559815 0.10447814 -0.021021655 -0.073113576
-0.00929583 -0.117374256 0.044809535 0.108162254 -0.10364683 -0.07264425 -0.074927375 -0.08031884
0.09176881 -0.015455663 0.118697934 -0.018769905 0.0630136 -0.019420948 -0.12388618 0.010492623
0.05189405 -0.071874425 -0.00024380647 -0.030547539 -0.0830153 0.029212821 0.0739402 0.046732854
-0.07648063 -0.06407313 -0.08678184 -0.05098687 0.09824328 -0.11129148 -0.06881067 -0.0054216264
-0.0089136 -0.069779396 0.11571081 0.07808669 0.10518907 0.051376343 -0.005216062 -0.077046886
-0.12371917 -0.10109773 -0.09355228 -0.019941747 -0.08569937 0.12927105 0.03656606 -0.04776411
-0.118917435 -0.06388198 -0.06465455 0.0862418 0.013052766 0.055862635 -0.11208033 0.11261331
0.06930223 -0.02190882 -0.05990643 0.0956763 0.017175129 -0.037747268 -0.098286465 0.092771776
0.05270686 0.020247076 0.081051625 0.049587354 0.07060152 0.0745703 -0.13314648 0.044062153
-0.048318043 0.09260145 0.07243281 -0.09597857 0.07508575 -0.059547566 0.060109347 -0.12255521
-0.021468863 0.009724972 0.005010848 0.0065752477 0.07065534 0.06764354 0.06486826 -0.118251786
-0.10402935 -0.12257333 -0.07596907 0.09376186 -0.072986834 0.05987104 -0.06930553 -0.0707501
0.06009377 0.014426395 -0.06495982 -0.07120351 0.082980074 0.12351781 0.043010395 -0.056384567
0.011198449 -0.0010378147 0.1181588 0.04379717 0.08545207 0.10219281 0.11140808 -0.15465496
-0.041780803 0.10407509 -0.098017536 0.034885626 -0.05255448 0.09597493 0.102295175 0.014022998
-0.09090373 0.10242198 0.1072842 -0.05363883 -0.015024254 0.076930106 0.04259431 0.06650142
0.103383355 0.03136742 0.05345896 0.00071563 -0.019740041 -0.0315144 -0.04017271 0.036362633
-0.12778293 -0.07775894 0.08241536 -0.027171778 0.06426952 0.05119205 -0.0734916 0.066151425
-0.052247666 0.09912512 0.09296428 0.07331244 0.056930568 -0.05622204 -0.034115627 -0.043958202
0.024247946 0.051354356 0.10306276 0.0119293835 -0.0662311 0.07588296 -0.112113416 -0.05378884
0.04339729 0.07549621 0.08976995 -0.119219296 0.08983614 -0.0596102 -0.005856789 0.010021537

linear2.bias f4 [128]
00000000: 8982 5c3d c684 95bc 205b 54bd 0cef 4d3c
00000010: bf19 53bd 3149 0abd c4e5 523d a4cc 193b
00000020: 2a61 f03d faa2 01bd d743 b3bc 1b91 393d
00000030: 42ff 8d3d 3cde 40ba 4945 8abd b8be 2fbd
00000040: b22d ba3d abc0 c7bc aba6 b43b c986 6dbc
00000050: e3e6 6c3d 2fb2 6f3c b751 46bc d7a1 523c
00000060: f474 703d ccbf 0ebd 7d8a 05bd 275e c23c
00000070: 2c0a f63d 1814 663d 4c63 423d d71c a3bd
00000080: 914d 72bd d09c f2bc e261 e33c e847 4abd
00000090: cd68 02bc baa5 f23c e7ff bd3c 5c41 63bd
000000a0: bc3e c1bc 5f96 42bd 5742 ad3d a818 8abc
000000b0: 5e6d 41bd a692 9cbd c05b b03d 2ab0 103d
000000c0: 4690 61bc ad10 b63c d460 a63b eb81 7dbc
000000d0: 6768 08bd 1d18 773d 9e78 9b3c 4304 b53c
000000e0: 5929 173d c257 79bd 1fd8 10bd a7ad 7fbd
000000f0: 9b92 29ba 22f0 94bd b55f 29bd c8ad 903c
00000100: bc1d aa3c 7e9e cc3c e320 843a 6833 723c
00000110: c525 b23c d0dc 42bd 08df 7dbd f4b3 d1bc
00000120: d473 30bc 49dc ac3d 99e1 63bd 208a d33d
00000130: 032b fe3c 06ee 293d b46d f6bc 9e12 713c
00000140: 2bab 833c bf7b 743d bc72 7d3d d323 b2bd
00000150: 9b57 57bd 7e97 b0bc 3c5c 063d b040 dcbc
00000160: c011 463d f9ca 0cbc d6ca 09bd 1868 42bd
00000170: 7bda d33d 6e94 573d 00b4 9dbd 9126 633d
00000180: a181 153d 5e67 dfbc 1d7c 05bc 9248 3f3d
00000190: 6eb3 7abd 1a23 d5ba 1478 71bd 2f8a b03c
000001a0: 0d2e ba3c 9ce5 72bd e759 78bd 78ed 7cbd
000001b0: fd6b 9cbb 1b23 8bbd 0e7e d3bc b223 943d
000001c0: 7804 443d e310 17bd a08f 13bd 53cd ddbc
000001d0: db1a 3d3d 122b a0bb 358f 8ebc 30c6 bebc
000001e0: d2f3 7e3b f370 0a3e e4e3 0fbd d386 65bd
000001f0: 4642 e9bb adc6 d3bc 7642 473d ca93 a33c
0.053835426 -0.018251788 -0.051844716 0.0125692 -0.051538225 -0.033761207 0.051488653 0.0023467923
0.117372826 -0.031649567 -0.021882934 0.0453044 0.06933452 -0.0007357334 -0.06751496 -0.042906493
0.09090747 -0.024383863 0.0055130324 -0.014497467 0.05783738 0.014629885 -0.012104443 0.012855968
0.058705285 -0.03485088 -0.032602776 0.023726536 0.12013659 0.056171507 0.047457978 -0.07964485
-0.059156004 -0.02961579 0.027756635 -0.04938498 -0.007959557 0.02962004 0.023193313 -0.055482253
-0.023589484 -0.047506686 0.08459919 -0.01685746 -0.04722344 -0.076451585 0.0861125 0.035324253
-0.013767308 0.022224749 0.005077461 -0.015472869 -0.03330269 0.06032573 0.018978413 0.022096759
0.036904667 -0.060874708 -0.03536236 -0.062421467 -0.00064686843 -0.07272364 -0.04135104 0.01766099
0.020766132 0.024977919 0.0010080602 0.014782764 0.021746526 -0.047573864 -0.061980277 -0.025598504
-0.010769803 0.084404536 -0.05563507 0.1032908 0.031026369 0.041486762 -0.030081607 0.014713911
0.01607283 0.059688326 0.061876997 -0.08698239 -0.05257378 -0.021556612 0.032802805 -0.026886314
0.04835677 -0.008593314 -0.033640705 -0.047462553 0.10344406 0.052631788 -0.07700348 0.0554567
0.036500577 -0.027270969 -0.008147267 0.046700068 -0.061206274 -0.0016261071 -0.058952406 0.021550266
0.022727037 -0.059301004 -0.060632613 -0.061749905 -0.0047736154 -0.06793805 -0.025816943 0.07233371
0.047855824 -0.03688134 -0.036025643 -0.027075445 0.04616819 -0.004887947 -0.01740227 -0.023287863
0.0038902652 0.13519649 -0.035129443 -0.05603678 -0.007118496 -0.025851572 0.048647366 0.019967932

linear3.weight f4 [3, 128]
00000000: 1de9 373c 8e90 6fbe 8f8b a0bd b5a1 213e
00000010: 50d8 1d3d 8a48 d13c 78b9 373c 0275 323e
00000020: 70be e2bd cfb8 1fbe f6ed 0e3c 550b 5bbc
00000030: a2bc 41be 5005 94bd d8b3 203e 3db4 adbd
00000040: 41d6 32bd 947f e43d 7b7c f0bc 31b2 d6bd
00000050: 2d17 96be c6ec 46be e756 f4bd 57f4 8c3c
00000060: 19be b63d c2fb aabd c0a4 ed3d 8179 2ebe
00000070: 066b d4bd 7c0a 0abe 3631 413e 2f84 e73d
00000080: 380a 16be 846e c63d 0f96 41be 7bf0 093d
00000090: 1c3a 8dbc b17e 24be 66e6 0d3d b959 b7bd
000000a0: db9a ebbd 62fa 9ebd 080c acbd d1f0 533d
000000b0: 1f05 f6bd ac35 e1bc 037a 323e fffb 983d
000000c0: 9b21 1a3e a65d f53c 03b0 0dbd 9ed5 42be
000000d0: 97d2 5b3c 5f66 1fbe c5da 233e 3521 86be
000000e0: 0917 ad3d 6399 4cbe 42b0 acbd 6cd6 c33c
000000f0: e016 f23d dc97 fc3d c2a0 abbd a77f 2cbe
00000100: 7a87 a2bd 9b0e 1c3d 9754 8ebc 4a01 09be
00000110: e4a3 43be 1747 bd3a 0dbd debd 67b7 abbd
00000120: 8121 303e 6eb2 d1bd 6c6b 753d 7069 ba3c
00000130: 43db a0bc c7f4 103e 1012 10be 82b7 e03d
00000140: ccee 8f3c f9cf 2fbe 6e13 863d bacf 1fbe
00000150: 03ef 2a3e 33c7 983d eb3f 763d d085 99bd
00000160: b6c2 dc3d a6c3 633d 5bee d9bd 2ad8 41be
00000170: ec7a 10be 70fa 423c 499c 13bc 0a20 12be
00000180: 8e04 0a3e d1cc 97be 64ab 11be d06c e63d
00000190: 86e4 2b3e 7960 333e 2e7d 423d caeb 7c3d
000001a0: 3f7b 87bd c9a9 c83c 3a39 28bd f641 4a3e
000001b0: ffa3 c03d 142e c43c f81a cc3d 6c5a edbd
000001c0: cb62 a53d febb 08be db34 e53d 67b2 82be
000001d0: 37bb 6e3d 0708 3d3c ebe6 013e d331 07bd
000001e0: 37cb f4bc 4113 15be f9aa bfba ddc0 f33c
000001f0: 819e 323e 7e9e 32be ba25 71be 9fc7 07be
00000200: d8cb 48be 0966 a93b e12d 0c3e a0c5 debd
00000210: 90dd b13d ef0b 493e 2f59 70bd 51ae efbc
00000220: 10bc 5fbe 565e b73d 47f5 623d cf10 93be
00000230: ed28 f23d 9aae 33be 3cc3 eabc f968 acbc
00000240: 31ac 66be 5cd0 55bd fc43 a2bd f2e6 203d
00000250: 4b23 d83d 3da5 d83d 9123 00be 68b0 3c3e
00000260: 5be3 1b3e 1431 39bc e6ec aa3d 67b9 c8bd
00000270: fc14 7abe 84a0 a0be b647 c13c fa47 0a3d
00000280: 75b8 2fbe bbd5 493e 7d08 1d3e a882 4ebe
00000290: ef8b eabd 55c6 6dbe 85f0 0c3d 5d18 e6bd
000002a0: bc47 083e 2515 3bbd 2213 77be 7522 a53d
000002b0: aa97 c53b 0a97 243c 5eb2 c1bd 9f46 0bbe
000002c0: 63d6 57be f9fb 07be 5008 213d aa77 47be
000002d0: 3d91 83bd e152 2dbe e5f9 2fbe 7d99 e63d
000002e0: 4ff1 a2bd 1cd3 b93d 5db1 163e e231 72bd
000002f0: ff76 c03d 9721 0e3e 199e de3d a975 b23c
00000300: 2cec f0bd d7c8 30be 29e5 b0bd 638b c33d
00000310: 962e 36be f498 6fbc d276 963d a9f7 423d
00000320: 3fab 73bd c46a 37bd d63e 4ebe af2d 11be
00000330: 75f1 923d a85e ff3d 5ad9 a23d 6810 733d
00000340: f29b d73d e72c 41be e397 d2bc 6d32 e5bd
00000350: 642c 283e 28db a4bd 26d6 0bbe e3ce efbc
00000360: b730 17bd ba4a 9e3d 3beb b43d 4550 4dbd
00000370: 709d 90be d206 413c 112c c83d 00be a13d
00000380: 08d2 4f3e 2dea b13d 4b7b 983c fa34 423c
00000390: 2fd5 f1bd deab 8abd df84 123d eb3c 873d
000003a0: 0cb9 d03c 5a7e ee3d 859e 823d da3c 123d
000003b0: dc5c 2c3e 7b1d 1abe fbcb b6bd 8b3c 3abe
000003c0: ae74 24be e77d 9cbd 1d47 603d d265 bcbc
000003d0: 0410 e5bc d595 b3bd fe2f 6f3d b396 843d
000003e0: df9e 823d f62e 72be 03e3 7c3d fd1d aabd
000003f0: cd1f aabd 6ce4 1d3a 7382 32bd 53ff b23d
0.011225012 -0.23394987 -0.07839119 0.15784343 0.03853637 0.025547285 0.011213653 0.17427447
-0.11071479 -0.15597843 0.0087237265 -0.013369401 -0.18919614 -0.07227576 0.15693605 -0.08481643
-0.04366136 0.11157146 -0.029356232 -0.10483206 -0.29314557 -0.1942626 -0.11930638 0.017206354
0.08922977 -0.083488 0.11603689 -0.17038538 -0.103719756 -0.13480562 0.18866429 0.11304509
-0.14652336 0.09689048 -0.18904899 0.033676606 -0.017239623 -0.16063954 0.034643553 -0.0895266
-0.11504146 -0.077626005 -0.08400732 0.051743332 -0.120126955 -0.027491413 0.17429356 0.074699394
0.15051882 0.029951882 -0.034591686 -0.19026801 0.013416908 -0.15566395 0.16001423 -0.2619721
0.08451659 -0.19980387 -0.08432056 0.023905955 0.11820769 0.123336524 -0.083802715 -0.1684557
-0.07935996 0.038099866 -0.01737432 -0.13379398 -0.19105488 0.0014440742 -0.10875902 -0.083845906
0.1720028 -0.10239111 0.0599169 0.022755355 -0.019635802 0.14155875 -0.1406939 0.10972501
0.017569922 -0.17169179 0.06546675 -0.15606585 0.16692738 0.07459869 0.06011955 -0.07496226
0.10779326 0.055606507 -0.10641166 -0.18930116 -0.14109391 0.011900529 -0.009009429 -0.14270034
0.134783 -0.2964845 -0.14225537 0.11251223 0.16786394 0.1751727 0.047482662 0.061748303
-0.06615304 0.024495022 -0.0410702 0.19751725 0.0940628 0.023947753 0.099660814 -0.11589512
0.08075484 -0.13352963 0.11191722 -0.25526735 0.05828401 0.011537558 0.12685744 -0.0330065
-0.029882057 -0.14558126 -0.0014623097 0.02975505 0.17443277 -0.17443272 -0.23549548 -0.13259743
-0.1960901 0.0051696342 0.13689376 -0.10877538 0.08684838 0.19633459 -0.058678802 -0.029257925
-0.21849084 0.0895354 0.055409696 -0.2872376 0.11824212 -0.17547074 -0.028657548 -0.021046149
-0.22526623 -0.05220066 -0.07923123 0.039282747 0.105536066 0.10578392 -0.12513568 0.18426669
0.15223448 -0.011303205 0.08345966 -0.09800988 -0.24422067 -0.31372464 0.023593765 0.03376005
-0.17160209 0.19710438 0.1533527 -0.20167029 -0.114524715 -0.23220189 0.034409065 -0.11235116
0.13308614 -0.045674462 -0.24128392 0.08063213 0.0060300427 0.010045776 -0.09457849 -0.13601159
-0.21077876 -0.13279714 0.039314568 -0.19479242 -0.064241864 -0.16926147 -0.17185171 0.11259744
-0.07956182 0.09073469 0.14716096 -0.059129603 0.09397697 0.13880001 0.108699985 0.02178462
-0.11763796 -0.17264114 -0.08637459 0.0954807 -0.17791209 -0.014623869 0.07346882 0.04759947
-0.059489485 -0.044779554 -0.20141158 -0.14177583 0.071749605 0.12469226 0.07951613 0.059341818
0.10527791 -0.18864785 -0.02570719 -0.111912586 0.16423184 -0.08049613 -0.1365591 -0.029273456
-0.036911692 0.07729097 0.08833929 -0.05012538 -0.28245115 0.011781411 0.0977403 0.07897568
0.20294964 0.086872436 0.018613478 0.011853451 -0.1180824 -0.06771062 0.035771247 0.06603416
0.025478862 0.116451934 0.063778915 0.035702564 0.16832298 -0.15050308 -0.08925625 -0.18187158
-0.16060135 -0.076412015 0.05475532 -0.02299777 -0.027961738 -0.087688126 0.05839538 0.06474056
0.063779585 -0.23650727 0.061739933 -0.08306501 -0.08306847 0.0006023112 -0.043581437 0.087401055

linear3.bias f4 [3]
00000000: 5137 b9bc 0be6 8bbc 0271 d4bd
-0.022609385 -0.017077466 -0.10373117
