groupe01/last_model.pth (torch, 148473 bytes, 6 tensors)

linear1.weight f4 [256, 11]
0.050999027 -0.33167952 -0.034616522 0.21424533 -0.11450653 0.18476178 0.13099627 -0.2542262
-0.46486798 -0.17028913 0.031537645 -0.5228185 0.25029793 -0.03935828 -0.005284212 0.100253135
0.00933365 0.12273295 -0.11281685 -0.12726586 -0.16828325 -0.07292972 -0.51575667 0.06401144
0.13094698 -0.13410375 -0.24427894 0.24313027 0.16480498 -0.40536773 -0.48008716 0.011070687
0.14043437 -0.2541644 0.22055162 -0.1119575 -0.25558183 -0.18652675 -0.04587846 -0.025488202
-0.36412138 -0.22306444 -0.1841815 -0.017991079 -0.0940246 -0.10463097 0.11307738 -0.07902969
-0.0041289874 -0.017585162 0.04155692 0.097568184 0.03356161 0.0009106325 -0.055699892 0.04379237
0.084592044 -0.08390962 0.005840866 -0.021424705 0.06812474 -0.08071396 0.0061158533 0.039360255
-0.06593337 -0.079660095 -0.112292886 -0.11201917 0.055555873 -0.43979132 0.29789183 0.32614335
-0.39951587 -0.49489167 -0.7244905 -0.49754232 0.23064075 0.069504976 0.09444569 -0.3517007
-0.15957287 -0.20635997 -0.1704051 -0.20366131 -0.053878944 -0.039390016 -0.11162225 -0.08843425
0.1512183 0.10558189 -0.040919878 -0.20663902 -0.1033923 -0.16442136 -0.17641546 0.015003274
0.042215537 -0.029740933 0.10264648 0.18350996 -0.026289025 -0.041109923 -0.3188834 0.20076148
0.116258055 0.050780416 0.24366726 -0.17274874 -0.4680085 -0.5406685 -0.1211147 -0.11792308
-0.14000997 -0.083307534 -0.08272461 0.024165964 -0.10861082 0.10021447 0.11156149 -0.035925306
-0.07846452 0.030295568 0.12713371 -0.03562989 -0.2093957 -0.30635092 -0.116675824 -0.30656305
-0.21034488 0.039646726 -0.12111693 0.07036668 0.086460635 -0.117381796 -0.043357763 -0.04233646
-0.11301911 0.1495093 -0.37226468 -0.37994054 -0.50434726 0.10313585 -0.22986884 -0.097243145
-0.11011477 -0.15443207 -0.16400519 -0.14161563 -0.10219902 -0.02516995 -0.049740482 0.0061903284
-0.013903664 -0.1125689 0.2189897 0.33508375 0.24197483 -0.16307694 -0.28184813 -0.2496787
-0.119721726 -0.17505862 -0.10424113 -0.041978892 0.06131587 -0.060765672 0.04945348 0.0121905105
-0.29637 -0.23838718 -0.16414797 0.29935277 -0.5664847 -0.47713754 -0.41069865 0.10130062
0.2253255 0.19156791 0.09576322 -0.021657756 -0.068144485 0.10800625 -0.12638497 0.32572427
0.28360394 0.10593249 0.36538982 0.05111548 0.061508115 -0.11559793 -0.11978512 -0.06279975
-0.03834712 -0.030867942 0.07507937 -0.006930825 -0.0647272 0.072041824 -0.044794988 0.1949044
-0.057814654 -0.040493947 -0.07932131 -0.1420879 0.042718176 -0.26067963 -0.08867898 0.06580484
0.061292827 0.025315648 0.09954826 -0.038530637 0.2223562 -0.11110759 -0.14900804 0.35139173
-0.3930622 -0.38296 0.014249461 -0.46700102 -0.04437333 0.1928656 -0.12766449 -0.046540894
-0.057113905 0.0977564 -0.48863557 -0.62015563 -0.29573074 0.26461598 -0.5182493 0.2826176
0.022429397 -0.022274612 -0.4530082 -0.04835233 0.3706998 0.04032394 0.47479627 0.13115825
-0.34866315 -0.024036834 0.05319043 -0.013145571 -0.06592104 -0.17441274 -0.21147099 -0.043980233
-0.049750265 -0.07031756 -0.23384179 -0.1131933 0.0075986506 -0.2159393 0.061760623 0.071634166
00000000: 5be4 503d e6d1 a9be 0eca 0dbd 2163 5b3e
00000010: 6682 eabd 3132 3d3e e323 063e f029 82be
00000020: 2d03 eebe 4660 2ebe 9e2d 013d 6fd7 05bf
00000030: 0d27 803e 2636 21bd 2f27 adbb 8451 cd3d
00000040: 2aec 183c 6a5b fb3d 850c e7bd fb51 02be
00000050: 7252 2cbe 2d5c 95bd a108 04bf 6e18 833d
00000060: f716 063e 7e52 09be 4224 7abe 24f7 783e
00000070: a3c2 283e 5c8c cfbe fccd f5be d461 353c
00000080: 07ce 0f3e d621 82be 49d8 613e f949 e5bd
00000090: 9fdb 82be de00 3fbe 0deb 3bbd a2cc d0bc
000000a0: 1e6e babe 016b 64be 139a 3cbe 0762 93bc
000000b0: f88f c0bd c348 d6bd 1d95 e73d 51da a1bd
000000c0: 754c 87bb c20e 90bc 9737 2a3d d4d1 c73d
000000d0: e677 093d 83b7 6e3a 9225 64bd a15f 333d
000000e0: 983e ad3d cfd8 abbd bc64 bf3b dd82 afbc
000000f0: fc84 8b3d 5c4d a5bd 7f67 c83b 3838 213d
00000100: 1308 87bd d524 a3bd d0f9 e5bd 4e6a e5bd
00000110: 8e8e 633d 542c e1be 4785 983e 43fc a63e
00000120: 588d ccbe 7162 fdbe 3678 39bf debd febe
00000130: 172d 6c3e a058 8e3d be6c c13d 1d12 b4be
00000140: 1267 23be 0750 53be ad7e 2ebe 978c 50be
00000150: 2bb0 5cbd 6d57 21bd 359a e4bd 041d b5bd
00000160: f8d8 1a3e 513b d83d 9a9b 27bd 2e99 53be
00000170: 58bf d3bd 135e 28be 41a6 34be 4bd0 753c
00000180: 33ea 2c3d 42a3 f3bc 5138 d23d 09ea 3b3e
00000190: 155c d7bc e162 28bd af44 a3be 6b94 4d3e
000001a0: b418 ee3d 20ff 4f3d e983 793e 0ce5 30be
000001b0: cf9e efbe 4069 0abf fc0a f8bd a881 f1bd
000001c0: c65e 0fbe 249d aabd 856b a9bd b3f7 c53c
000001d0: 596f debd 3e3d cd3d 5a7a e43d 6a26 13bd
000001e0: 02b2 a0bd 692e f83c 572f 023e a6f0 11bd
000001f0: d46b 56be 07da 9cbe bcf3 eebd d5f5 9cbe
00000200: a664 57be 9b64 223d 270c f8bd 681c 903d
00000210: 4612 b13d de65 f0bd e997 31bd ff68 2dbd
00000220: 9076 e7bd f718 193e 7a99 bebe 9187 c2be
00000230: e71c 01bf e338 d33d bd62 6bbe 6a27 c7bd
00000240: da83 e1bd 7123 1ebe faf0 27be b003 11be
00000250: b84d d1bd 3631 cebc adbc 4bbd 3dd8 ca3b
00000260: 32cc 63bc 868a e6bd d63e 603e 1990 ab3e
00000270: 40c8 773e a4fd 26be 664e 90be c6ab 7fbe
00000280: aa30 f5bd 9142 33be 607c d5bd 0ff2 2bbd
00000290: 5a26 7b3d 6de5 78bd bb8f 4a3d b5ba 473c
000002a0: cfbd 97be c51b 74be 6816 28be c444 993e
000002b0: 2405 11bf 5f4b f4be 1847 d2be b376 cf3d
000002c0: babb 663e 612a 443e 821f c43d 9b6b b1bc
000002d0: 568f 8bbd 6132 dd3d 106b 01be 55c5 a63e
000002e0: 8934 913e 22f3 d83d 6014 bb3e 775e 513d
000002f0: efef 7b3d 9cbe ecbd e751 f5bd 289d 80bd
00000300: df11 1dbd c4de fcbc 36c3 993d f91b e3bb
00000310: b28f 84bd aa8a 933d f37a 37bd 0595 473e
00000320: 0fcf 6cbd fbdc 25bd 3673 a2bd 7e7f 11be
00000330: 41f9 2e3d cd77 85be 539d b5bd b0c4 863d
00000340: 300e 7b3d c362 cf3c f5df cb3d 4dd2 1dbd
00000350: 58b1 633e 608c e3bd 9095 18be 9ee9 b33e
00000360: 733f c9be 5513 c4be 9276 693c c21a efbe
00000370: cfc0 35bd 8f7e 453e 7bba 02be aaa1 3ebd
00000380: 45f0 69bd 8234 c83d 712e fabe 85c2 1ebf
00000390: 056a 97be bf7b 873e fcab 04bf 41b3 903e
000003a0: dbbd b73c 3f79 b6bc b1f0 e7be 180d 46bd
000003b0: 5dcc bd3e b72a 253d 7f18 f33e 594e 063e
000003c0: fa83 b2be e5e8 c4bc 35de 593d 8560 57bc
000003d0: 9c01 87bd 4199 32be da8b 58be 9e24 34bd
000003e0: efc6 4bbd a702 90bd 3974 6fbe e4d1 e7bd
000003f0: 1afe f83b 311f 5dbe b5f8 7c3d efb4 923d

linear1.bias f4 [256]
0.33932048 0.47674516 0.07301224 -0.19649257 -0.28909966 -0.3134837 0.0025651548 -0.04883076
-0.28282827 -0.055525746 -0.2726873 -0.16966978 0.13435051 -0.015094596 -0.119577445 0.052228782
-0.3163101 -0.31576505 -0.33817637 -0.009753924 0.22204497 -0.11345508 -0.060105156 -0.05556832
0.0454468 0.0028120645 -0.05892929 0.08912423 -0.17702782 -0.029055333 -0.0558582 0.66695154
0.3557226 -0.17545038 -0.0842241 -0.25736496 -0.03327483 -0.17613173 -0.22700019 -0.18835568
-0.10922902 -0.034142163 0.11430253 -0.11968552 -0.017975463 0.17212422 -0.08960641 -0.08123971
-0.047720443 -0.2442076 -0.26881236 -0.15814623 -0.16202092 -0.09002741 0.1881667 -0.052483134
0.07405365 -0.07077831 0.18381847 -0.3137079 0.03743025 -0.3658723 -0.25703445 -0.1281156
-0.16808832 0.12105332 0.069670804 -0.18447936 0.06493699 -0.14959504 -0.31531698 -0.25350714
-0.2995827 0.12530825 0.10631971 0.22761686 -0.012139747 -0.14013681 -0.10859392 -0.24308781
-0.2141093 -0.15094544 -0.08324547 -0.24760105 -0.124599464 -0.071124025 -0.06342737 -0.044002093
0.020437194 0.069626294 -0.20662037 -0.3792297 0.036485396 -0.03536379 0.2117538 -0.067386284
-0.23493998 -0.2537012 -0.05276597 -0.0008244235 0.5978775 0.022950461 -0.18188891 -0.19405544
-0.16286989 -0.01314818 -0.31381422 -0.024007127 -0.31310725 -0.2367334 -0.2945911 -0.07822979
0.04800368 -0.06599714 -0.17837061 -0.28934568 0.23565382 -0.112380095 -0.055715825 -0.24295205
-0.13184306 -0.11182488 0.11275447 -0.40691146 0.022724709 -0.008606126 -0.15665057 -0.080942094
-0.2816454 0.20555775 -0.15925345 -0.28935033 -0.03484208 -0.21819249 -0.15889578 0.09044258
-0.21664421 0.012427035 -0.43317538 -0.17765631 0.39341927 -0.04554835 -0.2930016 0.08591254
-0.17087603 -0.05777461 -0.28401464 0.14466879 -0.14556086 -0.09244185 -0.15479293 -0.010729564
-0.1593982 0.42432213 -0.039742265 -0.08793997 -0.08170017 -0.33499494 -0.10143686 0.019886449
-0.23765866 0.020599466 0.48042536 -0.32946455 0.10516907 0.34939352 -0.20719062 -0.09813911
-0.21791539 -0.28969032 -0.051999994 -0.27729723 -0.102455385 -0.10402261 0.086020246 -0.1101809
-0.13727283 -0.23082091 0.009687892 -0.097687796 -0.27495757 -0.14080508 0.02537521 -0.079981804
-0.064356476 0.16268183 -0.24330825 -0.17911412 0.062780984 0.1402574 0.16961364 -0.1396638
-0.42418948 -0.08764442 0.09873282 0.096526496 -0.23838782 -0.05193351 0.09913598 -0.17057894
0.061556466 -0.2292732 0.0715531 -0.21320419 -0.120789796 -0.18423398 -0.25433728 -0.14948021
-0.20202982 -0.0408915 -0.2594689 0.027864905 -0.19078867 -0.19433002 0.05992412 -0.20396554
-0.3654933 -0.21251716 0.015621244 0.27468744 -0.19254886 -0.11971232 0.03686358 0.004928982
0.049138255 -0.29726583 -0.219439 -0.09813975 0.079824485 -0.035395186 -0.23071714 -0.21973479
0.05061425 -0.18173958 -0.35935605 -0.11384081 -0.21782777 -0.17346288 -0.069166966 0.0980292
-0.061368357 -0.26045534 0.017577156 0.19127695 -0.2666393 -0.32980064 -0.2505664 0.1349489
-0.25571615 -0.25539213 -0.3367495 -0.057959154 -0.25830433 0.15460965 -0.31963316 -0.2253895
00000000: 6abb ad3e f117 f43e 7187 953d 5935 49be
00000010: df04 94be ef80 a0be 281c 283b c302 48bd
00000020: dece 90be f76e 63bd ab9d 8bbe eabd 2dbe
00000030: 2e93 093e 534f 77bc 05e5 f4bd d9ed 553d
00000040: 66f3 a1be f5ab a1be 7425 adbe ecce 1fbc
00000050: c25f 633e 235b e8bd d330 76bd 9b9b 63bd
00000060: 6c26 3a3d 9d4a 383b d75f 71bd c486 b63d
00000070: c846 35be 7305 eebc 91cb 64bd 56bd 2a3f
00000080: 4621 b63e 44a9 33be af7d acbd 57c5 83be
00000090: 304b 08bd e05b 34be bd72 68be 50e0 40be
000000a0: 77b3 dfbd a7d8 0bbd 7217 ea3d af1d f5bd
000000b0: 4741 93bc 5541 303e 9183 b7bd 0161 a6bd
000000c0: 8376 43bd 8f11 7abe c6a1 89be 16f1 21be
000000d0: d0e8 25be 4a60 b8bd c5ae 403e 8ef8 56bd
000000e0: 71a9 973d 38f4 90bd e93a 3c3e 529e a0be
000000f0: 7650 193d 9d53 bbbe 059a 83be bc30 03be
00000100: 581f 2cbe ceea f73d 91af 8e3d 28e8 3cbe
00000110: affd 843d 712f 19be 3a71 a1be b0cb 81be
00000120: e762 99be ce50 003e 26be d93d 6514 693e
00000130: cae5 46bc 0680 0fbe 7d66 debd 03ec 78be
00000140: 783f 5bbe 7191 1abe 9a7c aabd 218b 7dbe
00000150: 012e ffbd 79a9 91bd 35e6 81bd 8a3b 34bd
00000160: e76b a73c 3b98 8e3d 4a94 53be 652a c2be
00000170: b671 153d 9fd9 10bd fdd5 583e d201 8abd
00000180: 1b94 70be 20e5 81be 2121 58bd 201e 58ba
00000190: 800e 193f 9b02 bc3c 1641 3abe 78b6 46be
000001a0: 5dc7 26be 776b 57bc 42ac a0be 98aa c4bc
000001b0: 984f a0be 3e6a 72be a5d4 96be f136 a0bd
000001c0: 829f 443d 8229 87bd c9a6 36be 1e25 94be
000001d0: 3c4f 713e 8927 e6bd 4736 64bd 6cc8 78be
000001e0: de01 07be 7104 e5bd d1eb e63d b356 d0be
000001f0: 2b29 ba3c b500 0dbc 0269 20be f8c4 a5bd
00000200: d333 90be bb7d 523e 5613 23be ba25 94be
00000210: 92b6 0ebd da6d 5fbe 93b5 22be f639 b93d
00000220: fbd7 5dbe c39a 4b3c 2ac9 ddbe 89eb 35be
00000230: 406e c93e e890 3abd 4e04 96be eaf2 af3d
00000240: 20fa 2ebe 12a5 6cbd 5e6a 91be 0e24 143e
00000250: e80d 15be 2752 bdbd 0a82 1ebe 0ecb 2fbc
00000260: 4839 23be c040 d93e c9c8 22bd df19 b4bd
00000270: 6b52 a7bd 7584 abbe 21be cfbd e8e8 a23c
00000280: cb5c 73be 36c0 a83c 50fa f53e 94af a8be
00000290: e262 d73d b5e3 b23e c729 54be 28fd c8bd
000002a0: 3625 5fbe 4a52 94be f2fd 54bd e7f9 8dbe
000002b0: 21d4 d1bd ce09 d5bd 622b b03d 86a6 e1bd
000002c0: 4091 0cbe 515c 6cbe f7b9 1e3c 8a10 c8bd
000002d0: 3dc7 8cbe 352f 10be acdf cf3c 80cd a3bd
000002e0: 54cd 83bd 1196 263e cc25 79be b169 37be
000002f0: 5193 803d a39f 0f3e 33af 2d3e 0704 0fbe
00000300: 5d2f d9be eb7e b3bd 6f34 ca3d afaf c53d
00000310: f01b 74be 3bb8 54bd ce07 cb3d 3fac 2ebe
00000320: a222 7c3d 98c6 6abe 6f8a 923d 3352 5abe
00000330: a460 f7bd d5a7 3cbe 7f38 82be 5711 19be
00000340: e8e0 4ebe d87d 27bd 1cd9 84be f144 e43c
00000350: 1b5e 43be 73fe 46be fe72 753d 58dc 50be
00000360: f021 bbbe 199e 59be 3ff0 7f3c d5a3 8c3e
00000370: 872b 45be bc2b f5bd 44fe 163d 4c83 a13b
00000380: 3245 493d 3a33 98be 9eb4 60be 7efd c8bd
00000390: 057b a33d 8bfa 10bd 1d41 6cbe 2802 61be
000003a0: e350 4f3d f119 3abe 84fd b7be 5f25 e9bd
000003b0: 3e0e 5fbe 41a0 31be 69a7 8dbd 89c3 c83d
000003c0: 635d 7bbd 675a 85be f8fd 8f3c 1bde 433e
000003d0: f284 88be a1db a8be 3d4a 80be 0b30 0a3e
000003e0: 3aed 82be c2c2 82be 6e6a acbe 9466 6dbd
000003f0: 7740 84be fe51 1e3e f5a6 a3be 81cc 66be

linear2.weight f4 [128, 256]
0.13518664 -0.12708068 -0.13002588 -0.029645123 -0.010065645 0.104054764 0.438722 -0.07560075
0.08148694 -0.00088034273 -0.027817622 -0.14500129 0.061835017 0.10546488 -0.032397922 -0.035757247
-0.15065663 -0.101425886 -0.1639104 0.15859336 0.111252286 0.12813456 0.012409134 -0.09679946
0.07701856 0.12886846 -0.48474327 0.33827952 0.17038675 -0.05054045 0.17618613 0.16361214
-0.1617808 -0.2798547 -0.60483766 -0.0061344737 0.13266674 0.2765636 0.0013173877 -0.3905974
-0.19913703 0.23975006 -0.63373834 0.12935625 0.11725485 0.027713818 0.084544815 -0.17984569
0.22937399 -0.04020469 0.044270147 0.058553115 -0.10952488 -0.10846378 0.025615675 -0.119361
-0.079743594 0.052485336 0.2941544 -0.003427162 0.41825128 -0.19982073 -0.11546809 0.05399247
0.14614476 -0.5538614 -0.07581892 -0.11884012 -0.4425026 -0.019343823 0.2991483 0.0091894865
0.012749627 0.14713913 0.025845602 -0.13912277 0.0010677719 0.0015624551 -0.1178844 0.06825569
0.120879054 0.40426716 -0.051784992 -0.079014674 0.049659215 0.05380957 0.16744983 0.20329727
-0.11932948 0.11907923 -0.041747637 -0.53916717 0.19426022 -0.06562112 0.10323422 -0.055533674
-0.011830742 -0.11116238 -0.057152964 -0.07128717 0.035597432 0.08006042 -0.12809241 0.27176744
-0.1051095 0.15274715 0.1893371 0.12355234 0.09556721 0.12257503 0.08489659 0.14616872
-0.16933686 0.00021218887 0.0011517238 0.045825303 -0.048834283 0.14651065 -0.3551746 0.007204309
-0.0851516 0.22293742 -0.17656949 -0.2858226 -0.16444802 0.05587095 0.059714563 -0.6175664
0.03401638 -0.09313691 -0.008623034 0.039399512 0.13841984 -0.06129442 0.24499328 0.26376468
0.11531779 -0.31631133 0.35734606 0.2442523 -0.40748727 -0.0758521 0.06420373 0.24428274
0.08604057 0.053569876 0.006672037 0.24610475 -0.34413266 0.46571186 -0.41622898 0.36980638
-0.060903344 -0.1368647 -0.11947332 0.057567447 0.06164007 0.093150124 0.008709118 0.44374356
-0.04379451 0.08574755 0.25424525 -0.07979566 -0.26431662 -0.20876314 0.09800717 0.027304377
0.034186855 0.013401893 0.12648073 0.0018051133 0.36283296 0.0028079902 -0.5812811 -0.021407768
0.040568165 0.14409582 0.12986691 -0.30863875 -0.06849824 0.06572785 0.015938893 -0.032381926
-0.029607445 -0.086137556 0.15881632 0.14355202 0.024567638 -0.20762432 0.37259108 -0.020344354
0.11361877 0.15846355 0.20328788 0.08520776 -0.37709206 -0.10058717 -0.0028598453 0.41629207
0.107946366 0.2072536 -0.113752395 -0.08721627 -0.10320833 0.0005506337 0.20936778 -0.075362846
0.06746887 0.118602276 0.070730366 0.12612833 0.08687155 0.15337543 -0.6628269 0.066312626
-0.019804265 -0.020083204 -0.031506132 -0.019341996 0.14818464 -0.02951687 0.38307106 0.124911845
0.36188722 0.13613595 0.015609428 0.19625883 -0.30263382 -0.3134096 0.08966008 -0.065526985
0.025142904 0.002208038 0.024101932 -0.07786298 -0.3767385 -0.06877786 -0.0048087835 0.23016015
-0.16824502 0.06541118 0.12097034 -0.10439585 0.0160266 -0.12051376 0.07025437 -0.4702288
0.28509828 -0.05580303 -0.017523346 -0.0868899 0.39139608 -0.53443843 0.027362153 0.060667276
00000000: 5e6e 0a3e 7021 02be 8125 05be 54da f2bc
00000010: 60ea 24bc aa1a d53d 2ca0 e03e 91d4 9abd
00000020: a0e2 a63d cdc6 66ba c8e1 e3bc 387b 14be
00000030: b746 7d3d f9fd d73d afb3 04bd 3176 12bd
00000040: bb45 1abe 60b8 cfbd 21d8 27be 4c66 223e
00000050: 3dd8 e33d b535 033e ae4f 4b3c cc3e c6bd
00000060: e8bb 9d3d 18f6 033e 4530 f8be f932 ad3e
00000070: dd79 2e3e 8103 4fbd 236a 343e f189 273e
00000080: dea9 25be 1e49 8fbe a4d6 1abf b203 c9bb
00000090: cad9 073e bf99 8d3e 32ac ac3a 62fc c7be
000000a0: 94ea 4bbe 0a81 753e ad3c 22bf f775 043e
000000b0: 5023 f03d 1708 e33c d525 ad3d 7829 38be
000000c0: 04e1 6a3e acad 24bd 9d54 353d 64d5 6f3d
000000d0: 954e e0bd 4222 debd f7d7 d13c 8a73 f4bd
000000e0: 9c50 a3bd ddfa 563d 689b 963e 3d9a 60bb
000000f0: 0825 d63e ce9d 4cbe 897a ecbd 3527 5d3d
00000100: f9a6 153e dcc9 0dbf f346 9bbd 7362 f3bd
00000110: b38f e2be f076 9ebc f729 993e 808f 163c
00000120: d0e3 503c a4ab 163e 28ba d33c 3376 0ebe
00000130: 7bf4 8b3a 4bcb cc3a 606d f1bd a4c9 8b3d
00000140: 708f f73d 1bfc ce3e 801c 54bd 72d2 a1bd
00000150: 7667 4b3d 6c67 5c3d f877 2b3e 292d 503e
00000160: 0463 f4bd d0df f33d 92ff 2abd dc06 0abf
00000170: 27ec 463e 5e64 86bd 766c d33d 4777 63bd
00000180: bad5 41bc 1aa9 e3bd 3a19 6abd 02ff 91bd
00000190: 9dce 113d b8f6 a33d a82a 03be 1a25 8b3e
000001a0: a643 d7bd c069 1c3e 96e1 413e 0209 fd3d
000001b0: beb8 c33d 9e08 fb3d 43de ad3d 41ad 153e
000001c0: a466 2dbe 047f 5e39 70f5 963a 50b3 3b3d
000001d0: 7506 48bd e306 163e 72d9 b5be 2012 ec3b
000001e0: f663 aebd b549 643e a2ce 34be 5757 92be
000001f0: 1065 28be f0d8 643d 4297 743d d518 1ebf
00000200: c254 0b3d 90be bebd a047 0dbc 6261 213d
00000210: eebd 0d3e dc0f 7bbd 85df 7a3e 2a0c 873e
00000220: bc2b ec3d 8ff3 a1be 10f6 b63e 461d 7a3e
00000230: 2ca2 d0be 5958 9bbd 3f7d 833d 4125 7a3e
00000240: 0a36 b03d 166c 5b3d 1aa1 da3b e202 7c3e
00000250: 2832 b0be c971 ee3e f71b d5be 4357 bd3e
00000260: c975 79bd 4326 0cbe 6eae f4bd d8cb 6b3d
00000270: 4c7a 7c3d 7ec5 be3d b0b0 0e3c 5b32 e33e
00000280: df61 33bd 699c af3d 6f2c 823e e86b a3bd
00000290: 8254 87be 01c6 55be fcb7 c83d 6ead df3c
000002a0: 8407 0c3d 9d93 5b3c 2a84 013e 8d99 ec3a
000002b0: 3ec5 b93e 4206 383b d7ce 14bf 585f afbc
000002c0: ce2a 263d db8d 133e d5fb 043e e605 9ebe
000002d0: ce48 8cbd 539c 863d 4892 823c e9a2 04bd
000002e0: 508b f2bc e368 b0bd bfa0 223e 4dff 123e
000002f0: 1242 c93c 789b 54be 42c4 be3e 34a9 a6bc
00000300: f5b0 e83d 4544 223e b32a 503e 6881 ae3d
00000310: 3612 c1be a500 cebd 3e6c 3bbb 3c24 d53e
00000320: fc12 dd3d 4a3a 543e 04f7 e8bd 729e b2bd
00000330: e45e d3bd 6758 103a 8264 563e d657 9abd
00000340: 1e2d 8a3d c0e5 f23d 15db 903d c927 013e
00000350: b6e9 b13d 730e 1d3e 06af 29bf eace 873d
00000360: 8e3c a2bc 8885 a4bc 930c 01bd 1b73 9ebc
00000370: b7bd 173e 5dcd f1bc e421 c43e c8d1 ff3d
00000380: 4849 b93e 3967 0b3e b0be 7f3c 13f8 483e
00000390: d2f2 9abe 3977 a0be b49f b73d 0333 86bd
000003a0: 7ef8 cd3c bbb4 103b 6a71 c53c a076 9fbd
000003b0: dee3 c0be 68db 8cbd 0093 9dbb 1aaf 6b3e
000003c0: 6c48 2cbe 4cf6 853d 4cbf f73d 7ecd d5bd
000003d0: 374a 833c ebcf f6bd 86e1 8f3d d4c1 f0be
000003e0: 67f8 913e b891 64bd 1f8d 8fbc 55f3 b1bd
000003f0: 1165 c83e f5d0 08bf 9826 e03c 407e 783d

linear2.bias f4 [128]
0.04354453 -0.19613512 -0.15581228 -0.14841112 -0.13357753 -0.12726119 0.050498307 -0.08839711
-0.08082871 -0.04961627 1.2370485 0.023086617 0.078035206 -0.069247775 -0.10752886 -0.12479895
-0.15807638 -0.05991635 0.099947736 -0.09729679 0.121254176 -0.09736889 0.09290817 0.35500473
0.07732171 0.100884944 -0.10155967 0.030904515 -0.045461465 -0.010824569 -0.13686372 -0.083321095
0.5794924 -0.1199227 -0.08824983 -0.0017040853 -0.07123507 0.047995824 -0.08663559 -0.060254116
0.08537702 -0.043464683 -0.11162617 0.02819479 -0.07271175 -0.015495717 0.069860585 -0.0863891
0.4079211 -0.14598294 0.37329015 0.06475006 -0.13327903 -0.052757844 0.075812005 -0.038242597
-0.14311638 -0.1005304 -0.0481164 0.19816895 -0.089028545 0.7851085 0.49998233 0.14713107
-0.06936836 -0.039860196 -0.058411848 -0.112534344 -0.09020387 -0.17078732 0.061021592 -0.20733869
-0.09428419 0.04378125 -0.036791727 -0.07014077 -0.12200801 -0.080911204 0.6910897 -0.12240227
-0.11904015 -0.019389477 -0.18239364 0.20656018 -0.07583478 0.13314436 -0.13251717 -0.12667452
-0.12375668 -0.118704475 -0.05679652 -0.24015659 -0.12725142 -0.12799723 0.09550836 0.13729106
-0.101814814 0.1076432 -0.083832055 -0.13829352 -0.11522955 -0.049882498 -0.18288997 -0.18471017
-0.057042986 -0.088427536 0.4323162 0.06599963 0.31672144 -0.21512428 -0.022402631 -0.09129134
-0.11254717 -0.09654345 -0.044105716 -0.10352379 -0.04947806 -0.05864004 -0.18651545 0.005005112
-0.37646306 -0.1476682 -0.04496323 -0.11527998 0.09251967 0.009506833 -0.025135355 -0.11356281
00000000: c05b 323d a5d7 48be 418d 1fbe 16f9 17be
00000010: 8cc8 08be c250 02be 50d7 4e3d 8b09 b5bd
00000020: 8689 a5bd 6e3a 4bbd 9b57 9e3f 2520 bd3c
00000030: ecd0 9f3d c7d1 8dbd 1738 dcbd 9896 ffbd
00000040: c6de 21be d96a 75bd 66b1 cc3d 8a43 c7bd
00000050: 1c54 f83d 5769 c7bd a346 be3d 2ec3 b53e
00000060: d85a 9e3d c49c ce3d 84fe cfbd 772b fd3c
00000070: cd35 3abd 8859 31bc 0126 0cbe 40a4 aabd
00000080: 9d59 143f 089a f5bd 54bc b4bd 9d5b dfba
00000090: b1e3 91bd 4597 443d 006e b1bd 05cd 76bd
000000a0: 26da ae3d 0608 32bd 439c e4bd c3f8 e63c
000000b0: e6e9 94bd bfe1 7dbc 1113 8f3d c5ec b0bd
000000c0: 09db d03e 8d7c 15be e31f bf3e ae9b 843d
000000d0: 4c7a 08be 9c18 58bd 5343 9b3d 45a4 1cbd
000000e0: 1a8d 12be e2e2 cdbd b415 45bd cdec 4a3e
000000f0: 9954 b6bd dffc 483f affd ff3e 87a9 163e
00000100: 0011 8ebd 7244 23bd 4341 6fbd 6878 e6bd
00000110: cebc b8bd dfe2 2ebe c7f1 793d 9850 54be
00000120: 1218 c1bd f853 333d ecb2 16bd f7a5 8fbd
00000130: 56df f9bd c6b4 a5bd 41eb 303f 0bae fabd
00000140: 52cb f3bd aed6 9ebc 66c5 3abe 8384 533e
00000150: 444f 9bbd ff56 083e 95b2 07be f7b6 01be
00000160: 2474 fdbd 551b f3bd 78a3 68bd 9ceb 75be
00000170: 324e 02be b511 03be e399 c33d 0796 0c3e
00000180: 4984 d0bd 0a74 dc3d 24b0 abbd d19c 0dbe
00000190: 78fd ebbd 9751 4cbd 8247 3bbe aa24 3dbe
000001a0: e8a5 69bd 7f19 b5bd 8d58 dd3e d02a 873d
000001b0: 5029 a23e 8a49 5cbe b985 b7bc f4f6 babd
000001c0: 217f e6bd 93b8 c5bd 32a8 34bd 4804 d4bd
000001d0: 82a9 4abd 8a30 70bd e8fd 3ebe ec01 a43b
000001e0: c4bf c0be 5536 17be 5d2b 38bd e917 ecbd
000001f0: f47a bd3d 8cc2 1b3c a9e8 cdbc 9e93 e8bd

linear3.weight f4 [3, 128]
0.058547415 -0.023579018 -0.21539381 0.2764691 -0.008788532 0.082264006 0.20973915 -0.15590471
0.03710297 -0.11463168 0.38406786 -0.024364619 -0.1248376 -0.030597089 -0.056697216 0.09305858
-0.0056725983 0.009603654 -0.74673134 -0.15551372 -0.10079521 -0.0052263644 -0.26197892 0.27316108
-0.01779357 0.03155592 0.10863363 -0.0060739876 0.05955063 -0.30740914 -0.1651933 -0.018039964
0.108786136 0.009007616 0.059717827 -0.00962225 0.12708154 -0.004581297 -0.097482465 0.1479839
0.09544701 -0.029029604 0.13790162 0.018274209 -0.052813075 0.060798272 0.0146720465 0.018277394
0.32479054 -0.10359035 0.34140256 -0.48830855 0.20960127 0.17228647 0.0036804548 0.19428882
-0.11377005 -0.025057416 0.036216777 0.28588516 0.029947005 0.22111 0.24466395 -0.0717597
0.080260664 0.1316685 -0.20667456 0.08997849 0.10220668 0.32426572 0.01690946 -0.43595105
-0.030907033 0.055324942 -0.09110886 -0.015010999 0.03773592 0.14396755 0.14332569 -0.114368856
0.16065244 0.07530872 0.04048219 -0.03884682 0.08238729 -0.65453804 0.090369426 0.15582219
-0.05338051 0.06305902 0.14455365 0.06477839 0.16549923 0.13250272 -0.12119245 -0.045637798
-0.072568074 -0.20597568 0.009947706 -0.023870332 0.13061745 -0.025631288 0.024614481 0.022975992
0.13919197 0.084166184 0.5556021 0.12084656 0.33720326 0.042598378 0.015195977 0.034569263
0.04580148 0.19907297 -0.025073605 0.20512612 -0.17042252 -0.15306896 -0.0011599688 -0.1595256
-0.052066337 0.11264882 0.02076221 0.20833193 0.12955101 -0.1406938 -0.14574088 0.016124452
0.2378778 -0.0049399445 -0.18943918 -0.020442141 0.057982236 0.009793304 -0.6681108 0.019148901
0.031910185 0.03328636 0.3005608 -0.03923813 -0.11652714 -0.034530558 -0.14527993 -0.053989146
-0.0028954984 -0.08143442 0.048942044 -0.002425629 -0.07529995 -0.11032644 0.17653362 0.11135848
-0.0030600054 0.20314363 -0.14150602 -0.15840918 -0.13155207 0.1440742 -0.13165207 0.16823715
0.096348114 -0.28959298 -0.1175268 0.053024545 -0.062252022 -0.8900342 0.017993653 -0.13183062
0.21424122 -0.046322513 -0.029655844 0.112779304 0.064698786 -0.10246053 -0.103478394 0.012684003
0.19350769 0.10780385 -0.061506364 -0.020395061 0.07514654 -0.02078782 -0.4099566 -0.11893407
0.054258857 -0.50305957 -0.08383295 0.0614846 0.016492397 0.090738386 0.21368589 -0.15549314
0.10741083 0.019130383 -0.10675137 0.120268956 0.015707096 0.059277996 -0.6545441 0.004237268
-0.14869805 0.21084167 0.0033811056 -0.058360912 -0.029746225 0.086073086 0.40293074 -0.033289526
-0.012459225 0.026394816 -0.06011132 -0.10464458 -0.02772478 -0.034653146 0.043051645 0.12294482
-0.010345592 -0.14931324 0.006969952 -0.6874491 -0.034351517 0.21373597 -0.020641958 -0.07164427
-0.35498708 -0.10414345 0.22722615 0.1110312 0.111674525 0.16665658 -0.07402283 0.026008334
0.15234832 -0.07711929 0.122742034 0.23223847 0.18019506 0.13466826 0.033156306 -0.08618875
0.0042434516 0.10972896 0.1518126 -0.118759625 0.17538838 0.17207836 -0.52888364 -0.10351306
-0.1570741 -0.11857347 0.21627252 -0.089269765 0.024126759 -0.055917382 0.03482029 0.18363689
00000000: 6acf 6f3d c928 c1bc 3290 5cbe 5c8d 8d3e
00000010: c6fd 0fbc 087a a83d dcc5 563e 7ca5 1fbe
00000020: 49f9 173d 04c4 eabd 8ba4 c43e 4f98 c7bc
00000030: dbaa ffbd bfa6 fabc 573b 68bd 7f95 be3d
00000040: 34e1 b9bb a558 1d3c c929 3fbf fd3e 1fbe
00000050: b86d cebd ec41 abbb 1a22 86be c5db 8b3e
00000060: d2c3 91bc c840 013d 4f7b de3d 4d08 c7bb
00000070: 5deb 733d bb64 9dbe 6f28 29be 8cc8 93bc
00000080: 44cb de3d ae94 133c ae9a 743d a4a6 1dbc
00000090: aa21 023e b41e 96bb e3a4 c7bd 1789 173e
000000a0: b979 c33d 7ecf edbc 1536 0d3e cbb3 953c
000000b0: 8652 58bd 9c07 793d 0663 703c 79ba 953c
000000c0: f24a a63e 2d27 d4bd 51cc ae3e 9403 fabe
000000d0: b7a1 563e dd6b 303e c933 713b a6f3 463e
000000e0: 4600 e9bd 3645 cdbc 0b58 143d 8a5f 923e
000000f0: 6c53 f53c a96a 623e 3089 7a3e c0f6 92bd
00000100: b45f a43d 1bd4 063e 7fa2 53be a446 b83d
00000110: bc51 d13d 2806 a63e b585 8a3c fa34 dfbe
00000120: bf30 fdbc 689c 623d 4897 babd b1f0 75bc
00000130: fb90 1a3d 3b6c 133e f8c3 123e 383a eabd
00000140: 1382 243e 753b 9a3d a7d0 253d d81d 1fbd
00000150: abba a83d ce8f 27bf 9b13 b93d da8f 1f3e
00000160: 86a5 5abd 1625 813d df05 143e 88aa 843d
00000170: a178 293e cbae 073e bf33 f8bd b3ee 3abd
00000180: 929e 94bd 4aeb 52be b4fb 223c b78b c3bc
00000190: 95c0 053e b5f8 d1bc 4fa4 c93c 2638 bc3c
000001a0: 5788 0e3e 525f ac3d f03b 0e3f 677e f73d
000001b0: e8a5 ac3e a37b 2e3d 8cf8 783c 8098 0d3d
000001c0: 559a 3b3d c9d9 4b3e 2967 cdbc 950c 523e
000001d0: 3e83 2ebe 1cbe 1cbe 180a 98ba ae5a 23be
000001e0: 8343 55bd 6db4 e63d 8315 aa3c f754 553e
000001f0: 05a9 043e 0912 10be 193d 15be 6d17 843c
00000200: 3d96 733e 42df a1bb 58fc 41be 4776 a7bc
00000210: c87e 6d3d 1874 203c 4f09 2bbf 28de 9c3c
00000220: 41b4 023d 4757 083d 1be3 993e 29b8 20bd
00000230: c8a5 eebd ea6f 0dbd 43c4 14be b923 5dbd
00000240: 67c2 3dbb 17c7 a6bd 7477 483d 4df7 1ebb
00000250: dc36 9abd d4f2 e1bd 3bc5 343e ea0f e43d
00000260: 5f8a 48bb e204 503e f4e6 10be 0436 22be
00000270: 96b5 06be 3088 133e cdcf 06be 5c46 2c3e
00000280: 2952 c53d 8845 94be e4b1 f0bd 4430 593d
00000290: fafb 7ebd 48d9 63bf 6d67 933c 9bfe 06be
000002a0: 0d62 5b3e adbc 3dbd d0f0 f2bc d6f8 e63d
000002b0: cc80 843d d4d6 d1bd 7bec d3bd 91d0 4f3c
000002c0: e126 463e 44c8 dc3d 19ee 7bbd 8b13 a7bc
000002d0: 6ee6 993d 384b aabc d5e5 d1be b593 f3bd
000002e0: 893e 5e3d 83c8 00bf 9cb0 abbd 47d7 7b3d
000002f0: 101b 873c 0cd5 b93d 79d0 5a3e 9839 1fbe
00000300: 36fa db3d 52b7 9c3c 76a0 dabd 924f f63d
00000310: 2bac 803c 7ccd 723d 3490 27bf c8d8 8a3b
00000320: 4d44 18be e1e6 573e 8a95 5d3b da0b 6fbd
00000330: 5bae f3bc 1647 b03d f04c ce3e 995a 08bd
00000340: c721 4cbc f139 d83c 4a37 76bd e64f d6bd
00000350: 141f e3bc 75f0 0dbd ec56 303d 7eca fb3d
00000360: 8f80 29bc 92e5 18be 3264 e43b aafc 2fbf
00000370: 2db4 0cbd 9add 5a3e 5319 a9bc 3bba 92bd
00000380: dec0 b5be 2949 d5bd f9ad 683e 5364 e33d
00000390: 9db5 e43d 06a8 2a3e 4899 97bd 6e0f d53c
000003a0: 3301 1c3e b8f0 9dbd 2d60 fb3d eccf 6d3e
000003b0: 0e85 383e 7ae6 093e e8ce 073d ba83 b0bd
000003c0: a70c 8b3b 94b9 e03d c374 1b3e 3f38 f3bd
000003d0: 0399 333e 4f35 303e eb64 07bf a8fe d3bd
000003e0: 08d8 20be a6d6 f2bd 8b76 5d3e 11d3 b6bd
000003f0: 7ba5 c53c a009 65bd b89f 0e3d 4f0b 3c3e

linear3.bias f4 [3]
0.4291962 -0.021833949 -0.09051565
00000000: 9bbf db3e 1cdd b2bc 4560 b9bd
