groupe01/last_model.pth (torch, 148473 bytes, 6 tensors)

linear1.weight f4 [256, 11]
000000 2e fb e1 3c 54 e6 9a bd db 29 cb bc 7c c5 02 be
       0.027585592 -0.07563463 -0.024800232 -0.12770647
000010 f1 ca 9c bd 77 5d 00 be 24 84 9a 3d 49 c5 e0 3d
       -0.076558955 -0.12535654 0.07544735 0.10975129
000020 14 9d 19 bc 23 5e 92 3b 39 27 9f bd d9 da 87 bd
       -0.009375829 0.0044667884 -0.07771153 -0.06633539
000030 b8 88 12 bf 4b 1f 42 3d 4a 8b 03 3e 7a 5d d9 be
       -0.57239866 0.047393125 0.12846103 -0.4245413
000040 80 a8 1c 3e c8 84 3a be ee b5 95 be 89 47 b6 3e
       0.15298653 -0.18214715 -0.29240364 0.35601452
000050 f1 54 8f be 80 22 49 bc 1c 99 8c be eb 3f 3c 3d
       -0.27994493 -0.012276292 -0.27460563 0.045959394
000060 b1 d0 c2 bd 02 da ce 3e 6f fa 86 be 7a 99 a1 be
       -0.09512461 0.40400702 -0.2636294 -0.31562406
000070 1e cd 28 3d d0 7e 9a 3e fe f2 e8 be d7 12 86 be
       0.04121124 0.30174875 -0.45497888 -0.2618625
000080 7c ab d1 be 37 ca 4d 3e 9c f4 6a bd 45 57 39 be
       -0.40951145 0.2009667 -0.057362184 -0.18099697
000090 99 94 48 bd d7 c2 3d bd 2e 4c 45 be b4 cf 35 3c
       -0.04896984 -0.046328392 -0.19267341 0.011096884
0000a0 69 fc e7 bd ff f0 60 be ce 2e 72 be 10 98 53 be
       -0.1132744 -0.21966933 -0.23650667 -0.20663476
0000b0 5e ed a9 bc 80 2c 40 bc a4 c7 95 be 97 5d 8a bd
       -0.020743068 -0.01172936 -0.29253876 -0.06756132
0000c0 02 20 2f be 40 63 e1 bd fc fa 3d be dd 01 22 3d
       -0.17102054 -0.110052586 -0.18552774 0.03955256
0000d0 7c e6 06 3d 76 29 3d 3c 4c cc 92 bc 72 e4 8f 3c
       0.03293465 0.01154553 -0.017919682 0.017564986
0000e0 75 d7 b0 3d 67 b9 6a 3d 8b 51 e9 bd 48 94 14 be
       0.08634845 0.05730572 -0.11392506 -0.1450969
0000f0 0f 4f de 3c 13 32 3e bd 53 67 02 3d 43 5c 86 bd
       0.027137307 -0.046434473 0.03183682 -0.06560566
000100 60 29 3f bd c3 5a 09 bd 80 08 43 be f6 68 15 be
       -0.046670318 -0.033533823 -0.19046211 -0.1459082
000110 3c 50 f4 3d c4 45 f9 3c 4e 73 a5 bd 02 09 82 3c
       0.11929366 0.030428775 -0.08078633 0.015873436
000120 7e b7 8c bd 17 c8 aa 3d 04 12 0e bd c1 31 19 3d
       -0.06870936 0.08338945 -0.03468515 0.037400965
000130 9e 2c 00 be e5 d0 68 be aa 84 c4 3d 71 b8 3a be
       -0.1251702 -0.22735937 0.09595616 -0.18234421
000140 8a 22 c3 3d ea 05 ce 3d a5 30 8f 3d a1 ff 66 3d
       0.09528072 0.10059722 0.069917 0.05639613
000150 8b a0 63 be f8 6f 4a be 2e 97 8f be e2 0c 68 be
       -0.22229211 -0.19769275 -0.28045028 -0.22661164
000160 2c 68 82 3d a3 4d 03 3e 47 9d d9 be 06 87 21 3d
       0.063675255 0.12822585 -0.42502806 0.03943541
000170 de 04 b1 3d ad ae be be 3c 9c 36 be 04 c2 f3 be
       0.086435065 -0.37242642 -0.17833036 -0.4760896
000180 50 2f e6 be 93 fb a1 3d ab a6 14 3d 6f f3 22 bb
       -0.44957972 0.07909312 0.03629176 -0.0024864336
000190 a2 ef b2 be cc 63 62 3e 2a 80 17 3e 50 1f d4 be
       -0.3494845 0.22108382 0.14794984 -0.4143014
0001a0 b6 ea 0a 3e 23 12 24 3d c1 54 0d be 36 2f 56 be
       0.13566098 0.04005636 -0.13801862 -0.20916447
0001b0 17 34 43 be 7a 39 ad be 74 ea bf 3e fb 17 80 3c
       -0.1906284 -0.33832914 0.3748356 0.015636435
0001c0 f1 7f d1 3c af b8 6d 3e 4f 39 9d 3e 0f 4f 6c be
       0.025573703 0.23214982 0.30707785 -0.23077033
0001d0 ae 68 ac be f1 a4 d4 be 88 b3 25 bf 00 ab e0 3d
       -0.33673614 -0.4153209 -0.6472707 0.10970116
0001e0 58 33 80 3e 63 ea 13 be e8 67 17 be e3 b9 46 3e
       0.25039172 -0.1444488 -0.14785731 0.19406848
0001f0 4e 50 20 be c7 b8 f4 3c ea 33 e6 bc 68 a1 18 bd
       -0.15655634 0.029873265 -0.028100926 -0.037263304
000200 96 54 0a bc a1 0e 30 be b4 48 aa 3b 36 bf b7 bd
       -0.008443018 -0.1719308 0.005196655 -0.089720175
000210 7b 0d bd bc b3 c1 8d be ea 01 86 bc a8 b3 7e bd
       -0.023077717 -0.27686843 -0.016358335 -0.062183052
000220 1b 9c a0 bd 51 cb 7b be d6 16 d0 3c ad ac fd bd
       -0.07842275 -0.24589278 0.025401514 -0.12386451
000230 a1 8c 3a bd 4a 8b 46 3e 00 5a 89 bc b2 fb 32 3c
       -0.04554427 0.19389072 -0.016766548 0.010924267
000240 3f 8d 03 bd 7b 22 10 be 71 a3 d8 bd 50 86 0a bd
       -0.032117125 -0.14075653 -0.10578049 -0.033819497
000250 41 06 18 3d a8 ca 40 3d d5 17 19 3d 9b 36 b1 3d
       0.03711534 0.047068268 0.037376244 0.08652993
000260 64 54 a3 3d f2 89 02 3c 1e 69 95 bc 49 40 43 3d
       0.079750806 0.007967459 -0.0182386 0.04766873
000270 7a d1 e1 bd e4 06 71 3e c7 1f bf be 7a d1 89 3d
       -0.110262826 0.23537785 -0.37328932 0.067294076
000280 a1 df d6 be 9c 8b 90 3e 5a 29 cb be b8 47 f7 be
       -0.4196749 0.28231514 -0.39679986 -0.48296905
000290 ca 79 2f bf dc ef bd 3d 72 41 00 3e 8b 98 01 bf
       -0.6854521 0.09274265 0.12524965 -0.5062339
0002a0 52 59 0e 3e e6 fb 2c 3d 84 a0 8d be 25 45 7b be
       0.1390126 0.042232417 -0.27661526 -0.24538095
0002b0 8e ef a2 be c3 d6 92 be e5 7e 02 3e 10 8b ab 3d
       -0.3182339 -0.28679475 0.12743719 0.083761334
0002c0 10 b0 9b 3c db a1 af be 76 98 04 be a3 4e 18 bf
       0.019004852 -0.34303173 -0.12948784 -0.5949499
0002d0 08 a4 2d be 1e 23 16 bf fd 2d db 3e 28 ff 8d be
       -0.16957104 -0.58647335 0.42808524 -0.2773373
0002e0 91 3b 1f bf c8 c2 37 bf dd 8f 96 3e f4 9f b9 3e
       -0.62200266 -0.7178159 0.29406634 0.36254847
0002f0 24 0a a7 3e 73 41 0d bf cb 4f c1 3d dd 44 a2 3d
       0.32624924 -0.5517799 0.094390474 0.07923291
000300 62 aa 11 bd 94 ce e1 bb 78 86 a5 bc e5 b5 5e 3c
       -0.03556288 -0.006891081 -0.020205721 0.013593172
000310 ef f5 aa 3d 07 75 a1 3d 95 06 07 bd 0e 12 e5 3d
       0.08347689 0.07883649 -0.03296526 0.11185084
000320 f0 82 af be 0f 7d 54 3e 2e bd 9c be 0f 6d 87 3e
       -0.34279585 0.20750831 -0.30613083 0.26450393
000330 73 36 6c be 54 ce a3 be 27 a9 88 3e 4b 21 0f bf
       -0.23067646 -0.31993353 0.26691553 -0.55910176
000340 99 72 35 bf 62 f2 ba bd 85 9b a2 bd ae 36 bf bd
       -0.7087799 -0.09128262 -0.07939819 -0.09336601
000350 15 6e bd bb 39 da 72 bd 45 45 50 bc 2b 46 b4 bd
       -0.005780945 -0.059290145 -0.012711828 -0.08802446
000360 7a 6f 12 bd 4c 2a f4 bd 65 7a 31 be 3f 26 0c bd
       -0.035750844 -0.1192213 -0.17331846 -0.03421616
000370 b7 98 b0 3c 24 96 d6 bb a6 1a 02 3d d5 28 cf bd
       0.021557195 -0.00654866 0.031763695 -0.1011521
000380 5f 12 05 be ea 38 4f bc 2b 9d b2 3b a0 4b ba bd
       -0.1299529 -0.012647847 0.005450865 -0.090964556
000390 58 b1 42 be 0d bd 13 be fb 3f 8d bb 57 a4 66 3e
       -0.19012964 -0.14427586 -0.0043106056 0.22523628
0003a0 08 9f 0e bf f5 11 c2 3d d6 1d 81 3e 61 03 92 3d
       -0.5571141 0.09476081 0.25218076 0.07129551
0003b0 f9 62 32 be 7e a4 bb 3e c1 7a 2f be 92 2d 73 3d
       -0.17420568 0.36648935 -0.1713667 0.05936963
0003c0 46 c0 89 3e a8 f5 91 be 3a 89 00 3e 63 8d c2 bd
       0.26904505 -0.28507733 0.12552348 -0.094996236
0003d0 c5 60 17 be cb ec c9 bd 12 ec a4 bb 6b 5e d8 3d
       -0.14783008 -0.09859618 -0.0050330246 0.10564884
0003e0 3d 99 28 3d 63 11 19 bd 9e e8 bc bd f7 47 61 bc
       0.041161764 -0.037370097 -0.09224056 -0.013750068
0003f0 74 b6 03 bd f0 15 f9 3d 89 df 93 be fa 24 b2 be
       -0.032156423 0.12162387 -0.2888148 -0.34793836

linear1.bias f4 [256]
000000 30 6f 87 be 10 b5 0e bd 09 07 db bd b8 a2 cb bd
       -0.26452017 -0.034840643 -0.10694701 -0.099431455
000010 a5 1c 08 bd 79 21 76 be 88 72 8b be 00 53 27 3f
       -0.033230443 -0.24036206 -0.27235818 0.6536102
000020 e4 35 9e bc 90 ea 89 3e 39 0f 81 3c 2f 3d 86 be
       -0.019312806 0.2693677 0.015754329 -0.26218554
000030 1e b7 8d be a4 2c 97 be 72 89 a9 3d 4d 87 a2 bd
       -0.2767877 -0.29526246 0.08278169 -0.07935963
000040 95 db 83 3e ca 01 56 be a4 29 f9 bd c4 d4 bd bc
       0.25753465 -0.2089912 -0.121661454 -0.023172744
000050 6a 3f 10 be 3c 7c 79 be a8 e8 6f be 58 87 45 3f
       -0.1408669 -0.24363798 -0.23428595 0.77159643
000060 f4 ae 6c be 90 c8 1e be 82 58 df bd e6 32 94 be
       -0.23113614 -0.15506196 -0.109055534 -0.28945082
000070 97 9c 3a be 4c 16 54 be cf ee c6 3d 3f a6 85 be
       -0.18223797 -0.2071163 0.09713518 -0.26103398
000080 f7 97 84 be d1 2c c5 bd f9 63 21 be 29 31 7e be
       -0.2589719 -0.09627689 -0.15760793 -0.2482344
000090 47 84 7a 3d b0 a9 ad 3c 12 4b 4b 3d 99 e8 d7 be
       0.061161306 0.021199077 0.04963214 -0.42169645
0000a0 eb a4 90 be ab 3c 9d 3e 06 eb 0a be 2c ba fe bd
       -0.28250822 0.30710348 -0.13566217 -0.12437853
0000b0 b4 c4 34 bd bc 2b 45 be 4f 9f 8d be 84 73 04 be
       -0.044132903 -0.19254965 -0.27660605 -0.1293469
0000c0 d2 cb 7d be 69 40 c2 3e 8b 42 8e 3d ea 3c 09 be
       -0.24784783 0.37939766 0.06946286 -0.13402143
0000d0 2d 75 70 be bd 0a 64 be 5e a0 66 3d d1 6a c1 bd
       -0.23482199 -0.22269721 0.05630528 -0.09444202
0000e0 88 0b 38 bd 20 37 85 be 6e a6 0b 3d 9d c5 e9 bd
       -0.044932872 -0.2601862 0.034094267 -0.11414645
0000f0 84 9f 88 bd 46 50 95 be 34 6e fb 3c 20 7e f0 3d
       -0.0667105 -0.29162806 0.030692197 0.117428064
000100 21 83 c6 3d 08 2a 62 be bd 57 d4 bd d4 fd 43 3c
       0.096929796 -0.22086346 -0.10368297 0.011962373
000110 75 73 8c be f5 e4 db bd f4 e2 1f be db c8 a9 3c
       -0.27431837 -0.107370295 -0.1561392 0.020725658
000120 64 99 9a be c0 39 4b 3f ee 8f 12 3e 78 6f ae 3c
       -0.30195153 0.79384995 0.14312717 0.021293387
000130 cb 0d ed bd 84 7a 42 be 47 01 59 be a0 51 a9 be
       -0.115748964 -0.18992049 -0.21191894 -0.33070087
000140 53 c8 7b 3e 52 76 15 3e 51 d1 85 be d3 34 ed 3c
       0.24588136 0.14595917 -0.26136258 0.028955853
000150 d3 02 aa be cc fa 46 3e ea 3f 8a be 9d e2 61 be
       -0.3320528 0.19431609 -0.27001888 -0.22059102
000160 b9 95 0a be b8 3d 72 be a6 b1 01 bd ca 86 58 be
       -0.13533677 -0.23656356 -0.03166356 -0.21145168
000170 11 c0 2e be 21 49 45 be 40 53 5d be ee 36 54 bd
       -0.17065455 -0.19266178 -0.21613789 -0.051810198
000180 0c 8d 67 3e e1 d4 6c be 9f 83 52 be 10 b9 86 be
       0.22612399 -0.23128082 -0.20558022 -0.26313066
000190 5e 92 27 be 2b ec 51 be 9b 86 5f bd 0a 78 1c 3f
       -0.16364428 -0.20500247 -0.05457173 0.61120665
0001a0 5f 5b 8d be 58 76 ac be 6a 76 47 be c2 8d ef 3d
       -0.27608773 -0.3368404 -0.19478765 0.1169696
0001b0 06 0e 91 bd 2b 7d 08 3e 18 58 c9 bd 48 4a d5 bd
       -0.07082753 0.13328998 -0.09831256 -0.10414559
0001c0 25 bd 09 3c 32 26 e0 bd a9 3c c5 3d 01 a7 a0 be
       0.008406912 -0.10944785 0.09630711 -0.31377414
0001d0 d7 be 4e 3e 34 72 3d 3e 57 f1 6b bd dd b8 14 be
       0.20189987 0.18500596 -0.057603206 -0.14523645
0001e0 d5 b6 60 be ce d3 57 3d 98 d3 8b be 1d 67 70 3c
       -0.21944745 0.052692227 -0.2730987 0.014673022
0001f0 a4 31 98 be 04 f6 92 3e 45 d0 a4 be 64 5f 3c 3d
       -0.29725373 0.2870332 -0.32190147 0.04598941
000200 ed b5 1b be d5 70 c4 bd 3b 2c 05 be eb 10 ab bd
       -0.15206118 -0.095918335 -0.13005154 -0.08352836
000210 de e8 01 be 6c 70 e7 be 2a 9d 6a be 2c b7 87 be
       -0.12686488 -0.4520296 -0.22911516 -0.26506937
000220 80 e4 2b be 06 91 a3 3c e9 e2 47 be 24 36 8a be
       -0.16786385 0.019966614 -0.19520153 -0.2699443
000230 63 49 19 be 0c 04 c0 bd f4 b8 a7 bd 98 19 7a be
       -0.14969401 -0.09375772 -0.08189574 -0.24423826
000240 73 96 6d 3d 93 df bf 3e 69 37 51 be be 9a be bd
       0.058004808 0.3747526 -0.20431294 -0.093068585
000250 a3 fa 2f bd 4f 73 85 be ff e0 7c be cf 2e 54 be
       -0.042963635 -0.26064536 -0.24695204 -0.20720981
000260 10 b0 db bd 89 a0 67 bd 4e 6d 31 be ab 62 95 bd
       -0.10726941 -0.056549583 -0.17326853 -0.0729421
000270 8a 29 94 bd c0 3a 27 bc 86 15 99 be f9 20 75 be
       -0.072344854 -0.010206878 -0.29899234 -0.2393836
000280 56 96 41 3d f7 40 60 be 5b fa 34 39 55 50 ce bd
       0.047262512 -0.21899782 0.00017259402 -0.10073916
000290 2b de 05 be f4 57 fb bd 4e a6 6e be b9 c9 08 3e
       -0.13073032 -0.12272635 -0.23305628 0.13358201
0002a0 2b 63 86 be 22 c0 74 bd 02 12 53 be f1 f0 5e be
       -0.26247534 -0.059753545 -0.20612338 -0.217716
0002b0 ab 16 1f be c0 de ee 3d 11 4b 01 3e 91 6e cd bd
       -0.15535991 0.1166358 0.12626292 -0.100308545
0002c0 d6 ac ed 3d e4 c5 6e 3d cc 3b 1c be d1 ca 05 be
       0.116052315 0.058294192 -0.15257186 -0.1306565
0002d0 c0 70 83 be 89 80 a1 be 1d 53 ba bd 3b 0d 93 be
       -0.2567196 -0.31543377 -0.09097884 -0.28721032
0002e0 18 b0 93 be 4c 54 41 bd e7 b1 49 be 9f 30 12 3e
       -0.28845286 -0.047199532 -0.1969677 0.1427636
0002f0 51 be 8c bc 53 94 86 be 27 c0 86 be b0 f1 fe bd
       -0.017180594 -0.26285037 -0.26318476 -0.12448442
000300 af a8 4b be 97 98 5a be 8a bd ad bd 23 40 98 3c
       -0.19888566 -0.21347271 -0.08483417 0.01858527
000310 0b fa 1e be 9a fd 1f be c1 1a 4a 3e 75 4f 1e 3d
       -0.15525071 -0.15624085 0.19736768 0.038649995
000320 05 b2 90 be 1f c8 40 3d 2a f8 8f be 5b 7a 09 be
       -0.28260818 0.04706585 -0.28119022 -0.13425581
000330 1c 9e bc bc f0 90 d4 be b5 d8 81 be 86 a6 a6 bd
       -0.023024611 -0.4151683 -0.25360647 -0.081372306
000340 ca 72 40 be e0 45 4e 3e e5 f3 82 be e9 bb 79 be
       -0.18793789 0.20143843 -0.25576702 -0.24388088
000350 af a6 47 3e 14 74 8f be 10 fe b5 be 02 6a 91 be
       0.19497178 -0.28018248 -0.35545397 -0.2840119
000360 7a e0 d9 3d 4b 45 8f be 71 35 19 be 82 6f 01 be
       0.10638519 -0.27982554 -0.14961793 -0.12640193
000370 c8 e4 f7 bc 0b 60 63 be 03 5e 8e be f7 88 83 3d
       -0.030260459 -0.22204606 -0.278061 0.06422608
000380 18 d1 50 be c2 31 b5 be c3 f9 0c 3e 7a 66 6d be
       -0.20392263 -0.35389525 0.13767152 -0.23183623
000390 40 41 05 be 25 8b 87 be 6d f9 0e bc a4 82 5b be
       -0.13013172 -0.26473346 -0.00872646 -0.21436554
0003a0 35 1a a9 be fb 53 47 be 63 4a 15 3d 09 d5 ae bd
       -0.33027807 -0.1946563 0.036447894 -0.08536727
0003b0 d6 fb 02 be ad 92 b2 be b8 5f 21 3e fb 33 8d be
       -0.1279138 -0.3487753 0.1575917 -0.2757872
0003c0 6f f9 24 be b4 e3 b1 be c1 92 43 be 50 e0 65 3d
       -0.16110776 -0.34744036 -0.19098951 0.056122124
0003d0 9b b7 e4 3d f5 cb 44 be 90 3a 1e be 00 45 a4 bd
       0.111678325 -0.19218428 -0.15452027 -0.08020973
0003e0 2d 87 50 3d dc 0a 5c bd b9 d5 32 3e 01 46 0f 3e
       0.050910164 -0.053721294 0.17464341 0.13991548
0003f0 e4 c6 2a be b4 f4 92 be aa b8 87 be 97 60 8b be
       -0.16677433 -0.2870232 -0.26508075 -0.2722213

linear2.weight f4 [128, 256]
000000 72 3b c9 bd 64 6e b8 3d 73 0a 9a bc ff 79 55 be
       -0.098257914 0.0900543 -0.01880381 -0.20847319
000010 7e 05 de bc 1a c9 dc bc 29 5d 1b be cc 17 52 be
       -0.027102228 -0.026951361 -0.15172257 -0.2051689
000020 4f 04 bf bd 3a b5 a1 be f3 59 96 bd 44 89 99 be
       -0.09326994 -0.31583577 -0.07341375 -0.29987538
000030 64 70 e2 bd ce 50 ba 3d 56 46 67 bd 4b 4d c7 3a
       -0.11056593 0.090974435 -0.056463562 0.001520553
000040 44 11 99 bd 7a a8 38 3d 3d 45 e3 3d 0a 1b 3a bd
       -0.07473996 0.045082547 0.110971905 -0.045435943
000050 c1 90 79 3d 35 82 ec bb 28 9a f2 bc 36 f9 28 be
       0.060929064 -0.0072176703 -0.029614523 -0.16501316
000060 23 73 f1 3d 08 de 68 bd 91 18 20 3e 80 a3 7a bd
       0.11789539 -0.05685237 0.15634371 -0.061191082
000070 02 4d b9 bd 1a 4d 07 3e 7a 5c a4 bc e2 3f bc bd
       -0.09047891 0.13213006 -0.020063628 -0.09191872
000080 98 99 25 bd 1e 02 fd 3c 9e e9 03 bd 58 5d 14 bd
       -0.04042968 0.030884799 -0.032205217 -0.036221832
000090 cc 74 5e 3d 7d 02 90 bc b4 8e bd bd b5 4f 21 be
       0.054310605 -0.017579312 -0.09255734 -0.15753062
0000a0 d4 15 1a be 64 bb 80 bd de c4 ab bd 05 f3 74 bd
       -0.1504739 -0.06285742 -0.08387159 -0.059802074
0000b0 c1 82 30 be f1 66 97 bc ee 4f 64 3d 74 3f 93 bd
       -0.17237379 -0.018481703 0.05574029 -0.07189837
0000c0 30 76 fb bd b4 fd 9e be 92 c0 54 3c 1a e8 12 be
       -0.12278402 -0.31052935 0.012985365 -0.14346352
0000d0 55 1c 1e 3e c4 df e3 3d 02 c5 d8 be 98 2d fe bc
       0.15440495 0.11126664 -0.42337805 -0.0310276
0000e0 62 fd 80 bd 51 24 00 3e fc 57 28 be 73 0a 1a 3e
       -0.06298329 0.12513854 -0.16439813 0.15043049
0000f0 a5 5a 92 be 4a 01 ac 3d e5 d3 25 be 14 1a 39 be
       -0.2858478 0.08398683 -0.16194113 -0.18076354
000100 09 51 5c 3d b2 1b 53 be 6b 62 ac 3d 7f f5 8d 3b
       0.05378822 -0.20616034 0.08417209 0.004332244
000110 64 99 d4 be 3d 70 56 be e4 3d d8 3d 0c 6a e1 bd
       -0.41523278 -0.20941253 0.1055868 -0.11006555
000120 84 aa 84 3d d0 90 37 be 5e 12 55 3c fc 65 a3 3c
       0.06477836 -0.17926335 0.013004867 0.01994609
000130 ea f8 db bd 91 5b 87 3d 96 24 b3 be ef 9e 7b 3c
       -0.10740836 0.06609262 -0.3498885 0.015357717
000140 b9 ee 8a be da 0e 47 3d 9e bc 09 3d db f8 25 be
       -0.27135256 0.048598148 0.033627145 -0.16208212
000150 b7 36 df bd 84 25 25 3c 6a d6 88 be ba 66 33 3e
       -0.10899108 0.010079745 -0.26726085 0.17519656
000160 61 e0 b2 3c 41 0f ba 3d 3c 10 01 bd 33 c0 e7 bd
       0.021835508 0.09084941 -0.031509623 -0.11315956
000170 d9 b3 90 bd bf 19 35 be 55 69 b7 bc ee d0 b8 3d
       -0.07065553 -0.17685603 -0.022389093 0.09024225
000180 a3 59 92 3c 62 87 a7 3d 1d 2d f0 bd a5 9e f8 bd
       0.017865008 0.08180119 -0.11727355 -0.12139634
000190 eb 41 78 3d c6 f2 68 bd 71 58 4c be 20 e7 f1 bd
       0.06060974 -0.05687215 -0.19955613 -0.11811662
0001a0 f5 b0 33 bd 80 92 f6 bd 24 43 a9 be 01 ca c4 3a
       -0.04386993 -0.120396614 -0.33059037 0.0015013815
0001b0 d9 ba b4 3d 7d b3 b3 bd c3 ff a0 bd 80 3a 1c be
       0.08824701 -0.08774469 -0.07861283 -0.15256691
0001c0 4e 58 70 be 8d 3b 66 3d e3 67 30 be a5 06 0d bd
       -0.23471186 0.056209136 -0.1722713 -0.034430165
0001d0 16 59 64 bc 8c 59 36 bd 04 4e 45 3b d1 db e7 3d
       -0.013937255 -0.044518992 0.0030106315 0.113212235
0001e0 e8 eb c0 bc 8d 1f 0c 3d d3 3e d8 bd 89 ba 21 bd
       -0.023549989 0.034209777 -0.10558858 -0.039484534
0001f0 9a 0b 90 bd da 0b 58 3d c4 9b e5 bd 4f 49 0b be
       -0.07033463 0.052745678 -0.112113506 -0.13602184
000200 63 dd 8c be dc 64 4b bc 1c f3 cc bd 59 d9 a7 3c
       -0.27512655 -0.0124141835 -0.10007307 0.020489382
000210 b2 d6 d6 3d 1e 86 61 be 70 72 de bc 18 59 29 bc
       0.10490169 -0.22023818 -0.027154177 -0.010336183
000220 c5 5a e8 bd 34 76 df 3d 36 ec 4b bd 5c 7c cc 3d
       -0.11345438 0.10911217 -0.049785815 0.09984657
000230 30 d1 dc bd 82 d2 c5 bc 72 d9 fa bb a3 29 c0 bd
       -0.10782087 -0.02414823 -0.007655316 -0.093829416
000240 6d 1b 18 be 31 90 b3 bd 5d 4d 4c 3c 1c 01 99 3d
       -0.14854212 -0.08767737 0.012469617 0.07470915
000250 b1 68 95 3d a1 3a 1b 3c fb eb 94 3d 5a 38 47 3d
       0.07295359 0.009474427 0.07271572 0.048637725
000260 aa fc 46 bd 3d 63 08 3d 85 9a 73 bd 34 82 3b 3d
       -0.048580803 0.033297766 -0.059473533 0.04577847
000270 e1 f1 a4 be 1b 91 34 be 7c 40 58 bd d6 8e 48 bd
       -0.3221579 -0.17633478 -0.052795872 -0.048964344
000280 ac 1d 5c be e9 3d 94 3d 21 f2 79 bc ca 24 bb 3d
       -0.21495694 0.07238371 -0.015255482 0.09137876
000290 a2 22 9f bd fa e1 84 be 16 6d 73 be 51 6c 55 be
       -0.077702776 -0.25953656 -0.23772082 -0.208421
0002a0 ae a0 75 3d b6 3c 97 be 3e ce ac 3d 2b b4 28 3e
       0.05996769 -0.29538506 0.08437775 0.16474979
0002b0 b8 15 09 be b1 c5 d7 bd 18 77 46 be 70 cc 4c be
       -0.13387191 -0.105357535 -0.19381368 -0.19999862
0002c0 c6 57 4e be aa 5b 5d 3d c3 75 3e be 5e 66 49 be
       -0.2015067 0.054042496 -0.1859961 -0.19667956
0002d0 39 6f c4 3d 98 7b 91 bd 6d a4 be 3d 10 23 ae bc
       0.095915265 -0.07103652 0.093087055 -0.021256953
0002e0 e7 19 d0 3c 88 b9 4a 3e d8 08 02 bd cd 28 76 bd
       0.025402976 0.19797337 -0.031746715 -0.060097504
0002f0 5d ef 9d bc 6c 33 1b be 9f 96 8a be 3b 8d a9 be
       -0.019279176 -0.15156335 -0.2706804 -0.33115563
000300 ef b8 88 bc bc f2 ab bc 4e 73 79 be a0 60 17 be
       -0.016689746 -0.020989768 -0.24360391 -0.14782953
000310 a2 45 91 be 9b 0f 26 bd 99 d3 40 be 2c 57 27 be
       -0.28373438 -0.040542226 -0.18830718 -0.16341847
000320 a4 57 75 bd 66 b8 a3 bd d6 41 ba bd f5 35 29 bd
       -0.059898034 -0.079941556 -0.090945885 -0.041311223
000330 df d2 50 be 8b ad 4c 3c ed 98 3a 3d 58 38 87 3d
       -0.20392941 0.012492548 0.045555998 0.066025436
000340 fb c9 11 3d ae 77 9d bd 67 c9 28 3d 6e f1 e7 bc
       0.035593014 -0.07688843 0.041207697 -0.028313365
000350 7e 67 90 3c a4 90 77 3d 6f fe a3 bd 55 03 00 be
       0.017627474 0.060440674 -0.08007514 -0.12501271
000360 4e 00 a5 bd 98 89 fd bc d7 2c 2a be a8 fb a1 3d
       -0.08056699 -0.030949399 -0.16618668 0.07909328
000370 95 58 ba bd 10 b2 1a be e8 cd 80 3d 34 8b 65 be
       -0.09098927 -0.15106988 0.062892735 -0.22416383
000380 70 fe f9 bc 2d 11 ae 3d 33 c7 b6 bd 4a 9b 2e 3d
       -0.030516833 0.0849937 -0.08924713 0.042628564
000390 bf f0 5d 3d a8 83 7f be 9a 79 5f bd 66 d3 98 bd
       0.05418467 -0.24952567 -0.054559328 -0.07462196
0003a0 25 26 36 bb 79 4c 7d 3d c4 6f 17 be ff 29 0f 3e
       -0.0027793732 0.061840508 -0.14788729 0.13980864
0003b0 7c 83 e3 bc f7 21 00 bd dd c2 03 3e a6 3f 0a bc
       -0.027772658 -0.03128239 0.12867303 -0.0084380265
0003c0 61 17 8e be 59 48 2f 3c 7f 35 b5 3c 41 dc a7 3d
       -0.27752212 0.010698401 0.022120235 0.08196307
0003d0 31 90 2c bd dd 7e dd bd 33 99 e1 bd 8a 9f aa be
       -0.0421297 -0.10815213 -0.110155486 -0.33324844
0003e0 b0 c0 2c bc 98 3a 4e 3c 11 cf 23 be 94 2a 6b 3d
       -0.010543987 0.012587212 -0.15996958 0.057413653
0003f0 80 11 95 3d 8f fb 2e bd 88 34 1c bd db 06 60 3d
       0.072787285 -0.042720374 -0.038136035 0.054694038

linear2.bias f4 [128]
000000 87 9f 06 be 31 1e b6 bd d4 84 e5 bd 8f 28 f6 bc
       -0.13146792 -0.08892477 -0.112069756 -0.030048637
000010 1f 7a 89 bd 35 19 8d bd e9 9b 1e be db e8 ec bd
       -0.06712746 -0.068895735 -0.15489163 -0.11567851
000020 de e0 66 be e2 66 b5 bd bc 41 50 bd 48 d1 d1 bc
       -0.22546718 -0.08857514 -0.05084394 -0.025612488
000030 25 7d 1b 3c 4b 19 72 bd 81 f3 28 be 79 dc e4 bd
       0.009490286 -0.059106153 -0.1649914 -0.11174864
000040 c1 e2 09 be 95 d1 f3 3c a8 fe 53 3d c1 75 45 bd
       -0.13465406 0.029763022 0.05175653 -0.048208002
000050 a7 eb 3b bd ef ca f0 3d 10 c7 dc bd 2e 85 d4 3e
       -0.045879032 0.117574565 -0.10780156 0.41507858
000060 48 a6 66 be 0b 01 5e bd d6 57 c0 bb 33 10 a0 bd
       -0.22524369 -0.054200213 -0.005869846 -0.0781559
000070 69 6f 30 3e 32 84 0f bd 87 d8 fd ba 92 2b d1 bd
       0.1723 -0.03503818 -0.0019366898 -0.102133885
000080 55 8f 8f bd eb 9b a4 bd 09 8c 2a bd 8a e8 cf bd
       -0.0700976 -0.080375515 -0.041637454 -0.10151775
000090 ad 08 cc 3c 9a c2 cb bd 85 1f 12 bd 76 7a 3e bd
       0.02490648 -0.09949227 -0.03567459 -0.046503507
0000a0 68 c9 b7 bc 85 97 12 be 47 52 b9 3e 90 e4 0c bb
       -0.022434905 -0.14315613 0.36195585 -0.0021498539
0000b0 d8 b2 e9 bd 31 33 71 3d 84 06 99 bc 6f 6b b9 bd
       -0.11411065 0.05888671 -0.018679865 -0.090536945
0000c0 5f 1e 2e 3e a4 61 70 bd cd a5 26 be cc d2 28 3c
       0.17003773 -0.058686867 -0.16274185 0.010304164
0000d0 6d 0f 32 bd d6 6c c3 bc fc 4c a7 3e 36 d9 5c bd
       -0.043471742 -0.023855608 0.32675922 -0.053918086
0000e0 5e 41 dd bd 89 02 dc bd 5b 9e 21 3d 2f 65 92 3f
       -0.108034834 -0.10742671 0.03945766 1.1437129
0000f0 a2 f9 67 3f 17 db 22 3d a5 c4 97 bd 78 c6 bb bc
       0.90615284 0.03975972 -0.07410554 -0.022921786
000100 c3 31 a9 3e 48 c8 14 be e1 2a c7 bd ae 51 f3 bd
       0.33045778 -0.14529526 -0.097249754 -0.118808135
000110 84 bb 49 be 66 5e a6 bd 81 52 c7 3e 91 96 e1 bd
       -0.19700438 -0.08123474 0.38930133 -0.110150464
000120 05 f3 c0 bd 06 78 2d 3e 82 51 31 bd 52 52 8c 3e
       -0.09421352 0.16940317 -0.043290623 0.27406555
000130 e0 01 e6 bd 72 f0 8a 3d f2 1e 56 3c 5c 2d 57 3d
       -0.112308264 0.067841426 0.013068901 0.052533492
000140 24 da 15 3e bb dd 64 bc 89 60 7c 3d 8a ea 8f bd
       0.14633995 -0.01396888 0.0616155 -0.07027157
000150 83 59 7c bd e9 74 0e 3d d8 81 87 bd fd 26 1c 3e
       -0.061608803 0.034779463 -0.066165626 0.15249248
000160 b7 70 af 3e 5b 76 26 be 9a e8 00 be d9 bf 22 be
       0.34265682 -0.16256087 -0.1258873 -0.15893497
000170 ac 7e 33 bd 85 a8 68 bd a5 0e 0c bd 00 43 d7 bd
       -0.043821976 -0.056801338 -0.034193654 -0.10510826
000180 c1 2e a6 bd ee a7 0a be a7 4d 63 bc f2 d5 bf bd
       -0.08114386 -0.13540623 -0.013873494 -0.09366979
000190 d1 be b5 3d 07 9d 81 be f5 93 af bd 3c 11 2e bd
       0.08874286 -0.25315115 -0.085731424 -0.042496905
0001a0 17 cc 32 bd 83 1f ca 3d 6b a7 c1 bd 36 ed 00 be
       -0.043651666 0.09869292 -0.094557606 -0.12590489
0001b0 e1 b3 09 3e a5 89 66 bd 3d 3e b8 bc 1b 08 6b bd
       0.13447525 -0.05628361 -0.022490615 -0.057380777
0001c0 57 a8 65 3c 72 67 c4 bd db 37 a5 bd a1 48 80 3e
       0.014017186 -0.09590043 -0.08067294 0.2505541
0001d0 70 77 0b 3e f6 47 20 be f5 f3 59 bd f2 7b 46 bc
       0.1361978 -0.15652451 -0.05321117 -0.012114512
0001e0 45 15 cb 3d 02 cc f4 bd 17 3a d2 bd 24 9f 84 bd
       0.09916166 -0.11952974 -0.10264986 -0.06475666
0001f0 24 51 ac bd d5 8d b6 bd 14 e8 e2 3d 36 ee 85 be
       -0.08413914 -0.08913771 0.11079422 -0.26158303

linear3.weight f4 [3, 128]
000000 73 32 aa 3b 48 d8 94 3d 91 c2 33 bd 9d c4 49 3d
       0.0051940023 0.07267815 -0.043886725 0.04925977
000010 3c 1e 74 bd aa 9a 84 3d 94 62 a5 3d 7d 98 5f bd
       -0.059599146 0.06474812 0.08075443 -0.054588784
000020 e2 db 37 3e 47 8f cb be f6 1d ea 3c 62 a3 a9 3b
       0.17954972 -0.3975775 0.02857874 0.0051769475
000030 8a 13 88 bb 19 72 01 3e 16 8b b4 3d 51 2d e7 bd
       -0.00415272 0.12641181 0.08815591 -0.1128794
000040 ee 6c 21 3e 2f 1a d9 bd e4 ad 06 bf 05 54 47 3e
       0.1576421 -0.10600697 -0.52609086 0.19465645
000050 3f 70 49 3d 4b 14 5a bc 28 6f 6c 3c 50 36 71 3e
       0.04917931 -0.013310502 0.014430799 0.23555875
000060 32 ab a7 3d ec 3c 1a be 64 ce 2b 3e 67 cf 88 3c
       0.0818695 -0.15062302 0.1677795 0.01670046
000070 ae 81 55 3d 27 1a d9 bd a6 85 ba bc d4 73 82 be
       0.052125625 -0.10600691 -0.022768807 -0.25478995
000080 1a a8 72 bf 45 68 0a bd 95 6c a7 3b 2f 73 0a ba
       -0.9478775 -0.033790845 0.0051093795 -0.0005281446
000090 ae 4c 0a 3a 55 57 84 ba 89 52 b0 be 2c fe 87 bd
       0.00052757084 -0.0010096828 -0.3443797 -0.06640276
0000a0 e5 6e da bd 29 49 09 be 04 bc 2a 3f d9 b9 87 bd
       -0.10665683 -0.13406815 0.6669314 -0.066272445
0000b0 ae 88 9a 3c 1d 4d 8a 3d 5b ac 2b 3e 96 83 6f 3c
       0.018864002 0.067529894 0.16764967 0.014618775
0000c0 97 0f 2f 3c 21 0d 82 3d 26 66 a9 bc 75 bb 7a bd
       0.010684869 0.063501604 -0.020678591 -0.06121393
0000d0 08 74 c0 3d ad c9 fe 3c 2b 45 77 3d a4 4f 75 3d
       0.09397131 0.031102026 0.060368698 0.059890404
0000e0 8f 7c b3 3c 19 a3 76 bc 7e 75 60 bb 75 6a b6 3e
       0.02190998 -0.015053534 -0.0034249718 0.35628095
0000f0 17 f7 7c 3e 52 e5 61 3d b4 5d 04 3e 03 31 0a 3e
       0.24703632 0.055150338 0.1292637 0.13495259
000100 37 89 75 3e 3d d7 b3 3b 9c cb 4d bc 47 0c 0e 3c
       0.23978125 0.005488305 -0.012560751 0.008669919
000110 b2 84 cd be c5 19 15 3e 0a 83 7f 3e 40 e5 cb 3d
       -0.401403 0.14560612 0.24952331 0.09955835
000120 06 31 27 3e 01 96 96 3d cf 08 2e 3d ef 1e 85 3e
       0.16327295 0.0735283 0.04248887 0.26000163
000130 39 b5 d6 be ff 3b 19 3e 5d f1 70 bd de 35 39 3d
       -0.41935137 0.14964293 -0.058823932 0.045217387
000140 6a 52 42 bd 97 e6 f6 bb a8 8c bc bd 16 0c 9c 3d
       -0.047441877 -0.0075348127 -0.092065156 0.07619493
000150 5f 2c 14 bd 3a 80 8e 3d 4b ef 39 bc e4 17 71 3e
       -0.036175128 0.06958051 -0.011348556 0.2354427
000160 47 24 52 3e fb fb 22 3e 9e f9 6d bc ce de 00 be
       0.20521651 0.15916435 -0.014524845 -0.12584993
000170 3b 6c 3f bd d4 ba db 3c d9 de 92 bc ce 55 0b 3c
       -0.046734076 0.026822485 -0.017928528 0.008504344
000180 51 1d aa 3b ae 43 3d be d0 12 bb bd c0 bb a5 3c
       0.005191483 -0.18482849 -0.091344476 0.020231128
000190 79 64 e0 be bd 48 f8 be 9f 9f d2 bd 63 49 6b 3c
       -0.43826655 -0.48492995 -0.102843516 0.0143607585
0001a0 01 03 94 3d 68 0c 27 bf 52 3c 7c be 02 da b4 3d
       0.072271354 -0.65253305 -0.24632385 0.08830644
0001b0 62 39 46 3e 8e 7b 61 bd 7c b0 b9 be 47 6f 2f bd
       0.19357827 -0.05504947 -0.3626746 -0.04283073
0001c0 86 b4 c4 bd 8d 28 06 3d 50 ee 43 3d 77 ad 7a 3e
       -0.096047446 0.032753516 0.047834694 0.24480234
0001d0 61 90 93 3b 40 8d 76 bd 61 ff b8 3c 5f 5c d3 bd
       0.0045032953 -0.0601933 0.022582712 -0.10320353
0001e0 33 9d aa 3e 55 d8 18 3e 8f 80 18 be a7 0f 86 bd
       0.33323058 0.14926274 -0.14892791 -0.06545954
0001f0 b0 02 84 3d 97 2d 59 3e 79 e4 0a bd 45 56 d3 bc
       0.06445825 0.21208797 -0.033909295 -0.025797972
000200 a7 d5 59 be ed ba a1 3d 6f 4b 5b 3c 9e 83 b4 3c
       -0.21272908 0.078969814 0.013384684 0.022035416
000210 f3 a0 96 3b 1b 23 3c 3e ec 9a 9d bd bc f6 03 bc
       0.0045968234 0.18372767 -0.07695565 -0.0080544315
000220 ea ba 96 3e fc d7 55 be 6b 2f 47 3e 37 e1 0d be
       0.2943948 -0.20883173 0.19451682 -0.13855444
000230 46 6a 70 3e aa 43 aa bd a0 c1 0d 3d 59 ed 4e bf
       0.2347804 -0.08313687 0.034608483 -0.80830914
000240 26 5c 19 3d 61 0f e1 39 c0 c5 ca 3b 73 43 52 3e
       0.037441395 0.00042926802 0.0061881244 0.20533542
000250 f1 9c 10 3e 57 b1 05 3c 3a 80 96 bd 73 99 7f 3d
       0.14122368 0.008159957 -0.07348676 0.0624022
000260 6f 39 ab 3d d8 0c ea 3d 8f fd b0 bd d0 2b 30 3d
       0.08360564 0.11428231 -0.086421125 0.043010533
000270 cc 0e 49 3b df 17 f2 bb bb 41 eb bd 1d 7b b9 bd
       0.0030678986 -0.0073880996 -0.114871465 -0.09056685
000280 63 2d 0a 3e c2 30 73 bd 1b 5f db bd a5 a0 b6 3d
       0.13493876 -0.05937267 -0.10711499 0.08917359
000290 96 d6 17 bd 3f f7 52 bd 71 82 3d bc c7 bb 99 3d
       -0.03706988 -0.051505323 -0.011566744 0.07506519
0002a0 d4 64 29 3c 97 da 28 ba 96 10 b0 3e 57 8f 80 bd
       0.010338981 -0.0006441264 0.34387654 -0.0627734
0002b0 87 15 99 3d 9b 92 75 3e 48 8d 42 3d 70 fa 06 3e
       0.07474809 0.23981707 0.047498018 0.13181472
0002c0 83 80 d1 be 10 cc 98 bd 86 17 02 be 59 5f 0a 3e
       -0.4091836 -0.07460797 -0.12704286 0.13512935
0002d0 4a a5 50 bd af f0 92 3d 2e 22 bd 3d e9 ea b4 3d
       -0.050938882 0.07174813 0.09235035 0.08833868
0002e0 1f 6e 68 be 0c e0 be bd f1 02 6f 3d 57 e3 ea 3e
       -0.22698258 -0.09320077 0.058352415 0.45876572
0002f0 91 b2 91 3e ec 78 90 3e 6f 2b 9c bd 8e 5d 00 3e
       0.28456548 0.28217256 -0.07625472 0.12535688
000300 7c b8 45 bd 17 81 0c 3c 07 6b 77 bd 5a 6d 4f 3d
       -0.04827164 0.008575699 -0.060404804 0.050641395
000310 5c 55 af 3c d6 3b 4f 3e 48 0f 22 3e 19 72 48 3e
       0.021403007 0.2023767 0.15826142 0.19574775
000320 9a 3c b8 3d db 51 40 3e b0 9a fe 3d 3e 56 2c be
       0.08995934 0.18781225 0.12431848 -0.16829774
000330 e7 8a 1a bd cd c7 b3 3d 6e be 0d 3c 79 f5 32 3e
       -0.037730124 0.08778343 0.008651359 0.17476453
000340 70 72 a7 be 84 ba b9 3e 67 9e 2b be 45 4a 1f 3d
       -0.32704496 0.36275113 -0.16759644 0.03888919
000350 29 3d 03 be 30 b7 77 3e e0 fa e1 3d c3 46 d2 3d
       -0.128163 0.24190974 0.11034179 0.10267403
000360 16 7f b2 3d 63 26 f4 3b 15 14 0c bf 7f 63 0e be
       0.08715646 0.007450865 -0.5471814 -0.13905142
000370 44 3e 09 3e 84 c2 24 be 3c d8 b6 3e 25 56 b8 ba
       0.13402659 -0.16089827 0.3571185 -0.0014063759
000380 04 83 3b bd 3e 0a c4 3c 8a 0d 48 3e d6 04 aa 3d
       -0.045779243 0.023930665 0.19536415 0.08301704
000390 ca 3c 3a 3d 10 a4 c8 3c 82 52 0f 3d 66 0a 50 3e
       0.04546813 0.024492294 0.034990795 0.20316467
0003a0 8d f5 a0 3d b2 85 25 3e 28 13 f0 3c 56 c8 8a 3d
       0.07859335 0.16164282 0.02930601 0.06776492
0003b0 fa 17 89 bf fc 47 23 3d 13 da 6e bd 1f e5 f4 bb
       -1.0710442 0.03986357 -0.05831344 -0.0074736024
0003c0 90 04 8c bb c0 1b 2b 3e 86 ae 13 be 75 19 1e bc
       -0.004273005 0.16709805 -0.14422044 -0.009649624
0003d0 3b 02 31 bf 28 75 04 be 39 50 54 3e 08 6a 78 be
       -0.6914403 -0.12935317 0.20733728 -0.24259198
0003e0 3b 10 5b bd cb c3 56 be 8f 32 5b bd f4 7c ad bd
       -0.053482275 -0.20973127 -0.053515013 -0.084710985
0003f0 30 eb 22 be 3f 86 69 3d 07 b4 57 be 2a b7 90 bd
       -0.1591003 0.057012793 -0.21064769 -0.07066186

linear3.bias f4 [3]
000000 ea a5 f0 3e 57 a1 3e 3e 2e 03 be 3b
       0.47001582 0.18616234 0.005798719
