groupe08/model/best_model.pth (torch, 418997 bytes, 14 tensors)

linear1.weight f4 [256, 11]
0	0x3e3d7621	0.18502094
1	0x3c33d592	0.010976212
2	0xbe319d68	-0.17345202
3	0xbd478165	-0.048707385
4	0x3e204bed	0.15653963
5	0xbc420424	-0.0118418075
6	0x3e08d2bd	0.1336164
7	0x3e9984d6	0.29984158
8	0x3e487d2c	0.19579
9	0x3eb87fc8	0.3603499
10	0x3e32685f	0.17422627
11	0xbec2d361	-0.38051894
12	0x3ec01aed	0.37520543
13	0x3e270394	0.16309959
14	0xbdb6eaed	-0.08931527
15	0xbe9a7574	-0.30167735
16	0x3eab3a03	0.33442697
17	0x3ea4ca0f	0.32185408
18	0xbe17ea17	-0.14835392
19	0xbf0b1596	-0.5432981
20	0x3e340479	0.17579831
21	0x3d64ca14	0.05585678
22	0xbe5850c7	-0.21124564
23	0x3edf5d66	0.43625945
24	0xbc8227c3	-0.0158881
25	0xbdba00ad	-0.0908216
26	0x3d679dc8	0.056546956
27	0x3d8b7f7d	0.06811426
28	0xbe6f8697	-0.23391186
29	0x3eedc144	0.46436512
30	0x3db5fc54	0.088860184
31	0x3e9028a5	0.2815601
32	0x3e258a70	0.16166091
33	0x3dfa980d	0.12236033
34	0xbe21d8ef	-0.1580541
35	0x3de86ef6	0.11349289
36	0x3e96c0ae	0.29443878
37	0xbe585363	-0.2112556
38	0x3e8f9111	0.28040364
39	0x3eb098c5	0.34491554
40	0x3e627b12	0.2211726
41	0x3f0208fd	0.50794965
42	0x3dc58950	0.09645331
43	0x3e130b33	0.14359741
44	0x3eaffe1e	0.34373564
45	0x3e327e0a	0.17430893
46	0x3eccd1d2	0.4000383
47	0xbe433030	-0.19061351
48	0x3dfe0dff	0.12405013
49	0xbe285b4e	-0.1644108
50	0x3e0914f6	0.13386902
51	0x3eef9028	0.4678967
52	0x3dd034f4	0.1016635
53	0x3e8065de	0.25077718
54	0x3e54c6b8	0.2077893
55	0x3e027ca2	0.12742856
56	0x3eaa2b52	0.33236176
57	0x3e817708	0.25286126
58	0x3ecae855	0.3963038
59	0x3c5e581f	0.013570814
60	0xbe124ada	-0.14286366
61	0x3d1dac89	0.03849462
62	0x3e55ba80	0.20871925
63	0x3df5822d	0.1198772
64	0x3e0975d3	0.13423853
65	0xbdd1a7db	-0.10237094
66	0x3e1eb412	0.15498379
67	0x3ebf50e3	0.373664
68	0xbe936da4	-0.28794587
69	0x3ea34f82	0.31896597
70	0xbe911c1d	-0.2834176
71	0x3d9059d3	0.070483826
72	0xbc87cec3	-0.016578084
73	0xbce58c4b	-0.028020998
74	0xbe15ef1a	-0.14641991
75	0x3c8665b6	0.016405921
76	0x3e910eb7	0.2833154
77	0xbd17b6b0	-0.03703946
78	0x3eb40a9c	0.35164344
79	0x3dcf99d6	0.10136764
80	0xbe58b034	-0.21160966
81	0x3e2199b6	0.15781292
82	0xbaac1dc9	-0.0013131435
83	0xbe51746d	-0.20454569
84	0x3ee73dad	0.45164242
85	0xbe16924f	-0.1470425
86	0x3e2f3f2d	0.17113943
87	0x3e868ab8	0.2627771
88	0x3e2e5639	0.17025079
89	0x3e4a6dee	0.19768497
90	0xbe8044d2	-0.25052506
91	0x3ce01f7c	0.027358763
92	0x3e304ba0	0.17216349
93	0x3a693d98	0.0008897423
94	0x3dcc9791	0.099898465
95	0x3e447c04	0.19187933
96	0xbda9932b	-0.08280023
97	0x3ea91313	0.33022365
98	0x3e9f71e8	0.3114159
99	0xbea1f8ba	-0.31635076
100	0xbe073f33	-0.13207702
101	0x3eb52ea0	0.35387135
102	0x3e6fb542	0.23408988
103	0x3e132786	0.14370546
104	0xbdc2c5e7	-0.09510403
105	0xbda8cbf6	-0.082420275
106	0xbc6ffcf0	-0.014647707
107	0x3e485272	0.195627
108	0x3e7efa75	0.2490023
109	0xbd184b14	-0.037180975
110	0xbe8ff629	-0.28117493
111	0xbce9024b	-0.028443476
112	0x3df41cd0	0.11919558
113	0x3e044186	0.1291562
114	0x3e9f51f2	0.31117207
115	0x3d46bce6	0.04851999
116	0x3cb1d5e7	0.021708442
117	0xbeeb8c2d	-0.46005383
118	0xbe857177	-0.2606313
119	0x3e27c53a	0.1638383
120	0xbe085e1b	-0.13317148
121	0x3d09a3e8	0.03360358
122	0xbd576856	-0.052589737
123	0x3e378838	0.17923057
124	0xbd15c3b2	-0.036563583
125	0x3e4d2538	0.20033729
126	0x3e91d2c3	0.2848111
127	0xbe2e4cb9	-0.17021455
128	0xbe139dd7	-0.1441568
129	0xbdf066ce	-0.117383584
130	0xbe45b58b	-0.19307534
131	0x3e4af738	0.19820869
132	0x3ec872ff	0.39150235
133	0x3ef5c061	0.47998336
134	0xbdfee487	-0.12445932
135	0x3e7ea395	0.24867089
136	0xbd766a7c	-0.060160145
137	0x3d9c923b	0.07645079
138	0xbe83415b	-0.256358
139	0xbe06afa4	-0.13152939
140	0x3d941e4f	0.072323434
141	0xbe4108cf	-0.18851016
142	0xbd5b3fd3	-0.053527664
143	0xbe6aa0a2	-0.22912839
144	0x3e8c3d64	0.27390587
145	0xbe344913	-0.17606
146	0x3e7c4e5d	0.24639268
147	0xbd6724d1	-0.056431595
148	0x3e50d180	0.20392418
149	0x3e9ad964	0.3024398
150	0x3ec5ae62	0.38609606
151	0xbd92fb7f	-0.07176875
152	0x3d153e85	0.036436576
153	0xbe7a3e92	-0.24437931
154	0x3d84d5ba	0.064860776
155	0x3ebbcc78	0.36679435
156	0xbea4e990	-0.32209444
157	0x3e3a0b49	0.18168367
158	0xbe3fdfdc	-0.1873774
159	0x3e7df91e	0.24802062
160	0xbd016907	-0.031594303
161	0x3ea0ffa4	0.31445038
162	0x3e6120ca	0.21985164
163	0xbe77b4ff	-0.24190138
164	0x3e23b4b3	0.159869
165	0x3e397f6d	0.18115015
166	0xbee5865e	-0.44829077
167	0x3e1ada0e	0.15122244
168	0x3d72e7b9	0.05930302
169	0x3d906f34	0.0705246
170	0xbdb2a8c0	-0.08723593
171	0x3ee0674f	0.43828818
172	0x3e8f3bb8	0.2797525
173	0xbe8e6679	-0.27812555
174	0x3dbbafe5	0.091644086
175	0xbc1558d0	-0.009115413
176	0x3e6e8e23	0.23296408
177	0x3c06c4fd	0.008225677
178	0x3e3cc18b	0.18433206
179	0x3ea2a2ea	0.3176492
180	0x3de0efda	0.10983248
181	0x3d9cf44a	0.07663782
182	0x3e881795	0.26580492
183	0x3e7d94f1	0.24763848
184	0x3e18c62e	0.1491935
185	0xbd3bb64e	-0.045828156
186	0x3d8cdb70	0.06877792
187	0xbe542a2a	-0.2071921
188	0xbebb122c	-0.36537302
189	0x3e2bb31d	0.16767545
190	0xbda33eef	-0.07970988
191	0x3ec7332e	0.38906235
192	0x3e3797f5	0.17929061
193	0xbe1dd4fe	-0.15413281
194	0xbe948937	-0.29010937
195	0x3d727f36	0.05920335
196	0xbea1885d	-0.3154935
197	0x3d2a48b3	0.041573238
198	0xbe7ef0f2	-0.24896601
199	0xbeb9f1d8	-0.36317325
200	0xbe01f390	-0.12690568
201	0x3e046f88	0.12933171
202	0x3e2e491d	0.17020078
203	0xbca51e5e	-0.020156082
204	0x3ca7c9a6	0.020481896
205	0x3d8a984c	0.067673296
206	0xbe646b25	-0.22306497
207	0x3e067518	0.13130605
208	0xbc2fd233	-0.010731268
209	0x3e6af6c6	0.22945699
210	0xbe9bd14b	-0.30433115
211	0xbe481237	-0.19538198
212	0x3e8a375f	0.2699537
213	0x3e7043a4	0.23463303
214	0xbc09661f	-0.008386164
215	0x3e978d54	0.29600012
216	0xbca63cf1	-0.020292731
217	0x3ea90b3d	0.33016387
218	0x3e8b1a47	0.27168486
219	0xbd95af31	-0.07308806
220	0x3e35c085	0.17749222
221	0x3e9ba53d	0.30399504
222	0xbaa5b6e1	-0.0012643003
223	0xbdc898c3	-0.09794762
224	0x3e8b4250	0.2719903
225	0xbda400d6	-0.08007972
226	0x3cc505bb	0.024050584
227	0x3eadc69c	0.3394059
228	0x3d00eff1	0.031478826
229	0x3e9536d0	0.2914338
230	0xbdc28848	-0.0949865
231	0xbe3b6f0e	-0.18304083
232	0x3f002c6b	0.50067776
233	0x3d226092	0.039642878
234	0xbdc2b389	-0.095069
235	0xbe4ea644	-0.20180613
236	0xbe36cd1a	-0.17851678
237	0x3d1b8771	0.037970964
238	0x3e774729	0.24148239
239	0xbc12a4ee	-0.008950455
240	0x3da5b7de	0.080917105
241	0x3dc6b1c0	0.09701872
242	0x3da663a1	0.081244715
243	0x3e2e6b6b	0.17033164
244	0xbeaac678	-0.33354545
245	0x3ea78023	0.32714948
246	0x3ec69171	0.38782838
247	0xbdcd12ef	-0.10013377
248	0x3dd3ac31	0.10335577
249	0x3ed1df21	0.40990546
250	0x3eeaa2f0	0.45827436
251	0x3e853648	0.26017976
252	0x3dca7013	0.09884658
253	0x3dbe806f	0.093018405
254	0x3cf259fc	0.029583924
255	0xbe450ea8	-0.19243872

linear1.bias f4 [256]
0	0xbda128d6	-0.07869117
1	0x3e50c46a	0.20387426
2	0x3d9ec79e	0.07752918
3	0xbe87f527	-0.26554224
4	0xbdd1c2d0	-0.10242236
5	0xbe1c23b0	-0.15247989
6	0x3dc1071a	0.09425183
7	0xbe059f3b	-0.13049023
8	0xbdddaf1c	-0.10824415
9	0x3d81c354	0.06336084
10	0x3e9f7694	0.31145155
11	0x3e2495b4	0.16072732
12	0x3d31b1bc	0.04338239
13	0x3e49cd32	0.19707182
14	0x3e2dcb14	0.16972
15	0x3d743259	0.059618328
16	0xbe76ee95	-0.2411445
17	0x3ea79430	0.32730246
18	0x3ec49973	0.38398322
19	0xbbb1e864	-0.0054293144
20	0xbd3cd8b6	-0.04610511
21	0x3e855324	0.26039994
22	0xbca8ba84	-0.02059675
23	0xbe156399	-0.14588775
24	0x3e924d48	0.28574586
25	0xbdb5e320	-0.08881211
26	0xbdb4af08	-0.08822447
27	0x3e674a60	0.22586966
28	0x3e4254c4	0.18977648
29	0x3e2e3a46	0.17014417
30	0x3e8b07c0	0.2715435
31	0xbda324fb	-0.07966038
32	0xbabe36a0	-0.0014512129
33	0x3e1865e6	0.14882621
34	0x3e7ab5db	0.24483435
35	0xbe14fe55	-0.14550145
36	0x3e30df91	0.17272784
37	0x39a4461a	0.00031332747
38	0xbda8d574	-0.08243838
39	0x3eb1051e	0.34574217
40	0x3dd0f483	0.10202887
41	0xbdbf8a0b	-0.093525015
42	0xbe3a59fa	-0.18198386
43	0x3d158455	0.036503155
44	0x3e889552	0.26676422
45	0x3db363df	0.08759283
46	0x3e4bddb2	0.19908789
47	0x3e11c728	0.14236128
48	0x3e236244	0.15955454
49	0xbd2febeb	-0.0429496
50	0x3e041f89	0.12902655
51	0x3bbcbe15	0.005759964
52	0x3cbb6f89	0.022880333
53	0x3e3f6990	0.18692613
54	0xbb39e181	-0.002836317
55	0x3e3d2cad	0.18474074
56	0xbd59ddb1	-0.053189937
57	0xbe0fb29e	-0.14032981
58	0x3ce73aaf	0.028226225
59	0x3c5e93a3	0.013585004
60	0xbd503829	-0.05083481
61	0x3e34c95c	0.17654938
62	0x3b1c05f7	0.0023807266
63	0x3d98f088	0.07467753
64	0x3e9c8ff1	0.3057857
65	0x3e4c9402	0.19978335
66	0xbde7e583	-0.11323073
67	0x3e4b8a72	0.19877031
68	0x3e4325e8	0.19057429
69	0x3beb1135	0.007173682
70	0x3ebdd221	0.37074378
71	0x3e851977	0.2599599
72	0x3e967c3f	0.29391667
73	0x3e71cbef	0.2361295
74	0x3de9c56e	0.1141461
75	0x3e388b6e	0.18021938
76	0x3e84318f	0.2581906
77	0x3d03e078	0.032196492
78	0x3e86f1b2	0.26356274
79	0x3e16ee4a	0.14739338
80	0x3d9bd8cf	0.07609712
81	0x3e306ea3	0.17229705
82	0xbe08cc85	-0.13359268
83	0x3dea9432	0.11454047
84	0x3dfaa0a1	0.12237669
85	0x3dd51e3e	0.10406159
86	0xbcd7b669	-0.026332097
87	0x3e2129e3	0.15738635
88	0xbcd46c61	-0.025930585
89	0x3eaf1b1f	0.3420038
90	0x3e596636	0.21230397
91	0xbc8dfb73	-0.017331814
92	0x3e4577e5	0.19284017
93	0x3e3102df	0.17286251
94	0x3e988bc1	0.29794124
95	0x3d4ad5d7	0.04952034
96	0x3e2bdcbc	0.16783422
97	0x3ec2e4c0	0.38065147
98	0x3ebfe036	0.37475747
99	0xbd21b6ed	-0.039481092
100	0x3c65d1ce	0.014027072
101	0x3cbd716c	0.023125373
102	0xbdfb91c0	-0.12283659
103	0x3e6cb75f	0.23116826
104	0x3d75c7b9	0.060004923
105	0x3ec0eeaf	0.376821
106	0xbcf7aa8a	-0.030232687
107	0xba9750ed	-0.0011544504
108	0xbc06bfe6	-0.008224463
109	0x3e53403f	0.20629977
110	0x3e73a2f4	0.2379263
111	0xbd9666ac	-0.07343802
112	0x3e83b305	0.2572252
113	0xbea546e8	-0.3228066
114	0xbd149144	-0.03627135
115	0xbd10b8b5	-0.0353324
116	0x3d856b71	0.065146334
117	0x3d592be4	0.053020373
118	0xbcc2c142	-0.023773793
119	0x3e57d38b	0.21076791
120	0x3e7c93cb	0.24665754
121	0xbe14e764	-0.14541394
122	0x3e70cc93	0.23515539
123	0x3ec46a6f	0.38362452
124	0xbdc0b4f2	-0.094095126
125	0x3e9f5e9b	0.31126866
126	0x3eb8ed73	0.3611866
127	0x3e2a0804	0.1660462
128	0x3d376c87	0.044781234
129	0x3ea8bf5e	0.32958502
130	0x3e8e5fcc	0.27807462
131	0x3d6b2890	0.05741173
132	0xbdb62fb5	-0.08895818
133	0x3d86caa6	0.06581621
134	0x3e99fa39	0.30073717
135	0x3e826a95	0.2547194
136	0xbdc9aea9	-0.09847767
137	0xbd2b237e	-0.041781895
138	0x3e834728	0.25640225
139	0xbcd42de2	-0.025900785
140	0x3cda63a5	0.026658842
141	0x3949f026	0.00019258316
142	0xbe3745fe	-0.17897794
143	0xbdc352c2	-0.09537269
144	0xbe052446	-0.13002118
145	0x3ebb1c93	0.36545238
146	0xbd990e4f	-0.07473432
147	0xbbedeed2	-0.0072611356
148	0x3e29ef41	0.16595174
149	0xbd512614	-0.051061705
150	0x3dcecc03	0.10097506
151	0x3d9725d7	0.07380264
152	0x3e586c1d	0.21134992
153	0x3d668f95	0.056289274
154	0x3d8d94aa	0.06913121
155	0x3e0bf26d	0.13666697
156	0xbd92e320	-0.07172227
157	0x3dc5e9d1	0.096637376
158	0x3d27fcf4	0.04101272
159	0x3ba06933	0.004895353
160	0x3ea3d3f7	0.31997654
161	0x3e55ea88	0.20890248
162	0x3e1816af	0.14852403
163	0xbba558cb	-0.0050459853
164	0x3cdbcc33	0.026830768
165	0x3e57dad6	0.21079573
166	0xbe232d07	-0.15935145
167	0x3d8469f4	0.064655215
168	0x3ca32921	0.019917073
169	0x3e9647b5	0.29351583
170	0x3de343cc	0.110969156
171	0xbe076d76	-0.1322535
172	0xbdc4235d	-0.095770575
173	0xb99568de	-0.00028497627
174	0x3e7dc8e8	0.24783671
175	0xbd9da783	-0.07697966
176	0x3e152e2d	0.14568396
177	0x3ddff249	0.10934884
178	0xbe888135	-0.26661077
179	0xbd19edfb	-0.03758047
180	0xbdf406c8	-0.11915356
181	0x3dc226be	0.09480046
182	0x3e8e1d16	0.27756566
183	0x3e3bb7aa	0.18331781
184	0x3e448797	0.19192348
185	0x3debfa96	0.11522405
186	0x3ea173de	0.31533712
187	0x3d59fe36	0.05322095
188	0x3e9584ba	0.29202825
189	0xbe508e11	-0.20366694
190	0x3ea81e23	0.32835492
191	0x3e9dd12f	0.30823657
192	0xbd49561d	-0.04915439
193	0xbd8461fe	-0.06464003
194	0x3e6f0450	0.23341489
195	0x3e5090e6	0.20367774
196	0x3dd1f686	0.10252099
197	0x3e46e481	0.19423105
198	0x3e9f7912	0.31147057
199	0x3e3f4850	0.18679929
200	0xbdcff99a	-0.101550296
201	0x3dc5ef16	0.09664743
202	0xbd81cc66	-0.06337814
203	0xbd06834b	-0.032840054
204	0x3da1fd38	0.07909626
205	0x3e3b7d8d	0.18309613
206	0x3e20da1d	0.15708204
207	0x3e179827	0.14804135
208	0x3d19c304	0.037539497
209	0x3e594d7f	0.21220969
210	0x3da7e865	0.081986226
211	0x3dcefa86	0.10106377
212	0x3e8d276c	0.2756914
213	0xbd291cf0	-0.041287363
214	0xbddb7ebc	-0.10717532
215	0x3e2c3d5c	0.16820282
216	0x3e995f79	0.29955652
217	0x3eae464c	0.34038007
218	0x3e848da4	0.25889313
219	0xbd6ac877	-0.057320084
220	0x3d6fa101	0.058503155
221	0x3cb67434	0.022272207
222	0xbe33818b	-0.17529885
223	0xbd89563d	-0.06705902
224	0x3d31e31e	0.043429486
225	0x3e009d4c	0.12560004
226	0x3e5ec203	0.21753697
227	0x3e822a81	0.25423053
228	0xbdd954ec	-0.10611901
229	0xbe264cb5	-0.16240199
230	0x3dd482c1	0.10376502
231	0xbde39195	-0.11111752
232	0x3e868de9	0.26280144
233	0xbdc66e02	-0.09688951
234	0x3e94877d	0.2900962
235	0x3df0f0dc	0.1176469
236	0x3e7aaf58	0.24480951
237	0x3ca2709b	0.019829085
238	0x3cda775d	0.026668245
239	0x3e1a0a8d	0.15043087
240	0xbe2cf5a6	-0.16890582
241	0xbd37d05d	-0.044876445
242	0x3e71e112	0.23621014
243	0x3e1581b3	0.14600258
244	0x3ddf1c6e	0.108940944
245	0x3d7c3af8	0.061579674
246	0x3d0e2aa8	0.03470865
247	0x3dbc38fe	0.09190558
248	0x3d661c7e	0.056179516
249	0x3e5ea4d7	0.21742569
250	0x3e796721	0.24355747
251	0x3ca1cb19	0.019750165
252	0x3c310ee6	0.010806775
253	0xbdd09277	-0.10184186
254	0x3e005775	0.12533362
255	0x3c190835	0.009340336

ln1.weight f4 [256]
0	0x3f63543d	0.8880041
1	0x3f92a0da	1.1455338
2	0x3f8c56d1	1.0963994
3	0x3f892de6	1.0717132
4	0x3f96df98	1.1786985
5	0x3f7cf862	0.988165
6	0x3f899faf	1.0751857
7	0x3f8441ab	1.033254
8	0x3f5991fc	0.8498838
9	0x3f64e513	0.8941204
10	0x3f85a318	1.0440397
11	0x3f6e578e	0.9310235
12	0x3f973294	1.181231
13	0x3f84ea91	1.0384084
14	0x3f642ec1	0.8913384
15	0x3f87d95e	1.061321
16	0x3f6bbd5e	0.92085826
17	0x3f995482	1.1978915
18	0x3f6585f6	0.89657533
19	0x3f84a96f	1.0364207
20	0x3f786684	0.97031426
21	0x3f68fa1a	0.91006625
22	0x3f8de187	1.108445
23	0x3f83dd84	1.0301976
24	0x3f63bbf2	0.88958657
25	0x3f97c497	1.185687
26	0x3f8f537a	1.119735
27	0x3f49674d	0.7867325
28	0x3f902f7e	1.1264493
29	0x3f91a520	1.1378517
30	0x3f79ff00	0.97654724
31	0x3f82d6ed	1.022184
32	0x3fa1e724	1.2648664
33	0x3f9bd5b6	1.2174594
34	0x3f6d6c4d	0.9274338
35	0x3f85ae91	1.0443898
36	0x3f6564b4	0.89606786
37	0x3f83c866	1.0295532
38	0x3f898f4a	1.0746853
39	0x3fb3b323	1.4039043
40	0x3f7c5145	0.9856151
41	0x3fa1bd0f	1.2635821
42	0x3f90da36	1.1316593
43	0x3f8fae9c	1.1225162
44	0x3f53a263	0.8266966
45	0x3f82e63c	1.0226512
46	0x3f8dddb2	1.1083281
47	0x3f6a32e9	0.9148393
48	0x3f9dfb58	1.2342329
49	0x3f839014	1.0278344
50	0x3f9c4042	1.220711
51	0x3f8ede63	1.1161617
52	0x3f7bd2fb	0.98368806
53	0x3f9022e7	1.1260651
54	0x3f96f329	1.1792957
55	0x3f71bf83	0.9443285
56	0x3f701a8a	0.93790495
57	0x3f889980	1.0671844
58	0x3f7383b3	0.9512283
59	0x3f8f4087	1.1191567
60	0x3f872f43	1.0561298
61	0x3fa2304a	1.2670987
62	0x3f958b10	1.1683064
63	0x3f7f5d17	0.9975142
64	0x3f88511e	1.0649755
65	0x3f4441a3	0.76662654
66	0x3f88fd44	1.070229
67	0x3f82c10a	1.0215161
68	0x3f9dfa5b	1.2342027
69	0x3f89bbe4	1.0760465
70	0x3f87b449	1.0601894
71	0x3f620ff4	0.8830559
72	0x3f82f2a9	1.0230304
73	0x3f8fafe9	1.1225559
74	0x3f816a4c	1.0110564
75	0x3f781831	0.96911913
76	0x3fa788d7	1.3088635
77	0x3f905112	1.1274741
78	0x3f8c025e	1.0938222
79	0x3f91a1c2	1.137749
80	0x3f60fda2	0.8788701
81	0x3fadac5c	1.3568225
82	0x3f75d9d1	0.96035486
83	0x3f71c18b	0.9443595
84	0x3f870996	1.05498
85	0x3f8cc841	1.0998613
86	0x3f63fc4f	0.8905687
87	0x3f8801de	1.062557
88	0x3f8b8ce8	1.0902376
89	0x3f774c2c	0.96600604
90	0x3f728702	0.94737256
91	0x3f89b24f	1.075754
92	0x3f7b7b03	0.98234576
93	0x3f6ab46c	0.9168155
94	0x3f86593f	1.0495986
95	0x3f731527	0.9495415
96	0x3f88b293	1.0679497
97	0x3f846f60	1.0346489
98	0x3f8290e9	1.0200473
99	0x3f76ceb0	0.9640913
100	0x3f5adc86	0.8549274
101	0x3fa9c256	1.3262432
102	0x3f83b6e5	1.029019
103	0x3f7a59e6	0.97793424
104	0x3f8c5cb8	1.0965796
105	0x3f97a3e7	1.1846894
106	0x3f914ee6	1.1352203
107	0x3f6f2b94	0.9342587
108	0x3f95a358	1.1690474
109	0x3f5b993c	0.8578069
110	0x3f8e8cbe	1.1136701
111	0x3fac7236	1.3472354
112	0x3f8acc85	1.0843664
113	0x3f843921	1.0329934
114	0x3f85e59f	1.04607
115	0x3fa132db	1.2593645
116	0x3f88fb0a	1.0701611
117	0x3fa48596	1.2853267
118	0x3f8de4e7	1.108548
119	0x3f9ef852	1.2419531
120	0x3f854d83	1.041428
121	0x3f58d00f	0.8469247
122	0x3f8ce457	1.1007184
123	0x3f963959	1.1736251
124	0x3f862805	1.0480963
125	0x3f83f363	1.0308651
126	0x3f87bb74	1.0604081
127	0x3f90daad	1.1316735
128	0x3f8e63fb	1.1124262
129	0x3f7a7b46	0.9784435
130	0x3f7aafa6	0.9792427
131	0x3f5f3eb8	0.87205076
132	0x3fae1cda	1.3602555
133	0x3f83d2eb	1.0298742
134	0x3f969bc0	1.1766281
135	0x3f9bd464	1.2174191
136	0x3f84fb16	1.0389125
137	0x3f4b2ea1	0.79368025
138	0x3f8450ab	1.0337118
139	0x3f8fadff	1.1224974
140	0x3f2c3f38	0.67283964
141	0x3faf9487	1.3717202
142	0x3f8eda37	1.1160344
143	0x3f978266	1.183667
144	0x3f880804	1.0627446
145	0x3f891a2f	1.0711116
146	0x3f99a155	1.200236
147	0x3f6cea10	0.9254465
148	0x3f5f52da	0.87235796
149	0x3f80123e	1.0005567
150	0x3f8b353c	1.0875621
151	0x3f2d3531	0.6765929
152	0x3f881c97	1.0633725
153	0x3f8040dd	1.0019795
154	0x3f8b348e	1.0875413
155	0x3f9473c3	1.1597828
156	0x3f82dd4c	1.0223784
157	0x3f851963	1.0398372
158	0x3f867ff0	1.0507793
159	0x3f81e73d	1.0148693
160	0x3f8c6562	1.096844
161	0x3f714971	0.9425269
162	0x3f5fa448	0.8736005
163	0x3f4b88c4	0.7950556
164	0x3f745bdb	0.9545266
165	0x3f968f01	1.1762391
166	0x3f976792	1.1828482
167	0x3f8d90ef	1.1059855
168	0x3f9e4aaf	1.2366542
169	0x3f8067fd	1.0031735
170	0x3f72defb	0.9487149
171	0x3f7e8de5	0.99435264
172	0x3fa6d213	1.303286
173	0x3f8154f7	1.0104054
174	0x3f89b7a8	1.0759172
175	0x3fa43668	1.2829103
176	0x3f9f9dcb	1.247003
177	0x3f7a8374	0.9785683
178	0x3f96a4dc	1.1769061
179	0x3f3b05d7	0.73055786
180	0x3f750459	0.9570976
181	0x3fa3a2c4	1.2784047
182	0x3f87a8a5	1.0598341
183	0x3f9b489e	1.2131536
184	0x3f5452ba	0.8293873
185	0x3f4fbcb4	0.81147313
186	0x3f5a9459	0.8538261
187	0x3f6fad37	0.9362368
188	0x3f71a332	0.9438964
189	0x3f9e877e	1.2385099
190	0x3f81a8ae	1.0129602
191	0x3f5af2f9	0.85526997
192	0x3f7e370a	0.9930273
193	0x3f851314	1.0396447
194	0x3f499ee9	0.787581
195	0x3f9b3858	1.212657
196	0x3f7252de	0.94657695
197	0x3f640d89	0.89083153
198	0x3f91a643	1.1378864
199	0x3f5cf8a6	0.8631691
200	0x3f9f297a	1.2434533
201	0x3f86a547	1.0519189
202	0x3f917f85	1.1367041
203	0x3f977b55	1.1834513
204	0x3f88c93a	1.068641
205	0x3f87266a	1.0558598
206	0x3fabe10e	1.3428056
207	0x3f701c2d	0.9379299
208	0x3f7b434a	0.9814955
209	0x3f861961	1.0476495
210	0x3f607d4e	0.876912
211	0x3f68d04d	0.9094284
212	0x3f94dac4	1.1629262
213	0x3f84681a	1.0344269
214	0x3f84a188	1.0361795
215	0x3f9085fb	1.1290888
216	0x3f6c2d87	0.9225697
217	0x3f86a48a	1.0518963
218	0x3f915bd7	1.1356152
219	0x3f7debe1	0.9918805
220	0x3f82211e	1.0166357
221	0x3f7d1435	0.9885896
222	0x3f941f89	1.1572124
223	0x3fa5de8f	1.2958544
224	0x3f886326	1.0655258
225	0x3f2fc081	0.6865311
226	0x3f4f00dd	0.8086069
227	0x3f630f25	0.88694984
228	0x3fa090ce	1.2544191
229	0x3f967978	1.1755819
230	0x3f5d4ffa	0.8645016
231	0x3f94dcda	1.1629899
232	0x3f8a7e07	1.081971
233	0x3fa8f4a8	1.3199663
234	0x3f898be8	1.0745821
235	0x3f8b4ea1	1.0883371
236	0x3f58cb4b	0.846852
237	0x3f93d03c	1.1547923
238	0x3fa2f74e	1.2731721
239	0x3f7b6647	0.9820294
240	0x3f9a21bf	1.2041548
241	0x3f80ec6e	1.0072153
242	0x3f950bcb	1.1644224
243	0x3f852b38	1.0403814
244	0x3f61e335	0.88237315
245	0x3f6ab2ea	0.9167925
246	0x3f949944	1.1609273
247	0x3f899bc3	1.075066
248	0x3f5664e3	0.8374769
249	0x3f50ca0a	0.8155829
250	0x3f4eb5bd	0.8074606
251	0x3f88fd9f	1.0702399
252	0x3f92bb9d	1.1463505
253	0x3f76988f	0.96326536
254	0x3f880c76	1.0628803
255	0x3f819147	1.012246

ln1.bias f4 [256]
0	0xbd7308a3	-0.05933441
1	0xbda66b39	-0.0812592
2	0x3d52d65b	0.051473957
3	0xbde9d3ef	-0.11417376
4	0x3d203460	0.03911245
5	0xbbdad46c	-0.0066781547
6	0x3d21557f	0.039388176
7	0x3d045ef2	0.03231711
8	0xbe0ac731	-0.13552548
9	0xbe360895	-0.17776711
10	0xbba56280	-0.0050471425
11	0xbe3cdbc7	-0.18443213
12	0x3c70755a	0.014676416
13	0xbd3b24d5	-0.045689423
14	0xbe3aa335	-0.18226321
15	0xbe0da8e1	-0.13833953
16	0xbe3f5db0	-0.18688083
17	0xbdff7e7b	-0.12475296
18	0x3c186faa	0.009303967
19	0xbe1b7768	-0.15182269
20	0xbe034814	-0.12820464
21	0xbe2ec581	-0.1706753
22	0xbc21c195	-0.009872814
23	0xbe3a8e40	-0.18218327
24	0xbde403ac	-0.11133513
25	0x3d86f0c5	0.06588892
26	0xbd7e183c	-0.06203483
27	0xbdc7a917	-0.09749048
28	0x3ce10842	0.027469758
29	0xbd1646d9	-0.03668866
30	0x3cc8ba2f	0.024502842
31	0xbd923a51	-0.07140029
32	0xbd4de5ed	-0.050268102
33	0x3e1f19af	0.15537141
34	0xbe1dbaba	-0.15403262
35	0xbd1843f2	-0.037174173
36	0xbe5d21eb	-0.2159497
37	0xbd462b6d	-0.048381258
38	0x3dc6c70d	0.09705935
39	0x3d8768d3	0.066117905
40	0xbdf19c03	-0.11797335
41	0x3d4a81a5	0.049440045
42	0xbe11f15e	-0.1425223
43	0xbd4e4271	-0.050356332
44	0xbe3417c9	-0.17587198
45	0xbe1bd630	-0.15218425
46	0xbe111869	-0.14169468
47	0xbe206519	-0.15663566
48	0xbcf9d06a	-0.030494887
49	0xbded4d6b	-0.11587032
50	0x3da74c87	0.08168893
51	0x3dba072d	0.090834
52	0xbd0af7a8	-0.03392759
53	0xbdeb22e8	-0.11481267
54	0x3d03efd6	0.032211147
55	0xbe4d1cc0	-0.20030499
56	0xbe0be3b3	-0.13661079
57	0xbdc8252e	-0.097727165
58	0xbe022f21	-0.12713291
59	0x3d78cfc6	0.060745023
60	0xbd94e4c0	-0.07270193
61	0x3d74e1cc	0.05978565
62	0x3b8b8a15	0.004258404
63	0xbe40fd7d	-0.18846698
64	0x3d8576f7	0.06516831
65	0xbe5b2353	-0.21400194
66	0xbb2102ca	-0.0024568313
67	0xbc7523ed	-0.014962179
68	0x3cd79895	0.026317874
69	0xbdbf37b5	-0.09336797
70	0xbd951aea	-0.07280524
71	0xbdc67057	-0.09689396
72	0xbdc45b06	-0.09587674
73	0x3b08c13b	0.0020867127
74	0xbe114d01	-0.14189531
75	0xbe1f5e72	-0.15563372
76	0x3d80af44	0.06283429
77	0x3ca9fb09	0.020749586
78	0xbd133777	-0.035941567
79	0x3deb4077	0.11486905
80	0xbe4abe63	-0.1979919
81	0x3d5949fb	0.05304907
82	0xbdc1b51c	-0.09458372
83	0xbd188790	-0.037238657
84	0x3c1db13a	0.009624774
85	0x3b8fc675	0.0043876716
86	0xbe2fee80	-0.17180824
87	0xbdbac6cf	-0.09119951
88	0xbd0bf607	-0.034170177
89	0xbd93eabc	-0.072225064
90	0xbe134e8e	-0.14385435
91	0x3dd61417	0.104530506
92	0xbd14c8b0	-0.036324203
93	0xbe313e4c	-0.1730892
94	0x3d223650	0.039602578
95	0xbe1a699d	-0.15079351
96	0xbc11911a	-0.008884693
97	0xbdad0488	-0.0844813
98	0xbd68d7ef	-0.056846555
99	0xbdf2950c	-0.11844835
100	0xbe645317	-0.22297321
101	0x3d41dca6	0.047329567
102	0xbb15d698	-0.0022863504
103	0xbe198da0	-0.14995432
104	0xbc74fb41	-0.014952482
105	0x3cacbbfc	0.021085732
106	0x3da2ca42	0.07948734
107	0xbdf2381e	-0.1182711
108	0xbbaa4184	-0.0051957984
109	0xbe83d002	-0.25744635
110	0xbd7083c8	-0.058719426
111	0x3cd0b60b	0.02547743
112	0x3da309fc	0.07960889
113	0xbe448c8c	-0.1919424
114	0xbdca8cf2	-0.098901644
115	0xbdb64194	-0.08899227
116	0xbe2484f2	-0.1606634
117	0xbda975b6	-0.08274405
118	0x3d9e96b2	0.077435866
119	0xbce3237a	-0.027726877
120	0x3d665eae	0.056242637
121	0xbdffd2a7	-0.124913506
122	0xbce9c0b7	-0.028534276
123	0x3d2e5ea9	0.042570744
124	0xbdc139e2	-0.094348684
125	0xbcf350ab	-0.029701551
126	0xbda647cc	-0.08119163
127	0xbdd2b2f9	-0.102880426
128	0xbde6a6c9	-0.112622805
129	0xbddcb90b	-0.10777482
130	0xbd7916c2	-0.06081272
131	0xbdb68fee	-0.08914171
132	0xbad3740d	-0.0016132608
133	0xbd41db05	-0.047328014
134	0x3d15f966	0.036614798
135	0x3db393ae	0.08768402
136	0xbe171071	-0.14752366
137	0xbdd6a11c	-0.10479948
138	0xbdba693b	-0.09102102
139	0x3d847c9a	0.06469078
140	0xbe590d45	-0.21196468
141	0xbca6b240	-0.020348668
142	0xbd633de3	-0.05547894
143	0xbdc502f5	-0.09619705
144	0xbdb3c42b	-0.087776504
145	0xbd1d8bad	-0.038463283
146	0x3c689032	0.014194535
147	0x3cba2f2d	0.022727573
148	0xbe30ef4e	-0.17278787
149	0xbdd32402	-0.10309602
150	0x3c4b1cee	0.012397034
151	0xbe8cd83c	-0.27508724
152	0xbe06bb03	-0.13157277
153	0xbd1adb96	-0.03780707
154	0x3e23c3c4	0.15992647
155	0x3d045252	0.03230507
156	0xbdf50fdd	-0.11965916
157	0x3ba58a2d	0.005051872
158	0xbde35db0	-0.11101854
159	0xbe2a4d53	-0.1663106
160	0x3cad273c	0.021136872
161	0xbddc8cb3	-0.10769024
162	0xbe84ead9	-0.25960425
163	0xbe836c0c	-0.2566837
164	0xbe132846	-0.14370832
165	0x3e103d2b	0.14085834
166	0xbd2cedc4	-0.04221894
167	0xbd25a7f7	-0.040443387
168	0x3da6386e	0.08116232
169	0xbdb88880	-0.0901041
170	0xbe36d9e2	-0.17856553
171	0xbdba0ca3	-0.090844415
172	0x3bb3d01b	0.0054874546
173	0xbd9f7d9d	-0.07787631
174	0xbe0a63fe	-0.13514706
175	0x3d7e2161	0.06204355
176	0xbcb8e8fc	-0.022572033
177	0xbe1f9610	-0.15584588
178	0xbcd2a5c3	-0.025713807
179	0xbe01b266	-0.1266571
180	0xbe8ce474	-0.27518046
181	0x3da60154	0.08105722
182	0xbce1ed82	-0.027579073
183	0x3d6960f0	0.056977212
184	0xbe77e9fc	-0.24210352
185	0xbe7af61b	-0.24507944
186	0xbe23284d	-0.15933342
187	0xbdc8575b	-0.09782287
188	0xbe11860a	-0.14211288
189	0xbc75494b	-0.014971088
190	0xbc08f422	-0.008358987
191	0xbe06e550	-0.13173413
192	0xbda778ec	-0.08177361
193	0x3d9d4ef8	0.07681078
194	0xbe0456ce	-0.12923738
195	0xbd011f86	-0.031524204
196	0xbe11c6cd	-0.14235993
197	0xbe65d532	-0.22444609
198	0xbe0b5845	-0.13607891
199	0xbe3d086d	-0.18460245
200	0x3d112168	0.03543225
201	0xbe01d01d	-0.12677045
202	0x3c54ecff	0.012995957
203	0x3cf301f2	0.029664014
204	0x3dade7aa	0.08491452
205	0xbb8835e1	-0.0041568135
206	0x3c821b7f	0.015882252
207	0xbc827dbb	-0.015929094
208	0xbd841311	-0.06448949
209	0xbd9d1dd6	-0.076717064
210	0xbe39cb97	-0.1814407
211	0xbe01e880	-0.12686348
212	0xbd04beda	-0.032408573
213	0x3cd59a8e	0.026074674
214	0x3c975b8b	0.018476268
215	0xbddc20e9	-0.107484646
216	0xbdbead5c	-0.093104094
217	0xbca53da5	-0.020170996
218	0xbd139b24	-0.036036626
219	0xbd4e7148	-0.050401002
220	0xbd2521dc	-0.040315494
221	0xbe0860f0	-0.13318229
222	0x3cd4656c	0.025927268
223	0x3da08e8a	0.07839687
224	0xbdc9d751	-0.098555215
225	0xbe8e359c	-0.27775276
226	0xbe32c1e6	-0.17456779
227	0xbe39f43c	-0.18159574
228	0xbd52cb33	-0.051463317
229	0xbbe43af2	-0.0069650346
230	0xbde8a19a	-0.11358948
231	0x3cb9052d	0.022585476
232	0xbcb9c470	-0.022676677
233	0x3d31e6aa	0.04343287
234	0xbd8cd9a6	-0.06877451
235	0xbde5db44	-0.11223462
236	0xbe76aae5	-0.24088629
237	0x3dea1573	0.11429872
238	0x3deed26a	0.11661227
239	0xbe0a7a36	-0.13523182
240	0x3da479ab	0.08031019
241	0x3d9acc93	0.07558551
242	0xbdb9ee82	-0.09078695
243	0xbd061535	-0.03273507
244	0xbdfce278	-0.12347883
245	0xbe1e14a5	-0.15437563
246	0xbcba75b4	-0.022761203
247	0x3e36bfa8	0.17846549
248	0xbe41d143	-0.18927483
249	0xbe80c8ae	-0.25153106
250	0xbe345a00	-0.17612457
251	0xbdc4f084	-0.09616187
252	0xbd8b4fbf	-0.0680232
253	0xbdba068b	-0.09083279
254	0x3d144019	0.03619394
255	0xbe270723	-0.16311316

linear2.weight f4 [256, 256]
0	0xbe1d8892	-0.15384129
1	0x3e2f161c	0.17098278
2	0x3cd6be8e	0.02621391
3	0xbde07a10	-0.109607816
4	0xbe4a1d59	-0.19737758
5	0x3d7925ce	0.06082707
6	0x3b361fd6	0.0027789972
7	0xbc6f8c91	-0.014620916
8	0xbd884146	-0.06653075
9	0x3c4ce8dd	0.012506691
10	0xbd421792	-0.04738576
11	0xbe0cc6dc	-0.13747734
12	0x3c90225c	0.017594509
13	0xbe12ff14	-0.14355117
14	0x3dac2d3d	0.08407066
15	0x3d881dd2	0.06646313
16	0xbe683082	-0.22674754
17	0xbdf1f89b	-0.11814996
18	0x3d926eb3	0.071500205
19	0xbe1470f2	-0.1449621
20	0xbd9d2463	-0.07672956
21	0x3cd6aa81	0.02620435
22	0xbe62c94b	-0.221471
23	0xbdef4a41	-0.11684085
24	0x3e0ac19b	0.13550417
25	0x3d8dd959	0.069262214
26	0x3cde0ec8	0.027106658
27	0x3da53aac	0.080678314
28	0x3c219819	0.009862923
29	0x3e45afd5	0.19305356
30	0x3e358f07	0.17730342
31	0x3d74a424	0.05972685
32	0xbd6d0345	-0.057864446
33	0x3e7062ad	0.23475142
34	0x3e3508f9	0.17679204
35	0xbc8e1c18	-0.01734738
36	0xbe331b06	-0.17490777
37	0x3de6fa68	0.1127823
38	0xbd9c57c4	-0.076339275
39	0xbde0b148	-0.10971314
40	0xbc7e6da5	-0.015529071
41	0xbe0bd4bb	-0.13655369
42	0xbdee3d16	-0.11632745
43	0xbd516cff	-0.051129337
44	0x3c8d2ec1	0.017234208
45	0x3c7ee231	0.015556858
46	0x3ea8ec20	0.3299265
47	0x3d7c8730	0.061652362
48	0xbdc88b28	-0.09792167
49	0xbca86f0b	-0.020560762
50	0x3dd3e296	0.10345952
51	0xbd1871c3	-0.037217867
52	0xbe91d22a	-0.28480655
53	0xbe8de325	-0.2771236
54	0xbdd25819	-0.102707095
55	0xba47c4c6	-0.0007620569
56	0x3cb7a3b7	0.022416933
57	0xbcf9daa6	-0.030499768
58	0x3e3e8b98	0.18607938
59	0x3e09dd88	0.13463414
60	0xbe25273d	-0.1612825
61	0x3da05bd1	0.078300126
62	0xbddc61e6	-0.1076086
63	0xbe15196b	-0.14560477
64	0x3de09790	0.10966408
65	0xbcfb92e5	-0.030709693
66	0xbdf018d2	-0.11723484
67	0xbd4592d6	-0.048235737
68	0x3e82cde8	0.2554772
69	0x3d8bbb46	0.06822829
70	0xbd2a6529	-0.04160038
71	0x3d43a336	0.047763072
72	0x3e32899f	0.17435311
73	0x3e6bae39	0.2301568
74	0x3dba9926	0.09111242
75	0xbdf26b96	-0.11836927
76	0x3c96854d	0.01837411
77	0x3d3b4f9e	0.045730226
78	0x3da8bc49	0.082390375
79	0x3e903763	0.28167257
80	0xbe3206c3	-0.17385392
81	0xbdc8ca4c	-0.0980421
82	0xbd387b46	-0.045039438
83	0xbd94e0b3	-0.072694205
84	0xbe210976	-0.15726265
85	0x3e2700e2	0.1630893
86	0x3df6261c	0.120189875
87	0xbe04ae51	-0.12957121
88	0xbe4d870e	-0.2007105
89	0x3e2107b3	0.15725593
90	0x3cdbd260	0.026833713
91	0xbd10683b	-0.035255652
92	0x3e4c441a	0.19947854
93	0x3c89914c	0.016792916
94	0x3dfa8704	0.122327834
95	0x3cfa31e8	0.030541375
96	0x3d4ed836	0.050499164
97	0x3dd12c56	0.102135345
98	0x3e1cea03	0.15323643
99	0xbe42cdb4	-0.19023782
100	0xbe037d84	-0.12840849
101	0x3e4915c1	0.19637205
102	0xbd8d320d	-0.06894312
103	0x3da344dd	0.07972119
104	0x3e0646a9	0.13112892
105	0x3e543203	0.20722203
106	0x3e4e847d	0.20167728
107	0xbe163510	-0.14668679
108	0xbd3384ed	-0.04382794
109	0x3d213420	0.03935635
110	0x3dccf0af	0.10006844
111	0xbde27799	-0.11057968
112	0xbe1cdb89	-0.15318121
113	0x3aa7490f	0.0012762862
114	0xbec0a500	-0.37625885
115	0xbe404773	-0.18777256
116	0xbe51a954	-0.2047475
117	0xbd3c8e19	-0.046033952
118	0xbd742909	-0.059609447
119	0xbe576636	-0.21035084
120	0x3ddfc0d9	0.10925455
121	0xbe16445f	-0.14674519
122	0xbe419dad	-0.18907805
123	0x3e8c67cd	0.27422944
124	0xbe165f58	-0.14684808
125	0xbe9d44d0	-0.30716562
126	0x3d7676fe	0.060172074
127	0xbe2b2265	-0.16712339
128	0xbe3c3ab7	-0.18381773
129	0x3e2e5123	0.17023139
130	0x3d1f42e7	0.038882162
131	0x3df1ad55	0.118006386
132	0xbc498afb	-0.012301202
133	0x3d5bf41f	0.05369961
134	0x3c90d289	0.017678516
135	0x3e17c18a	0.14819923
136	0xbe6c754f	-0.23091625
137	0x3c2b2e2a	0.010448018
138	0x3cf69579	0.030100571
139	0x3da4b066	0.08041458
140	0xbe2b386f	-0.16720746
141	0xbe52fddd	-0.20604654
142	0xbc2caf07	-0.010539777
143	0xbdef6bfe	-0.1169052
144	0xbd5575e5	-0.052114386
145	0x3e161642	0.14656928
146	0xbe0b3f32	-0.13598326
147	0x3d96a008	0.07354742
148	0x3e35d322	0.17756322
149	0xbd5045f2	-0.050847955
150	0xbe6fa26a	-0.234018
151	0x3d95c30b	0.07312592
152	0xbd9b9b54	-0.07597986
153	0xbe11cc6a	-0.14238134
154	0x3d58c81a	0.052925207
155	0x3e561358	0.20905817
156	0x3ce66e26	0.028128695
157	0x3d8f9675	0.07011119
158	0x3d0727bf	0.03299689
159	0xbcb7ca7d	-0.022435421
160	0x3e754cde	0.23955104
161	0xbda5b617	-0.080913715
162	0x3e24338c	0.16035289
163	0x3d8fd0ec	0.070222706
164	0x3ddd89c3	0.108172916
165	0x3e294f18	0.16534078
166	0xbdd0742d	-0.10178409
167	0x3e35f1f9	0.17768086
168	0x3e139591	0.14412524
169	0x3e0dbae6	0.13840827
170	0x3e58c26b	0.21167915
171	0xbe8e2db6	-0.2776925
172	0xbe83916e	-0.25696892
173	0xbd2a6ae3	-0.04160584
174	0x3dfe4535	0.12415544
175	0xbd88b6dc	-0.06675503
176	0xbeb01fd9	-0.34399298
177	0xbce83661	-0.028346242
178	0xbe12901a	-0.14312783
179	0x3e192f0c	0.14959353
180	0xbde3f448	-0.11130577
181	0x3e966db3	0.2938057
182	0x3e2b7e66	0.16747436
183	0x3e2565b7	0.16152082
184	0x3d7345d2	0.059392758
185	0xbdcde9b0	-0.10054338
186	0x3e8ab5ba	0.2709177
187	0xbe86781f	-0.2626352
188	0x3deccb70	0.1156224
189	0xbe1f97d0	-0.15585256
190	0x3e0999cd	0.13437577
191	0x3d9c0ec7	0.07620006
192	0x3e1f99f6	0.15586075
193	0xbde3f19f	-0.1113007
194	0x3c56cc7b	0.013110275
195	0x3dde28f3	0.10847654
196	0xbd0f4ed6	-0.034987293
197	0xbda3024d	-0.07959423
198	0x3e4180da	0.18896809
199	0x3c6f632d	0.014611048
200	0xbd167168	-0.036729246
201	0xbe20b048	-0.15692246
202	0xbeb03152	-0.34412628
203	0xbeb34c19	-0.35018995
204	0x3e24aba9	0.16081108
205	0x3dd12df4	0.10213843
206	0xbd71d91d	-0.059044946
207	0xbd4271a2	-0.04747165
208	0xbe16fcc2	-0.14744857
209	0x3d995110	0.074861646
210	0xbdf35f10	-0.11883366
211	0x3dab36e3	0.08360078
212	0x3e428fc6	0.19000158
213	0xbcfb9319	-0.03070979
214	0xbe3589d8	-0.17728364
215	0x3c809045	0.015693793
216	0xbd24115b	-0.040055614
217	0x3e29d518	0.16585195
218	0xbd2b3979	-0.041802857
219	0xbb8dbf9e	-0.004325821
220	0xbe45bdbd	-0.1931066
221	0xbe2ca2c2	-0.16858962
222	0xbe0f9963	-0.14023356
223	0x3ced6c38	0.028982267
224	0xbd3f71db	-0.04673944
225	0xbdc973dc	-0.098365515
226	0x3dfb85f2	0.122814074
227	0x3e0cc752	0.1374791
228	0x3e03123c	0.12799925
229	0xbe3c59a4	-0.1839357
230	0xbe4e3dcb	-0.2014076
231	0xbda55b65	-0.08074073
232	0x3e31e123	0.17371039
233	0x3d851266	0.0649765
234	0x3d56fc2b	0.05248658
235	0xbe2bba3b	-0.1677026
236	0x3e27fe63	0.16405635
237	0x3e8a9287	0.27064916
238	0x3deca41b	0.11554738
239	0x3e840b07	0.25789663
240	0xbbca686c	-0.006176999
241	0xbdf01518	-0.11722773
242	0x3e408392	0.1880019
243	0xbe062902	-0.1310158
244	0x3c71135f	0.014714091
245	0xbc86b9a4	-0.016445942
246	0x3d8c8c96	0.06862752
247	0x3dbd7b5c	0.092520446
248	0xbe0c2077	-0.1368426
249	0xbd96e243	-0.07367375
250	0x3da75ae8	0.08171636
251	0xbd9a89c8	-0.07545811
252	0xbc171e02	-0.009223463
253	0x3d7899a6	0.060693406
254	0x3db85a20	0.09001565
255	0xba037e1b	-0.00050160446

linear2.bias f4 [256]
0	0x3e254f1b	0.16143458
1	0x3d6ad810	0.05733496
2	0x3d711f08	0.058867484
3	0x3dd19d1d	0.10235045
4	0xbd1e3728	-0.03862682
5	0x3dd61798	0.10453719
6	0x3c8e0a61	0.017338933
7	0x3dfe9c12	0.12432112
8	0xbc05f17e	-0.008175252
9	0xbcc0e92e	-0.023548689
10	0x3da50fd1	0.08059657
11	0xbd5fc45b	-0.05463062
12	0xbc476df5	-0.012172212
13	0xbd93a56a	-0.072092846
14	0x3cb32a6d	0.021870816
15	0x3de4b627	0.11167555
16	0xbd1f0d0f	-0.038830813
17	0x3bd1d180	0.006403148
18	0x3e359b46	0.17735013
19	0x3e12a0dc	0.14319175
20	0x3d9d14b3	0.07669964
21	0x3d12e1cf	0.03585988
22	0xbd8ec38a	-0.0697089
23	0x3ca18589	0.019716995
24	0x3d9967df	0.07490515
25	0xbde5c1b3	-0.11218586
26	0x3d641eb9	0.055693362
27	0x3d4ca53f	0.04996228
28	0xbc89f543	-0.016840583
29	0xbb6ee274	-0.0036450895
30	0x3d0972cd	0.03355675
31	0xbd825ef6	-0.063657686
32	0x3cf199cb	0.02949228
33	0x3e005cd4	0.12535411
34	0x3e0423b6	0.12904248
35	0x3cd6cd39	0.026220905
36	0x3d733634	0.059377864
37	0x3a949f78	0.0011339029
38	0x3b9bb902	0.0047522793
39	0x3d87aa19	0.066242404
40	0x3d647bed	0.055782247
41	0x3bb8fc10	0.0056452826
42	0x3d507475	0.050892312
43	0x3d522866	0.05130806
44	0xbcfa2cef	-0.030539004
45	0x3c5c5ff7	0.013450614
46	0x3dcff7d3	0.101546906
47	0x3d84aaf4	0.06477919
48	0xbcc52fbe	-0.024070617
49	0x3de5e11b	0.11224576
50	0xbd828b5d	-0.06374238
51	0x3c03e022	0.008049043
52	0x3e2ee1bd	0.170783
53	0xbced6167	-0.02897711
54	0x3d78a6d6	0.060705982
55	0xbc29156c	-0.010320049
56	0xbc68eabf	-0.014216124
57	0x3c5821b7	0.013191632
58	0xbc6173ee	-0.01376055
59	0x3d1c18fb	0.03810976
60	0x3d5abf55	0.053405125
61	0x3de690a7	0.11258059
62	0x3d94d449	0.07267053
63	0x3b42dde5	0.002973431
64	0x3d2fa301	0.042880062
65	0xbd0c856f	-0.03430694
66	0xbc938c8d	-0.018011356
67	0x3d389a92	0.045069285
68	0xbd390ac0	-0.045176268
69	0x3e337dfb	0.17528526
70	0x3dc1ab5d	0.09456513
71	0x3cfe98af	0.031078665
72	0xbbb475c3	-0.0055072024
73	0xbcf97204	-0.030449875
74	0xbcc0eed4	-0.023551382
75	0xbd3314e3	-0.04372109
76	0x3d49ea23	0.049295556
77	0x3e1bafcb	0.15203778
78	0x3c530f7f	0.0128821125
79	0xbcdef31d	-0.027215535
80	0xbcb6d6a7	-0.022319151
81	0x3d44988c	0.047997043
82	0xba9fd01a	-0.0012192756
83	0xbcc35249	-0.023842948
84	0x3e30e095	0.17273171
85	0x3d01b54f	0.03166705
86	0x3d45b585	0.048268814
87	0xbd14e2da	-0.036349155
88	0x3db1f810	0.08689892
89	0x3cfaa40a	0.030595798
90	0x3db9838c	0.09058294
91	0xb9b19e16	-0.00033877854
92	0xbd024a13	-0.031808924
93	0x3dc0e6ba	0.094190076
94	0xbc123af6	-0.00892519
95	0x3ceaadfb	0.028647413
96	0x3c375ef0	0.011192068
97	0x3ddf24ff	0.10895728
98	0x3d0f2106	0.034943603
99	0x3d85bb6e	0.0652989
100	0x3e523d90	0.20531297
101	0xbd157338	-0.036486834
102	0xbb62739b	-0.003455377
103	0x3d2369ed	0.03989594
104	0x3e26f7d0	0.1630547
105	0x3e094209	0.13404097
106	0xbd5228d8	-0.051308483
107	0xba9f12f7	-0.0012136389
108	0xbc23c63e	-0.009995995
109	0xbdd64cbb	-0.10463854
110	0x3d3120ad	0.043244053
111	0xbb281a06	-0.0025650277
112	0x3ddb9eb3	0.10723629
113	0x3c90dc5e	0.017683204
114	0x3e0cbacc	0.13743132
115	0x3c19e0d9	0.009391987
116	0x3cbef526	0.023310255
117	0x3e3c3e84	0.18383223
118	0x3d0e395c	0.03472267
119	0x3daebe2e	0.08532368
120	0xbbd05574	-0.006357843
121	0x3bf840ac	0.007576069
122	0x3dc2a6af	0.095044486
123	0x3d01c146	0.03167846
124	0xbdb5df70	-0.08880508
125	0x3da18c07	0.07888036
126	0xbd32920a	-0.043596305
127	0xbd280849	-0.041023526
128	0x3e1087e7	0.14114343
129	0xbcaa2743	-0.020770675
130	0xbd5fa061	-0.05459631
131	0x3dd38b0a	0.10329254
132	0x3bbbfd82	0.0057370076
133	0x3d8410d3	0.064485215
134	0xbdd57a30	-0.10423696
135	0xbcc21667	-0.023692323
136	0x3d37572f	0.04476088
137	0x3d3b872a	0.0457832
138	0xbd0f8f40	-0.035048723
139	0xbd17df40	-0.037078142
140	0x3d6ac33a	0.05731509
141	0xbdcf89fb	-0.101337396
142	0xbb1b9b7c	-0.00237438
143	0x3d371209	0.044694934
144	0xbc1ef071	-0.00970088
145	0x3de8ee2c	0.11373553
146	0x3bc26d6b	0.005933454
147	0xbd3bb2a1	-0.04582465
148	0x3d6c2aac	0.057657883
149	0x3daf3313	0.085546635
150	0x3d740c29	0.05958191
151	0x3d4afa10	0.049554884
152	0x3d89e170	0.06732452
153	0xbd890571	-0.06690491
154	0xbd247140	-0.040147066
155	0xbb7b1004	-0.0038309107
156	0x3ddc7473	0.107643984
157	0x3ddcaab2	0.10774745
158	0x3d8e574c	0.06950244
159	0xbd704579	-0.058660004
160	0xbdb4b88b	-0.08824261
161	0x3c89a40a	0.016801853
162	0x3cb253ea	0.021768529
163	0x3dcadc65	0.09905318
164	0x3c6eeba6	0.01458255
165	0xbd457318	-0.048205465
166	0xbd8019b9	-0.06254906
167	0xbde9ca52	-0.11415543
168	0x3bacfb60	0.0052789897
169	0xbdd9d1d3	-0.10635724
170	0xbd1a2fea	-0.03764335
171	0x3b9be274	0.00475722
172	0x3de35654	0.1110045
173	0x3d1225b1	0.035680477
174	0x3d672c4f	0.05643874
175	0x3d44e391	0.048068587
176	0x3e0a525e	0.13507983
177	0xbceffd64	-0.02929563
178	0x3cca791b	0.02471595
179	0xbca6c3fd	-0.020357126
180	0x3bab5717	0.005228888
181	0x3b8cd482	0.004297794
182	0x3d829848	0.063767016
183	0x3bec20c4	0.0072060544
184	0xbe170b05	-0.14750297
185	0x3dce3a75	0.100697435
186	0x3cf551be	0.029946204
187	0x3da85d03	0.082208656
188	0xbdc3af37	-0.09554904
189	0x3da8a7c2	0.08235122
190	0x3d0c9e19	0.03433046
191	0x3e05188d	0.12997647
192	0x3d3c5b7f	0.045985695
193	0x3d9725ee	0.073802814
194	0xbd2820f0	-0.041047037
195	0x3d1248a9	0.035713825
196	0xbcf41ec1	-0.02979982
197	0xbcff6fa4	-0.031181164
198	0x3d092aea	0.03348819
199	0xbd581bca	-0.052760877
200	0x3e680fe9	0.22662319
201	0x3d049dac	0.03237693
202	0x3e103dd4	0.14086086
203	0x3d9da472	0.07697381
204	0x3de36335	0.111029066
205	0x3dc7db33	0.09758606
206	0x3e21e154	0.15808612
207	0xbd61c7fd	-0.055122364
208	0x3d829576	0.06376164
209	0xbd84c20e	-0.064823255
210	0x3daef504	0.08542827
211	0xbd16a15b	-0.036774974
212	0x3df78ede	0.12087797
213	0x3dca76b8	0.09885925
214	0x3dce81b1	0.100833304
215	0x3b63cc08	0.0034759063
216	0xbd901471	-0.07035149
217	0x3e05c02c	0.13061589
218	0x3c5ce522	0.013482364
219	0x3d90df49	0.07073838
220	0x3c8af434	0.016962148
221	0x3af92e12	0.0019010922
222	0xbbd066cf	-0.006359912
223	0xbcf5d905	-0.03001071
224	0x3de2f005	0.11080936
225	0x3d9b9a65	0.07597808
226	0xbce551ec	-0.027993165
227	0xbd5385ad	-0.051641155
228	0xbdaf12b6	-0.08548491
229	0x3d013287	0.031542327
230	0x3d3aefd7	0.045638885
231	0x3d8ed932	0.069750205
232	0x3c5ffeaf	0.013671561
233	0x3d2a0be2	0.04151524
234	0x3d56bdf5	0.05242725
235	0x3c0cfbd6	0.008604964
236	0xbd610ae6	-0.054942034
237	0x3c60a4d6	0.013711175
238	0x3e342170	0.1759088
239	0x3bdb6e98	0.0066965334
240	0xbc25548a	-0.010090956
241	0x3e0993c9	0.13435282
242	0xbda00417	-0.0781328
243	0xbd5a10c3	-0.05323864
244	0xbd0dae16	-0.03458985
245	0x3d867aa4	0.065663606
246	0x3e080ec3	0.13286881
247	0x3da362ba	0.07977815
248	0xbd0f4d08	-0.034985572
249	0x3d969fe2	0.07354714
250	0x3ca3a06c	0.019973956
251	0x3db051c9	0.08609349
252	0xbe1b08a8	-0.15140021
253	0x3dee3d0e	0.11632739
254	0xbcfdafd7	-0.030967636
255	0xbc45fca6	-0.012084162

ln2.weight f4 [256]
0	0x3fa1b5bb	1.2633585
1	0x3f63b03f	0.88940805
2	0x3f8bb974	1.0915971
3	0x3f6747ee	0.9034413
4	0x3f3f0ff6	0.7463373
5	0x3f95697a	1.1672814
6	0x3f7c6d9e	0.9860476
7	0x3f96b20c	1.1773086
8	0x3f868629	1.0509692
9	0x3f47e780	0.78087616
10	0x3f736e8b	0.9509055
11	0x3f503be5	0.8134139
12	0x3f632d6e	0.88741195
13	0x3f806e78	1.0033712
14	0x3f7fcda2	0.99923146
15	0x3f8ef717	1.1169156
16	0x3f503690	0.81333256
17	0x3f6a06ed	0.9141682
18	0x3f9ac6e8	1.2091951
19	0x3f976879	1.1828758
20	0x3f874450	1.0567722
21	0x3f7f4b13	0.9972393
22	0x3f8ac315	1.0840784
23	0x3f61def0	0.882308
24	0x3f8e8f54	1.113749
25	0x3f6b77ab	0.91979474
26	0x3f53fedf	0.8281078
27	0x3f71cfe8	0.94457865
28	0x3f3618d6	0.71131647
29	0x3f8ebec4	1.1151967
30	0x3f8b3bce	1.0877626
31	0x3f827a02	1.0193484
32	0x3f8816ca	1.0631955
33	0x3f826efc	1.019012
34	0x3f962cd9	1.1732436
35	0x3f91044a	1.1329434
36	0x3f7e1b8c	0.99260783
37	0x3f77967c	0.96713996
38	0x3f4b2f59	0.7936912
39	0x3f875760	1.057354
40	0x3f806a05	1.0032355
41	0x3f908a50	1.129221
42	0x3f86fda1	1.0546151
43	0x3f79d445	0.9758952
44	0x3f6fac3d	0.9362219
45	0x3f3598a7	0.70936054
46	0x3f9a00c1	1.203148
47	0x3f8817ec	1.06323
48	0x3f80f5e5	1.0075041
49	0x3f94959c	1.1608157
50	0x3f8b9aeb	1.0906652
51	0x3f474bfb	0.7785031
52	0x3f8b3fe6	1.0878875
53	0x3f7fdb10	0.9994364
54	0x3f394197	0.7236571
55	0x3f87d97e	1.0613248
56	0x3f848d0d	1.0355545
57	0x3f667c80	0.9003372
58	0x3f78c72b	0.97178906
59	0x3f47eeae	0.7809857
60	0x3f845a92	1.034014
61	0x3f86f834	1.0544496
62	0x3f77999c	0.96718764
63	0x3f45617e	0.77101886
64	0x3f7ab69c	0.9793489
65	0x3f3c4b64	0.73552537
66	0x3f89a4c2	1.0753405
67	0x3f80fa35	1.0076357
68	0x3f8a3f0b	1.0800489
69	0x3f801b00	1.000824
70	0x3f845a06	1.0339973
71	0x3f8db853	1.1071876
72	0x3f704b48	0.9386487
73	0x3f875db8	1.0575476
74	0x3f80c5ee	1.0060403
75	0x3f8c438a	1.0958111
76	0x3f7c96bb	0.98667496
77	0x3f7e1160	0.9924526
78	0x3f93f9e6	1.1560638
79	0x3f741903	0.95350665
80	0x3f82952d	1.0201775
81	0x3f85351c	1.0406833
82	0x3f91b682	1.1383822
83	0x3f98721f	1.1909827
84	0x3f8fe0fc	1.1240535
85	0x3f894ca2	1.0726511
86	0x3fa33540	1.2750626
87	0x3f62a110	0.8852701
88	0x3f885fa2	1.0654185
89	0x3f8f33bf	1.1187667
90	0x3f7926aa	0.9732462
91	0x3f7ce664	0.9878905
92	0x3f32f71b	0.69908303
93	0x3f8bec57	1.09315
94	0x3f8ce470	1.1007214
95	0x3f8b5b43	1.0887226
96	0x3f7fcbcc	0.99920344
97	0x3f83af24	1.0287824
98	0x3f7af215	0.9802564
99	0x3fa216bf	1.2663192
100	0x3f8f87a0	1.1213264
101	0x3f49112f	0.78541845
102	0x3f76992a	0.9632746
103	0x3f3defd1	0.74194056
104	0x3f906a32	1.1282408
105	0x3f886550	1.0655918
106	0x3f87211d	1.055698
107	0x3f87e3c4	1.0616384
108	0x3f745699	0.9544464
109	0x3f8060c4	1.002953
110	0x3f4d5739	0.80211216
111	0x3f52f811	0.8240977
112	0x3f996451	1.1983739
113	0x3f56925f	0.83817095
114	0x3f822b1c	1.0169406
115	0x3f862ee4	1.048306
116	0x3f5a4d7b	0.85274476
117	0x3f979d64	1.1844907
118	0x3f826143	1.0185932
119	0x3f89206d	1.071302
120	0x3f6443e4	0.8916609
121	0x3f7d088a	0.98841155
122	0x3f9579a3	1.1677746
123	0x3f9a03a2	1.2032359
124	0x3f4b2fbb	0.79369706
125	0x3f88d957	1.0691327
126	0x3f5fee68	0.87473154
127	0x3f72e22e	0.9487637
128	0x3f8260d9	1.0185806
129	0x3f42529a	0.7590729
130	0x3f831de3	1.0243496
131	0x3f9b3b93	1.2127556
132	0x3f7a5251	0.97781855
133	0x3f728ed0	0.94749165
134	0x3f433d44	0.7626536
135	0x3f653e8a	0.8954855
136	0x3f679935	0.9046815
137	0x3f848d51	1.0355626
138	0x3f438b30	0.7638426
139	0x3f78ac4c	0.97137904
140	0x3f854fef	1.0415019
141	0x3f6b07f2	0.91809
142	0x3f4ee55b	0.8081872
143	0x3f75a39d	0.9595278
144	0x3f8e5ede	1.1122701
145	0x3f42dc92	0.76117814
146	0x3f6e4136	0.93068254
147	0x3f686c11	0.90789896
148	0x3f6e161e	0.930025
149	0x3f8c9c7b	1.0985254
150	0x3f8e0d0f	1.1097735
151	0x3f49089f	0.7852878
152	0x3f9ace14	1.209414
153	0x3f2679f3	0.6502983
154	0x3f505a37	0.81387657
155	0x3f849e87	1.0360879
156	0x3f84a4b6	1.0362766
157	0x3f8f68ed	1.1203896
158	0x3f8dcf7a	1.1078942
159	0x3f5e371e	0.8680285
160	0x3f71ef8e	0.94506156
161	0x3f680c65	0.9064391
162	0x3f70b69f	0.9402866
163	0x3f862544	1.0480123
164	0x3f837829	1.0271045
165	0x3f4835d3	0.7820713
166	0x3f5aa9c1	0.85415274
167	0x3f8b9346	1.0904319
168	0x3f8fc680	1.1232452
169	0x3f94f55c	1.1637378
170	0x3f83f594	1.030932
171	0x3f5f6b06	0.8727268
172	0x3f564ee4	0.8371413
173	0x3f73036c	0.94927096
174	0x3f9a3dcf	1.2050112
175	0x3f7f04ba	0.9961659
176	0x3f66f290	0.9021387
177	0x3f6dafb4	0.92846227
178	0x3f88fec5	1.070275
179	0x3f834b80	1.0257416
180	0x3f86d203	1.053284
181	0x3f4aa281	0.7915421
182	0x3fa6680b	1.3000501
183	0x3f8513c3	1.0396656
184	0x3f6d6aba	0.92740977
185	0x3f8b8dcf	1.0902652
186	0x3f7d625c	0.9897821
187	0x3f7ca0b7	0.9868273
188	0x3f73e471	0.9527045
189	0x3f910307	1.1329049
190	0x3f6ae174	0.91750264
191	0x3fa2cb86	1.271836
192	0x3f8f96c2	1.1217883
193	0x3f869024	1.0512738
194	0x3f607d23	0.87690943
195	0x3f46778a	0.7752615
196	0x3f6d0376	0.92583406
197	0x3f7787d1	0.96691614
198	0x3f504de6	0.81368864
199	0x3f810266	1.0078857
200	0x3f93e013	1.1552757
201	0x3f8c096c	1.0940375
202	0x3fa79b51	1.3094274
203	0x3f7991e2	0.97488225
204	0x3fa9d541	1.3268205
205	0x3f9b8bed	1.2152077
206	0x3f945f92	1.1591666
207	0x3f5564ee	0.8335713
208	0x3f8f12e2	1.1177638
209	0x3f64b211	0.8933421
210	0x3f9e5938	1.2370977
211	0x3f71456a	0.9424654
212	0x3f7ffec3	0.9999811
213	0x3f8892df	1.0669822
214	0x3f9a5899	1.2058288
215	0x3f6565cc	0.89608455
216	0x3f7e450b	0.993241
217	0x3fa05651	1.2526342
218	0x3f87d632	1.0612242
219	0x3f7c7d66	0.9862884
220	0x3fa2d1c4	1.2720265
221	0x3f8e0275	1.10945
222	0x3f8c521a	1.0962555
223	0x3f84d2f7	1.0376881
224	0x3f93372f	1.1501216
225	0x3f8e4f95	1.1118037
226	0x3f7f31e2	0.9968549
227	0x3f5cea37	0.86294883
228	0x3f82281f	1.0168494
229	0x3f4f7876	0.81043184
230	0x3f8706f4	1.0548997
231	0x3f8eee50	1.1166477
232	0x3f96f6c2	1.1794055
233	0x3f7fac76	0.9987253
234	0x3f51a777	0.81896156
235	0x3f7d8eaa	0.99045813
236	0x3f8aba77	1.0838155
237	0x3f485413	0.7825329
238	0x3f94ac7d	1.1615139
239	0x3f77621d	0.96634084
240	0x3f440791	0.76574045
241	0x3f8bbe5d	1.0917469
242	0x3f8ef993	1.1169914
243	0x3f6c4e9b	0.9230744
244	0x3f894aad	1.0725914
245	0x3f979b18	1.1844206
246	0x3fa2725a	1.2691147
247	0x3fa7921f	1.3091468
248	0x3f628a77	0.8849253
249	0x3f92e097	1.1474789
250	0x3f74d3a0	0.95635414
251	0x3f852ee3	1.0404934
252	0x3f7eafb5	0.9948686
253	0x3f8ab80f	1.083742
254	0x3f85b437	1.0445622
255	0x3f905ea0	1.1278877
