groupe08/model/model.pth (torch, 418065 bytes, 14 tensors)

linear1.weight f4 [256, 11]
0.21887682 -0.009288514 -0.1786368 -0.09716354 0.1513279 0.08822467 0.12727255 0.2994571
0.23651038 0.44682956 0.22191444 -0.4618305 0.3212742 0.20425917 -0.13718393 -0.32497513
0.34182274 0.3956671 -0.15923642 -0.4620815 0.13227604 0.07595303 -0.21835205 0.43806744
-0.068990655 -0.11516881 0.053484783 0.051161066 -0.30550843 0.43387195 0.12672916 0.30369917
0.11549833 0.12874678 -0.19780627 0.06380552 0.30576548 -0.19872177 0.27637646 0.40862393
0.23735356 0.5508478 0.19010223 0.12796721 0.3595861 0.15591739 0.36811393 -0.24425977
0.14488673 -0.20570894 0.13729893 0.45543563 0.15217619 0.28296453 0.19085841 0.13953945
0.36375442 0.31313342 0.39941806 0.0075099864 -0.06688496 0.15627007 0.23179862 0.17765412
0.20991226 -0.1546354 0.14942256 0.37281105 -0.31860912 0.31896883 -0.27900934 0.19849063
-0.1110114 -0.012459118 -0.006349825 -0.019280333 0.35775357 0.014860207 0.3498275 0.10886395
-0.2282519 0.14947526 0.006466015 -0.23105049 0.43125957 -0.071652114 0.19451626 0.17971332
0.08681328 0.19145656 -0.2113464 -0.00059763785 0.17193931 0.09295823 0.0127795795 0.17283821
-0.024437392 0.34920925 0.24578041 -0.36890462 -0.15480004 0.27280617 0.20411673 0.062342476
-0.01958614 -0.05018435 -0.017688569 0.18884106 0.25233933 -0.10419731 -0.27977142 0.013336567
0.17110845 0.15088408 0.3443279 0.06229432 0.033409417 -0.43503729 -0.24050741 0.15437555
-0.1197495 -0.07106114 -0.16001152 0.072428256 -0.07961436 0.25773582 0.30622336 -0.1656967
-0.16033372 -0.16546544 -0.16119379 0.26406068 0.47278515 0.5284636 -0.057347994 0.2834131
0.0014546227 -0.019850656 -0.26988277 -0.098621435 0.05199469 -0.14690985 -0.007212055 -0.2829035
0.15785992 -0.20041516 0.20711045 -0.098426595 0.29222667 0.3139106 0.37148452 -0.09835306
-0.088595085 -0.248798 0.09917956 0.39911705 -0.37363586 0.22717518 -0.10320792 0.2476469
-0.0099951485 0.315142 0.29522577 -0.18090296 0.17935489 0.21116526 -0.49238208 0.17390952
0.024413697 0.09771737 -0.10193021 0.5187677 0.30956584 -0.31084245 0.05929579 0.15609333
0.2534015 0.073748566 0.13387612 0.34150267 0.22630934 0.17856131 0.25233302 0.30875126
0.2185858 -0.07284492 0.06818292 -0.26466167 -0.38929793 0.12473998 -0.08799931 0.36592418
0.22253917 -0.14711455 -0.29491147 0.040778164 -0.32770512 0.019424072 -0.24721035 -0.39410627
-0.14504033 0.18996578 0.17789064 -0.02719196 0.030899469 0.106051855 -0.162819 0.10307311
0.023014095 0.19857281 -0.31725484 -0.2602494 0.3541936 0.17925861 -0.012810286 0.34075713
0.04312277 0.24747397 0.29753497 0.14650106 0.21077813 0.34440762 0.02898624 -0.038748093
0.28090203 -0.041575316 0.10310252 0.3781292 0.025426565 0.3716172 -0.03301003 -0.23302032
0.50246996 0.04117975 -0.12160505 -0.19669221 -0.11212627 -0.011255191 0.23252507 0.07037169
0.070683666 0.076621056 0.047683787 0.1419019 -0.29838607 0.30079305 0.324577 -0.1280982
0.11055801 0.3777643 0.42300454 0.28457245 0.09730096 0.08026931 0.018649898 -0.24215806
00000000: 3f21 603e da2e 18bc 91ec 36be aefd c6bd
00000010: b3f5 1a3e 23af b43d bc53 023e 7152 993e
00000020: c72f 723e d8c6 e43e 8a3d 633e 0c75 ecbe
00000030: 0d7e a43e 5129 513e f279 0cbe 2463 a6be
00000040: 6403 af3e e194 ca3e df0e 23be f295 ecbe
00000050: 5f73 073e 438d 9b3d ae97 5fbe 604a e03e
00000060: f94a 8dbd a0dd ebbd dc12 5b3d 448e 513d
00000070: 9a6b 9cbe 7724 de3e 4ac5 013e 757e 9b3e
00000080: 638a ec3d 32d6 033e ba8d 4abe 78ac 823d
00000090: 4b8d 9c3e b87d 4bbe 3781 8d3e 2837 d13e
000000a0: d00c 733e 5d04 0d3f 29aa 423e d609 033e
000000b0: ab1b b83e cfa8 1f3e 6e79 bc3e 3c1f 7abe
000000c0: 305d 143e 5da5 52be 1798 0c3e dc2e e93e
000000d0: 13d4 1b3e bae0 903e 6370 433e 6ee3 0e3e
000000e0: 053e ba3e 0653 a03e 8680 cc3e 5516 f63b
000000f0: fbfa 88bd 4305 203e 9e5c 6d3e f6ea 353e
00000100: 3df3 563e be58 1ebe 3a02 193e 17e1 be3e
00000110: bc20 a3be e24f a33e 50da 8ebe 2141 4b3e
00000120: f259 e3bd 5421 4cbc 3112 d0bb caf1 9dbc
00000130: 7a2b b73e 3a78 733c 971c b33e 10f4 de3d
00000140: deba 69be 0b10 193e dde0 d33b 8098 6cbe
00000150: 0ece dc3e 58be 92bd 452f 473e c506 383e
00000160: 29cb b13d 300d 443e 316b 58be ccaa 1cba
00000170: dc10 303e e260 be3d 7161 513c 80fc 303e
00000180: ed30 c8bc 8ecb b23e dcad 7b3e 11e1 bcbe
00000190: e783 1ebe 40ad 8b3e fa03 513e d35a 7f3d
000001a0: 1d73 a0bc 1b8e 4dbd 9ee7 90bc 8d5f 413e
000001b0: 9f32 813e 6665 d5bd 333e 8fbe 9e81 5a3c
000001c0: 0e37 2f3e 5b81 1a3e bf4b b03e 5428 7f3d
000001d0: 50d8 083d 35bd debe 9347 76be a014 1e3e
000001e0: 3a3f f5bd 8188 91bd 0fda 23be 4455 943d
000001f0: db0c a3bd f3f5 833e 4fc9 9c3e 65ac 29be
00000200: 862e 24be c66f 29be fc0f 25be f632 873e
00000210: e510 f23e 6449 073f bbe5 6abd 861b 913e
00000220: 0aa9 be3a d89d a2bc 132e 8abe 09fa c9bd
00000230: 62f8 543d 896f 16be 1a53 ecbb bad8 90be
00000240: 08a6 213e a239 4dbe c314 543e e293 c9bd
00000250: bc9e 953e e4b8 a03e 3833 be3e 546d c9bd
00000260: 5771 b5bd e7c4 7ebe a71e cb3d 1259 cc3e
00000270: 334d bfbe 9ca0 683e ad5e d3bd 2697 7d3e
00000280: b1c2 23bc 4b5a a13e d527 973e a03e 39be
00000290: cfa8 373e b53b 583e 8119 fcbe 5615 323e
000002a0: 3cff c73c 0b20 c83d c9c0 d0bd f6cd 043f
000002b0: 6a7f 9e3e be26 9fbe 24e0 723d eed6 1f3e
000002c0: d7bd 813e 7d09 973d d216 093e 70d9 ae3e
000002d0: a3bd 673e c7d8 363e cb31 813e a514 9e3e
000002e0: f5d4 5f3e b82f 95bd 7da3 8b3d bc81 87be
000002f0: 0f52 c7be ad77 ff3d fb38 b4bd 6a5a bb3e
00000300: 4fe1 633e 32a5 16be a3fe 96be 0107 273d
00000310: f7c8 a7be 3b1f 9f3c b624 7dbe 4cc8 c9be
00000320: 7485 14be 6486 423e f728 363e acc1 debc
00000330: e220 fd3c b731 d93d 06ba 26be ff17 d33d
00000340: 0e88 bc3c ac56 4b3e 3a6f a2be 693f 85be
00000350: dd58 b53e 928f 373e 3ce2 51bc b877 ae3e
00000360: 80a1 303d d169 7d3e 8156 983e 6004 163e
00000370: 39d6 573e 3256 b03e 8d74 ed3c 52b6 1ebd
00000380: 64d2 8f3e e14a 2abd 6a27 d33d 279a c13e
00000390: 5f4b d03c 9c44 be3e 8635 07bd e19c 6ebe
000003a0: dfa1 003f 19ac 283d 120c f9bd af69 49be
000003b0: 75a2 e5bd b167 38bc 0d1b 6e3e 081f 903d
000003c0: 99c2 903d 80eb 9c3d 1350 433d bb4e 113e
000003d0: 0fc6 98be 8c01 9a3e f52e a63e 2d2c 03be
000003e0: 3d6c e23d 536a c13e 0d94 d83e 7bb3 913e
000003f0: ba45 c73d 3c64 a43d acc7 983c 48f8 77be

linear1.bias f4 [256]
-0.099282496 0.20974475 0.04912554 -0.22061835 -0.13344088 -0.078043684 0.11876615 -0.1460646
-0.15923096 0.04361146 0.3541101 0.12738667 0.08602481 0.18809634 0.21548527 0.078794904
-0.19578353 0.32981163 0.39146423 -0.032678902 -0.02527838 0.25774547 -0.0898162 -0.13970469
0.3005355 -0.047959864 -0.19115417 0.24076782 0.18156812 0.17722368 0.31579214 -0.10693173
-0.0637114 0.17073813 0.24600866 -0.113018595 0.20836845 -0.020777397 -0.11388762 0.3401375
0.035498332 -0.030570798 -0.18575469 0.07946835 0.26754186 0.01644811 0.25618383 0.16330017
0.11820525 0.021039577 0.14612506 0.036653534 0.053421583 0.16678676 -0.011722525 0.21546519
0.00034227862 -0.0927335 -0.025605366 -0.041690074 -0.029888341 0.17346974 0.0036472962 0.10315659
0.29629576 0.29796726 -0.1251613 0.117050156 0.22466871 0.022581145 0.3982053 0.35010037
0.33229932 0.2805003 0.20138624 0.14961855 0.23106797 0.05989529 0.23828076 0.2028408
0.1631538 0.13725817 -0.09604775 0.11533833 0.14594255 0.123798765 0.06391352 0.16703467
-0.109992765 0.36196515 0.29802465 -0.0010355851 0.17238802 0.2547066 0.24282563 0.031422872
0.23333772 0.39311942 0.38895956 -0.033465035 0.044994306 0.029156893 -0.13114288 0.2648791
0.0615145 0.41089937 -0.037913825 0.033741325 -0.04698493 0.25340253 0.2399324 -0.07587863
0.25411886 -0.31333405 -0.035971016 -0.024879389 0.03889261 0.02268427 -0.04721176 0.17544211
0.22007507 -0.1542698 0.22655196 0.4478962 -0.120364346 0.29298916 0.39975214 0.20234504
0.0605441 0.35621926 0.24372359 0.119163565 -0.06886733 0.058791462 0.25991482 0.3365716
-0.1021542 0.0076920744 0.28551072 0.029468076 0.15109834 -0.02478854 -0.1646923 -0.096505284
-0.17298251 0.38923794 -0.08529925 0.023525547 0.21437484 -0.033877958 0.12257804 0.097518235
0.173693 0.13008541 0.08836726 0.13542077 -0.086941116 0.13055779 0.017812178 -0.008732463
0.2927586 0.18745969 0.19028592 0.052089624 0.025880663 0.21509212 -0.14809385 0.13028555
0.0151308365 0.27130547 0.14083076 -0.11735069 -0.095218174 0.026892232 0.26149753 -0.108275555
0.11826687 0.111857526 -0.19244145 0.002715296 -0.0630966 0.14234221 0.32280797 0.23409693
0.18284012 0.16133279 0.36254132 0.04711624 0.25808775 -0.18516573 0.3640266 0.27405444
-0.031650577 -0.053778578 0.2542215 0.21899226 0.14638552 0.17586678 0.3041171 0.27529234
-0.12919879 0.08231769 -0.062005807 -0.028139805 0.07209123 0.22753416 0.17742114 0.18254161
-0.0031538776 0.24475163 0.055319607 0.16973226 0.34884652 -0.04476322 -0.1477569 0.23786052
0.3121495 0.35339686 0.25340468 0.045842104 0.10195736 0.03381083 -0.13963947 -0.07495466
0.029359715 0.16508007 0.24857055 0.33888692 -0.14775825 -0.123102926 0.11952401 -0.16918671
0.33241916 -0.13855954 0.30675003 0.11567182 0.29231414 0.0077685765 0.032214314 0.1813242
-0.17285 -0.07075518 0.3249061 0.122321814 0.1683413 0.05725039 0.068598 0.12026979
0.06910274 0.199379 0.31389752 0.090110816 0.077556394 -0.060512353 0.17152116 -0.019873045
00000000: 9f54 cbbd 54c7 563e dd37 493d c7e9 61be
00000010: baa4 08be 5ed5 9fbd ab3b f33d f591 15be
00000020: 710d 23be eea1 323d eb4d b53e a771 023e
00000030: c72d b03d 549c 403e 2ca8 5c3e 395f a13d
00000040: 7a7b 48be 12dd a83e 006e c83e 50da 05bd
00000050: 9b14 cfbc 37f7 833e 8ef1 b7bd bf0e 0fbe
00000060: cadf 993e 9071 44bd ebbd 43be d78b 763e
00000070: feec 393e 207a 353e 82af a13e 06ff dabd
00000080: 1f7b 82bd fad5 2e3e b2e9 7b3e 4b76 e7bd
00000090: 8a5e 553e 5c35 aabc ea3d e9bd 8126 ae3e
000000a0: b366 113d 9c6f fabc 7a36 3ebe 4dc0 a23d
000000b0: 3ffb 883e 30be 863c 872a 833e 2938 273e
000000c0: 9815 f23d 315b ac3c cfa1 153e 0422 163d
000000d0: 97d0 5a3d 26ca 2a3e d50f 40bc e8a2 5c3e
000000e0: dc73 b339 10eb bdbd 58c2 d1bc 36c3 2abd
000000f0: 65d8 f4bc 0da2 313e 7a07 6f3b c343 d33d
00000100: 14b4 973e 2a8f 983e 492a 00be feb7 ef3d
00000110: 8e0f 663e 18fc b83c 91e1 cb3e 5b40 b33e
00000120: 2323 aa3e bc9d 8f3e 3238 4e3e 9b35 193e
00000130: 159d 6c3e c354 753d dfff 733e 80b5 4f3e
00000140: ca11 273e 688d 0c3e afb4 c4bd 8136 ec3d
00000150: f771 153e 358a fd3d 17e5 823d 230b 2b3e
00000160: e343 e1bd 7f53 b93e b096 983e 78bc 87ba
00000170: 7c86 303e e768 823e 48a7 783e 45b5 003d
00000180: 15f0 6e3e f346 c93e b525 c73e a212 09bd
00000190: f34b 383d 70da ee3c 524a 06be 3c9e 873e
000001a0: a1f6 7b3d 6761 d23e 874b 1bbd 5834 0a3d
000001b0: 4573 40bd fabd 813e d7b0 753e 4166 9bbd
000001c0: de1b 823e 526d a0be 5856 13bd dccf cbbc
000001d0: dc4d 1f3d 5dd4 b93c 1e61 41bd 19a7 333e
000001e0: 5c5b 613e e7f8 1dbe 3dfd 673e a752 e53e
000001f0: 9581 f6bd ad02 963e 50ac cc3e 8a33 4f3e
00000200: 17fd 773d 5f62 b63e ad92 793e 070c f43d
00000210: 510a 8dbd 51cf 703d 8e13 853e 1d53 ac3e
00000220: 3936 d1bd cc0d fc3b 762e 923e 0967 f13c
00000230: 86b9 1a3e 5611 cbbc 19a5 28be 90a4 c5bd
00000240: 5422 31be 324a c73e 60b1 aebd a6b8 c03c
00000250: 1485 5b3e 9dc3 0abd 320a fb3d a4b7 c73d
00000260: 94dc 313e 1c35 053e e5f9 b43d beab 0a3e
00000270: 2f0e b2bd f1b0 053e d8ea 913c 9b12 0fbc
00000280: 75e4 953e 6ff5 3f3e 50da 423e ee5b 553d
00000290: af03 d43c 1c41 5c3e eaa5 17be 9369 053e
000002a0: 54e7 773c 8de8 8a3e f035 103e 8f55 f0bd
000002b0: bf01 c3bd 194d dc3c 01e3 853e 93bf ddbd
000002c0: e735 f23d 8f15 e53d 5f0f 45be 1cf3 313b
000002d0: ca38 81bd 28c2 113e 1647 a53e 1bb7 6f3e
000002e0: 713a 3b3e 6c34 253e 049f b93e f5fc 403d
000002f0: 1424 843e 169c 3dbe b261 ba3e dd50 8c3e
00000300: 09a4 01bd ed46 5cbd 5229 823e 823f 603e
00000310: 16e6 153e 6c16 343e 3db5 9b3e 1ef3 8c3e
00000320: b04c 04be 2d96 a83d cdf9 7dbd 7385 e6bc
00000330: 91a4 933d b7fe 683e e3ad 353e 30ec 3a3e
00000340: 49b1 4ebb 2ca0 7a3e d096 623d 4bce 2d3e
00000350: 039c b23e a359 37bd 964d 17be b591 733e
00000360: 0fd2 9f3e 6ff0 b43e 42be 813e eec4 3b3d
00000370: 05cf d03d 3a7d 0a3d a6fd 0ebe d481 99bd
00000380: c983 f03c c00a 293e 4789 7e3e 9682 ad3e
00000390: f04d 17be 631d fcbd 01c9 f43d 483f 2dbe
000003a0: d832 aa3e 8de2 0dbe 570e 9d3e 59e5 ec3d
000003b0: 33aa 953e 8b8f fe3b 28f3 033d 0dad 393e
000003c0: 97ff 30be 18e8 90bd 185a a63e dc83 fa3d
000003d0: a961 2c3e 637f 6a3d 1c7d 8c3d 0250 f63d
000003e0: bd85 8d3d 022a 4c3e 2db7 a03e 058c b83d
000003f0: e3d5 9e3d cddb 77bd 3ea3 2f3e cccc a2bc

ln1.weight f4 [256]
0.9585102 1.1678754 1.0993026 1.1159166 1.1900395 1.0252576 1.0971636 1.0131592
0.8504555 0.81933373 1.0320299 0.9736607 1.2347949 1.0325544 0.9076102 1.1517104
0.8651408 1.175246 0.90268916 1.013279 0.99575365 0.8678801 1.0303714 1.0683005
0.8465944 1.2204827 1.154583 0.79448503 1.1612619 1.1050726 0.9475678 1.0584155
1.2400379 1.1934626 1.014733 1.0630299 0.8600609 0.9885727 1.0509617 1.4211128
0.9210273 1.3000783 1.1881493 1.1225201 0.76822674 0.9180467 1.1521086 0.91546476
1.1950632 1.0806007 1.2727588 1.1433655 1.0057465 1.2015688 1.169595 0.96790284
0.9373543 1.0720419 0.92397016 1.1131516 1.068196 1.239951 1.1756405 0.98795485
1.0280885 0.870325 0.9800842 0.9277309 1.3215376 1.1221966 1.0804336 0.86498237
1.0613427 1.1067476 1.0729692 0.9021841 1.2795924 1.1293403 1.0689359 1.1940333
0.89762735 1.4206954 0.9668411 0.8930016 1.1319463 1.0251844 0.93944067 1.0339934
1.0721947 1.0278465 0.9905455 1.1242735 0.9323433 1.0076408 0.9691152 0.9082015
1.0824922 1.0215579 1.10129 0.92834 0.82932484 1.3075067 0.9854795 0.95447403
1.1151981 1.2361138 1.2020804 1.011417 1.1542677 0.8538177 1.0721204 1.3637593
1.0987291 1.035615 1.079309 1.2771561 1.0620595 1.2011775 1.1035666 1.2484373
1.0045896 0.77613384 1.1591157 1.1832364 1.0562251 1.0884002 1.0426412 1.1346363
1.0627537 0.9798794 0.9462607 0.8979654 1.3973033 1.0026982 1.1680104 1.2711542
1.0096703 0.7473886 1.0270838 1.1612247 0.8038097 1.4677398 1.147207 1.236
1.053377 1.0790691 1.1687506 0.97841173 0.916441 1.027187 1.0988944 0.54782224
1.0200851 1.1263894 1.1394367 1.1844449 1.1372557 1.0504416 1.132359 0.9643404
1.0538968 0.89208513 0.8961439 0.86529946 0.96742517 1.204297 1.1869946 1.106757
1.2930622 0.9674266 1.0092294 0.98847425 1.3781565 0.9960453 1.1046561 1.2389371
1.2900056 0.9881941 1.2212802 0.7725731 0.96385926 1.3599398 1.0554817 1.2528602
0.77772284 0.8752563 0.91613 0.93889636 0.89137864 1.1731626 1.0583587 0.83322704
0.96788746 1.0464579 0.763203 1.2364211 0.9614524 0.8609907 1.1394951 0.95249736
1.2703484 0.97699916 1.1294231 1.2208681 1.0063927 1.0687197 1.3002841 0.9453151
0.9546643 1.0336661 0.80387634 0.9829926 1.2062584 0.9684114 1.0073166 1.2469205
0.98655796 1.0984613 1.1584238 1.0877101 1.0118983 0.9832246 1.147026 1.3236517
1.029145 0.6973433 0.82682025 0.9120342 1.2762003 1.1836483 0.8359794 1.1790326
1.1719922 1.3018856 1.0753214 1.1944425 0.8748616 1.0466001 1.2839042 1.0527849
1.2159224 1.011862 1.2586981 0.99859893 0.8557008 0.88365823 1.1804737 1.0787162
0.8236088 0.79731524 0.836477 1.0681602 1.1674476 0.91607255 1.0851058 1.0143691
00000000: ed60 753f f17c 953f f3b5 8c3f 5bd6 8e3f
00000010: 3753 983f a43b 833f db6f 8c3f 33af 813f
00000020: 74b7 593f dbbf 513f 8e19 843f d441 793f
00000030: c20d 9e3f be2a 843f 2459 683f 3f6b 933f
00000040: de79 5d3f 766e 963f a316 673f 20b3 813f
00000050: b6e9 7e3f 642d 5e3f 36e3 833f 12be 883f
00000060: 69ba 583f c738 9c3f 60c9 933f 5f63 4b3f
00000070: 3ba4 943f 0573 8d3f ce93 723f 297a 873f
00000080: 90b9 9e3f 62c3 983f c5e2 813f 5d11 883f
00000090: f32c 5c3f 1a13 7d3f ea85 863f 06e7 b53f
000000a0: 72c8 6b3f f768 a63f 4715 983f bdae 8f3f
000000b0: 82aa 443f 1c05 6b3f 4b78 933f e65b 6a3f
000000c0: d5f7 983f 2051 8a3f c3e9 a23f cd59 923f
000000d0: 4dbc 803f 02cd 993f 4ab5 953f 7bc8 773f
000000e0: 74f6 6f3f ab38 893f 4f89 6c3f c07b 8e3f
000000f0: a6ba 883f b7b6 9e3f 637b 963f 9cea 7c3f
00000100: 6798 833f 9fcd 5e3f cce6 7a3f c67f 6d3f
00000110: 2528 a93f 23a4 8f3f a64b 8a3f 7c6f 5d3f
00000120: 14da 873f e8a9 8d3f 0e57 893f 8af5 663f
00000130: afc9 a33f 398e 903f e4d2 883f 15d6 983f
00000140: e8ca 653f 59d9 b53f e682 773f c19b 643f
00000150: 9ee3 903f 3e39 833f 2f7f 703f e559 843f
00000160: ad3d 893f 7990 833f 6494 7d3f 32e8 8f3f
00000170: 0dae 6e3f 60fa 803f ef17 783f e57f 683f
00000180: 1b8f 8a3f 69c2 823f 12f7 8c3f b1a7 6d3f
00000190: a24e 543f 615c a73f 6248 7c3f 6958 743f
000001a0: d0be 8e3f fa38 9e3f c5dd 993f 1d76 813f
000001b0: 0bbf 933f cc93 5a3f 3e3b 893f aa8f ae3f
000001c0: 28a3 8c3f 088f 843f cc26 8a3f da79 a33f
000001d0: 91f1 873f 2fc0 993f ac41 8d3f cbcc 9f3f
000001e0: 6496 803f b5b0 463f e75d 943f 4a74 973f
000001f0: 6232 873f b350 8b3f 4475 853f c33b 913f
00000200: 5008 883f 60d9 7a3f 243e 723f 0fe1 653f
00000210: d6da b23f 6a58 803f 5d81 953f 2eb5 a23f
00000220: e03c 813f dc54 3f3f 7b77 833f 03a3 943f
00000230: 79c6 4d3f e6de bb3f aed7 923f 3f35 9e3f
00000240: 0fd5 863f f01e 8a3f 9f99 953f 3179 7a3f
00000250: e19b 6a3f dd7a 833f 92a8 8c3f 143e 0c3f
00000260: 2692 823f 872d 903f 10d9 913f e49b 973f
00000270: 9891 913f df74 863f 24f1 903f 03df 763f
00000280: 17e6 863f b15f 643f b069 653f 4484 5d3f
00000290: 2da9 773f 6726 9a3f 70ef 973f 37aa 8d3f
000002a0: 1083 a53f 45a9 773f 6e2e 813f a60c 7d3f
000002b0: 6f67 b03f d3fc 7e3f 5f65 8d3f 7e95 9e3f
000002c0: e71e a53f 4afa 7c3f e952 9c3f 5ac7 453f
000002d0: 7bbf 763f 8212 ae3f 061a 873f b95d a03f
000002e0: d818 473f cc10 603f 7f87 6a3f 835b 703f
000002f0: 6431 643f 312a 963f 4c78 873f 5e4e 553f
00000300: 79c7 773f 55f2 853f 4661 433f 0c43 9e3f
00000310: bf21 763f e369 5c3f fada 913f ded6 733f
00000320: c79a a23f 9e1c 7a3f f090 903f 6845 9c3f
00000330: 7ad1 803f cfcb 883f b66f a63f 2c00 723f
00000340: e164 743f 2c4f 843f d7ca 4d3f 67a5 7b3f
00000350: ad66 9a3f cfe9 773f c0ef 803f 179b 9f3f
00000360: 108f 7c3f 619a 8c3f 3b47 943f 163a 8b3f
00000370: e285 813f 9bb4 7b3f bfd1 923f 6b6d a93f
00000380: 06bb 833f 1785 323f 7eaa 533f 137b 693f
00000390: 885a a33f ca81 973f bf02 563f 8aea 963f
000003a0: d703 963f 30a4 a63f 22a4 893f 7ee3 983f
000003b0: eef6 5f3f fef6 853f f956 a43f a8c1 863f
000003c0: 58a3 9b3f b284 813f 051d a13f 2ea4 7f3f
000003d0: 350f 5b3f 6d37 623f c319 973f 5f13 8a3f
000003e0: 07d8 523f da1c 4c3f 5b23 563f 79b9 883f
000003f0: ec6e 953f bb83 6a3f bfe4 8a3f d9d6 813f

ln1.bias f4 [256]
-0.08051964 -0.12795871 0.013242516 -0.10613114 0.008714803 0.036491044 0.05964337 -0.020017087
-0.22232755 -0.28479123 0.017395912 -0.2739572 0.052205555 -0.09865881 -0.17485014 -0.14524594
-0.2481698 -0.15956765 -0.0125489915 -0.2097999 -0.12558089 -0.20886095 -0.09068529 -0.18535274
-0.14619045 0.10364083 -0.16160235 -0.1260524 0.029514153 -0.048534214 0.04881609 -0.11303363
-0.13006333 0.1550414 -0.1956724 -0.024978958 -0.23182854 -0.09851053 0.050269995 0.060534686
-0.22431418 0.08477123 -0.17997703 -0.05180423 -0.21624461 -0.26341787 -0.10765387 -0.20266992
-0.08376262 -0.098920286 0.07860629 0.11346897 -0.042593002 -0.13748243 0.004498381 -0.20510611
-0.16388343 -0.08917723 -0.21265459 -0.0026980177 -0.09801697 0.04561959 -0.010819092 -0.21414244
0.025461547 -0.18532827 -0.07519661 -0.12411105 0.041914582 -0.07247503 -0.07044367 -0.058710143
-0.103734165 0.010209577 -0.09288953 -0.21278536 0.010442346 0.033561833 -0.08836886 0.1397256
-0.18893284 0.01798738 -0.080555685 -0.07820892 0.0222674 -0.031724576 -0.1391108 -0.10467628
-0.14228831 -0.076919265 -0.11282137 0.108908586 -0.08266151 -0.1349896 -0.031550072 -0.17383657
0.027579026 -0.120306626 -0.07092939 -0.15811673 -0.23995294 0.02862078 -0.02669373 -0.17143182
-0.0355037 0.03460864 0.031694736 -0.10156453 -0.05122929 -0.25100836 -0.08316281 0.017779792
0.06613599 -0.21279068 -0.09102951 -0.07721964 -0.2214386 -0.13797423 0.029100128 -0.06871979
0.009446973 -0.19368707 -0.044252735 0.08818707 -0.12769559 -0.046578474 -0.0779591 -0.08747399
-0.13134874 -0.113222286 -0.119168185 -0.06682342 0.013210291 -0.07866165 -0.023876796 0.12973069
-0.188913 -0.13577169 -0.09996721 0.08506869 -0.14887841 -0.040920116 -0.075033195 -0.118248105
-0.14110261 -0.060672272 -0.015855895 0.027503194 -0.15935534 -0.093726836 -0.0006519278 -0.41563433
-0.19159546 0.0015809321 0.15860161 -0.007165157 -0.13739333 0.015370583 -0.15659471 -0.2136083
-0.051788695 -0.20466748 -0.2665805 -0.2526536 -0.18882908 0.112306364 -0.05651915 -0.0006748105
0.05531415 -0.17806801 -0.20532773 -0.11060558 0.01268322 -0.08619002 -0.123170264 0.014462952
-0.05588171 -0.17173028 0.033882935 -0.15919921 -0.26706034 0.098351024 -0.008333114 0.08499282
-0.29466966 -0.23854272 -0.15049906 -0.13191539 -0.22257972 -0.02885708 -0.020119917 -0.19010325
-0.107103154 0.06800703 -0.1610635 -0.053980794 -0.13195863 -0.27838355 -0.19036466 -0.14270297
-0.004735089 -0.19019862 -0.0053898096 0.011645078 0.043065242 0.015908746 0.009158051 -0.00253646
-0.11992229 -0.10805293 -0.2634327 -0.114856265 0.027828092 0.010526373 -0.035535872 -0.05126881
-0.11006855 -0.033060253 -0.0734918 0.0034799173 -0.020655913 -0.15345469 0.049582075 0.06805359
-0.1517188 -0.28061965 -0.20943512 -0.11807051 -0.120487265 0.022906212 -0.1623603 -0.06172941
0.009017536 -0.013786133 -0.07079417 -0.13306008 -0.25360703 0.042005565 0.12196799 -0.1672306
0.053988416 0.048918944 -0.021645464 -0.07251743 -0.13025771 -0.20952363 -0.017702818 0.18651246
-0.18848608 -0.288727 -0.14916193 -0.07290739 -0.031328723 -0.11760976 0.046702635 -0.18312122
00000000: 7be7 a4bd 9c07 03be 23f7 583c 485b d9bd
00000010: 88c8 0e3c a277 153d 9b4c 743d e0fa a3bc
00000020: d5a9 63be 28d0 91be df81 8e3c 1e44 8cbe
00000030: 7ed5 553d a10d cabd ea0b 33be 5abb 14be
00000040: 3920 7ebe b465 23be 499a 4dbc c9d5 56be
00000050: 4798 00be a5df 55be 36b9 b9bd 1ccd 3dbe
00000060: f3b2 15be a541 d43d 167b 25be e113 01be
00000070: aac7 f13c d0cb 46bd 61f3 473d 2d7e e7bd
00000080: 522f 05be 2cc3 1e3e 585e 48be aca0 ccbc
00000090: 7664 6dbe e4bf c9bd e9e7 4d3d 38f3 773d
000000a0: 9eb2 65be 8a9c ad3d e64b 38be ac30 54bd
000000b0: 3a6f 5dbe b5de 86be a279 dcbd b488 4fbe
000000c0: bd8b abbd b896 cabd 56fc a03d 6b62 e83d
000000d0: 0076 2ebd 32c8 0cbe 2867 933b 5607 52be
000000e0: 0fd1 27be 8da2 b6bd 20c2 59be 3ad1 30bb
000000f0: 1fbd c8bd 9bdb 3a3d 9042 31bc 2848 5bbe
00000100: bc94 d03c b2c6 3dbe ae00 9abd ef2d febd
00000110: a0ae 2b3d ca6d 94bd c544 90bd 0c7a 70bd
00000120: 9472 d4bd 1246 273c de3c bebd 68e4 59be
00000130: 6016 2b3c 2278 093d bcfa b4bd 3a14 0f3e
00000140: 9c77 41be 455a 933c 61fa a4bd 002c a0bd
00000150: 1f6a b63c a1f1 01bd 1073 0ebe 8460 d6bd
00000160: 07b4 11be d987 9dbd e40e e7bd 770b df3d
00000170: 704a a9bd b73a 0abe a63a 01bd 3702 32be
00000180: 69ed e13c 5263 f6bd 6e43 91bd 5ae9 21be
00000190: 39b6 75be 2076 ea3c cfac dabc d38b 2fbe
000001a0: 546c 11bd cac1 0d3d 57d2 013d 1001 d0bd
000001b0: ced5 51bd 2b84 80be 4351 aabd eda6 913c
000001c0: 4e72 873d cde5 59be ae6d babd 5525 9ebd
000001d0: cdc0 62be 1e49 0dbe 6463 ee3c f6bc 8cbd
000001e0: 7ac7 1a3c e755 46be 5b42 35bd 6c9b b43d
000001f0: a2c2 02be 12c9 3ebd 05a9 9fbd 9025 b3bd
00000200: 4980 06be 16e1 e7bd 730e f4bd b8da 88bd
00000210: fa6f 583c 5c19 a1bd 4599 c3bc 1fd8 043e
00000220: 6972 41be bc07 0bbe 9cbb ccbd 7e38 ae3d
00000230: 9573 18be da9b 27bd 01ab 99bd 102c f2bd
00000240: 347d 10be 7d83 78bd 39e4 81bc 614e e13c
00000250: 0c2e 23be dbf3 bfbd 22e6 2aba 06ce d4be
00000260: 9a31 44be 4737 cf3a 7668 223e b1c9 eabb
00000270: d6b0 0cbe e6d4 7b3c 5d5a 20be 22bc 5abe
00000280: 6220 54bd 5a94 51be 3d7d 88be d05b 81be
00000290: 695c 41be e100 e63d a080 67bd c4e5 30ba
000002a0: 1791 623d 7657 36be 6f41 52be 2e85 e2bd
000002b0: 48cd 4f3c 6584 b0bd b140 fcbd 04f6 6c3c
000002c0: 38e4 64bd 10da 2fbe d5c8 0a3d 1e05 23be
000002d0: 22bc 88be 436c c93d 9d87 08bc b710 ae3d
000002e0: f1de 96be 8b44 74be 6d1c 1abe d414 07be
000002f0: f0eb 63be af65 ecbc 86d2 a4bc 6daa 42be
00000300: e658 dbbd 4547 8b3d d5ed 24be f71a 5dbd
00000310: 2a20 07be 4a88 8ebe f4ee 42be ba20 12be
00000320: ce28 9bbb 6dc3 42be 009d b0bb ffca 3e3c
00000330: 2e65 303d 0f53 823c a60b 163c bd3a 26bb
00000340: d199 f5bd db4a ddbd a7e0 86be c339 ebbd
00000350: bdf7 e33c cf76 2c3c 108e 11bd 3eff 51bd
00000360: 9f6b e1bd 306a 07bd de82 96bd 530f 643b
00000370: 9736 a9bc 3a23 1dbe 9316 4b3d ae5f 8b3d
00000380: 2c5c 1bbe 61ad 8fbe 2976 56be f4ce f1bd
00000390: 07c2 f6bd cfa5 bb3c c741 26be fad7 7cbd
000003a0: 4abe 133c 3cdf 61bc 89fc 90bd e740 08be
000003b0: c8d8 81be 070e 2c3d 5bca f93d 803e 2bbe
000003c0: f522 5d3d 3b5f 483d d451 b1bc 0584 94bd
000003d0: 4762 05be 5d8d 56be 8005 91bc 1ffd 3e3e
000003e0: 7f02 41be 06d4 93be e8bd 18be 7850 95bd
000003f0: 8c52 00bd 63dd f0bd 434b 3f3d 2184 3bbe

linear2.weight f4 [256, 256]
-0.11415208 0.22589698 0.058185786 -0.09557373 -0.1890992 0.0054248306 -0.05726524 -0.071134254
-0.12385299 0.11118259 -0.03117919 -0.27381817 0.01060536 -0.15954943 0.01685441 0.10534218
-0.25441328 -0.14653955 0.114354655 -0.15502152 -0.17038056 -0.036265727 -0.24948573 -0.11205526
0.16762547 0.07314628 0.032473333 0.08082697 -0.047825605 0.19592786 0.20581274 0.053275842
-0.16240156 0.20711863 0.18827601 0.06975912 -0.20447798 0.1114256 -0.09446672 -0.102616005
-0.05392938 -0.04891862 -0.11592978 -0.085843146 0.057921614 -0.05799428 0.29243803 0.047099322
-0.12678176 -0.05278975 0.15395306 -0.13420315 -0.19515385 -0.2815151 -0.13803703 -0.07829019
0.062577344 -0.022544093 0.19308661 0.122593984 -0.16798156 0.0958634 -0.1378875 -0.22292359
0.13237417 -0.0067243795 -0.13137807 -0.07807386 0.27911663 0.076183714 -0.12197486 0.10668799
0.1850673 0.20101736 0.1804301 -0.1388589 0.0038910913 0.13353606 0.114082254 0.28100508
-0.22478653 -0.1733348 -0.07121639 -0.057752606 -0.10307824 0.151239 0.12186374 -0.09557038
-0.23901574 0.12987138 0.10719844 -0.06557426 0.16440658 0.06285354 0.065367766 0.090020835
0.015954096 0.14543259 0.062062003 -0.20925374 -0.118204646 0.2048155 -0.029545132 -0.0064697904
0.09861128 0.23015669 0.14561811 -0.28914565 -0.04711233 0.117415674 0.065459885 -0.24274531
-0.18555166 0.074895136 -0.44331232 -0.21408525 -0.12778495 -0.047229975 -0.059148103 -0.2859843
0.10688545 -0.14792769 -0.24219473 0.33396125 -0.12825106 -0.3443389 0.09415664 -0.22411525
-0.2522999 0.19721685 -0.012019497 0.095307685 -0.0040546427 0.10305492 0.054028034 0.181555
-0.28089854 0.058782633 0.052790016 0.076926515 -0.10489487 -0.20110172 -0.11138686 -0.16335933
-0.06889349 0.11214038 -0.15514562 0.013253334 0.21918528 0.007908731 -0.16505769 0.00073163246
-0.09590147 -0.17198905 0.015638277 0.1705212 0.03479595 0.07059044 0.08554074 0.054994732
0.25930393 -0.09824619 0.21372198 0.15581797 0.116126284 0.16608435 -0.25357357 0.23025788
0.21847849 0.13738988 0.22904664 -0.31705785 -0.25027722 -0.02360801 0.041423563 -0.044482194
-0.3870565 -0.07110232 -0.15173255 0.18955131 -0.15300079 0.40279862 0.23268028 0.18385215
-0.027065923 -0.24240068 0.30983552 -0.28686124 0.084163636 -0.10982647 0.1506948 0.037010893
0.19864713 -0.06781752 -0.061766382 0.066503175 -0.085407086 -0.025403274 0.26845667 0.06292149
-0.023566345 -0.14183907 -0.3944384 -0.3423973 0.12745443 0.14800918 0.0009937355 -0.050323177
-0.16806364 0.05272808 -0.17673944 0.07441758 0.19446827 -0.12009234 -0.19011341 0.0052149966
-0.038315315 0.20654085 -0.11699579 -0.12297238 -0.20816122 -0.20145006 -0.20423007 0.128271
-0.0463467 -0.12624924 0.07724658 0.1363884 0.084358186 -0.09473254 -0.17942575 -0.0017801964
0.2293312 0.021255672 0.0033755868 -0.27092028 0.14086795 0.20118843 0.06996964 0.32609034
0.024818534 -0.14452079 0.22834404 -0.17896718 0.050686885 -0.009228041 0.12879147 0.18072514
-0.1975041 -0.15730532 0.03745979 -0.077400096 0.013110253 0.07441879 0.20675169 -0.03080971
00000000: 91c8 e9bd 8a51 673e 3854 6e3d 29bc c3bd
00000010: 38a3 41be c7c2 b13b f58e 6abd d6ae 91bd
00000020: a3a6 fdbd b3b3 e33d 806b ffbc e531 8cbe
00000030: 1bc2 2d3c ed60 23be 4212 8a3c a4bd d73d
00000040: 7542 82be 770e 16be c632 ea3d f6bd 1ebe
00000050: 3e78 2ebe 5f8b 14bd 3079 7fbe 3a7d e5bd
00000060: 03a6 2b3e b8cd 953d c202 053d 9c88 a53d
00000070: c8e4 43bd 50a1 483e 93c0 523e c537 5a3d
00000080: 984c 26be e816 543e 6dcb 403e dfdd 8e3d
00000090: ad62 51be 1b33 e43d c577 c1bd 5728 d2bd
000000a0: 0ee5 5cbd e45e 48bd 986c edbd 88ce afbd
000000b0: 373f 6d3d 698b 6dbd 70ba 953e 38eb 403d
000000c0: 14d3 01be 113a 58bd dfa5 1d3e 8d6c 09be
000000d0: 69d6 47be bf22 90be 9459 0dbe 9b56 a0bd
000000e0: 8d28 803d 64ae b8bc 7fb8 453e 8e12 fb3d
000000f0: 5c03 2cbe 0854 c43d 6132 0dbe 1546 64be
00000100: 188d 073e 2f58 dcbb f987 06be 30e5 9fbd
00000110: 60e8 8e3e 3506 9c3d f5cd f9bd 3c7f da3d
00000120: 4882 3d3e 7fd7 4d3e abc2 383e 0731 0ebe
00000130: ae01 7f3b adbd 083e f5a3 e93d e6df 8f3e
00000140: 712e 66be ae7e 31be e6d9 91bd ff8d 6cbd
00000150: af1a d3bd 65de 1a3e b293 f93d 67ba c3bd
00000160: 8bc0 74be 01fd 043e db8a db3d cc4b 86bd
00000170: 335a 283e 5bb9 803d 89df 853d d85c b83d
00000180: 2ab2 823c 48ec 143e ba34 7e3d 9d46 56be
00000190: 4715 f2bd 28bb 513e a208 f2bc 8900 d4bb
000001a0: b6f4 c93d 32ae 6b3e ea1c 153e e60a 94be
000001b0: dcf8 40bd a177 f03d d50f 863d 3a92 78be
000001c0: 4101 3ebe 9f62 993d d5f9 e2be 2a39 5bbe
000001d0: 0fda 02be 3874 41bd 4845 72bd 896c 92be
000001e0: c2e6 da3d 5b7a 17be e501 78be f8fc aa3e
000001f0: 3f54 03be 304d b0be 32d5 c03d 787e 65be
00000200: 742d 81be 37f3 493e 6ded 44bc ad30 c33d
00000210: cfdc 84bb 750e d33d 804c 5d3d 8ee9 393e
00000220: efd1 8fbe 0fc6 703d 583a 583d a68b 9d3d
00000230: 1fd3 d6bd 9ced 4dbe cb1e e4bd ab47 27be
00000240: 0818 8dbd dba9 e53d 7ede 1ebe 8324 593c
00000250: 1b72 603e 9f93 013c e204 29be 06cb 3f3a
00000260: fd67 c4bd e61d 30be d81b 803c 1c9d 2e3e
00000270: 3386 0e3d b891 903d fc2f af3d 2842 613d
00000280: 7cc3 843e 4c35 c9bd efd9 5a3e bf8e 1f3e
00000290: 9ed3 ed3d 0412 2a3e 65d4 81be b9c8 6b3e
000002a0: d3b8 5f3e efaf 0c3e 348b 6a3e 6855 a2be
000002b0: 5624 80be 9665 c1bc c1ab 293d f632 36bd
000002c0: 452c c6be 189e 91bd c75f 1bbe bd19 423e
000002d0: 3dac 1cbe 9f3b ce3e bd43 6e3e bd43 3c3e
000002e0: 5bb9 ddbc e237 78be c3a2 9e3e 7adf 92be
000002f0: fc5d ac3d b3ec e0bd bd4f 1a3e bc98 173d
00000300: 276a 4b3e e9e3 8abd bffe 7cbd d132 883d
00000310: e9e9 aebd 871a d0bc 2773 893e fbdc 803d
00000320: 350e c1bc 433e 11be d4f3 c9be b34e afbe
00000330: 6a83 023e b88f 173e 3b40 823a ad1f 4ebd
00000340: e018 2cbe 66f9 573d 2ffb 34be 3f68 983d
00000350: b122 473e f9f2 f5bd 17ad 42be 90e2 aa3b
00000360: 85f0 1cbd 727f 533e 7d9b efbd f1d8 fbbd
00000370: 3728 55be ed48 4ebe b021 51be 7959 033e
00000380: 0ad6 3dbd 7b47 01be 7433 9e3d 67a9 0b3e
00000390: fcc3 ac3d 2203 c2bd 62bb 37be 7b55 e9ba
000003a0: ccd5 6a3e 6020 ae3c f338 5d3b 10b6 8abe
000003b0: b03f 103e 5704 4e3e 3e4c 8f3d 50f5 a63e
000003c0: 3d50 cb3c 42fd 13be 05d3 693e 2c43 37be
000003d0: 0d9d 4f3d 3631 17bc e9e1 033e 0310 393e
000003e0: 843e 4abe a514 21be 706f 193d f183 9ebd
000003f0: 63cc 563c e168 983d b7b6 533e a564 fcbc

linear2.bias f4 [256]
0.1489864 0.09316972 0.07170026 0.14067613 0.033040304 0.10658778 -0.014535907 0.108080946
-0.022364782 0.02611657 0.058722433 -0.010289828 -0.005931328 -0.056068715 -0.010373099 0.118511066
-0.07121808 -0.03835073 0.14967534 0.14109923 0.06715214 0.0695883 -0.053964466 -0.01494157
0.084720746 -0.04959663 0.11114392 0.03223181 -0.07804045 -0.023051351 0.05837405 -0.09828762
-0.01667332 0.094017714 0.09054213 0.0014938742 0.058825567 0.044987537 -0.027744815 0.057318486
0.07560274 -0.08664034 0.050430477 0.075724125 0.060593475 0.12368097 0.11097815 0.09517467
-0.049445845 0.07267946 -0.027363311 0.047554415 0.20927629 -0.030386882 0.12121744 -0.002007399
0.01112541 0.0061775283 -0.02911033 -0.012172792 0.006050335 0.11996903 0.038362082 0.025407342
0.06375296 0.050016057 0.008171363 -0.0017661981 -0.07191025 0.13816011 0.11109195 0.018930921
0.070666 0.02573811 -0.06763709 -0.06597906 0.058940887 0.1546348 0.0065903114 0.041447308
-0.07367456 0.07411607 0.08221897 -0.05919676 0.17645788 0.03593909 0.074213386 -0.018252123
0.10208341 0.006540772 0.08913676 -0.008503716 0.0052629258 0.1722762 -0.03644026 0.024647528
-0.052761056 0.10175593 0.041458447 0.021913629 0.20782639 0.031851944 -0.019222224 0.09116883
0.22118229 0.098529935 -0.07812472 0.030707505 0.07004058 -0.15704739 0.03178056 0.026421137
0.1448427 -0.017135575 0.20334187 0.034861345 0.06740001 0.20310012 0.007742173 0.0848251
0.026917933 0.019960852 0.093440294 -0.00014927468 -0.07255672 0.10228541 -0.07241242 -0.084770456
0.13838907 -0.02738257 -0.021127086 0.1506289 0.012067716 0.04780911 -0.037287388 -0.03563552
0.050243817 0.076194234 0.07722707 -0.0046269433 0.011885304 -0.12428424 0.027487827 0.055631425
-0.04664044 0.1352688 0.019294811 0.046087828 0.09174346 0.066606484 0.05774049 0.06544046
0.07291724 0.0035763914 0.010848554 -0.041254826 0.099212736 0.14725628 0.1255245 -0.024156107
-0.101430595 0.030507544 0.053293493 0.08515063 0.017864946 0.005416645 -0.01584777 -0.070803985
0.02627521 -0.0944387 -0.06473015 0.009906286 0.18503694 0.014419862 0.0027024923 0.052961983
0.15315701 -0.056251727 0.07010504 0.019972188 -0.018955432 0.065927915 0.08159028 0.013656615
-0.11784836 0.07918643 0.037447017 0.0561814 -0.1588395 0.13339618 0.08370542 0.08166954
0.06309536 0.081009716 -0.0025443535 0.046955645 -0.015351374 -0.0041811476 0.012217318 0.0011427973
0.2186871 0.054787513 0.18884216 0.000708612 0.15012367 0.1628498 0.17185146 -0.09002934
0.13601689 -0.05660511 0.07891774 0.058219448 0.11087674 0.054434992 0.14264566 0.022862544
0.009939151 0.117295355 -0.03969078 0.07731078 0.0029930247 0.043443467 -0.013701647 -0.058468845
0.11006284 0.085653774 -0.00059901504 -0.009908655 -0.11715893 -0.01642343 0.080492824 0.08916839
0.060646515 0.068229325 0.015061537 -0.013387787 -0.0995202 -7.104437e-05 0.13414413 0.017213581
0.023127535 0.1405554 -0.09682839 -0.117664956 -0.12542519 0.06295193 0.15779857 0.049287602
-0.067675166 0.06269649 0.031043645 0.09036618 -0.1305709 0.07976962 -0.06734554 -0.049488
00000000: e48f 183e c4cf be3d 96d7 923d 670d 103e
00000010: 4555 073d b24a da3d 0328 6ebc 8b59 dd3d
00000020: 5936 b7bc 6bf2 d53c ef86 703d ab96 28bc
00000030: 965b c2bb 4fa8 65bd eef3 29bc eeb5 f23d
00000040: c9da 91bd a815 1dbd 7e44 193e 517c 103e
00000050: 1087 893d 5084 8e3d d809 5dbd 7dcd 74bc
00000060: 1282 ad3d d625 4bbd 6c9f e33d 8105 043d
00000070: acd3 9fbd 30d6 bcbc a119 6f3d 054b c9bd
00000080: 7d96 88bc 5c8c c03d 276e b93d 1ace c33a
00000090: 14f3 703d da44 383d 1849 e3bc cac6 6a3d
000000a0: 9cd5 9a3d 7e70 b1bd 3090 4e3d 4015 9b3d
000000b0: dd30 783d 734c fd3d 8348 e33d f0ea c23d
000000c0: ba87 4abd f8d8 943d 0629 e0bc 6bc8 423d
000000d0: 864c 563e e9ed f8bc d940 f83d 918e 03bb
000000e0: 5a47 363c dd6c ca3b c978 eebc 6470 47bc
000000f0: e341 c63b 53b2 f53d 8f21 1d3d 0f23 d03c
00000100: e990 823d a3dd 4c3d 2ee1 053c c67f e7ba
00000110: ae45 93bd d879 0d3e 2d84 e33d 0515 9b3c
00000120: 56b9 903d bbd8 d23c 5185 8abd 0820 87bd
00000130: 006c 713d 9658 1e3e 8af3 d73b a7c4 293d
00000140: b0e2 96bd 2bca 973d 6b62 a83d 4d78 72bd
00000150: 60b1 343e de34 133d 30fd 973d 7a85 95bc
00000160: 1b11 d13d f953 d63b 558d b63d 2c53 0bbc
00000170: 9f74 ac3b 2c69 303e 6242 15bd 9de9 c93c
00000180: fa1b 58bd 6a65 d03d 55d0 293d 3684 b33c
00000190: 71d0 543e 2f77 023d ed77 9dbc b9b6 ba3d
000001a0: 9c7d 623e 10ca c93d daff 9fbd 4e8e fb3c
000001b0: 7071 8f3d 08d1 20be 552c 023d 2471 d83c
000001c0: a551 143e e85f 8cbc da38 503e c5ca 0e3d
000001d0: 0409 8a3d 7af9 4f3e 0eb2 fd3b c8b8 ad3d
000001e0: ff82 dc3c f184 a33c a05d bf3d 9e86 1cb9
000001f0: 9e98 94bd 037b d13d f64c 94bd 229c adbd
00000200: ddb5 0d3e 6951 e0bc b612 adbc 763e 1a3e
00000210: abb7 453c 7cd3 433d a9ba 18bd 8df6 11bd
00000220: 76cc 4d3d b90b 9c3d 3a29 9e3d 9d9d 97bb
00000230: 94ba 423c bc88 febd 272e e13c c7dd 633d
00000240: 0c0a 3fbd e883 0a3e 2710 9e3c 97c6 3c3d
00000250: ffe3 bb3d fb68 883d 4b81 6c3d a605 863d
00000260: a255 953d e461 6a3b 22be 313c d2fa 28bd
00000270: 0c30 cb3d 5aca 163e 7f89 003e 07e3 c5bc
00000280: d8ba cfbd f5ea f93c 474a 5a3d 7463 ae3d
00000290: 8259 923c 1d7e b13b 2fd3 81bc ae01 91bd
000002a0: 1c3f d73c 1469 c1bd 3e91 84bd fa4d 223c
000002b0: 537a 3d3e 4941 6c3c 4c1c 313b aaee 583d
000002c0: 31d5 1c3e 3668 66bd 3b93 8f3d b79c a33c
000002d0: 6c48 9bbc 3705 873d ce18 a73d ffbf 5f3c
000002e0: 7b5a f1bd 7f2c a23d 0b62 193d 781e 663d
000002f0: d2a6 22be 0299 083e bf6d ab3d 5c42 a73d
00000300: 2438 813d 6ce8 a53d 2bbf 26bb 9054 403d
00000310: 5484 7bbc 0202 89bb 252b 483c eac9 953a
00000320: 83ef 5f3e df68 603d d75f 413e 25c2 393a
00000330: 05ba 193e 19c2 263e d4f9 2f3e 4d61 b8bd
00000340: 0348 0b3e c3da 67bd a09f a13d 8477 6e3d
00000350: 5813 e33d 3af7 5e3d b411 123e 3b4a bb3c
00000360: d2d7 223c 8c38 f03d cd92 22bd 1d55 9e3d
00000370: 9f26 443b c7f1 313d df7c 60bc 077d 6fbd
00000380: a068 e13d 3f6b af3d 3807 1dba e957 22bc
00000390: 05f1 efbd 6e8a 86bc 6cd9 a43d eb9d b63d
000003a0: 7b68 783d d1bb 8b3d aac4 763c 7358 5bbc
000003b0: 3fd1 cbbd a8fd 94b8 145d 093e 7f03 8d3c
000003c0: f575 bd3c c1ed 0f3e f74d c6bd 53fa f0bd
000003d0: 766f 00be f1ec 803d f395 213e cce1 493d
000003e0: 4799 8abd 0467 803d 3e4f fe3c e711 b93d
000003f0: 61b4 05be 415e a33d 75ec 89bd eeb3 4abd

ln2.weight f4 [256]
1.3282162 0.91822916 1.1356552 0.9554188 0.8296543 1.178961 0.93371016 1.1956166
1.0790077 0.75565624 0.9115588 0.8387566 0.8210075 0.99329513 1.016092 1.1366479
0.80937594 0.81875366 1.2190568 1.1589541 1.0878456 1.0861416 1.1189224 0.8485325
1.1023979 0.95444787 0.8253005 0.86754346 0.63083994 1.0808452 1.0571172 0.9616007
1.023283 0.977857 1.2025253 1.1229446 0.9955595 0.9836876 0.73614293 1.0548007
1.0406209 1.0670682 1.0447503 0.95605624 1.107322 0.70689404 1.2054226 1.0594176
0.91389734 1.0870005 1.0802566 0.81495684 1.0129006 1.0043923 0.73905486 1.0369054
1.1382445 0.8944773 0.96527946 0.6792901 0.9896142 1.0450622 0.957963 0.7182816
0.9672536 0.7953024 1.0750006 1.0155162 1.0586522 0.9870494 1.0078917 1.0977701
1.0257996 1.0498511 1.0210925 1.1147373 1.0038543 0.9603804 1.1727899 0.91371113
1.0016277 1.0443166 1.2770363 1.2024217 1.1411517 1.0021634 1.3498244 0.8425414
1.0137358 1.1077281 0.9357622 0.9788326 0.6918098 1.1345558 1.1390587 1.0530739
0.95969415 1.044025 0.9707147 1.2712352 1.1312599 0.69106406 0.93879485 0.7462554
1.2204828 1.0335133 1.0636891 1.0511307 1.0079793 1.1109688 0.7293356 0.8378713
1.2320901 0.8321183 1.0499268 1.0848076 0.88860935 1.2644343 1.0345961 1.0344846
0.87859833 0.9465544 1.196178 1.2504009 0.77545655 1.0734503 0.844998 0.9056927
1.0119917 0.7136566 0.99303037 1.2722095 0.9565924 0.9516019 0.7759918 0.8731703
0.83967596 1.0952976 0.77685714 0.9078436 0.9504936 0.9777421 0.8845423 0.9311124
1.0947658 0.7703703 0.94913095 0.8979444 0.93334943 1.0946938 1.098452 0.761318
1.2392892 0.5970137 0.8554533 1.0180053 1.0016515 1.2038603 1.1469649 0.7974109
0.9535278 0.9370041 0.9703065 1.0522045 1.0450798 0.673821 0.85684484 1.1760032
1.1136729 1.1589047 0.97014916 0.85298735 0.8735433 0.9127513 1.2401705 0.9722797
0.8865288 0.91891 1.1905097 1.1104858 0.9782468 0.8451816 1.3312993 1.0621746
0.9181996 1.1061418 0.93465155 0.94103336 0.9656564 1.2056354 0.93821186 1.2514739
1.193089 1.0521456 0.88736755 0.7602146 0.999042 0.9554737 0.755432 1.0481429
1.1332872 1.1610674 1.4163021 0.94369316 1.3197136 1.2957962 1.1870884 0.8563903
1.2875417 0.9425183 1.2183672 0.89647627 1.0170898 1.012556 1.2272501 0.9424043
1.0215772 1.1796523 1.0517466 0.967156 1.2567235 1.175144 1.0396553 1.0715487
1.146182 1.1500025 0.9973682 0.77386284 1.0245875 0.72433287 1.0528954 1.0806332
1.189854 1.003999 0.72254395 0.96259665 1.0750947 0.7476209 1.1351713 0.97267306
0.8024385 1.0106788 1.1445036 0.87302923 0.98085433 1.2032946 1.3247154 1.2691896
0.9123843 1.1757809 0.91328174 1.0272613 0.9625007 1.0202109 1.0659865 1.1339694
00000000: fd02 aa3f 1111 6b3f 265d 913f 5496 743f
00000010: 3964 543f 32e8 963f a107 6f3f f709 993f
00000020: ed1c 8a3f b072 413f eb5b 693f c1b8 563f
00000030: 8c2d 523f 9748 7e3f 4d0f 823f ae7d 913f
00000040: 4333 4f3f d799 513f 0e0a 9c3f 9c58 943f
00000050: 863e 8b3f b006 8b3f d938 8f3f 6d39 593f
00000060: 601b 8d3f b256 743f e546 533f 5417 5e3f
00000070: ba7e 213f 2359 8a3f 9e4f 873f 772b 763f
00000080: f0fa 823f d654 7a3f 59ec 993f a6bc 8f3f
00000090: fddc 7e3f f3d2 7b3f dd73 3c3f b603 873f
000000a0: 1133 853f b195 883f 61ba 853f 1ac0 743f
000000b0: babc 8d3f 02f7 343f 4a4b 9a3f ff9a 873f
000000c0: 2df5 693f d522 8b3f d945 8a3f 03a1 503f
000000d0: baa6 813f ed8f 803f b332 3d3f 51b9 843f
000000e0: ffb1 913f 77fc 643f 8e1c 773f f5e5 2d3f
000000f0: 5b57 7d3f 99c4 853f 103d 753f 4ee1 373f
00000100: ef9d 773f f098 4b3f 9f99 893f 6ffc 813f
00000110: ea81 873f 45af 7c3f 9802 813f bb83 8c3f
00000120: 674d 833f 8561 863f 29b3 823f b6af 8e3f
00000130: 4c7e 803f 7ddb 753f fb1d 963f f9e8 693f
00000140: 5635 803f 2bac 853f ed75 a33f f4e8 993f
00000150: 4211 923f e446 803f 0cc7 ac3f cbb0 573f
00000160: 18c2 813f 09ca 8d3f 1d8e 6f3f c694 7a3f
00000170: 721a 313f 2039 913f adcc 913f 20cb 863f
00000180: 84ae 753f 9ca2 853f c280 783f d6b7 a23f
00000190: 20cd 903f 93e9 303f dc54 703f 980a 3f3f
000001a0: c838 9c3f 2a4a 843f f726 883f 738b 863f
000001b0: 7705 813f 3a34 8e3f bdb5 3a3f bc7e 563f
000001c0: 21b5 9d3f b405 553f 0064 863f fada 8a3f
000001d0: e77b 633f fcd8 a13f a56d 843f fe69 843f
000001e0: d2eb 603f 6451 723f 5c1c 993f 230d a03f
000001f0: 5284 463f d266 893f ca51 583f 7adb 673f
00000200: f288 813f 33b2 363f 3d37 7e3f c3d7 a23f
00000210: 3de3 743f 2f9c 733f 66a7 463f 1788 5f3f
00000220: 01f5 563f b632 8c3f 1ce0 463f 7068 683f
00000230: 8c53 733f 4e4d 7a3f 5d71 623f 625d 6e3f
00000240: 4921 8c3f fd36 453f 3ffa 723f afdf 653f
00000250: fdef 6e3f ed1e 8c3f 139a 8c3f bde5 423f
00000260: 07a1 9e3f e4d5 183f fdfe 5a3f ff4d 823f
00000270: 1e36 803f 1818 9a3f bfcf 923f 1f23 4c3f
00000280: 661a 743f 80df 6f3f 0266 783f a3ae 863f
00000290: 2dc5 853f 887f 2c3f 2f5a 5b3f 4687 963f
000002a0: d58c 8e3f fd56 943f b25b 783f 615d 5a3f
000002b0: 89a0 5f3f 12aa 693f e8bd 9e3f 53e7 783f
000002c0: 8df3 623f b03d 6b3f 9f62 983f 6624 8e3f
000002d0: 626e 7a3f d25d 583f 0468 aa3f 56f5 873f
000002e0: 210f 6b3f 0e96 8d3f 5345 6f3f 90e7 703f
000002f0: 4235 773f 4352 9a3f a72e 703f 4c30 a03f
00000300: 24b7 983f b5ac 863f 852a 633f 6d9d 423f
00000310: 37c1 7f3f ed99 743f fe63 413f 8c29 863f
00000320: 8e0f 913f db9d 943f 6349 b53f e095 713f
00000330: 60ec a83f a6dc a53f 83f2 973f 653c 5b3f
00000340: 2bce a43f e148 713f 75f3 9b3f 787f 653f
00000350: 0030 823f 6f9b 813f 8816 9d3f 6941 713f
00000360: 0bc3 823f d9fe 963f a29f 863f 8997 773f
00000370: 51dc a03f 1e6b 963f 6d13 853f 8228 893f
00000380: 17b6 923f 4833 933f 8653 7f3f e01b 463f
00000390: af25 833f e16d 393f 47c5 863f 3052 8a3f
000003a0: 234d 983f 0a83 803f a4f8 383f bc6c 763f
000003b0: b49c 893f 1564 3f3f 4b4d 913f 1a01 793f
000003c0: 9c6c 4d3f ec5d 813f 187f 923f d87e 5f3f
000003d0: 4519 7b3f 8f05 9a3f 4690 a93f ce74 a23f
000003e0: 0492 693f fd7f 963f d5cc 693f 4c7d 833f
000003f0: 7266 763f 4596 823f 3f72 883f e925 913f

ln2.bias f4 [256]
0.10452581 -0.13734734 0.005434679 -0.07780033 -0.2525853 0.0433014 -0.088891014 -0.016280197
-0.07976076 -0.17998594 0.012469087 -0.20288797 -0.11891766 -0.14435038 -0.037838075 0.046516296
-0.09767891 -0.21698852 0.091655664 0.11105712 -0.03548351 0.02135047 -0.08934355 -0.13661474
0.033971928 -0.17861032 -0.12606476 -0.14927353 -0.23521668 -0.07849006 -0.10825719 -0.13755289
-0.079339094 -0.03525874 0.01753007 -0.16343276 -0.057785958 -0.15961197 -0.19528933 -0.062115557
-0.09428751 -0.08514668 0.01892121 0.049682662 0.008556399 -0.2695675 0.07623245 -0.01676506
-0.10986426 -0.04366375 -0.058403935 -0.2191123 0.12519379 -0.14404657 -0.16213107 -0.09975604
-0.039965145 -0.11348313 -0.17134024 -0.04132394 -0.21001025 0.0128881205 -0.15606423 -0.21571925
-0.12627609 -0.25695667 -0.037656747 -0.15875296 -0.07978867 2.9653253e-05 0.014101585 -0.028285943
-0.011893766 -0.047148954 -0.13028629 -0.06897407 -0.13763095 0.03305763 0.017274186 -0.04235973
-0.15127778 -0.024572508 0.03943009 -0.05387458 0.069168195 -0.06075635 0.08211436 -0.10011965
0.020552691 -0.021865293 -0.070195094 -0.10200422 -0.27938557 0.13365197 -0.10924205 -0.120029174
-0.19248088 -0.092956774 -0.18974228 -0.026572537 0.043263942 -0.22873598 -0.055472557 -0.14729148
0.116897404 -0.034445755 -0.11687002 0.010510902 -0.016456021 -0.17123726 -0.10922071 -0.12907657
0.054952092 -0.20010898 0.09927179 -0.09594179 -0.14993528 0.10516227 -0.065555476 0.007853947
-0.07209511 -0.098210774 0.07029046 -0.06804506 -0.28282017 0.065567374 -0.24593827 -0.21534808
-0.017189775 -0.25497228 -0.16818865 0.089973636 -0.23306315 0.034720637 -0.15666209 -0.16568
-0.12511805 -0.0410797 -0.20569527 -0.12946407 -0.1272117 -0.17248672 -0.13491562 -0.044099532
-0.029925168 -0.18494794 -0.13873531 -0.19377957 -0.025451424 -0.033692516 -0.031527355 -0.23521675
0.028015656 -0.33668336 -0.19194683 -0.075952984 -0.092619024 0.039708205 5.7633097e-05 -0.23528142
-0.13364564 -0.14949733 -0.097134195 -0.018520849 -0.052724127 -0.3092742 -0.23114449 -0.048801456
-0.019411515 -0.13207908 -0.16787219 -0.20590122 0.013665613 -0.08682871 0.029829102 -0.0566174
-0.038976487 -0.19758645 -0.057347123 -0.13382512 -0.08890266 -0.09404492 0.038145218 -0.040321074
-0.14906785 0.0020190908 -0.0723231 -0.07245789 -0.19895418 0.1039052 -0.07119468 0.090161435
0.018167801 -0.03190136 -0.15106969 -0.20716807 -0.10503207 -0.12085785 -0.10875224 -0.07369578
0.11685498 0.038958557 0.18671788 -0.11073991 0.12441568 0.1495874 0.041902732 -0.14672583
0.07708982 -0.2061554 -0.008076875 -0.083014384 -0.039385255 -0.045338344 0.11114909 -0.041118972
-0.076944895 0.040164664 -0.12127974 -0.034389198 -0.033952408 -0.024278767 -0.08053005 -0.13531613
-7.865837e-05 0.041665126 -0.08788832 -0.22718728 -0.13069443 -0.2425486 -0.04205823 -0.019317709
-0.014460565 0.027696898 -0.2023994 -0.093597524 -0.103837274 -0.24729238 0.047888435 -0.0259674
-0.20951165 -0.0040228437 -0.09513551 -0.2596637 -0.12106561 0.01909447 0.1610711 0.00861385
-0.18580183 0.04548439 -0.09449966 0.07952661 -0.12746349 -0.04853721 -0.08554338 -0.09058454
00000000: a111 d63d c8a4 0cbe 6415 b23b c855 9fbd
00000010: dc52 81be cf5c 313d 7e0c b6bd 0c5e 85bc
00000020: 9c59 a3bd 3c4e 38be 244b 4c3c ddc1 4fbe
00000030: 1a8b f3bd 96d0 13be 19fc 1abd df87 3e3d
00000040: e10b c8bd 3d32 5ebe f7b5 bb3d ea71 e33d
00000050: 2857 11bd 2ee7 ae3c c0f9 b6bd bce4 0bbe
00000060: 2626 0b3d a0e5 36be 1f17 01be 29db 18be
00000070: a4dc 70be 66bf a0bd f2b5 ddbd aada 0cbe
00000080: 897c a2bd 786b 10bd 399b 8f3c eb5a 27be
00000090: f8b0 6cbd 5271 23be edf9 47be e26c 7ebd
000000a0: cf19 c1bd 6261 aebd a700 9b3c 0c80 4b3d
000000b0: 2330 0c3c c004 8abe c21f 9c3d e156 89bc
000000c0: 8300 e1bd c3d8 32bd f738 6fbd fa5e 60be
000000d0: cd32 003e f280 13be b005 26be e54c ccbd
000000e0: 7eb2 23bd d869 e8bd d173 2fbe 4b43 29bd
000000f0: ed0c 57be b228 533c 4dcf 1fbe 82e5 5cbe
00000100: 854e 01be d38f 83be f63d 1abd 2390 22be
00000110: 3e68 a3bd e0bf f837 560a 673c ecb7 e7bc
00000120: 12de 42bc 431f 41bd c569 05be 4742 8dbd
00000130: 21ef 0cbe 7067 073d 9882 8d3c 6581 2dbd
00000140: 90e8 1abe 494c c9bc 7281 213d 97ab 5cbd
00000150: 0ea8 8d3d a7db 78bd 932b a83d 880b cdbd
00000160: 1e5e a83c d81e b3bc 72c2 8fbd 97e7 d0bd
00000170: a00b 8fbe 10dc 083e 4cba dfbd dbd1 f5bd
00000180: b519 45be 1f60 bebd cd4b 42be a6ae d9bc
00000190: 8835 313d c439 6abe 3137 63bd 94d3 16be
000001a0: e867 ef3d fe16 0dbd 8d59 efbd eb35 2c3c
000001b0: c7ce 86bc d258 2fbe 1caf dfbd a62c 04be
000001c0: 7215 613d 5ee9 4cbe 024f cb3d 217d c4bd
000001d0: a288 19be 515f d73d f341 86bd d7ad 003c
000001e0: 9aa6 93bd bb22 c9bd 72f4 8f3d 355b 8bbd
000001f0: cecd 90be 3048 863d 3ed7 7bbe 3584 5cbe
00000200: 92d1 8cbc ba8b 82be a539 2cbe 1944 b83d
00000210: 1ba8 6ebe 3a37 0e3d 076c 20be 05a8 29be
00000220: f21e 00be 3043 28bd c8a1 52be 3b92 04be
00000230: c943 02be 5ca0 30be 5227 0abe b6a1 34bd
00000240: a025 f5bc fe62 3dbe a110 0ebe 276e 46be
00000250: 817f d0bc 2a01 0abd d422 01bd a9dc 70be
00000260: 1781 e53c c361 acbe b68d 44be 3d8d 9bbd
00000270: 0baf bdbd 12a5 223d 11bb 7138 9ded 70be
00000280: 67da 08be d415 19be 4bee c6bd 09b9 97bc
00000290: 41f5 57bd 3059 9ebe 24b1 6cbe 09e4 47bd
000002a0: e604 9fbc bd3f 07be b0e6 2bbe c5d7 52be
000002b0: bce5 5f3c 40d3 b1bd 295c f43c a6e7 67bd
000002c0: cfa5 1fbd 1a54 4abe d1e4 6abd 7409 09be
000002d0: 9912 b6bd 9f9a c0bd 293e 1c3d b627 25bd
000002e0: 3ea5 18be b952 043b 221e 94bd cd64 94bd
000002f0: a5ba 4bbe 40cc d43d 84ce 91bd 8fa6 b83d
00000300: a4d4 943c 00ab 02bd 03b2 1abe de23 54be
00000310: 0e1b d7bd 5284 f7bd 7fb9 debd d0ed 96bd
00000320: aa51 ef3d 0293 1f3d f932 3f3e 9bcb e2bd
00000330: a6cd fe3d 702d 193e 33a2 2b3d 4c3f 16be
00000340: 44e1 9d3d 671a 53be de54 04bc 7203 aabd
00000350: 6f52 21bd b3b4 39bd 22a2 e33d 5e6c 28bd
00000360: 4995 9dbd b483 243d 8361 f8bd b0db 0cbd
00000370: ae11 0bbd 44e4 c6bc f0ec a4bd 5090 0abe
00000380: 64f5 a4b8 0da9 2a3d cbfe b3bd c8a3 68be
00000390: c3d4 05be a95e 78be 4045 2cbd 2c40 9ebc
000003a0: 01ec 6cbc 9be4 e23c ca41 4fbe 0fb0 bfbd
000003b0: a3a8 d4bd 373a 7dbe aa26 443d 96b9 d4bc
000003c0: 398a 56be 0fd2 83bb 68d6 c2bd a4f2 84be
000003d0: 3ff1 f7bd 026c 9c3c d3ef 243e 1b21 0d3c
000003e0: d642 3ebe d74d 3a3d 0a89 c1bd d9de a23d
000003f0: ca85 02be f4ce 46bd 5e31 afbd 6384 b9bd
