groupe08/model/model_final.pth (torch, 419017 bytes, 14 tensors)

linear1.weight f4 [256, 11]
0.14933702 -0.0068591065 -0.18912463 0.036042064 0.18572338 0.024007227 0.10490374 0.32312644
0.27767748 0.46272796 0.29114914 -0.33885664 0.31163493 0.28555045 -0.1380491 -0.27098948
0.2944719 0.3865864 -0.2331933 -0.46303013 0.16931492 0.036965013 -0.16151834 0.48316365
-0.040731885 -0.124671556 0.008628787 0.15269396 -0.25985476 0.4056119 0.15422836 0.33878136
0.12847628 0.10482444 -0.04947657 0.105140954 0.29453847 -0.12857975 0.3957528 0.35943824
0.20990239 0.5923707 0.18630315 0.13642974 0.44341367 0.2895463 0.38410684 -0.1186088
0.23665977 -0.27081448 0.06727427 0.48151204 0.18379776 0.3395291 0.21031491 0.21271294
0.3862135 0.3066221 0.39659414 0.048700437 -0.079464845 0.15241645 0.19117062 0.20493329
0.1884743 -0.08048097 0.19475237 0.4036656 -0.32131457 0.30095965 -0.2117265 0.1206551
-0.03501421 -0.044134013 -0.17602356 0.013269015 0.27480328 -0.03802496 0.42990407 0.045808077
-0.18078241 0.20697503 -0.027396912 -0.17356166 0.47959664 0.009940247 0.1269999 0.36257875
0.2687404 0.30086848 -0.118410595 0.13586293 0.15268698 0.021822743 0.12740551 0.26537895
0.2116535 0.3992999 0.39083427 -0.35076624 -0.099691056 0.41802043 0.31781235 0.22143659
0.004847847 -0.033900246 0.10793473 0.2494154 0.41852087 0.019300854 -0.24508837 0.02171867
0.14661591 0.1563276 0.2697456 0.07044534 0.10260838 -0.4096857 -0.3065435 0.15660088
-0.12219754 0.033662688 -0.14676169 0.12026638 -0.058091853 0.27386183 0.24918285 -0.13604619
-0.094634905 -0.10577438 -0.20732847 0.30335724 0.47799277 0.5280168 -0.08664921 0.2688555
-0.035897713 0.09385231 -0.2810913 -0.14017704 0.08407636 -0.21074915 0.027546806 -0.27459362
0.27921456 -0.16641574 0.23789549 -0.039899506 0.18222411 0.24751851 0.334038 -0.16845624
-0.017826822 -0.32778293 0.17450967 0.37562433 -0.24863362 0.17627639 -0.16485208 0.2623983
-0.05655717 0.25441912 0.21794915 -0.19696812 0.1759421 0.16204032 -0.31591794 0.18160976
0.0370793 0.071928665 -0.12704147 0.52529484 0.3024887 -0.2226302 0.10644638 0.009663793
0.24112122 0.01546843 0.15196499 0.36690757 0.12720892 0.18010987 0.2539714 0.27263188
0.2122889 -0.06314039 0.051498376 -0.20844407 -0.39725396 0.12282933 -0.112206176 0.37605315
0.22750668 -0.07883018 -0.23236334 0.12422906 -0.32063994 -0.006199702 -0.24736059 -0.46409887
-0.08784912 0.09089871 0.18391714 -0.0707152 0.09797523 0.12975042 -0.22307006 0.06773747
0.1146985 0.23097381 -0.28458384 -0.22703435 0.35382903 0.23076515 -0.030285899 0.26301572
-0.014956994 0.32262573 0.3058739 0.055790827 0.2575472 0.379704 0.014628631 -0.00031306755
0.28572908 -0.06413222 -0.04315725 0.31534034 0.051128395 0.3495831 0.0024944893 -0.16550179
0.5247367 0.036746528 -0.16733424 -0.18333489 -0.1724979 -0.0039250785 0.14919938 0.049311865
0.072871916 0.047411803 0.11367046 0.16766049 -0.36019346 0.31701592 0.3892712 -0.07839949
0.06120509 0.390299 0.43351743 0.2637233 0.10822611 0.13427494 0.078693286 -0.21072952
00000000: ceeb 183e 5bc2 e0bb e3a9 41be d8a0 133d
00000010: 452e 3e3e ceaa c43c c6d7 d63d d470 a53e
00000020: be2b 8e3e aeea ec3e 8011 953e 9e7e adbe
00000030: 9d8e 9f3e ab33 923e be5c 0dbe 22bf 8abe
00000040: 05c5 963e a7ee c53e 39ca 6ebe 4912 edbe
00000050: e460 2d3e a068 173d 1065 25be 3a61 f73e
00000060: 7ad6 26bd cd53 ffbd c15f 0d3c ce5b 1c3e
00000070: af0b 85be 5dac cf3e 0aee 1d3e c074 ad3e
00000080: 498f 033e 32ae d63d f2a7 4abd 2454 d73d
00000090: bfcd 963e 69aa 03be 1ca0 ca3e 4a08 b83e
000000a0: a7f0 563e 9ba5 173f 41c6 3e3e 3db4 0b3e
000000b0: 1e07 e33e 6a3f 943e a7a9 c43e 2ce9 f2bd
000000c0: f056 723e 32a8 8abe 18c7 893d bf88 f63e
000000d0: 7b35 3c3e c2d6 ad3e cb5c 573e 6cd1 593e
000000e0: c7bd c53e 92fd 9c3e 630e cb3e 1c7a 473d
000000f0: 77be a2bd 0f13 1c3e 3bc2 433e 08da 513e
00000100: 68ff 403e 35d3 a4bd 2a6d 473e 42ad ce3e
00000110: 5883 a4be 6217 9a3e d5ce 58be 051a f73d
00000120: 0f6b 0fbd dec5 34bd 853f 34be 4866 593c
00000130: 04b3 8c3e 0fc0 1bbd 631c dc3e 40a1 3b3d
00000140: 061f 39be 43f1 533e 7d6f e0bc 26ba 31be
00000150: b18d f53e 6bdc 223c 430c 023e eca3 b93e
00000160: 5798 893e 6f0b 9a3e 4181 f2bd a71f 0b3e
00000170: fa59 1c3e 9cc5 b23c 9776 023e c0df 873e
00000180: b2bb 583e 0971 cc3e 6e1b c83e a297 b3be
00000190: d32a ccbd c606 d63e 4db8 a23e 46c0 623e
000001a0: b0da 9e3b fcda 0abd e20c dd3d c066 7f3e
000001b0: 5e48 d63e d31c 9e3c 72f8 7abe 5aeb b13c
000001c0: 7b22 163e 5814 203e 181c 8a3e a545 903d
000001d0: 5824 d23d 53c2 d1be 45f3 9cbe fb5b 203e
000001e0: b442 fabd e3e1 093d b248 16be 384e f63d
000001f0: b9f1 6dbd 9e37 8c3e ca29 7f3e b14f 0bbe
00000200: f2cf c1bd 3da0 d8bd ea4d 54be a451 9b3e
00000210: 78bb f43e 1c2c 073f 2475 b1bd 6ea7 893e
00000220: 7b09 13bd a435 c03d 33eb 8fbe 928a 0fbe
00000230: 3a30 ac3d a0ce 57be d7a9 e13c 8997 8cbe
00000240: 36f5 8e3e e368 2abe e09a 733e aa6d 23bd
00000250: f598 3a3e 7e75 7d3e 0707 ab3e cb7f 2cbe
00000260: 8e09 92bc 2ad3 a7be aab2 323e d551 c03e
00000270: d099 7ebe cc81 343e fcce 28be 1259 863e
00000280: 7ea8 67bd 3943 823e 102e 5f3e 03b2 49be
00000290: 2a2a 343e e6ed 253e ffbf a1be e9f7 393e
000002a0: 77e0 173d 564f 933d 2917 02be b979 063f
000002b0: cddf 9a3e 2cf9 63be 8f00 da3d e354 1e3c
000002c0: 7be8 763e 4c6f 7d3c b69c 1b3e 4fdb bb3e
000002d0: 0e43 023e b96e 383e 8a08 823e 6896 8b3e
000002e0: 4362 593e c04f 81bd f6ef 523d 5d72 55be
000002f0: df64 cbbe f28d fb3d 5acc e5bd 0a8a c03e
00000300: 83f7 683e b871 a1bd a8f0 6dbe ce6b fe3d
00000310: eb2a a4be df26 cbbb 184c 7dbe 5e9e edbe
00000320: 3dea b3bd 1a29 ba3d c654 3c3e 21d3 90bd
00000330: 3da7 c83d 4bdd 043e 7a6c 64be f1b9 8a3d
00000340: 0ce7 ea3d 6684 6c3e f9b4 91be b17b 68be
00000350: 1429 b53e b34d 6c3e 221a f8bc ffa9 863e
00000360: 2e0e 75bc 332f a53e 819b 9c3e ec84 643d
00000370: 3add 833e 9068 c23e edac 6f3c 3723 a4b9
00000380: 154b 923e c157 83bd a8c5 30bd 4a74 a13e
00000390: 026c 513d 8efc b23e 967a 233b 4d79 29be
000003a0: 2555 063f 8783 163d ab59 2bbe 24bc 3bbe
000003b0: 4aa3 30be f29d 80bb b9c7 183e 3dfb 493d
000003c0: df3d 953d e132 423d 0fcc e83d 31af 2b3e
000003d0: 476b b8be e94f a23e 8e4e c73e e98f a0bd
000003e0: 30b2 7a3d 45d5 c73e fff5 dd3e be06 873e
000003f0: a7a5 dd3d 5f7f 093e f229 a13d 7bc9 57be

linear1.bias f4 [256]
-0.0696928 0.19689906 0.024072174 -0.23596643 -0.07974555 -0.072774194 0.08004583 -0.10020914
-0.071105994 0.16858576 0.3342529 0.181662 0.10518435 0.13445187 0.13683334 0.10591269
-0.18463303 0.3296357 0.39606273 -0.07353231 -0.060116403 0.21838282 -0.07924351 -0.15193532
0.27819085 -0.106015824 -0.11809988 0.29646435 0.11889833 0.13153267 0.25173733 -0.05352074
-0.025182419 0.15787894 0.273596 -0.12532786 0.26775482 0.0777797 -0.018149383 0.3232913
0.10568973 -0.03178789 -0.15658565 0.082521796 0.2987145 0.08663049 0.2283347 0.20059367
0.1651974 0.0048732203 0.1408537 -0.011671039 0.05884937 0.16574742 0.0165151 0.20667289
-0.060368266 -0.10478331 0.03579029 -0.03732989 0.018361362 0.18668246 -0.025611857 0.06909463
0.35155475 0.26446024 -0.09594786 0.15842539 0.17554587 0.02339308 0.41387495 0.18779577
0.25479755 0.24035004 0.2017394 0.13559902 0.2614009 0.054222554 0.23607253 0.16326828
0.09620773 0.16714914 -0.066641 0.13970275 0.117283955 0.1539076 -0.03348933 0.18969102
-0.03816161 0.34230334 0.24619223 0.04728638 0.17251815 0.17581137 0.21808226 0.023130914
0.22569269 0.4559949 0.38264504 -0.042308554 0.05404142 0.043943122 -0.13186346 0.23426904
0.09040089 0.44914165 0.016136581 0.028242076 0.007159526 0.2656789 0.20044622 -0.09613074
0.25772253 -0.29346648 -0.057077885 -0.05480484 0.100702114 0.044057697 0.001296247 0.20484981
0.22063302 -0.07815651 0.25130883 0.41325796 -0.093778275 0.22715534 0.3866252 0.17228869
0.03842471 0.2867061 0.27070102 0.09094874 -0.027488489 0.046419434 0.250173 0.2516662
-0.029638685 0.02046302 0.26932225 -0.00050282525 0.09435752 -0.03233335 -0.081417695 -0.018264808
-0.09709252 0.395823 -0.09741274 0.0014373492 0.15655206 -0.023104412 0.10655008 0.101776816
0.17271508 0.12284957 0.080053404 0.112272054 -0.06974 0.16595958 0.08474982 0.013857751
0.2741902 0.2454482 0.20226125 0.053136062 0.04160535 0.25443366 -0.16698308 0.10173551
0.11121179 0.35940474 0.15005265 -0.100754015 -0.0927921 0.021720473 0.24703676 -0.051334288
0.1618373 0.113763124 -0.21578869 0.03189001 -0.05709308 0.11979308 0.2721372 0.21355322
0.19060934 0.15008219 0.3408168 0.06793657 0.33871728 -0.21570793 0.31059563 0.26898965
-0.0321197 -0.06157735 0.21983922 0.26056013 0.11357989 0.16180518 0.28574347 0.23484321
-0.12139173 0.08825705 -0.032765474 -0.055092614 0.033766974 0.19581234 0.1643491 0.11639798
-0.004521172 0.20642853 0.1118828 0.17073707 0.2980724 -0.09115714 -0.137524 0.19461815
0.3257193 0.31198332 0.22377643 -0.0045030084 0.07144038 0.07549996 -0.17331064 -0.03335405
0.042694524 0.19156325 0.18816657 0.26500362 -0.107088275 -0.13680929 0.08775466 -0.08275702
0.35004637 -0.12920208 0.295535 0.10063051 0.28730807 0.090214364 -0.015274204 0.21504524
-0.24470629 -0.038803887 0.2757013 0.13615839 0.20369805 0.07235639 0.09933693 0.05511509
0.09391234 0.19110374 0.3731785 0.12850207 0.034007046 -0.060646165 0.19344011 -0.0035203365
00000000: 19bb 8ebd e89f 493e 0233 c53c 2fa1 71be
00000010: a351 a3bd a30a 95bd 11ef a33d 733a cdbd
00000020: 05a0 91bd bfa1 2c3e 3223 ab3e 9a05 3a3e
00000030: e46a d73d c0ad 093e 0a1e 0c3e c1e8 d83d
00000040: 7110 3dbe 03c6 a83e bcc8 ca3e 1c98 96bd
00000050: 9e3c 76bd bf9f 5f3e 6c4a a2bd ef94 1bbe
00000060: 086f 8e3e d31e d9bd 5ade f1bd 2dca 973e
00000070: f880 f33d 80b0 063e b7e3 803e 9038 5bbd
00000080: 5c4b cebc 04ab 213e c614 8c3e f255 00be
00000090: 2917 893e f74a 9f3d 04ae 94bc 7086 a53e
000000a0: db73 d83d 0534 02bd fd57 20be 3001 a93d
000000b0: 1bf1 983e 546b b13d 92d0 693e 6d68 4d3e
000000c0: 8229 293e 89af 9f3b f43b 103e e337 3fbc
000000d0: 090c 713d b1b9 293e ad4a 873c 0fa2 533e
000000e0: b744 77bd a298 d6bd d798 123d 3ae7 18bd
000000f0: 916a 963c b029 3f3e f5cf d1bc 7c81 8d3d
00000100: fcfe b33e 5567 873e 5080 c4bd 443a 223e
00000110: 4cc2 333e d8a2 bf3c 6be7 d33e 894d 403e
00000120: d374 823e 521e 763e c694 4e3e 78da 0a3e
00000130: 57d6 853e 7818 5e3d ffbc 713e cd2f 273e
00000140: 8f08 c53d 2529 2b3e 147b 88bd 3d0e 0f3e
00000150: 9232 f03d f499 1d3e 1c2c 09bd 5d3e 423e
00000160: 594f 1cbd 6242 af3e d119 7c3e 5daf 413d
00000170: 99a8 303e e507 343e f550 5f3e 0b7d bd3c
00000180: fc1b 673e 2a78 e93e 0dea c33e bc4b 2dbd
00000190: 895a 5d3d b4fd 333d 3707 07be 39e4 6f3e
000001a0: 1a24 b93d e5f5 e53e dd30 843c ed5b e73c
000001b0: 759a ea3b 1107 883e c641 4d3e 32e0 c4bd
000001c0: 35f4 833e 3d41 96be 80ca 69bd 0a7b 60bd
000001d0: e93c ce3d d875 343d d5e6 a93a 26c4 513e
000001e0: 9fed 613e 8510 a0bd 8dab 803e 8c96 d33e
000001f0: d30e c0bd 699b 683e bdf3 c53e 726c 303e
00000200: 3b63 1d3d 24cb 923e 5399 8a3e 5543 ba3d
00000210: 8a2f e1bc 4e22 3e3d ad16 803e 64da 803e
00000220: d4cc f2bc 10a2 a73c 9be4 893e 08d0 03ba
00000230: 843e c13d fa6f 04bd 52be a6bd 14a0 95bc
00000240: 71d8 c6bd 50a9 ca3e 5580 c7bd 7065 bc3a
00000250: 2f4f 203e 7745 bdbc ee36 da3d 5d70 d03d
00000260: 39dc 303e 8e98 fb3d 0af3 a33d e4ee e53d
00000270: d8d3 8ebd 4ff1 293e 5091 ad3d 9f0b 633c
00000280: a862 8c3e c656 7b3e 931d 4f3e 33a5 593d
00000290: 5f6a 2a3d 2145 823e 9dfd 2abe b55a d03d
000002a0: 02c3 e33d e603 b83e 67a7 193e 1f58 cebd
000002b0: c909 bebd 22ef b13c 34f7 7c3e e743 52bd
000002c0: adb8 253e a4fc e83d b6f7 5cbe 199f 023d
000002d0: 6fda 69bd 1356 f53d 9155 8b3e b2ad 5a3e
000002e0: 182f 433e 25af 193e 8a7f ae3e 5422 8b3d
000002f0: 5a6c ad3e 8ae2 5cbe 6406 9f3e 03b9 893e
00000300: f28f 03bd 8838 7cbd 881d 613e 2368 853e
00000310: 939c e83d 42b0 253e f84c 923e bd7a 703e
00000320: 3a9c f8bd 1dc0 b43d 1735 06bd cba8 61bd
00000330: 3d4f 0a3d 0883 483e 214b 283e 1062 ee3d
00000340: 5726 94bb 0062 533e cf22 e53d b3d5 2e3e
00000350: f29c 983e 98b0 babd 17d3 0cbe fb49 473e
00000360: aec4 a63e 47bc 9f3e a625 653e f98d 93bb
00000370: 554f 923d b99f 9a3d 5878 31be 429e 08bd
00000380: 74e0 2e3d 2829 443e bdae 403e 8eae 873e
00000390: 1951 dbbd bc17 0cbe b7b8 b33d 837c a9bd
000003a0: 4739 b33e 8d4d 04be 5d50 973e 5e17 ce3d
000003b0: 0b1a 933e 4fc2 b83d a840 7abc d234 5c3e
000003c0: 4994 7abe d3f0 1ebd b928 8d3e 1b6d 0b3e
000003d0: 3996 503e 962f 943d 2971 cb3d 5cc0 613d
000003e0: 1d55 c03d b3b0 433e 4111 bf3e 0c96 033e
000003f0: f94a 0b3d 1d68 78bd 2a15 463e 72b5 66bb

ln1.weight f4 [256]
0.9767039 1.1632197 1.0449908 1.09598 1.1857433 0.9519268 1.0726961 1.0767809
0.90731555 0.9632563 1.0301434 0.97881305 1.2631519 0.9809755 0.8351388 1.1131659
0.87865895 1.1998518 0.91179025 1.0305504 0.9890558 0.8316622 1.058854 1.0967094
0.8371072 1.1810799 1.1568255 0.83603644 1.1098881 1.1319807 0.9336431 1.0432576
1.3092831 1.1981877 0.9190938 1.031895 0.9581547 1.0544845 1.1658431 1.3974701
0.9801536 1.3289789 1.2026831 1.2332544 0.84139335 0.97298634 1.1741856 0.8435084
1.213085 1.1461073 1.2677819 1.1689051 1.0434276 1.1272426 1.1884584 0.9412149
0.90517336 1.0420207 0.9921899 1.0642346 1.0296156 1.2748986 1.1601177 1.0076879
1.0293152 0.8025532 1.0756533 0.97935295 1.2769189 1.0369588 1.0813086 0.7912295
0.9681365 1.1086702 1.0651428 0.9287019 1.2965119 1.1734288 1.050478 1.092878
0.82404155 1.379073 1.004065 0.91735804 1.0569609 1.1596636 0.80228233 1.0370977
1.0512149 0.9362359 0.9524445 1.1375214 0.9830831 0.9365034 0.925884 0.90298593
1.0984756 1.1446649 1.0879065 0.9318402 0.84753186 1.3423222 1.009657 0.95319235
1.1040404 1.3262811 1.2067763 1.0294919 1.2430522 0.88620067 1.1040924 1.3509115
1.0974314 1.0209897 0.99969894 1.2591256 1.0713992 1.2009599 1.1276962 1.2496859
0.9818714 0.83273596 1.1773847 1.1782199 1.1012764 0.9719705 1.019269 1.117015
1.1602701 0.8937107 0.93809485 0.8062141 1.402475 1.0704236 1.1449603 1.2044494
1.096592 0.77386457 1.0154359 1.1913614 0.7175635 1.3216476 1.2059015 1.2562418
1.0478725 1.0773039 1.2148912 0.86707354 0.80566555 1.0639873 1.0791823 0.61252433
1.0829891 1.0151846 1.0788809 1.1518184 1.1176777 1.131751 1.0223601 1.057755
1.0273216 0.91379964 0.86742216 0.8353012 0.9060565 1.2650144 1.1782408 1.1309747
1.2903346 1.0287803 1.0030278 1.032836 1.3202788 1.1231701 1.0555053 1.3401295
1.2907287 0.9793828 1.1860605 0.71439475 0.9830357 1.3366972 1.0031649 1.2121041
0.79542786 0.8715569 0.84047437 0.9251371 0.9556184 1.1894565 0.94830817 0.8035476
0.9943458 1.0598726 0.69676936 1.287415 0.9169101 0.8431615 1.1266965 0.9322109
1.3072625 1.0013611 1.2282478 1.1851559 0.9916235 1.051996 1.327856 0.91721314
0.9751259 1.0530633 0.85994864 1.0304631 1.1566612 0.9416588 1.0607697 1.1531223
0.9331936 1.0011193 1.1639209 1.0884554 0.9617213 0.9652265 1.2462908 1.393059
1.0694882 0.6632641 0.6799722 0.9053564 1.281694 1.2151031 0.7851607 1.2346094
1.1514813 1.4034683 1.0893062 1.1593698 0.8383892 1.1547124 1.2977868 1.0202794
1.1652393 1.0566866 1.19573 1.0790979 0.91891915 0.9229199 1.2232199 1.0680178
0.8082341 0.7659965 0.8617803 1.1260844 1.1714278 0.8918398 1.1204956 1.0164788
00000000: 4409 7a3f 62e4 943f 42c2 853f 1349 8c3f
00000010: 70c6 973f 7ab1 733f 1b4e 893f f5d3 893f
00000020: d545 683f f797 763f bddb 833f 7e93 7a3f
00000030: f6ae a13f 3621 7b3f a8cb 553f 387c 8e3f
00000040: cbef 603f be94 993f 166b 693f 13e9 833f
00000050: c332 7d3f d0e7 543f 8788 873f f960 8c3f
00000060: a84c 563f a02d 973f dc12 943f 7c06 563f
00000070: d010 8e3f bee4 903f 3c03 6f3f 7789 853f
00000080: 9796 a73f 375e 993f bb49 6b3f 2315 843f
00000090: a049 753f 59f9 863f 593a 953f 4de0 b23f
000000a0: 59eb 7a3f fb1b aa3f 85f1 993f 48db 9d3f
000000b0: 8e65 573f a215 793f b74b 963f 2bf0 573f
000000c0: 5f46 9b3f a5b3 923f ad46 a23f af9e 953f
000000d0: 098f 853f 7c49 903f 681f 983f 76f3 703f
000000e0: 71b9 673f ef60 853f 2800 7e3f d738 883f
000000f0: 72ca 833f e12f a33f bd7e 943f ebfb 803f
00000100: 9ac0 833f 2074 4d3f 02af 893f e0b6 7a3f
00000110: 1472 a33f 11bb 843f 5268 8a3f 048e 4a3f
00000120: cbd7 773f e8e8 8d3f 9956 883f 68bf 6d3f
00000130: 1af4 a53f ea32 963f 1076 863f 6de3 8b3f
00000140: 63f4 523f 7785 b03f 3485 803f fad7 6a3f
00000150: 7f4a 873f db6f 943f 6062 4d3f 9ebf 843f
00000160: 368e 863f 28ad 6f3f 67d3 733f 4d9a 913f
00000170: 56ab 7b3f b0be 6f3f bc06 6d3f 162a 673f
00000180: d99a 8c3f 6184 923f 8540 8b3f 148d 6e3f
00000190: d9f7 583f 37d1 ab3f 713c 813f 6a04 743f
000001a0: 3251 8d3f 94c3 a93f a577 9a3f 64c6 833f
000001b0: 561c 9f3f 0cde 623f e652 8d3f abea ac3f
000001c0: a278 8c3f caaf 823f 45ec 7f3f 072b a13f
000001d0: 9c23 893f 0eb9 993f 5958 903f b5f5 9f3f
000001e0: ed5b 7b3f 2f2e 553f 8bb4 963f e9cf 963f
000001f0: a0f6 8c3f 0fd3 783f 6877 823f 59fa 8e3f
00000200: bb83 943f 39ca 643f fc26 703f 0c64 4e3f
00000210: 4d84 b33f a403 893f 0f8e 923f 662b 9a3f
00000220: 205d 8c3f fd1b 463f cef9 813f 887e 983f
00000230: 3eb2 373f c02b a93f fb5a 9a3f 88cc a03f
00000240: b020 863f 18e5 893f 8e81 9b3f 88f8 5d3f
00000250: 1940 4e3f bc30 883f a522 8a3f 65ce 1c3f
00000260: 639f 8a3f 92f1 813f c518 8a3f c96e 933f
00000270: 1010 8f3f 37dd 903f b2dc 823f 8464 873f
00000280: 467f 833f c6ee 693f 610f 5e3f 4dd6 553f
00000290: 52f3 673f feeb a13f 98d0 963f c7c3 903f
000002a0: af29 a53f 13af 833f 3763 803f f833 843f
000002b0: e5fe a83f 0ac4 8f3f cc1a 873f 5d89 ab3f
000002c0: 9936 a53f d5b8 7a3f d5d0 973f 93e2 363f
000002d0: 3aa8 7b3f e518 ab3f b567 803f 3a26 9b3f
000002e0: 29a1 4b3f 5a1e 5f3f 5429 573f c9d5 6c3f
000002f0: 68a3 743f 1c40 983f 53c4 723f 4cb5 4d3f
00000300: 728d 7e3f e8a9 873f 7a5f 323f 04ca a43f
00000310: 9fba 6a3f 6fd9 573f 9737 903f 60a5 6e3f
00000320: 6154 a73f 9a2c 803f 3937 9d3f 30b3 973f
00000330: 0adb 7d3f cea7 863f 2ff7 a93f 7bce 6a3f
00000340: daa1 793f c7ca 863f 9825 5c3f 37e6 833f
00000350: 790d 943f 8d10 713f 4dc7 873f 8399 933f
00000360: c7e5 6e3f ad24 803f 5cfb 943f 8252 8b3f
00000370: 5e33 763f 1519 773f 7586 9f3f c24f b23f
00000380: fde4 883f adcb 293f a812 2e3f 70c5 673f
00000390: 8d0e a43f 8088 9b3f 4b00 493f ae07 9e3f
000003a0: bd63 933f d9a4 b33f 636e 8b3f 3b66 943f
000003b0: ada0 563f 9ecd 933f e11d a63f 8498 823f
000003c0: 9026 953f 8241 873f ae0d 993f e11f 8a3f
000003d0: 493e 6b3f 7b44 6c3f 7892 9c3f cfb4 883f
000003e0: 6ee8 4e3f 5918 443f a29d 5c3f 8923 903f
000003f0: 59f1 953f 9d4f 643f 666c 8f3f fa1b 823f

ln1.bias f4 [256]
-0.075349554 -0.12459018 -0.027763773 -0.12751287 0.0611977 0.033688154 0.0068360935 0.007225495
-0.12215851 -0.15257306 -0.008358769 -0.23167534 0.05926691 -0.14956255 -0.2401692 -0.11609719
-0.22249381 -0.16241962 -0.010999418 -0.251063 -0.15662406 -0.26376483 -0.10241382 -0.21272248
-0.16643576 0.044572067 -0.108310826 -0.051441204 -0.054606188 -0.11881796 -0.031817358 -0.09881338
-0.09892717 0.14111719 -0.18915923 -0.033012826 -0.18031386 -0.036482994 0.15717165 0.03798351
-0.15454677 0.10933884 -0.16133517 -0.036983673 -0.19266094 -0.20193113 -0.15267046 -0.2180091
-0.036679987 -0.10583452 0.08631738 0.057752877 -0.01485865 -0.1508411 0.035946645 -0.23040831
-0.20774007 -0.11260549 -0.1525409 -0.0145878745 -0.07612645 0.051092792 -0.05012102 -0.23474541
0.09222023 -0.23807989 -0.04378427 -0.07913131 -0.006433506 -0.1061661 -0.055667397 -0.23931973
-0.198959 -0.034393385 -0.101660125 -0.2173345 0.05332829 0.03234278 -0.10141304 0.08789233
-0.25749013 0.043592215 -0.06603288 -0.0932897 -0.020253798 0.015609907 -0.27705947 -0.09239379
-0.07132871 -0.12385326 -0.15475932 0.14908595 -0.09309386 -0.22591189 -0.06835257 -0.1935785
-0.011920986 -0.046756256 -0.10043343 -0.18524435 -0.27380702 0.048895016 -0.03494769 -0.20094095
4.9688355e-05 0.08246414 0.06724239 -0.1488714 -0.014074333 -0.24747597 -0.11967285 -0.020914052
0.06226788 -0.20359002 -0.13821281 -0.124283664 -0.1696771 -0.10159127 0.07493998 -0.0499582
0.015436783 -0.13043353 -0.017329637 0.044374455 -0.11146501 -0.14616865 -0.08786713 -0.1323076
-0.1470106 -0.18914321 -0.11141577 -0.11808198 0.042910557 -0.09456215 -0.025452277 0.042248555
-0.124457195 -0.11941442 -0.1238953 0.07367797 -0.24379097 -0.07491236 0.0064775767 -0.07169344
-0.09545143 -0.05728656 -0.03055514 -0.017369177 -0.26515388 -0.086002134 -0.028087113 -0.35613638
-0.20277514 -0.00604542 0.13869444 -0.03900978 -0.13218124 0.05439461 -0.121716484 -0.18330558
-0.08505018 -0.12853608 -0.27820775 -0.25009456 -0.17201093 0.13717802 -0.07204321 -0.052090053
0.15082975 -0.0776154 -0.21694106 -0.092838876 -0.00875322 -0.121717 -0.15807499 0.0709229
-0.04674353 -0.1907896 -0.0039693466 -0.14254378 -0.25733113 0.06807965 -0.04866376 0.055431444
-0.29124448 -0.286373 -0.17381889 -0.11767349 -0.15792604 -0.041581396 -0.079006605 -0.22646226
-0.11837724 0.05384846 -0.22520512 -0.004555813 -0.2303039 -0.29815325 -0.21593438 -0.17084257
0.015542032 -0.17302944 0.009523437 -0.030671315 -0.021862762 -0.034951396 -0.013117053 -0.07107014
-0.13996778 -0.09343165 -0.22592238 -0.12102327 -0.0350334 -0.07813087 -0.018844293 -0.09797849
-0.111454435 -0.06671191 -0.09770975 -0.050389316 -0.08338073 -0.14300175 0.015525909 0.109956674
-0.15519765 -0.2923954 -0.29354632 -0.2127899 -0.09396969 0.009984311 -0.19437863 0.06076573
0.012442299 0.02138006 -0.08489127 -0.15969333 -0.26281062 0.12330187 0.053789187 -0.1153402
-0.012081589 0.07260203 -0.07657324 -0.06641697 -0.12352021 -0.17820382 0.030898647 0.12496952
-0.18500312 -0.32370493 -0.095616564 -0.032473616 -0.074724026 -0.13141878 0.050833378 -0.20519939
00000000: de50 9abd 2329 ffbd da70 e3bc bc92 02be
00000010: 71aa 7a3d 97fc 093d 4f01 e03b d8c3 ec3b
00000020: 3e2e fabd 1d3c 1cbe 38f3 08bc 4d3c 6dbe
00000030: dcc1 723d ed26 19be eaee 75be 5dc4 edbd
00000040: 6bd5 63be 5451 26be e736 34bc 548b 80be
00000050: 0f62 20be 2f0c 87be 56be d1bd ecd3 59be
00000060: 236e 2abe 3391 363d 11d2 ddbd 03b4 52bd
00000070: bdaa 5fbd d556 f3bd eb52 02bd ab5e cabd
00000080: 549a cabd 0681 103e f5b2 41be 7538 07bd
00000090: 32a4 38be 316f 15bd 9bf1 203e 9994 1b3d
000000a0: 8241 1ebe 0bed df3d 0c35 25be 317c 17bd
000000b0: e948 45be 09c7 4ebe a555 1cbe c73d 5fbe
000000c0: c13d 16bd c5bf d8bd 2bc7 b03d 488e 6c3d
000000d0: b271 73bc 1776 1abe ca3c 133d 28f0 6bbe
000000e0: d0b9 54be b59d e6bd af33 1cbe fb01 6fbc
000000f0: 2fe8 9bbd ad46 513d b34b 4dbd 1a61 70be
00000100: f6dd bc3d 37cb 73be 2257 33bd 990f a2bd
00000110: 29d0 d2bb 9d6d d9bd 7f03 64bd 3b10 75be
00000120: e8bb 4bbe 14e0 0cbd 2f33 d0bd ef8c 5ebe
00000130: c46e 5a3d dd79 043d a4b1 cfbd e500 b43d
00000140: bfd5 83be c08d 323d 3f3c 87bd ac0e bfbd
00000150: 4beb a5bc b2c0 7f3c bdda 8dbe f538 bdbd
00000160: c914 92bd c7a6 fdbd 3a79 1ebe fda9 183e
00000170: fea7 bebd 7255 67be 6ffc 8bbd 7139 46be
00000180: 3d50 43bc 7d83 3fbd 0bb0 cdbd b2b0 3dbe
00000190: 6f30 8cbe 2446 483d 4f25 0fbd 77c3 4dbe
000001a0: 7768 5038 f6e2 a83d 61b6 893d bf71 18be
000001b0: 0898 66bc 576a 7dbe 0a17 f5bd f253 abbc
000001c0: 9b0c 7f3d e779 50be a987 0dbe 6f88 febd
000001d0: d5bf 2dbe 150f d0bd 227a 993d f8a0 4cbd
000001e0: 90ea 7c3c 5e90 05be e2f6 8dbc fdc1 353d
000001f0: c447 e4bd 3cad 15be aff3 b3bd a57b 07be
00000200: f289 16be c2ae 41be f42d e4bd f7d4 f1bd
00000210: fbc2 2f3d cda9 c1bd 4b81 d0bc d20c 2d3d
00000220: 6ae3 febd 8c8f f4bd d2bc fdbd 7ae4 963d
00000230: 57a4 79be a76b 99bd da41 d43b 03d4 92bd
00000240: 0a7c c3bd 50a5 6abd c64e fabc ce49 8ebc
00000250: 40c2 87be e321 b0bd f216 e6bc 8257 b6be
00000260: 49a4 4fbe a918 c6bb ea05 0e3e b8c8 1fbd
00000270: 855a 07be e2cc 5e3d 7e46 f9bd 75b4 3bbe
00000280: ca2e aebd f69e 03be 3f71 8ebe 650c 80be
00000290: a223 30be 6578 0c3e 648b 93bd 615c 55bd
000002a0: 1d73 1a3e d3f4 9ebd cc25 5ebe 4f22 bebd
000002b0: aa69 0fbc c346 f9bd 69de 21be 0740 913d
000002c0: 2576 3fbd 595e 43be 4b11 82bb fff6 11be
000002d0: e8c0 83be 586d 8b3d a753 47bd 150c 633d
000002e0: ff1d 95be 7b9f 92be 94fd 31be ccfe f0bd
000002f0: 5db7 21be 4151 2abd 37ce a1bd b9e5 67be
00000300: c46f f2bd 3490 5c3d 2c9c 66be ee48 95bb
00000310: c9d4 6bbe 8ba7 98be e71d 5dbe 5bf1 2ebe
00000320: 02a4 7e3c a12e 31be 3108 1c3c 6942 fbbc
00000330: 8919 b3bc 3229 0fbd e8e8 56bc 398d 91bd
00000340: b753 0fbe 1859 bfbd 3258 67be 0cdb f7bd
00000350: 2f7f 0fbd 1403 a0bd 595f 9abc f2a8 c8bd
00000360: 3942 e4bd 41a0 88bd 0d1c c8bd 0765 4ebd
00000370: 84c3 aabd 0d6f 12be 6260 7e3c f730 e13d
00000380: 22ec 1ebe dab4 95be b44b 96be 98e5 59be
00000390: 2e73 c0bd 3c95 233c 310b 47be 7ce5 783d
000003a0: c9da 4b3c 3c25 af3c 79db adbd a686 23be
000003b0: 1d8f 86be b185 fc3d 0d52 5c3d 7c37 ecbd
000003c0: dbf1 45bc 60b0 943d 6ed2 9cbd 9f05 88bd
000003d0: 2af8 fcbd 107b 36be 291f fd3c 05f0 ff3d
000003e0: 7571 3dbe a7bc a5be 9ed2 c3bd 0e03 05bd
000003f0: e908 99bd a592 06be a936 503d ca1f 52be

linear2.weight f4 [256, 256]
-0.17001173 0.13048628 0.053503573 -0.07450636 -0.17520067 0.072676666 -0.054614402 -0.08833393
-0.10509827 0.031068414 -0.036105506 -0.20215884 0.07185798 -0.11571732 0.042103395 0.13475119
-0.20142262 -0.15295582 0.08856359 -0.14367475 -0.055127356 0.010681777 -0.14263426 -0.12842134
0.14786634 -0.007565451 0.01668118 0.07250075 -0.05123674 0.18651752 0.12526067 0.054915275
-0.09516812 0.15960309 0.109377734 0.030969996 -0.16890813 0.08687111 -0.1805753 -0.13730787
-0.05931507 -0.091981955 -0.049768407 0.02813455 -0.05716324 -0.016324649 0.34510583 0.06737061
-0.060639944 -0.13381527 0.051595412 -0.12390161 -0.2494947 -0.21295154 -0.10680502 -0.005702832
-0.03176429 -0.01780753 0.10525343 0.08119447 0.0012409397 0.02264261 -0.04658475 -0.24813077
0.031811174 0.052965708 -0.12865089 -0.0013525595 0.23392408 0.13195923 -0.08751686 0.052133955
0.13437249 0.20895094 0.07142475 -0.13668028 -0.0024971468 0.10970952 0.104883075 0.24981193
-0.21840553 -0.22923313 -0.07750604 -0.07302449 -0.1472232 0.11998297 0.11758002 -0.11901513
-0.23242123 0.14794056 0.06868618 -0.026181614 0.16468264 0.038887426 0.08628909 -0.026206397
0.11767293 0.045323465 0.21057026 -0.25047576 -0.11078411 0.1423105 -0.114369825 0.13690856
0.13734864 0.23711438 0.15382609 -0.21073481 -0.07757697 -0.10415176 0.06420993 -0.15491551
-0.120883755 0.039118588 -0.33610475 -0.20495258 -0.2537409 -0.03388882 -0.09304056 -0.24452612
0.022274483 -0.1818447 -0.24733385 0.23994403 -0.12706293 -0.2689608 0.0009550533 -0.19277611
-0.30387563 0.10697205 0.010687908 0.10504349 -0.12353515 0.031445842 0.006327649 0.13905089
-0.34958658 0.06093423 0.025105096 0.038032606 -0.058196355 -0.10131997 -0.003113038 -0.09150308
-0.09828435 0.037288573 -0.15923473 0.044788476 0.09593545 0.001140114 -0.2553184 0.099153854
-0.037071455 -0.06703508 0.053119056 0.18253352 -0.04797573 0.10133254 -0.09092634 0.029680884
0.19011112 -0.18594325 0.08622625 0.07798786 0.09038937 0.082761556 -0.16951299 0.14328636
0.10066594 0.12898904 0.24292423 -0.21257451 -0.22660454 -0.11946631 0.14495853 -0.0805963
-0.33219197 -0.023109177 -0.11816417 0.109033644 -0.024310818 0.2675457 0.15383539 0.11777284
0.03045166 -0.12885201 0.31446663 -0.34918302 0.13062409 -0.22148111 0.15718642 -0.03737859
0.14823343 0.0069649974 0.05051628 0.18452519 0.017716844 -0.12648256 0.07170272 0.084822156
-0.080665566 -0.118874066 -0.36423415 -0.2775812 0.09830636 0.10975525 -0.025725432 -0.0020878823
-0.14394896 0.020388957 -0.18356526 0.087516315 0.22700554 0.004451362 -0.1720932 -0.009761795
-0.014695541 0.13881505 -0.06251263 -0.10924306 -0.2613345 -0.23550715 -0.24863757 -0.03777502
0.018457832 -0.054271787 0.1249415 0.12292136 0.16622643 -0.09786121 -0.07902719 -0.122584626
0.14821431 0.08710935 0.08403094 -0.29183474 0.15608938 0.22288422 0.11096922 0.2412726
-0.005261528 -0.11174728 0.18698373 -0.066719025 0.0644151 0.05654775 0.03201697 0.11188554
-0.12055126 -0.10372881 0.11030246 -0.005262419 -0.06723005 0.06877833 0.08643208 0.017808331
00000000: 8e17 2ebe 329e 053e 9026 5b3d ca96 98bd
00000010: ce67 33be 81d7 943d 5ab3 5fbd 6be8 b4bd
00000020: c33d d7bd 3083 fe3c 5ee3 13bd ba02 4fbe
00000030: 472a 933d 34fd ecbd 9c74 2c3d 37fc 093e
00000040: bb41 4ebe 73a0 1cbe d460 b53d 791f 13be
00000050: 39cd 61bd 9f02 2f3c b70e 12be e280 03be
00000060: 466a 173e 9ae7 f7bb f8a6 883c 467b 943d
00000070: 9edd 51bd 73fe 3e3e 5544 003e d7ee 603d
00000080: 81e7 c2bd fe6e 233e 6f01 e03d cab4 fd3c
00000090: 41f6 2cbe 7be9 b13d bbe8 38be 6f9a 0cbe
000000a0: 5cf4 72bd 0961 bcbd f5d9 4bbd 6e7a e63c
000000b0: 0024 6abd 45bb 85bc b6b1 b03e 9af9 893d
000000c0: 9761 78bd df06 09be b655 533d 21c0 fdbd
000000d0: 8a7b 7fbe f80f 5abe 97bc dabd d2de babb
000000e0: 461b 02bd 19e1 91bc 1c8f d73d 4949 a63d
000000f0: 07a7 a23a ff7c b93c a7cf 3ebd fe15 7ebe
00000100: 6f4c 023d 92f2 583d 0fbd 03be 5e48 b1ba
00000110: cb89 6f3e 5220 073e 0a3c b3bd 6a8a 553d
00000120: f198 093e 3cf7 553e 2447 923d eaf5 0bbe
00000130: 2ca7 23bb 63af e03d f0cc d63d b3ce 7f3e
00000140: b3a5 5fbe 17bc 6abe 7dbb 9ebd dd8d 95bd
00000150: aec1 16be a2b9 f53d cbcd f03d 34be f3bd
00000160: d5ff 6dbe bb7d 173e 57ab 8c3d d37a d6bc
00000170: 91a2 283e 6c48 1f3d 56b8 b03d ccae d6bc
00000180: 81fe f03d 19a5 393d bb9f 573e 5c3e 80be
00000190: c8e2 e2bd d8b9 113e ba3a eabd c231 0c3e
000001a0: 1fa5 0c3e 1dce 723e 9684 1d3e deca 57be
000001b0: ade0 9ebd 854d d5bd 7f80 833d 2ca2 1ebe
000001c0: e791 f7bd d03a 203d ec15 acbe 17df 51be
000001d0: 54ea 81be 01cf 0abd 0d8c bebd 0e65 7abe
000001e0: fa78 b63c 7f35 3abe 1645 7dbe e3b3 753e
000001f0: c91c 02be 3bb5 89be 8b5c 7a3a 1a67 45be
00000200: 9695 9bbe 2a14 db3d 561c 2f3c 0b21 d73d
00000210: ffff fcbd 5bcd 003d 2b58 cf3b 5b63 0e3e
00000220: 03fd b2be 2c96 793d 34a9 cd3c 14c8 1b3d
00000230: 4d5f 6ebd d880 cfbd 1c04 4cbb f865 bbbd
00000240: 4e49 c9bd e7bb 183d 6e0e 23be 1f74 373d
00000250: ce79 c43d e16f 953a 18b9 82be 2d11 cb3d
00000260: 3dd8 17bd b049 89bd 5e93 593d 11ea 3a3e
00000270: 3382 44bd 6f87 cf3d 9737 babd 5325 f33c
00000280: 7dac 423e e867 3ebe 6397 b03d 19b8 9f3d
00000290: 101e b93d e47e a93d d094 2dbe a9b9 123e
000002a0: f229 ce3d b415 043e 21c1 783e 22ad 59be
000002b0: 050b 68be c1aa f4bd 0270 143e ac0f a5bd
000002c0: 1115 aabe 754f bdbc 0e00 f2bd 084d df3d
000002d0: 7b27 c7bc c0fb 883e 0687 1d3e e332 f13d
000002e0: c275 f93c c8f1 03be c501 a13e 1ec8 b2be
000002f0: 52c2 053e f2cb 62be 7af5 203e 4b1a 19bd
00000300: 81ca 173e a23a e43b 29ea 4e3d 2cf4 3c3e
00000310: ea22 913c a584 01be e0d8 923d 3db7 ad3d
00000320: fd33 a5bd 3f74 f3bd e67c babe 1f1f 8ebe
00000330: d854 c93d 5cc7 e03d 24be d2bc dad4 08bb
00000340: 5b67 13be be06 a73c 88f8 3bbe c13b b33d
00000350: 2474 683e bbdc 913b 3339 30be f0ef 1fbc
00000360: 91c5 70bc 8825 0e3e 9f06 80bd d3ba dfbd
00000370: a3cd 85be c928 71be d99a 7ebe fbb9 1abd
00000380: e134 973c 184c 5ebd 54e1 ff3d 32be fb3d
00000390: 4337 2a3e 756b c8bd 02d9 a1bd a60d fbbd
000003a0: 7ec5 173e 6366 b23d 6a18 ac3d 5d6b 95be
000003b0: e5d5 1f3e c33b 643e d543 e33d 2a10 773e
000003c0: e568 acbb c2db e4bd aa78 3f3e fca3 88bd
000003d0: 10ec 833d 9d9e 673d 3a24 033d 3f24 e53d
000003e0: 94e3 f6bd c56f d4bd 42e6 e13d 5f70 acbb
000003f0: e9af 89bd a7db 8c3d 4d03 b13d c7e2 913c

linear2.bias f4 [256]
0.14882167 0.0913628 0.10494997 0.13994607 -0.03205792 0.13007163 0.040754713 0.093232356
-0.06714516 -0.03348585 0.053853046 -0.027088163 0.046997637 -0.11940564 -0.0055511873 0.14557023
-0.078996226 -0.0025681974 0.16106145 0.15761518 0.03822525 -0.0012288826 0.027796874 0.041792635
0.11979379 -0.13421114 0.07783128 0.029875498 -0.08304419 0.031780347 -0.07071625 -0.008919136
-0.0034469233 0.10899159 0.089118116 0.026086163 -0.009696722 -0.030824358 -0.018290937 0.12265545
0.02435771 -0.052286256 0.073955044 0.075684905 0.066929 0.08376923 0.1676641 0.07138762
-0.028755773 0.03184243 -0.040721584 0.03145705 0.1247994 -0.06260838 0.11366473 -0.013521475
-0.029441126 -0.010633878 0.03271099 0.031942926 0.144878 0.1303252 0.095619455 0.0054352023
0.032434117 -0.025694428 -0.01131484 0.0006281669 -0.042335182 0.15310654 0.10332005 0.060742754
0.021288022 0.021613546 -0.009507327 -0.02838131 0.028535962 0.20549114 -0.04208609 -0.0022644044
-0.07682879 0.090688005 0.105092965 -0.036914736 0.114278875 0.08170826 -0.006168885 0.06490672
0.0882612 0.0070122345 0.06829349 -0.030380556 -0.00021464107 0.15214485 -0.03413478 0.058876928
-0.06383312 0.03372003 0.04731016 0.07337767 0.1891365 0.017344521 -0.015209925 0.11118791
0.13789584 0.08928764 -0.01117284 0.017854681 -0.011284127 -0.07108388 0.08623777 0.04876619
0.09262874 -0.023734597 0.14535867 0.04786309 0.028906444 0.20165685 0.046604577 0.112205565
0.0634874 0.03458997 0.078893065 0.0602657 -0.087383695 0.12679213 -0.027317474 -0.11617138
0.11169377 -0.04002518 -0.08290285 0.16405043 0.05272051 0.04303364 -0.14304182 -0.06146758
0.073689625 -0.0012112265 0.045343332 -0.010051007 0.11055645 -0.06409333 0.00015564077 0.06152296
-0.039614152 0.15735279 0.024704099 0.05657315 -0.0035684844 0.037794773 0.07686265 0.01663673
0.10933072 -0.007549607 -0.106158 0.031542037 0.10710797 0.1382809 0.16716221 -0.053277515
-0.00933409 -0.014683561 0.046103574 0.11503667 -0.0070334403 -0.021402778 -0.14364208 -0.11584603
0.0157558 -0.045796108 -0.04028644 0.074625805 0.23153184 0.0032454885 0.11757776 -0.013582072
0.14674641 -0.13871266 0.036891878 0.07979645 -0.051397994 0.073427625 0.063374974 0.008357809
-0.11908094 0.14136852 0.027576813 0.081763014 -0.09537937 0.13800077 0.060171805 0.115645014
0.0529481 0.061768632 -0.012205147 0.012450626 -0.06906468 0.03777861 0.043755922 -0.05645205
0.19196834 0.07778321 0.1671556 -0.01946395 0.1612211 0.13517077 0.10271656 -0.0620899
0.11153983 -0.005035724 0.08710374 0.015013583 0.1922532 0.040696345 0.16347234 0.06567955
-0.016961327 0.17462838 -0.028572395 0.0629645 0.030315107 0.028103797 -0.002217381 -0.0041149813
0.15684867 0.08634876 -0.05361922 -0.060043942 -0.07546905 0.050392125 0.04345082 0.018688364
0.054239366 0.044712745 -0.0062683397 0.057679627 -0.06622386 0.006713287 0.21289812 0.102161236
-0.0051985406 0.17453554 -0.13522775 -0.10122354 -0.07203447 0.110906824 0.15844297 0.04974387
-0.09924243 0.0765819 0.024711628 0.08330728 -0.07048164 0.109066024 -0.04898313 -0.06665593
00000000: b564 183e 6b1c bb3d 03f0 d63d 064e 0f3e
00000010: 2a4f 03bd 7f31 053e 6aee 263d 9bf0 be3d
00000020: 6783 89bd 7528 09bd 0395 5c3d ffe7 ddbc
00000030: 9880 403d f28a f4bd bce6 b5bb 5d10 153e
00000040: c6c8 a1bd 344f 28bb 4bed 243e e065 213e
00000050: 1492 1c3d 7512 a1ba 45b6 e33c c12e 2b3d
00000060: 7256 f53d a56e 09be 0266 9f3d 76bd f43c
00000070: 1313 aabd 1c2c 023d aed3 90bd 9121 12bc
00000080: c7e5 61bb fc36 df3d 8f83 b63d a6b2 d53c
00000090: 00df 1ebc 5d83 fcbc e0d6 95bc c832 fb3d
000000a0: d289 c73c 1d2a 56bd be75 973d b000 9b3d
000000b0: 1212 893d 348f ab3d 23b0 2b3e ac33 923d
000000c0: 3a91 ebbc 356d 023d adcb 26bd 1cd9 003d
000000d0: d496 ff3d d338 80bd 0ec9 e83d 2d89 5dbc
000000e0: 842e f1bc b839 2ebc f6fb 053d 96d6 023d
000000f0: e65a 143e f873 053e 22d4 c33d c819 b23b
00000100: a3d9 043d 1f7d d2bc e161 39bc 91ab 243a
00000110: a867 2dbd f6c7 1c3e 7699 d33d 65cd 783d
00000120: 3864 ae3c e40e b13c 9fc4 1bbc ec7f e8bc
00000130: 40c4 e93c 456c 523e 7762 2cbd 6766 14bb
00000140: 6a58 9dbd a2ba b93d fb3a d73d e833 17bd
00000150: 0b0b ea3d a956 a73d 5c24 cabb d0ed 843d
00000160: 4ac2 b43d e3c6 e53b 75dd 8b3d a5e0 f8bc
00000170: 4611 61b9 dccb 1b3e e9d0 0bbd ef28 713d
00000180: f0ba 82bd 041e 0a3d 4cc8 413d 0847 963d
00000190: 00ad 413e 1916 8e3c 0d33 79bc 7db6 e33d
000001a0: 9134 0d3e 70dc b63d 4a0e 37bc fb43 923c
000001b0: 0fe1 38bc 6d94 91bd 6e9d b03d 0ebf 473d
000001c0: 23b4 bd3d 0f6f c2bc e7d8 143e 160c 443d
000001d0: 35cd ec3c 227f 4e3e 71e4 3e3d 08cc e53d
000001e0: af05 823d 36ae 0d3d b092 a13d 2bd9 763d
000001f0: 39f6 b2bd ccd5 013e e5c8 dfbc 43eb edbd
00000200: b4bf e43d 71f1 23bd f8c8 a9bd d6fc 273e
00000210: 76f1 573d 0b44 303d 8e79 12be 6ec5 7bbd
00000220: 96ea 963d 04c2 9eba eeb9 393d fbac 24bc
00000230: 6c6b e23d 5d43 83bd 8033 2339 80ff 7b3d
00000240: 7342 22bd 1721 213e 4060 ca3c 3fb9 673d
00000250: 3cdd 69bb b1ce 1a3d 2a6a 9d3d c049 883c
00000260: c9e8 df3d b262 f7bb 5e69 d9bd 3932 013d
00000270: 6c5b db3d 8299 0d3e 922c 2b3e 8639 5abd
00000280: 03ee 18bc 5293 70bc 1ad7 3c3d 5898 eb3d
00000290: c678 e6bb e154 afbc e916 13be af40 edbd
000002a0: 4f12 813c b394 3bbd 6503 25bd 6ad5 983d
000002b0: af16 6d3e 43b2 543b 9ccc f03d 5787 5ebc
000002c0: b144 163e b10a 0ebe f01b 173d 526c a33d
000002d0: b486 52bd 3961 963d bdca 813d 31ef 083c
000002e0: b5e0 f3bd e9c2 103e c5e8 e13c 5e73 a73d
000002f0: 4256 c3bd 1350 0d3e b676 763d 4bd7 ec3d
00000300: 1be0 583d 1b01 7d3d 19f8 47bc b6fd 4b3c
00000310: c871 8dbd bebd 1a3d 6939 333d 443a 67bd
00000320: 5993 443e ce4c 9f3d d62a 2b3e dd72 9fbc
00000330: 2517 253e 356a 0a3e 0f5d d23d fb51 7ebd
00000340: ff6e e43d b702 a5bb 7263 b23d 88fb 753c
00000350: 06de 443e 36b1 263d 4b65 273e 0083 863d
00000360: 7bf2 8abc c8d1 323e a810 eabc 88f3 803d
00000370: 6357 f83c ef39 e63c 7b51 11bb f7d6 86bb
00000380: f09c 203e 9ed7 b03d d49f 5bbd a3f0 75bd
00000390: 848f 9abd f967 4e3d 7df9 313d 5718 993c
000003a0: 192a 5e3d b624 373d a566 cdbb 7941 6c3d
000003b0: 60a0 87bd 22fb db3b f701 5a3e e939 d13d
000003c0: 8558 aabb 72b9 323e 2579 0abe 4a4e cfbd
000003d0: cf86 93bd 1e23 e33d e03e 223e 3ac0 4b3d
000003e0: 9d3f cbbd f9d6 9c3d 0a70 ca3c 029d aa3d
000003f0: ae58 90bd 025e df3d 89a2 48bd e782 88bd

ln2.weight f4 [256]
1.2514328 0.83517283 1.1810911 0.84218526 0.7184844 1.10365 0.9718456 1.155083
0.98943967 0.75599945 1.0104356 0.79649675 0.8441666 1.0033922 0.94459474 1.106035
0.8144887 0.9159028 1.2326239 1.2403554 1.0683663 1.021201 1.1532048 0.95737463
1.1711886 0.9187279 0.7480497 0.85042846 0.63254976 1.1088991 1.0299637 1.095223
1.0392864 0.95526296 1.1494119 1.080862 0.98437846 0.9161996 0.74436694 1.066226
0.9313613 1.1465968 1.0441016 0.9522527 0.9911082 0.7013941 1.2779027 1.0113791
0.99549216 1.1575831 1.1804831 0.7324759 1.081653 0.9736095 0.72603154 1.0652274
1.0261492 0.9000098 0.96138513 0.73532 1.2318436 1.0207481 1.0367997 0.6493989
0.9839522 0.6712325 1.0853299 0.9519399 1.0856016 1.0023596 1.1103148 1.1748192
1.002423 1.0806793 1.0316603 1.1357763 0.97512454 1.1001049 1.1494596 0.95784503
0.9575832 1.1378568 1.3025337 1.1923901 1.1466675 1.0943822 1.3079897 0.9601179
1.000392 1.116134 0.95163876 0.99927044 0.6333241 1.1452107 1.1084496 1.1134167
0.9841382 0.97721463 0.9867604 1.2849662 1.1291322 0.7874563 0.98471266 0.7508078
1.1571902 1.0482423 1.0745505 1.0845678 0.9241661 1.0385563 0.7537956 0.82865953
1.215577 0.7672555 1.0592096 1.1377954 0.86725575 1.2969316 1.0250624 1.097847
0.94943035 1.0260488 1.2519135 1.2808868 0.69245166 1.0627228 0.96649224 0.90599597
1.0238386 0.7020651 0.99123466 1.2799225 1.0244013 0.8910255 0.7335253 0.79063934
0.9048874 1.0293651 0.76450855 1.0123943 1.072214 0.99766636 0.84260494 0.9174841
1.0902741 0.7505572 0.98436457 0.9399608 0.95180994 1.0057799 1.0790446 0.73221993
1.279898 0.61009884 0.72893614 1.0557084 1.0510428 1.1267672 1.1809479 0.8158581
0.9744578 0.9100987 1.0035769 1.0078039 0.9583095 0.67377174 0.7770819 1.1196365
1.059487 1.2376593 0.99675184 0.86262757 0.9006282 0.90022 1.2787286 0.9231583
0.9130387 0.8521318 1.0345618 1.0684859 1.0110906 0.864608 1.3056314 1.0455996
0.93458444 1.1038712 0.9577714 0.9403524 1.009943 1.1943284 0.92775387 1.3125049
1.1109554 1.0104192 0.9064501 0.69094574 0.9203658 1.0089566 0.75898767 1.0045514
1.1771674 1.1063297 1.378528 0.9528502 1.3821096 1.2731909 1.1675768 0.82530725
1.1442548 0.923877 1.2713596 0.89270616 1.1137053 1.0473952 1.284329 0.9260849
1.0453974 1.3007848 1.0077649 0.96568084 1.2825961 1.1850371 1.0910356 1.0287874
1.1984469 1.13857 0.9593032 0.7290294 1.0487001 0.7674843 1.0402893 1.1156541
1.1753218 0.93647707 0.70329756 1.000284 1.0507628 0.7352167 1.1703542 1.0362844
0.68561685 1.1291995 1.0917875 0.82982576 1.0342315 1.1816255 1.3748132 1.3265575
0.8837871 1.1876755 0.95271057 1.0125103 1.0600646 1.1140393 1.0880845 1.1152937
00000000: f32e a03f e3cd 553f fe2d 973f 7499 573f
00000010: 98ee 373f 6744 8d3f e0ca 783f c2d9 933f
00000020: eb4b 7d3f 2e89 413f f455 813f 36e7 4b3f
00000030: 4d1b 583f 286f 803f f6d0 713f 8e92 8d3f
00000040: 5582 503f 9b78 6a3f 9fc6 9d3f f7c3 9e3f
00000050: 3ac0 883f b7b6 823f 379c 933f 8116 753f
00000060: 82e9 953f c031 6b3f 2f80 3f3f aeb5 593f
00000070: c8ee 213f 68f0 8d3f dad5 833f 4430 8c3f
00000080: 5607 853f 1d8c 743f ee1f 933f b059 8a3f
00000090: 3a00 7c3f 0f8c 6a3f d58e 3e3f 187a 883f
000000a0: b26d 6e3f afc3 923f 1fa5 853f d5c6 733f
000000b0: 44b9 7d3f 908e 333f 5192 a33f df74 813f
000000c0: 93d8 7e3f af2b 943f 121a 973f 8a83 3b3f
000000d0: 9b73 8a3f 793e 793f 34dd 393f 5f59 883f
000000e0: db58 833f 0b67 663f 561d 763f ee3d 3c3f
000000f0: 0dad 9d3f e0a7 823f dab5 843f 023f 263f
00000100: 4be4 7b3f e5d5 2b3f 17ec 8a3f 55b2 733f
00000110: fef4 8a3f 524d 803f cc1e 8e3f 7a60 963f
00000120: 664f 803f b353 8a3f 720d 843f 1e61 913f
00000130: c3a1 793f 3dd0 8c3f 7e21 933f 5535 753f
00000140: 2c24 753f 4ba5 913f 6db9 a63f 3da0 983f
00000150: 00c6 923f b714 8c3f 356c a73f 49ca 753f
00000160: d80c 803f 7bdd 8e3f 999e 733f 30d0 7f3f
00000170: 8721 223f 4496 923f ade1 8d3f 7084 8e3f
00000180: 7bf0 7b3f bd2a 7a3f 549c 7c3f c679 a43f
00000190: 6787 903f bc96 493f 2116 7c3f f134 403f
000001a0: cf1e 943f ce2c 863f df8a 893f 1ed3 8a3f
000001b0: 2696 6c3f 6aef 843f c0f8 403f 0823 543f
000001c0: 0798 9b3f db6a 443f 2e94 873f 48a3 913f
000001d0: 7904 5e3f db01 a63f 3f35 833f 4086 8c3f
000001e0: de0d 733f 9155 833f b43e a03f 19f4 a33f
000001f0: 8344 313f 4d07 883f 096c 773f 5aef 673f
00000200: 250d 833f 8aba 333f 8ec1 7d3f 80d4 a33f
00000210: 951f 833f 3f1a 643f 50c8 3b3f 5767 4a3f
00000220: b3a6 673f 3cc2 833f d5b6 433f 2396 813f
00000230: 4f3e 893f 1067 7f3f f5b4 573f 3de0 6a3f
00000240: 1a8e 8b3f 8424 403f 51ff 7b3f 45a1 703f
00000250: d1a9 733f 65bd 803f 221e 8a3f c472 3b3f
00000260: b3d3 a33f 702f 1c3f 8f9b 3a3f 7421 873f
00000270: 9288 863f e839 903f 4d29 973f 14dc 503f
00000280: 1176 793f 3afc 683f 3575 803f b8ff 803f
00000290: c553 753f 4e7c 2c3f d7ee 463f 4050 8f3f
000002a0: 459d 873f 9f6b 9e3f 212b 7f3f 29d5 5c3f
000002b0: 928f 663f d174 663f 61ad a33f 1a54 6c3f
000002c0: e7bc 693f 4f25 5a3f 856c 843f 25c4 883f
000002d0: 6b6b 813f f356 5d3f ee1e a73f 35d6 853f
000002e0: ed40 6f3f a74b 8d3f 8230 753f efba 703f
000002f0: d045 813f c1df 983f 4781 6d3f 2900 a83f
00000300: c933 8e3f 6b55 813f 1d0d 683f d2e1 303f
00000310: 189d 6b3f 7d25 813f 044d 423f 2495 803f
00000320: 6cad 963f 369c 8d3f 9b73 b03f feed 733f
00000330: f8e8 b03f ebf7 a23f 2873 953f 5647 533f
00000340: f176 923f 3483 6c3f e9bb a23f 6488 643f
00000350: e58d 8e3f 0c11 863f e564 a43f e613 6d3f
00000360: 95cf 853f 1e80 a63f 71fe 803f dc36 773f
00000370: 1c2c a43f 4caf 973f 0ea7 8b3f 4eaf 833f
00000380: b566 993f a9bc 913f e594 753f aca1 3a3f
00000390: ce3b 863f da79 443f 3328 853f c1cd 8e3f
000003a0: f270 963f f6bc 6f3f 4f0b 343f 4e09 803f
000003b0: 657f 863f 2937 3c3f 2bce 953f f8a4 843f
000003c0: 9684 2f3f 9c89 903f b1bf 8b3f 766f 543f
000003d0: b361 843f 813f 973f e1f9 af3f a3cc a93f
000003e0: df3f 623f c005 983f d7e4 733f f099 813f
000003f0: 32b0 873f d798 8e3f 5a46 8b3f f2c1 8e3f

ln2.bias f4 [256]
0.08516043 -0.14035466 0.037546027 -0.08614081 -0.33504483 0.071278445 -0.039595418 -0.0077729444
-0.12901385 -0.23127165 0.024877947 -0.21703167 -0.06039826 -0.21232368 -0.038809 0.05745286
-0.11705905 -0.16983019 0.09890273 0.1195681 -0.04111636 -0.058066804 -0.008157616 -0.08531176
0.050478842 -0.27286008 -0.13877001 -0.15531297 -0.25328398 -0.021324374 -0.24700038 -0.0429862
-0.068275474 -0.021200892 0.013997805 -0.13967736 -0.13156497 -0.21649943 -0.1716191 0.0026493657
-0.16037188 -0.05373108 0.05400315 0.02599624 -0.009501562 -0.24784893 0.13558497 -0.049102724
-0.07885172 -0.09587547 -0.08127715 -0.26941386 0.03969081 -0.17028727 -0.17381813 -0.11473624
-0.10509192 -0.14022717 -0.13730265 0.0049812957 -0.03247658 0.009088237 -0.12013405 -0.24882206
-0.16539432 -0.32609245 -0.052205376 -0.15359925 -0.08845695 0.01704074 0.022012047 5.70416e-05
-0.056188643 -0.059290513 -0.090759985 -0.022851638 -0.18965945 0.079067215 -0.029004356 -0.0688441
-0.1509315 -0.018164035 0.06647115 -0.049042948 0.01774701 -0.01120678 -0.012682006 -0.045558523
-0.009947004 -0.0067593968 -0.112590894 -0.11874938 -0.3247403 0.10364798 -0.10594455 -0.097185895
-0.20485324 -0.17782992 -0.16097215 0.036202095 0.016743435 -0.19263208 -0.059007388 -0.18897046
0.059194088 -0.04145081 -0.07674135 0.005547308 -0.098371126 -0.10991866 -0.0683214 -0.15809776
0.009063496 -0.22656576 0.05099086 -0.07569448 -0.20669103 0.10083637 -0.03138586 0.04033102
-0.029039374 -0.088189825 0.028188962 -0.0007037948 -0.30111074 0.10294599 -0.15837756 -0.2415259
-0.039085783 -0.28760678 -0.23475787 0.117603846 -0.19987021 0.033457812 -0.25483423 -0.2535025
-0.10354837 -0.114889495 -0.18777987 -0.13863596 -0.022070313 -0.13700333 -0.16635643 -0.045814667
-0.037581015 -0.13404812 -0.1362205 -0.1626856 -0.13351312 -0.061176337 -0.011688916 -0.2921325
0.096511856 -0.309095 -0.3314525 0.032840196 -0.06989149 0.042778112 0.060090087 -0.273599
-0.04189441 -0.19520205 -0.09854195 0.0039996915 -0.09001988 -0.24018884 -0.35572958 -0.11081565
-0.027840255 -0.0674685 -0.14089788 -0.1359039 0.052870277 -0.08212744 0.13566457 -0.1255937
-0.038679127 -0.29546526 -0.10677283 -0.07222914 -0.13197523 -0.087294266 0.008070645 -0.044645235
-0.15124913 0.06359097 -0.07502006 -0.049388602 -0.13719043 0.12851277 -0.08538222 0.1147056
0.009838363 -0.052043326 -0.18281275 -0.25622407 -0.19629698 -0.07452463 -0.104493484 -0.12202624
0.10447135 0.051054176 0.1556641 -0.14171718 0.12620991 0.12522937 -0.020316446 -0.1387
0.052368984 -0.14235574 0.02890145 -0.10881365 0.040425744 -0.05939513 0.13517393 0.011164292
-0.09923345 0.12988515 -0.12967594 -0.028197935 -0.011436333 -0.030761182 -0.073625706 -0.090030305
0.060493365 0.050410114 -0.15589906 -0.2680192 -0.08996016 -0.15989168 -0.07980649 -0.06879661
-0.006169821 -0.012366104 -0.23324947 -0.03092408 -0.09311299 -0.2785483 0.1200575 0.04700332
-0.22757062 0.03548107 -0.15412481 -0.27203107 -0.06388086 0.037043374 0.1699364 0.0024712102
-0.21871318 0.055139173 -0.06842295 0.06967616 -0.07139682 -0.00035275507 -0.07068329 -0.10802226
00000000: 9768 ae3d 22b9 0fbe ddc9 193d 986a b0bd
00000010: ff8a abbe 6ffa 913d ce2e 22bd 2fb4 febb
00000020: 351c 04be 7ad2 6cbe d6cc cb3c 8d3d 5ebe
00000030: 2a64 77bd 616b 59be 30f6 1ebd b153 6b3d
00000040: a8bc efbd f7e7 2dbe 848d ca3d 1fe0 f43d
00000050: a169 28bd 75d7 6dbd 85a7 05bc efb7 aebd
00000060: e7c2 4e3d 51b4 8bbe ba19 0ebe 5d0a 1fbe
00000070: 70ae 81be 74b0 aebc abed 7cbe 4c12 30bd
00000080: 03d4 8bbd 7ead adbc 0d57 653c 9507 0fbe
00000090: f8b8 06be 07b2 5dbe ebbc 2fbe fba0 2d3b
000000a0: 8738 24be 1f15 5cbd 6832 5d3d 11f6 d43c
000000b0: 71ac 1bbc 1ccc 7dbe c9d6 0a3e f01f 49bd
000000c0: 037d a1bd 5c5a c4bd a274 a6bd 9df0 89be
000000d0: d592 223d c95f 2ebe 61fd 31be d5fa eabd
000000e0: 6f3a d7bd b697 0fbe 1199 0cbe 233a a33b
000000f0: 2a06 05bd d4e6 143c d708 f6bd 36cb 7ebe
00000100: 215d 29be 97f5 a6be 4ed5 55bd 1f49 1dbe
00000110: eb28 b5bd 0699 8b3c 9c52 b43c f43f 6f38
00000120: 1026 66bd 9cda 72bd 5fe0 b9bd 5c33 bbbc
00000130: 1636 42be feed a13d 8b9a edbc 23fe 8cbd
00000140: ca8d 1abe becc 94bc 0722 883d 42e1 48bd
00000150: 2d62 913c a49c 37bc 30c8 4fbc 939b 3abd
00000160: c2f8 22bc ee7d ddbb 0e96 e6bd e032 f3bd
00000170: 5c44 a6be 6445 d43d 75f9 d8bd 6609 c7bd
00000180: 0cc5 51be 0c19 36be e2d5 24be a648 143d
00000190: 8729 893c 5841 45be bbb1 71bd 7981 41be
000001a0: 8075 723d 53c8 29bd 922a 9dbd 31c6 b53b
000001b0: cd76 c9bd 091d e1bd 17ec 8bbd 61e4 21be
000001c0: 0f7f 143c db00 68be cbdb 503d b505 9bbd
000001d0: d0a6 53be 4c83 ce3d 768e 00bd 2432 253d
000001e0: fbe3 edbc de9c b4bd 8aec e63c df7e 38ba
000001f0: 302b 9abe 59d5 d23d ba2d 22be 9152 77be
00000200: 6a18 20bd 3241 93be 5e64 70be 49da f03d
00000210: c7aa 4cbe 0f0b 093d a279 82be 14cb 81be
00000220: 2b11 d4bd 2f4b ebbd 5e49 40be 96f6 0dbe
00000230: cdcc b4bc 9a4a 0cbe 5759 2abe 29a8 3bbd
00000240: 8dee 19bd e943 09be 637d 0bbe 0e97 26be
00000250: aab7 08be 0a94 7abd de82 3fbc 6492 95be
00000260: 02a8 c53d b341 9ebe 24b4 a9be 7183 063d
00000270: 4523 8fbd 1a38 2f3d 0621 763d 2b15 8cbe
00000280: 7999 2bbd 0ce3 47be 5dd0 c9bd d80f 833b
00000290: 585c b8bd 10f4 75be 3022 b6be 51f3 e2bd
000002a0: 3f11 e4bc ed2c 8abd 8947 10be 642a 0bbe
000002b0: 818e 583d 6e32 a8bd a7eb 0a3e a39b 00be
000002c0: 016e 1ebd 3947 97be b7ab dabd dfec 93bd
000002d0: 8424 07be 56c7 b2bd bd3a 043c ecdd 36bd
000002e0: 0de1 1abe fc3b 823d 1ea4 99bd b44b 4abd
000002f0: a67b 0cbe da98 033e e0dc aebd c5ea ea3d
00000300: 1631 213c 622b 55bd 4433 3bbe cd2f 83be
00000310: 1302 49be 5fa0 98bd ae00 d6bd e5e8 f9bd
00000320: 13f5 d53d 2f1e 513d 6966 1f3e 4f1e 11be
00000330: 2c3d 013e 213c 003e ad6e a6bc 5f07 0ebe
00000340: dc80 563d b4c5 11be bcc2 ec3c b1d9 debd
00000350: 7795 253d 4f48 73bd 096b 0a3e 6fea 363c
00000360: e83a cbbd 9d00 053e c5c9 04be 5bff e6bc
00000370: 755f 3bbc e0fe fbbc 13c9 96bd cf61 b8bd
00000380: e4c7 773d d67a 4e3d 01a4 1fbe d039 89be
00000390: 083d b8bd a5ba 23be 9671 a3bd 3de5 8cbd
000003a0: 362c cabb 339b 4abc f3d8 6ebe 7f54 fdbc
000003b0: 06b2 bebd e29d 8ebe b5e0 f53d 8e86 403d
000003c0: 4608 69be 9954 113d e5d2 1dbe a847 8bbe
000003d0: f8d3 82bd cbba 173d cf03 2e3e 07f4 213b
000003e0: 59f6 5fbe 9dd9 613d 5521 8cbd 60b2 8e3d
000003f0: 7f38 92bd fcf1 b8b9 67c2 90bd c63a ddbd
