groupe24/model.pth (torch, 22729 bytes, 4 tensors)

linear1.weight f4 [256, 16]
0	0xbe82534a	-0.2545417
1	0xbd412ece	-0.047163777
2	0x3e484dc7	0.1956092
3	0x3f11ab6d	0.569022
4	0xbdc46150	-0.095888734
5	0xbeba0ab4	-0.3633629
6	0xbe89293b	-0.2678927
7	0x3e6afc5e	0.22947833
8	0xbe184595	-0.14870293
9	0xbf275a14	-0.65371823
10	0xbf281168	-0.6565156
11	0xbe1d77e8	-0.15377772
12	0x3e12a5ed	0.14321108
13	0x3d208dfb	0.039197903
14	0x3e004734	0.12527162
15	0xbedb3be7	-0.4281914
16	0xbe9278eb	-0.28607878
17	0x3f7bfb5a	0.9843041
18	0xbec1d459	-0.3785732
19	0x3d983a9e	0.07433055
20	0xbe2ca55d	-0.16859956
21	0x3e22dd6f	0.15904783
22	0x3e327ac4	0.17429644
23	0xbdfda0ef	-0.12384211
24	0xbe5469d6	-0.20743498
25	0xbc6b767e	-0.014371512
26	0x3e1ea83f	0.15493868
27	0xbd9470f7	-0.07248109
28	0x3e1e81b7	0.1547917
29	0x3e5fdb4f	0.21861003
30	0xbd573b70	-0.05254692
31	0xbdac5ad5	-0.08415762
32	0x3f6015e7	0.8753342
33	0x3e1804be	0.14845559
34	0xbf25942d	-0.64679223
35	0xbea20164	-0.31641686
36	0x3e48ef5a	0.19622555
37	0x3e5eb9d2	0.21750572
38	0x3d8192ec	0.06326851
39	0x3e7ca192	0.24671009
40	0x3e55e8b2	0.20889547
41	0xbdc147a2	-0.09437491
42	0xbdf7c39d	-0.12097857
43	0xbba92170	-0.0051614568
44	0x3e117dd4	0.14208156
45	0x3dd96573	0.10615053
46	0x3e681a7f	0.22666357
47	0x3eaa62d7	0.33278534
48	0xbef5b39f	-0.47988603
49	0x3f4c7f27	0.7988152
50	0x3e7ce457	0.2469648
51	0xbda2b689	-0.07944972
52	0xbd5b7a19	-0.05358324
53	0xbe413380	-0.18867302
54	0xbec9d36f	-0.39419124
55	0xbd1a6d48	-0.037701875
56	0xbe54d43e	-0.20784089
57	0xbe3ecf1f	-0.18633698
58	0xbe410aba	-0.18851748
59	0x3c245316	0.010029575
60	0x3db6afc5	0.08920244
61	0x3e3d899b	0.18509524
62	0x3e62b992	0.22141102
63	0x3eb45ae5	0.35225597
64	0xbdafa2b3	-0.08575954
65	0x3f8ed039	1.1157295
66	0xbf2cae68	-0.6745362
67	0xbbe119ee	-0.006869546
68	0xbcafec8d	-0.0214751
69	0xbd9b6d0b	-0.07589158
70	0xbcc93b9c	-0.024564557
71	0xbd49d70b	-0.049277347
72	0x3d7d971f	0.0619117
73	0xbe1d4726	-0.15359172
74	0xbd70bf67	-0.058776285
75	0xbc0d2341	-0.008614362
76	0x3cd86797	0.026416583
77	0x3dbc487d	0.091935135
78	0x3dac4df9	0.084133096
79	0xbdd2cc3a	-0.102928594
80	0xbeafe545	-0.34354606
81	0x3ed3cca1	0.41367057
82	0xbe34cf66	-0.17657241
83	0x3ee76663	0.45195302
84	0xbd326ffd	-0.04356383
85	0x3ec3de9a	0.3825577
86	0x3e7bde8b	0.24596612
87	0xbdf02cf6	-0.117273256
88	0xbee24a47	-0.44197294
89	0xbd4f8586	-0.050664447
90	0xbdcbe023	-0.0995486
91	0xbec22884	-0.37921536
92	0x3d8815a5	0.06644753
93	0x3ddf02f1	0.10889233
94	0x3d954775	0.0728902
95	0x3ea6b13e	0.325571
96	0xbbf48d69	-0.0074631465
97	0xbdb29323	-0.0871947
98	0xbd8677ac	-0.06565794
99	0xbde3413e	-0.11096428
100	0x3e061e7f	0.13097571
101	0x3f3a889b	0.72864693
102	0x3e474ef6	0.19463715
103	0xbee44d16	-0.44590062
104	0xbef23f9f	-0.47314164
105	0xbd7c418f	-0.06158596
106	0x3d38c3f2	0.045108743
107	0xbe8042ed	-0.2505106
108	0xbf0a9c1e	-0.54144466
109	0x3df110c2	0.117707744
110	0x3eadfe28	0.33982968
111	0xbdf13792	-0.11778177
112	0xbe4328b4	-0.19058496
113	0xbee8f4ae	-0.45499176
114	0x3d0198fd	0.03164004
115	0xbe0efb82	-0.1396313
116	0x3e78cf75	0.24297889
117	0x3d71d86b	0.059044283
118	0x3f007a83	0.5018694
119	0xbf147a05	-0.5799869
120	0x3dbf39da	0.09337206
121	0x3d5819a1	0.052758817
122	0xbdb86741	-0.09004069
123	0x3e4cb3f9	0.19990529
124	0xbeabe9ad	-0.33576718
125	0x3d150195	0.036378462
126	0xbdcf0001	-0.101074226
127	0x3dadf93f	0.084948055
128	0x3e400364	0.18751293
129	0x3fa87025	1.3159224
130	0xbef56b8d	-0.47933617
131	0xbe7f0c7b	-0.24907105
132	0xbe008bc1	-0.12553312
133	0x3a8a3d15	0.0010546768
134	0xbdeeebc2	-0.11666061
135	0x3e29f046	0.16595563
136	0xba6e1185	-0.000908159
137	0x3dbba7ae	0.09162842
138	0x3e95d954	0.2926737
139	0xbe505d49	-0.20348085
140	0xbe0ab2b6	-0.13544735
141	0x3e3cbf9c	0.18432468
142	0x3daddace	0.08488999
143	0xbe0e96d8	-0.1392473
144	0xbedb69bf	-0.42854115
145	0x3f3ba6d1	0.73301417
146	0x3edb8cc0	0.4288082
147	0xbe12ca1c	-0.14334911
148	0xbe67e559	-0.22646083
149	0xbe861890	-0.26190615
150	0x3e5b17d6	0.21395811
151	0x3d804f29	0.062650986
152	0xbec1780d	-0.37786904
153	0xbcd450a7	-0.025917364
154	0x3e1b6821	0.15176441
155	0xbe6727de	-0.22573802
156	0xbed05522	-0.4068995
157	0xbdcf6eec	-0.101285785
158	0xbd8be816	-0.06831376
159	0x3dcbc4f2	0.09949674
160	0xbebe7850	-0.37201166
161	0x3e1706ea	0.14748731
162	0x3cf4753f	0.029841064
163	0xbf283924	-0.6571219
164	0xbf21435c	-0.6299341
165	0x3f0c02a3	0.54691523
166	0x3e81da68	0.25361943
167	0xbf3e44ac	-0.74323535
168	0xbf46de0f	-0.77682585
169	0x3dcc9340	0.09989023
170	0x3e4c457c	0.19948381
171	0xbe0f7237	-0.14008413
172	0xbe04f8b3	-0.12985496
173	0x3e2c3fc1	0.16821195
174	0x3e5eaadf	0.2174487
175	0x3d8491e3	0.06473138
176	0x3f019220	0.50613594
177	0xbf3b2df6	-0.73117006
178	0x3fa30a4b	1.2737516
179	0xbd2e5be9	-0.04256812
180	0xbe8ef979	-0.27924708
181	0xbdfd97f6	-0.123825
182	0xbeb9d682	-0.3629647
183	0xbe7ea230	-0.24866557
184	0x3d66b765	0.056327242
185	0xbdb9d5f8	-0.090740144
186	0xbdd7c771	-0.10536087
187	0x3d62a730	0.055335224
188	0xbd5f44f9	-0.054509137
189	0xbc756967	-0.014978743
190	0x3e04d76c	0.12972802
191	0x3ef207a6	0.4727146
192	0xbe8fcca3	-0.28085813
193	0xbca1839c	-0.019716077
194	0xbe90f254	-0.28309882
195	0xbd577811	-0.05260474
196	0x3ee3b7a3	0.4447604
197	0x3e270e31	0.16314007
198	0x3f04fa3a	0.51944315
199	0xbeee647d	-0.4656104
200	0xbe0e1af3	-0.13877468
201	0x3cc90f2f	0.024543373
202	0xbea55d08	-0.3229754
203	0xbd206b90	-0.03916508
204	0xbf0266db	-0.50938195
205	0xbdad7642	-0.084698215
206	0x3e19447c	0.14967531
207	0x3e84dd3d	0.2595004
208	0x3e4a0809	0.19729628
209	0x3e3257c6	0.17416295
210	0x3f905f57	1.1279095
211	0xbe671276	-0.22565636
212	0xbe541f15	-0.20714982
213	0xbecc8070	-0.3994174
214	0x3e393045	0.1808482
215	0xbd91c114	-0.07116905
216	0xbea8832e	-0.32912582
217	0xbe8f8992	-0.28034645
218	0x3d01bc43	0.03167368
219	0x3e402e74	0.1876772
220	0xbd01adba	-0.03165982
221	0x3d92d562	0.07169606
222	0x3e1aaad3	0.15104227
223	0x3d08c67d	0.03339242
224	0x3f73b9e4	0.9520552
225	0xbf00e725	-0.503527
226	0xbf15047d	-0.58209974
227	0x3e6ceb6c	0.23136681
228	0x3d94c922	0.072649255
229	0xbd01aa93	-0.031656813
230	0x3e305996	0.17221674
231	0x3e02cf52	0.12774399
232	0x3e7f772c	0.24947804
233	0x3e2285aa	0.15871301
234	0x3e234395	0.15943749
235	0x3bbbb107	0.0057278904
236	0xbda25385	-0.07926086
237	0x3cb77ecf	0.022399334
238	0x3e4f1f13	0.20226698
239	0x3e33a904	0.17544943
240	0xbdb52eea	-0.08846839
241	0x3f93678e	1.1515977
242	0xbee480a8	-0.44629407
243	0x3d91e4d6	0.07123725
244	0xbe07553d	-0.1321611
245	0x3caf6323	0.021409577
246	0xbdd1210f	-0.102113836
247	0xbe2dc507	-0.16969691
248	0xbdc9ba04	-0.09849933
249	0xbe86916b	-0.2628282
250	0xbdb82e17	-0.08993166
251	0x3c377028	0.011196174
252	0x3c501c40	0.012702048
253	0x3e000190	0.12500596
254	0xbd56f166	-0.05247631
255	0xbe06d7cd	-0.13168259

linear1.bias f4 [256]
0	0xbe01ad28	-0.1266371
1	0x3e5e7221	0.21723224
2	0xbde789df	-0.11305594
3	0xbd9fe07a	-0.078064874
4	0xbe24ed6e	-0.16106197
5	0x3f1db213	0.61599845
6	0x3d8ae4ea	0.06781943
7	0x3ecd4b00	0.40096283
8	0xbe1653df	-0.14680432
9	0x3b1b6f91	0.0023717622
10	0x3e8af418	0.27139354
11	0x3dc36564	0.09540823
12	0x3eda2c45	0.426119
13	0xbcf92ac9	-0.03041591
14	0x3db692dc	0.0891473
15	0xbd7f4243	-0.06231905
16	0xbe0caed7	-0.13738571
17	0xbe16ca7e	-0.14725682
18	0xbdcba64c	-0.09943828
19	0xbe44c675	-0.1921633
20	0x3bd53c0b	0.006507402
21	0xbd5e5f47	-0.054290082
22	0xbd2dba14	-0.042413786
23	0x3e778b01	0.2417412
24	0x3e4ee34e	0.20203897
25	0x3d754a36	0.059885226
26	0x3eb717b3	0.3576027
27	0xbe5a3912	-0.21310833
28	0x3f9cc1e8	1.2246675
29	0xbe9c2c36	-0.3050248
30	0xbeb239b2	-0.34809643
31	0xbde71ea3	-0.1128514
32	0xbdf838a1	-0.12120176
33	0xbbdddaad	-0.006770453
34	0xbee2fdcb	-0.44334254
35	0x3deb830a	0.11499603
36	0xbd39b5d3	-0.045339417
37	0xbdff2130	-0.12457502
38	0xbcb45009	-0.02201082
39	0xbd9837c0	-0.074325085
40	0xbeb19b56	-0.34688824
41	0xbd00e2cc	-0.03146629
42	0x3eeff53b	0.46866783
43	0xbe9534c6	-0.29141825
44	0x3ee2f8e6	0.4433052
45	0x3f29c4f2	0.6631614
46	0xbe61dea5	-0.22057588
47	0xbe0db4f0	-0.13838553
48	0x3e08d646	0.13362989
49	0xbdc9bc7a	-0.09850402
50	0x3f5e2ab2	0.867839
51	0xbde30d59	-0.1108653
52	0xbefc97fa	-0.493347
53	0x3e5fb083	0.21844678
54	0xbc193f8f	-0.009353532
55	0xbe23f5dc	-0.16011757
56	0x3edf5992	0.43623024
57	0xbe5aeb93	-0.21378927
58	0xbed01ad9	-0.40645483
59	0x3f0b09b9	0.5431171
60	0x3dc86205	0.09784321
61	0x3e6042a0	0.21900415
62	0x3e05a6e9	0.13051952
63	0xbe61afd0	-0.22039723
64	0xbea767b0	-0.32696295
65	0x3dd5142d	0.10404239
66	0xbe8da953	-0.27668247
67	0xbe873621	-0.26408485
68	0xbe2ccbaa	-0.16874567
69	0xbc48857f	-0.012238859
70	0x3df79b1b	0.12090131
71	0x3e98d324	0.29848588
72	0x3dcf3407	0.10117345
73	0x3e3105d2	0.17287377
74	0xbd9c21c5	-0.076236285
75	0xbe2b5378	-0.1673106
76	0x3e6ae356	0.22938284
77	0xbed21c1f	-0.4103708
78	0xbe473d5d	-0.19457002
79	0xbeb0e668	-0.34550786
80	0xbe84c576	-0.259319
81	0xbe62c3d6	-0.22145018
82	0xbc8fd30f	-0.017556695
83	0xbe027b2e	-0.12742302
84	0x3eaf0b31	0.34188226
85	0xbe417e83	-0.18895917
86	0xbe7105dc	-0.23537391
87	0x3dc2a072	0.09503259
88	0x3cd8bd19	0.026457356
89	0xbe88c45c	-0.2671231
90	0x3b8da629	0.0043227863
91	0x3ece5bcf	0.4030442
92	0xbc8147cf	-0.015781311
93	0xbeb3ebcc	-0.35140836
94	0xbe8c7b9d	-0.2743806
95	0xbdbbd098	-0.091706455
96	0xbe79cdda	-0.24394932
97	0x3f2f3af5	0.68449336
98	0xbea46858	-0.32110858
99	0xbea7e08c	-0.32788503
100	0x3c41177f	0.011785387
101	0x3f79a779	0.9752117
102	0xbe31c3ab	-0.17359798
103	0xbe3a5b84	-0.18198973
104	0x3ca59762	0.020213787
105	0xbe591aa1	-0.21201564
106	0xbe160510	-0.14650369
107	0x3c303a05	0.01075602
108	0x3c6f412d	0.014602941
109	0x3eb193bc	0.34683025
110	0x3ec46312	0.38356835
111	0xbb2c6ba9	-0.0026309288
112	0x3f9bea91	1.2180959
113	0xbdd45c5b	-0.10369178
114	0x3e86ab07	0.26302359
115	0xbe4e4885	-0.20144852
116	0xbe2c7fb6	-0.16845593
117	0x3e8372f3	0.25673637
118	0xbdb1f8c6	-0.08690028
119	0xbe136d5b	-0.14397185
120	0xbe2d0b40	-0.16898823
121	0xbdf31b52	-0.11870445
122	0xbbe00735	-0.0068367966
123	0x3ea229bc	0.31672466
124	0x3e98c020	0.2983408
125	0x3d31eb05	0.043437023
126	0x3eeefed9	0.46678808
127	0xbeae9f0c	-0.34105718
128	0xbd883185	-0.0665007
129	0xbd560d9b	-0.05225907
130	0xbe8a8fc1	-0.270628
131	0xbe8c2e45	-0.2737905
132	0x3de509e2	0.111835256
133	0x3f4605f0	0.7735281
134	0x3e35fa9d	0.17771383
135	0xbda87fe9	-0.08227522
136	0xbda98d3e	-0.08278893
137	0xbeb04f75	-0.3443562
138	0xbe214b3d	-0.15751357
139	0xbe2eb6ff	-0.17061995
140	0xbc69fb50	-0.014281109
141	0xbe00249b	-0.12513964
142	0xbe8217a5	-0.25408664
143	0xbe96c38f	-0.29446074
144	0xbd651938	-0.055932254
145	0xbe55ff05	-0.20898063
146	0xbe9f96f3	-0.31169853
147	0x3e0b2e40	0.13591862
148	0x3d9641d0	0.073367715
149	0xbe75e720	-0.24013948
150	0xbed6ad53	-0.4192911
151	0x3d96a611	0.073558934
152	0x3e737f96	0.23779139
153	0x3ee2e9f3	0.44319114
154	0xbef8fe34	-0.48631442
155	0xbeac071c	-0.33599174
156	0x3ed86b2b	0.42269263
157	0x3c94d8d9	0.018169807
158	0xbe6fdd8b	-0.23424356
159	0xbe89bb85	-0.2690088
160	0x3c448c2d	0.011996311
161	0xbd86f7da	-0.06590243
162	0xbe0c36ce	-0.13692781
163	0x3f1075c0	0.5642967
164	0x3eeeea27	0.4666302
165	0xbda13cd1	-0.07872928
166	0xbd679ab4	-0.05654402
167	0xbe23d6b8	-0.15999877
168	0x3ee1b4ef	0.44083354
169	0x3e419982	0.18906215
170	0x3d3959c3	0.04525162
171	0xbcddcd6e	-0.027075496
172	0xbe5c5950	-0.21518445
173	0xbda78fc6	-0.081817195
174	0xbe4d0b75	-0.20023902
175	0xbd9231bb	-0.071383916
176	0x3f50e229	0.81595093
177	0xbd04a656	-0.032385193
178	0x3ebc208b	0.36743578
179	0xbd7e2e37	-0.062055793
180	0xbdd1ff06	-0.1025372
181	0xbeec73ac	-0.46182
182	0xbeab4ad9	-0.33455542
183	0x3f0dcc35	0.5538972
184	0xbe10ed15	-0.1415294
185	0x3dce5d81	0.10076428
186	0xbe0056c1	-0.12533094
187	0x3adde91d	0.0016930435
188	0xbc1225ca	-0.008920142
189	0xbdd99927	-0.106249146
190	0x3def5788	0.11686617
191	0xbea81786	-0.32830447
192	0xbe9083c7	-0.28225538
193	0xbdaf7121	-0.085664995
194	0xbcf8163b	-0.030284038
195	0x3f14f6ab	0.58188885
196	0x3d927fd2	0.07153286
197	0x3eda6e4b	0.42662272
198	0xbd52354b	-0.051320355
199	0x3dfef033	0.12448158
200	0x3e4da5fe	0.20082852
201	0xbe3454b4	-0.17610437
202	0x3f878433	1.0587219
203	0x3e3d5679	0.18490018
204	0x3ebb0820	0.36529636
205	0xbd2e7d13	-0.04259975
206	0x3dbbc9b7	0.091693334
207	0xbeaa94d7	-0.3331668
208	0xbdd559ef	-0.10417544
209	0x3e8f1287	0.27943823
210	0xbe0b2987	-0.1359006
211	0xbc73d34c	-0.01488192
212	0xbd1a8439	-0.037723754
213	0x3e4da6c2	0.20083144
214	0x3f89feab	1.0780843
215	0x3bfc3e08	0.0076978244
216	0x3ef46cdf	0.47739312
217	0x3f996d20	1.1986427
218	0xbd9146d9	-0.07093591
219	0xbe53c24e	-0.2067959
220	0xbd856807	-0.06513982
221	0xbd9e5d62	-0.07732655
222	0xbe2c1853	-0.16806154
223	0x3f15c03b	0.58496445
224	0xbe7ac96a	-0.24490896
225	0x3d373535	0.044728477
226	0x3e038ed3	0.12847452
227	0xbe1a2224	-0.15052086
228	0xbe7a355c	-0.24434417
229	0xbeca2bc9	-0.3948653
230	0xbe7455d6	-0.23860869
231	0x3faa781b	1.3317903
232	0xbcd6f182	-0.026238207
233	0x3e1e6dc3	0.15471558
234	0xbe8aa078	-0.27075553
235	0x3ea30d5b	0.31846127
236	0x3f7dd269	0.99149185
237	0x3f54ee94	0.8317654
238	0x3d61460e	0.05499845
239	0xbe2a0af6	-0.16605744
240	0x3e92baf2	0.28658253
241	0xbcfd0dfd	-0.03089046
242	0xbe9fbf4a	-0.3120063
243	0xbd409682	-0.047018535
244	0xbe72a579	-0.23695935
245	0xbe32fe2b	-0.1747977
246	0x3d0434cf	0.032276925
247	0xbe3e1f8b	-0.1856672
248	0x3e093b6c	0.13401574
249	0xbef119f7	-0.47090122
250	0x3daf57e1	0.085616834
251	0xbcf273f3	-0.029596305
252	0xbe946e7a	-0.28990537
253	0xbe7fb1b1	-0.24970128
254	0xbebf8307	-0.37404653
255	0xbd84cc20	-0.06484246

linear2.weight f4 [3, 256]
0	0x3eef5937	0.46747753
1	0x3e025a03	0.12729649
2	0xbe0a762a	-0.13521639
3	0x3ddc6130	0.107607245
4	0x3c4c18c1	0.012457074
5	0x3ed3e068	0.41382146
6	0x3edfa830	0.43683004
7	0x3ea67f06	0.32518786
8	0xbdcdf68a	-0.10056789
9	0x3d8d76b2	0.06907405
10	0x3f6549b1	0.8956557
11	0xbdcd74e2	-0.10032059
12	0x3ec50a04	0.38484204
13	0xbc300d57	-0.010745368
14	0xbe0853cf	-0.1331322
15	0x3d113e7e	0.035459988
16	0x3e01e250	0.12683988
17	0xbea25a74	-0.31709635
18	0x3e96b185	0.29432312
19	0x3d5f9a59	0.054590557
20	0x3d0ed805	0.03487398
21	0x3e3aeb68	0.18253863
22	0x3eb59e62	0.354724
23	0x3e344f3a	0.17608348
24	0xbda9fbc4	-0.082999736
25	0xbe44d948	-0.19223511
26	0x3e98d104	0.29846966
27	0xbe552f34	-0.20818788
28	0x3eb89aa3	0.36055478
29	0x3c378431	0.0112009505
30	0xbe0bad21	-0.13640262
31	0x3c0a236f	0.0084313
32	0xbe71e507	-0.23622523
33	0x3e9e1473	0.30874977
34	0xbe07c989	-0.13260473
35	0x3d5b07af	0.053474125
36	0x3dcaefea	0.09909041
37	0xbea68c0d	-0.32528725
38	0x3f01674f	0.5054826
39	0xbf1f21f7	-0.621612
40	0x3ba8bba3	0.005149321
41	0xbd3a3db2	-0.045468993
42	0x3f0e73b6	0.5564531
43	0x3c9501b0	0.018189281
44	0x3dcb307a	0.099213555
45	0x3ee71bd7	0.45138428
46	0xbde6c012	-0.11267103
47	0xbe24d962	-0.1609855
48	0x3e24555c	0.16048187
49	0xbf064cb9	-0.5246082
50	0x3ebc4414	0.3677069
51	0x3dc9c1e0	0.09851432
52	0xbea86218	-0.3288734
53	0x3e94d2c5	0.29067054
54	0xbe90641e	-0.28201383
55	0x3cc829ab	0.024433931
56	0x3e3cb9ff	0.18430327
57	0xbe3da15f	-0.1851859
58	0xbe2b4eff	-0.16729353
59	0x3e489afe	0.19590375
60	0x3e7bd6fc	0.24593729
61	0x3e01014d	0.12598152
62	0x3e24e9b1	0.16104771
63	0x3cc5b527	0.024134232
64	0xbd163084	-0.03666736
65	0x3e430591	0.19045092
66	0x3db5b6c6	0.08872752
67	0xbddf1f55	-0.10894648
68	0x3ccaf72f	0.02477607
69	0xbeb27f6c	-0.3486284
70	0x3dfba929	0.12288124
71	0x3eaec246	0.34132594
72	0xbe6e426f	-0.2326753
73	0x3e8ec5db	0.27885327
74	0xbc863ec3	-0.016387349
75	0xbd94cbe9	-0.07265455
76	0xbd92d24d	-0.07169018
77	0x3cf40b28	0.029790476
78	0xbf18e47c	-0.5972364
79	0xbddd2553	-0.10798135
80	0xbcbacb23	-0.022801941
81	0xbc79ce90	-0.015247002
82	0x3ecd0921	0.40046027
83	0x3e7a28b9	0.24429597
84	0x3f4bf35f	0.7966823
85	0xbe182e07	-0.14861308
86	0xbeb899cd	-0.3605484
87	0x3e7181a8	0.23584616
88	0x3e72267c	0.23647493
89	0xbdaa1dde	-0.08306478
90	0x3eb37985	0.3505365
91	0x3eb6c04e	0.35693592
92	0xbe2d0d71	-0.16899659
93	0xbecef1e9	-0.40418938
94	0x3c8f2ac4	0.017476447
95	0x3f05f36a	0.52324545
96	0x3e2d2a5f	0.16910695
97	0x3e8b634a	0.2722419
98	0xbdef7095	-0.11691395
99	0xbdb604f9	-0.08887667
100	0x3f2c6f39	0.6735721
101	0x3ec82b01	0.3909531
102	0xbf0098e8	-0.50233316
103	0xbbf3f00b	-0.007444387
104	0x3da73c0b	0.08165749
105	0x3d33dd50	0.043912232
106	0x3da63cc3	0.08117058
107	0xbda1d080	-0.07901096
108	0xbf3edf0e	-0.74559104
109	0x3ecb059d	0.3965272
110	0x3e22d4e6	0.15901527
111	0x3e3bc20d	0.18335743
112	0x3ee84881	0.45367816
113	0x3e40240f	0.18763755
114	0x3f6aeecd	0.9177063
115	0x3b05d360	0.0020420179
116	0xbd65ca9f	-0.056101438
117	0x3e9cd2b0	0.30629492
118	0x3e892820	0.26788425
119	0x3ef49b69	0.4777482
120	0x3df69786	0.120406196
121	0x3d738cd8	0.05946049
122	0x3dca10cf	0.09866487
123	0x3e7e312a	0.24823442
124	0x3eb5a684	0.35478604
125	0x3d525be9	0.051357184
126	0x3e924bf7	0.28573582
127	0x3b16af78	0.002299277
128	0xbed20877	-0.41022083
129	0xbb87c4d3	-0.0041433363
130	0x3be1164e	0.006869114
131	0x3bc5e453	0.0060391813
132	0xbc9ac315	-0.01889185
133	0x3e6ca2cf	0.23108982
134	0x3dc63fb1	0.09680117
135	0x3e541840	0.20712376
136	0xbdcb4651	-0.09925521
137	0xbc6b2abb	-0.014353449
138	0xbe86d10f	-0.26331374
139	0xbe019992	-0.12656239
140	0x3dd68f25	0.104765214
141	0xbeab2071	-0.33423188
142	0xbb814308	-0.0039447583
143	0xbe253abf	-0.16135691
144	0xbdc40aa4	-0.09572342
145	0x3d527e20	0.051389813
146	0x3b783342	0.003787235
147	0x3deb7e29	0.114986725
148	0x3e862a25	0.2620403
149	0xbdbdc420	-0.092659235
150	0xbe1898e0	-0.14902067
151	0x3ef7bf84	0.48388302
152	0x3e3fd1f8	0.1873244
153	0x3ebec55e	0.37259954
154	0xbe332149	-0.17493166
155	0x3de3a138	0.111147344
156	0x3ed55946	0.41669673
157	0x3f07414c	0.5283401
158	0xbe584cac	-0.21122998
159	0x3d106d1f	0.035260316
160	0xbf83152d	-1.0240837
161	0x3d8a3f2d	0.06750331
162	0x3d135322	0.035967954
163	0x3ec4ad8a	0.3841365
164	0x3dffe36c	0.12494549
165	0xbecb2226	-0.3967449
166	0x3db44d51	0.088038094
167	0xbb84c07a	-0.0040512653
168	0x3e91660e	0.28398174
169	0x3ea7dfe4	0.32788002
170	0xbf24a67a	-0.64316523
171	0xbe16eaf5	-0.14738066
172	0xbe08e620	-0.13369036
173	0xbef73185	-0.48279968
174	0xbe85dcd6	-0.26145047
175	0x3ebbe1d6	0.36695737
176	0x3ec04401	0.37551883
177	0x3e29d5a6	0.16585407
178	0x3e2e4ee3	0.1702228
179	0x3d266c80	0.040630817
180	0x3dcc99c7	0.09990268
181	0xbcf88028	-0.030334547
182	0xbac77715	-0.0015217984
183	0x3e5e2ac4	0.21696001
184	0x3e82c580	0.25541306
185	0xbde229c3	-0.11043122
186	0xbe70c40b	-0.23512284
187	0xbe94cae9	-0.29061058
188	0xbdc5a6e1	-0.0965097
189	0xbd4d47d8	-0.050117344
190	0xbf5b90d2	-0.85767853
191	0xbe688e3b	-0.22710507
192	0x3c9d0dea	0.019171674
193	0xbe33957e	-0.17537495
194	0x3d670116	0.05639752
195	0x3edc6944	0.4304906
196	0x3e089687	0.13338672
197	0x3e86aca8	0.263036
198	0x3e698095	0.22802956
199	0xbd3f2fc5	-0.046676416
200	0x3f379089	0.7170492
201	0x3d9485e9	0.07252104
202	0x3e9eda0c	0.31025732
203	0x3d6da978	0.058022946
204	0x3ea627fe	0.32452387
205	0x3e86007e	0.2617225
206	0x3e4ba9e0	0.19889021
207	0xbcbb8848	-0.022892132
208	0xbf377091	-0.7165614
209	0x3eb9b0cc	0.36267698
210	0xbe3f4765	-0.18679579
211	0x3e6b510a	0.22980133
212	0xbf0dc67d	-0.55380994
213	0x3e82a66e	0.255176
214	0x3ef260c5	0.47339454
215	0xbee43b4b	-0.44576487
216	0x3e9a8ab9	0.30183962
217	0x3edec83c	0.43512142
218	0x3f177504	0.59162927
219	0x3e2e8331	0.17042233
220	0xbc3d283b	-0.011545236
221	0x3e8b417f	0.27198407
222	0xbe885567	-0.26627657
223	0x3eb9812c	0.36231363
224	0xbc3873e4	-0.011258099
225	0x3d87a16c	0.06622586
226	0x3e8dab84	0.2766992
227	0xbcf3e0db	-0.029770305
228	0xbcf9bc2f	-0.03048524
229	0xbe2effd2	-0.17089775
230	0xbeb15492	-0.34634835
231	0x3ee8d69f	0.45476243
232	0x3e2f2c87	0.1710683
233	0x3ed1fd20	0.41013432
234	0xbce257b5	-0.027629713
235	0x3e1e4a15	0.15457948
236	0x3ea8dfd5	0.3298327
237	0x3e84882c	0.2588514
238	0xbcd1042a	-0.02551468
239	0xbe3dc441	-0.18531896
240	0x3e82ac7c	0.2552222
241	0x3c8fcd47	0.017553939
242	0xbb82791e	-0.0039817235
243	0x3e9045c3	0.28178224
244	0xbde29ea8	-0.110654175
245	0x3e5b43c6	0.21412572
246	0x3e971a1d	0.2951211
247	0xbb57b57d	-0.0032914572
248	0x3e4e3420	0.20137072
249	0xbe75968c	-0.2398321
250	0x3e3cbf77	0.18432413
251	0x3d919299	0.071080394
252	0x3c8bc2bd	0.017060632
253	0xbd8f27c2	-0.06990005
254	0xba0d09ae	-0.00053801655
255	0x3a4dfd18	0.00078578433

linear2.bias f4 [3]
0	0x3e7eef6c	0.2489602
1	0x3e000751	0.12502791
2	0x3d3a8213	0.045534205
