groupe24/model.pth (torch, 22793 bytes, 4 tensors)

linear1.weight f4 [256, 16]
-0.29374874 -0.07919963 0.14464645 0.54333967 -0.039716728 -0.41635114 -0.3118119 0.25634766
-0.26180834 -0.62259 -0.6525528 -0.15148827 0.115771085 -0.020106688 0.16036507 -0.5059251
-0.38242283 0.9908407 -0.41874036 0.04978838 -0.20286523 0.14190839 0.09947496 -0.1345745
-0.26050213 -0.044428118 0.13283567 -0.017129483 0.1196338 0.17061853 -0.048220422 -0.08852711
1.0097413 0.13555142 -0.6394311 -0.30338413 0.21091527 0.21302222 0.0149599 0.28503853
0.15023747 -0.08824214 -0.17573251 0.020932432 0.16504921 0.07745446 0.24386255 0.24264216
-0.5645096 0.8238739 0.114901796 -0.21406405 -0.08890539 -0.21814322 -0.42982534 -0.14533964
-0.29158252 -0.34540394 -0.2085581 -0.097708024 -0.010526458 0.109460816 0.11559696 0.29565364
-0.1370085 1.1558063 -0.6456435 -0.10267639 0.18116488 -0.09965531 -0.06816242 -0.0022229915
0.09702456 -0.15164624 -0.10024599 0.06351523 0.052023545 0.069542855 0.12405624 -0.12609386
-0.40384978 0.41313276 -0.21902709 0.48079044 -0.079701595 0.38140306 0.22070342 -0.12781905
-0.5502987 -0.04187093 -0.110489264 -0.39061657 0.00850564 0.0829492 0.055021048 0.358246
0.05031228 -0.029502386 0.072886124 -0.11096428 0.17284852 0.7252552 0.19664118 -0.5353598
-0.5083618 -0.034226168 0.07203539 -0.1257642 -0.564037 0.1691103 0.35462606 -0.024438936
-0.24412459 -0.44596508 -0.028884083 -0.10396204 0.22513129 0.0913432 0.46083656 -0.61071336
0.023918781 -0.037016183 -0.070219934 0.20137474 -0.35398278 0.050404817 -0.108978726 0.07960934
0.14942871 1.3437334 -0.633054 -0.19281144 -0.12529238 0.024979765 -0.17823404 0.12442635
0.12740162 0.081521355 0.3745533 -0.19433467 -0.0274265 0.14380755 0.09925853 -0.1293386
-0.38281107 0.711078 0.4230899 -0.21169904 -0.25767267 -0.26739118 0.1769899 0.02774303
-0.41868562 -0.09280892 0.21627387 -0.28367016 -0.39945146 -0.12710206 -0.067341276 0.10742691
-0.31114852 0.18094188 0.030597549 -0.72977436 -0.6639884 0.5359742 0.25808328 -0.74338436
-0.887652 0.09819118 0.21127553 -0.1873017 -0.17818175 0.1685059 0.18431824 0.102108605
0.4404054 -0.816272 1.4029404 0.014524116 -0.30587062 -0.12270397 -0.32609347 -0.12195222
0.08161445 -0.07889422 -0.044398256 -0.0029910041 -0.0046243165 -0.026894642 0.13037144 0.41912457
-0.31863424 0.09442997 -0.30799833 -0.19710898 0.45356008 0.21173014 0.4506106 -0.48133028
-0.2501843 -0.04397254 -0.33134657 -0.05397949 -0.5266392 -0.15818237 0.18193287 0.32894194
0.17380454 0.06944268 1.0759041 -0.45545572 -0.36377776 -0.5011856 0.20189576 -0.021279253
-0.47243527 -0.3171635 -0.013468004 0.13011996 -0.03804902 0.06469003 0.052620057 -0.035707053
1.0667377 -0.48012087 -0.57985145 0.24774876 0.10855989 -0.029484931 0.14942718 0.14597021
0.18020387 0.17231163 0.15529475 -0.004205892 -0.05674095 0.035863254 0.19348189 0.13614109
-0.06071472 1.1739835 -0.40590805 -0.016362851 -0.028854717 -0.013880096 -0.14593206 -0.1620027
-0.083433524 -0.23441072 -0.12424587 0.019225404 -0.020186108 0.07236509 -0.02865672 -0.10363002
00000000: 3c66 96be 6a33 a2bd 331e 143e 4f18 0b3f
00000010: 02ae 22bd fa2b d5be cfa5 9fbe 0040 833e
00000020: be0b 86be 0f62 1fbf b30d 27bf be1f 1bbe
00000030: 6419 ed3d c8b6 a4bc be36 243e 4f84 01bf
00000040: edcc c3be bca7 7d3f 2365 d6be e6ee 4b3d
00000050: e7bb 4fbe 6f50 113e 87b9 cb3d e6cd 09be
00000060: 8960 85be 42fa 35bd 1306 083e 2153 8cbc
00000070: 9102 f53d a0b6 2e3e c782 45bd b44d b5bd
00000080: 343f 813f fecd 0a3e c2b1 23bf 2a55 9bbe
00000090: 2cfa 573e 7f22 5a3e 5e1a 753c 92f0 913e
000000a0: dad7 193e 4cb8 b4bd 39f3 33be 7e7a ab3c
000000b0: a902 293e 72a0 9e3d 1bb7 793e 3077 783e
000000c0: b383 10bf 66e9 523f a251 eb3d 9b33 5bbe
000000d0: 0714 b6bd f060 5fbe 1112 dcbe ead3 14be
000000e0: 4e4a 95be c9d8 b0be 4190 55be 251b c8bd
000000f0: 2a77 2cbc fe2c e03d 19be ec3d ea5f 973e
00000100: f54b 0cbe 76f1 933f e448 25bf 0048 d2bd
00000110: 4983 393e 1518 ccbd bd98 8bbd 9caf 11bb
00000120: d0b4 c63d 2749 1bbe c54d cdbd 4614 823d
00000130: a416 553d 7c6c 8e3d 3311 fe3d c01e 01be
00000140: 66c5 cebe 2386 d33e a348 60be 2a2a f63e
00000150: 973a a3bd 4347 c33e 1400 623e ffe2 02be
00000160: 60e0 0cbf da80 2bbd 3248 e2bd e5fe c7be
00000170: 3d5b 0b3c 45e1 a93d c05d 613d 056c b73e
00000180: 4014 4e3d fdae f1bc 5245 953d 3e41 e3bd
00000190: 34ff 303e 53aa 393f 4e5c 493e 570d 09bf
000001a0: 0024 02bf bd30 0cbd 4a87 933d 55c8 00be
000001b0: bb64 10bf 402b 2d3e 8c91 b53e 2a34 c8bc
000001c0: ccfb 79be 8955 e4be 509e ecbc 0dea d4bd
000001d0: d188 663e 2512 bb3d c5f2 eb3e b657 1cbf
000001e0: 52f1 c33c 489e 17bd 78cf 8fbd 2e35 4e3e
000001f0: 3b3d b5be 4875 4e3d 3d30 dfbd 390a a33d
00000200: d703 193e 75ff ab3f d40f 22bf 5d70 45be
00000210: a54c 00be 5da2 cc3c fc82 36be 3ed3 fe3d
00000220: 9275 023e abf4 a63d 73c5 bf3e abff 46be
00000230: 8aad e0bc 4942 133e 0e48 cb3d 5771 04be
00000240: d0ff c3be 3509 363f 3d9f d83e a2c7 58be
00000250: aced 83be 7fe7 88be d73c 353e 5a45 e33c
00000260: f65d d6be 9a12 bebd e676 5d3e 373d 91be
00000270: e784 ccbe 0b27 02be 39ea 89bd a402 dc3d
00000280: dc4e 9fbe d448 393e b6a7 fa3c 7ed2 3abf
00000290: 25fb 29bf 9b35 093f 7e23 843e 704e 3ebf
000002a0: 293d 63bf 7518 c93d 9d58 583e 04cc 3fbe
000002b0: 4775 36be d08c 2c3e ecbd 3c3e 511e d13d
000002c0: d17c e13e 34f7 50bf 8d93 b33f 8ff6 6d3c
000002d0: 139b 9cbe 384c fbbd b9f5 a6be 16c2 f9bd
000002e0: 7a25 a73d 4b93 a1bd f2da 35bd b904 44bb
000002f0: 9487 97bb 2752 dcbc 1780 053e 7f97 d63e
00000300: 0724 a3be 8064 c13d f5b1 9dbe f0d6 49be
00000310: 0739 e83e c9cf 583e 6fb6 e63e ec70 f6be
00000320: 2818 80be 8d1c 34bd 42a6 a9be 9919 5dbd
00000330: d4d1 06bf 8ffa 21be 9c4c 3a3e 146b a83e
00000340: d1f9 313e f737 8e3d 3ab7 893f 7e31 e9be
00000350: 1441 babe b34d 00bf c3bd 4e3e d451 aebc
00000360: 09e3 f1be 4163 a2be e7a8 5cbc 2b3e 053e
00000370: 4ad9 1bbd 357c 843d 2188 573d 8f41 12bd
00000380: dc8a 883f 67d2 f5be 2571 14bf dab1 7d3e
00000390: a654 de3d 628a f1bc 7003 193e 3779 153e
000003a0: 5d87 383e 7672 303e 9605 1f3e 94d1 89bb
000003b0: 3369 68bd 59e5 123d 1e20 463e 9268 0b3e
000003c0: 00b0 78bd 1745 963f 2ed3 cfbe 630b 86bc
000003d0: ba60 ecbc 5869 63bc 376f 15be 09e4 25be
000003e0: 32df aabd 5d09 70be 9e74 febd 987e 9d3c
000003f0: 565d a5bc 2634 943d 7fc1 eabc fa3b d4bd

linear1.bias f4 [256]
-0.14297517 0.17226447 -0.1536584 -0.16952734 -0.10817646 0.5686652 0.103483595 0.3642602
-0.10213839 -0.020599071 0.25987074 0.124111906 0.38680854 -0.04024237 0.08593765 -0.07724214
-0.15813 -0.16064776 -0.17612545 -0.2721657 0.019427907 -0.07682716 -0.024047934 0.22296917
0.19899058 0.049279872 0.36403477 -0.34952056 1.3447951 -0.3050248 -0.26755968 -0.039904512
-0.11528847 -0.024413561 -0.4386423 0.12923814 -0.010384629 -0.1503631 -0.023799898 -0.06583951
-0.3541924 -0.10197014 0.48678517 -0.29141825 0.39101577 0.6156348 -0.19921592 -0.085114606
0.1880912 -0.07952331 0.9298016 -0.17491852 -0.493347 0.18943791 -0.0404706 -0.16011757
0.41556522 -0.13595994 -0.52294075 0.56921643 0.053549636 0.17820646 0.14671753 -0.197441
-0.42616543 0.12008922 -0.25292933 -0.32308412 -0.16874567 -0.05689067 0.12337456 0.30704948
0.086028054 0.13453685 -0.05213871 -0.1673106 0.20697425 -0.38995275 -0.13568553 -0.36287344
-0.259319 -0.22145018 -0.04196149 -0.22261903 0.3469446 -0.21007153 -0.12798984 0.072327375
0.021426408 -0.2787896 -0.02799768 0.39774692 -0.035248615 -0.30957684 -0.2743806 -0.11827885
-0.2039348 0.76259166 -0.41930464 -0.45044413 0.08743699 1.044787 -0.080922425 -0.2923094
-0.023824653 -0.27300683 -0.22445336 0.009201069 0.013162859 0.34501484 0.34196678 -0.0057462454
1.3000153 -0.07360763 0.35791126 -0.28602496 -0.11535362 0.17983747 -0.16842966 -0.1629038
-0.15848619 -0.1131592 -0.060333554 0.25913528 0.33909443 0.0596633 0.4861948 -0.34105718
-0.05676468 -0.05225907 -0.3378349 -0.2737905 0.06688886 0.7986122 0.1491398 -0.032070916
-0.064721614 -0.3443562 -0.23507184 -0.22021773 -0.062962994 -0.15938155 -0.25408664 -0.3276911
-0.1599936 -0.2715371 -0.319487 0.0014140124 0.06853651 -0.22680728 -0.4255483 0.040318605
0.22345461 0.3713889 -0.5336599 -0.42142567 0.46906576 0.027347347 -0.20068374 -0.2690088
0.052036505 -0.14731845 -0.1847288 0.5422 0.45012587 -0.06173502 -0.021292452 -0.18822677
0.4773277 0.13395187 0.004378589 -0.033796143 -0.16888757 -0.09216415 -0.22476874 -0.07969397
0.85608727 -0.1372924 0.32950372 -0.18324213 -0.113501966 -0.46182 -0.33455542 0.59306395
-0.15515259 0.06665817 -0.19910976 0.06836956 -0.08753179 -0.13790451 0.13925211 -0.3313543
-0.28225538 -0.09509047 -0.05905825 0.5796136 0.07233237 0.47453693 -0.111127414 0.10219258
0.17823957 -0.18902995 1.2083406 0.22089256 0.38380766 -0.034207445 0.029243933 -0.3331668
-0.09815002 0.28312624 -0.10359607 -0.09473118 -0.08564049 0.2188121 1.168754 0.028600117
0.44891232 1.2857828 -0.018485244 -0.23251 -0.06513982 -0.0811519 -0.1691791 0.6349892
-0.24490896 -0.0035271375 0.08220797 -0.21820247 -0.28574952 -0.43249395 -0.25922832 1.4830308
0.03886163 0.10837781 -0.27075553 0.2386365 1.1033359 0.85267544 0.11046162 -0.17032716
0.21946807 0.00053392467 -0.3120063 -0.0524496 -0.24050595 -0.22658846 0.03488447 -0.14228715
0.072383404 -0.4799553 0.017270321 -0.087312765 -0.28990537 -0.2892048 -0.37404653 -0.06804578
00000000: 1568 12be 1966 303e a158 1dbe 9398 2dbe
00000010: 9f8b ddbd 0b94 113f 35ef d33d 5080 ba3e
00000020: ef2d d1bd 62bf a8bc c70d 853e 622e fe3d
00000030: c50b c63e 2fd5 24bd 1400 b03d 2131 9ebd
00000040: d5ec 21be d980 24be 3b5a 34be 4d59 8bbe
00000050: 4627 9f3c 8f57 9dbd 2c00 c5bc 0852 643e
00000060: 30c4 4b3e b1d9 493d c462 ba3e 5cf4 b2be
00000070: 3f22 ac3f 362c 9cbe 95fd 88be ea72 23bd
00000080: 5d1c ecbd f3fe c7bc b995 e0be 0157 043e
00000090: 4a24 2abc c9f8 19be 01f8 c2bc ddd6 86bd
000000a0: b558 b5be b9d5 d0bd e83b f93e c634 95be
000000b0: 3833 c83e 3e9a 1d3f 42ff 4bbe 9150 aebd
000000c0: fb9a 403e 1edd a2bd 7a07 6e3f d71d 33be
000000d0: fa97 fcbe 03fc 413e 80c4 25bd dcf5 23be
000000e0: f7c4 d43e 1539 0bbe 72df 05bf 2bb8 113f
000000f0: dd56 5b3d c17b 363e 1f3d 163e f92d 4abe
00000100: 5b32 dabe 56f1 f53d f47f 81be 486b a5be
00000110: aacb 2cbe 3106 69bd cdab fc3d 9735 9d3e
00000120: 7a2f b03d 07c4 093e 668f 55bd 7853 2bbe
00000130: 0ff1 533e e3a7 c7be 26f1 0abe 8cca b9be
00000140: 76c5 84be d6c3 62be d0df 2bbd 3ef6 63be
00000150: b9a2 b13e fe1c 57be c50f 03be 6020 943d
00000160: 6f86 af3c 83bd 8ebe 645b e5bc 7ca5 cb3e
00000170: da60 10bd db80 9ebe 9d7b 8cbe 2f3c f2bd
00000180: 49d4 50be 3539 433f 19af d6be 9da0 e6be
00000190: 2a12 b33d 95bb 853f a8ba a5bd 94a9 95be
000001a0: eb2b c3bc 8dc7 8bbe 1ad7 65be 15c0 163c
000001b0: 08a9 573c c9a5 b03e 4516 af3e 004b bcbb
000001c0: e766 a63f 99bf 96bd 2540 b73e dd71 92be
000001d0: 853e ecbd 5027 383e d378 2cbe 41d0 26be
000001e0: 344a 22be 03c0 e7bd 5120 77bd 61ad 843e
000001f0: c99d ad3e 8161 743d 86ee f83e 0c9f aebe
00000200: 1582 68bd 9b0d 56bd b2f8 acbe 452e 8cbe
00000210: 07fd 883d d971 4c3f 1bb8 183e cb5c 03bd
00000220: c48c 84bd 754f b0be acb6 70be c280 61be
00000230: bef2 80bd eb34 23be a517 82be 21c7 a7be
00000240: 5dd5 23be e906 8bbe cd93 a3be 6256 b93a
00000250: df5c 8c3d 2b40 68be 77e1 d9be 1f25 253d
00000260: 49d1 643e b026 be3e ef9d 08bf 1bc5 d7be
00000270: 6329 f03e 8b07 e03c 0a80 4dbe 85bb 89be
00000280: 3b24 553d a6da 16be 8c29 3dbe 9fcd 0a3f
00000290: e676 e63e dcdd 7cbd 826d aebc 85be 40be
000002a0: 4c64 f43e ae2a 093e 447a 8f3b d36d 0abd
000002b0: ddf0 2cbe 8fc0 bcbd c729 66be 9836 a3bd
000002c0: 8928 5b3f 6196 0cbe b6b4 a83e d3a3 3bbe
000002d0: b873 e8bd ac73 ecbe d94a abbe 0ad3 173f
000002e0: 52e0 1ebe 1484 883d 6ee3 4bbe 5705 8c3d
000002f0: de43 b3bd d736 0dbe 1b98 0e3e 45a7 a9be
00000300: c783 90be cbbe c2bd 10e7 71bd 8f61 143f
00000310: fe22 943d 81f6 f23e c596 e3bd 584a d13d
00000320: 6f84 363e 1191 41be e8aa 9a3f a931 623e
00000330: 7082 c43e 1b1d 0cbd f990 ef3c d794 aabe
00000340: e102 c9bd ecf5 903e 2d2a d4bd 6c02 c2bd
00000350: 4864 afbd 4710 603e bb99 953f cb4a ea3c
00000360: d6d7 e53e 8894 a43f 5e6e 97bc 1a17 6ebe
00000370: 0768 85bd f832 a6bd 493d 2dbe a78e 223f
00000380: 6ac9 7abe 8c27 67bb a75c a83d 7870 5fbe
00000390: c34d 92be d96f ddbe 93b9 84be f4d3 bd3f
000003a0: 5f2d 1f3d 2ff5 dd3d 78a0 8abe 205d 743e
000003b0: 1c3a 8d3f f048 5a3f b439 e23d 3e6a 2ebe
000003c0: 3dbc 603e 14f7 0b3a 4abf 9fbe 64d5 56bd
000003d0: 3147 76be ce06 68be 05e3 0e3d b9b3 11be
000003e0: c03d 943d b3bc f5be 7d7a 8d3c 09d1 b2bd
000003f0: 7a6e 94be a712 94be 0783 bfbe 965b 8bbd

linear2.weight f4 [3, 256]
0.41027823 0.12627023 -0.1659856 0.15206763 0.01414368 0.41933432 0.4277067 0.3182334
-0.10256643 0.09712064 0.9259212 -0.059332475 0.37408444 0.014961691 -0.14663556 0.03311787
0.1535084 -0.3339163 0.24340096 0.0364765 -0.018674735 0.18571433 0.32582274 0.1683809
-0.09189272 -0.1983742 0.30604318 -0.20730923 0.3602194 0.0112009505 -0.09816483 0.036647737
-0.20232567 0.30976704 -0.13836789 0.106341854 0.10399717 -0.32660273 0.49067044 -0.67334473
0.07800544 -0.0029820497 0.50312483 0.018189281 0.08706122 0.44206 -0.10043958 -0.1589782
0.15864836 -0.52374494 0.37695226 0.073060654 -0.3288734 0.2617753 -0.3032193 0.024433931
0.18929689 -0.19113208 -0.07072666 0.19865589 0.18040809 0.07425258 0.14262831 0.06064363
0.0010528226 0.18853901 0.07696102 -0.11037401 0.02477607 -0.3112002 0.10383476 0.3262397
-0.37687033 0.3175093 0.017758023 -0.07265455 -0.081623346 0.10687043 -0.7068142 -0.088500574
-0.022801941 -0.015247002 0.38951468 0.23739421 0.76238745 -0.15697016 -0.5602592 0.23887704
0.25205594 -0.2164481 0.37764022 0.34227642 -0.12325839 -0.4641173 0.017476447 0.45840037
0.2016446 0.2886482 -0.061840408 0.016729092 0.67719674 0.4036966 -0.6113748 -0.0002245464
0.13912642 0.028711889 0.11215206 -0.05968896 -0.732102 0.38041344 0.21820894 0.11712222
0.47324306 0.16282758 0.8778724 0.025049739 -0.009097917 0.26054487 0.22664715 0.4254601
0.12098932 0.11672331 0.12928982 0.23438078 0.33707747 0.071018875 0.30537435 0.002299277
-0.43478978 -0.0041433363 0.095590204 0.0060391813 -0.007827344 0.24948324 0.12346365 0.21839726
-0.07959744 -0.014353449 -0.20235382 -0.116726905 0.08954094 -0.41293654 -0.0039447583 -0.16206454
-0.120108545 -0.005522643 -0.02380199 0.08977405 0.28525764 -0.083826385 -0.13759503 0.44539198
0.22815132 0.383597 -0.15697166 0.16717331 0.3993256 0.59274966 -0.25796828 0.035260316
-1.0090259 0.057460316 0.062527254 0.3742623 0.11759285 -0.4240794 0.0739154 -0.031181963
0.3085103 0.3385657 -0.6294036 -0.15622763 -0.080557026 -0.5152232 -0.22648829 0.34907186
0.38939875 0.0466049 0.17133407 0.019871537 0.09813793 -0.030334547 -0.0015217984 0.2291076
0.20301391 -0.120818734 -0.37396058 -0.24060784 -0.076122046 -0.041476097 -0.84906745 -0.23571715
0.019171674 -0.19044964 0.054027654 0.4385313 0.18151693 0.26785073 0.24846181 -0.05601911
0.7231998 0.083623394 0.3221083 0.034434497 0.29016975 0.34239623 0.16411567 -0.022892132
-0.67382663 0.2911208 -0.16856036 0.14419948 -0.4854291 0.19507885 0.48278946 -0.38508758
0.23693608 0.45412692 0.56979865 0.17957196 -0.011545236 0.34369385 -0.2546717 0.3855607
-0.011258099 0.069354504 0.18972431 0.006893078 0.05880554 -0.100682355 -0.27686378 0.47372296
0.23110463 0.43929785 -0.027629713 0.12514532 0.3358585 0.25920802 0.03485652 -0.25244173
0.26249382 0.04188805 -0.0039817235 0.28484172 -0.034336276 0.14686738 0.30628562 0.022969306
0.23653817 -0.22880374 0.22697385 0.022279408 0.017060632 -0.08682961 -0.00053801655 0.07999758
00000000: fd0f d23e fc4c 013e 21f8 29be 9eb7 1b3e
00000010: e5ba 673c fdb2 d63e 5ffc da3e 7def a23e
00000020: 590e d2bd 30e7 c63d 2c09 6d3f 9c06 73bd
00000030: ff87 bf3e e121 753c a227 16be 9ba6 073d
00000040: 4e31 1d3e 14f7 aabe 1a3e 793e 6268 153d
00000050: c2fb 98bc e62b 3e3e 3dd2 a63e 0b6c 2c3e
00000060: 4032 bcbd 9b22 4bbe b1b1 9c3e df48 54be
00000070: ad6e b83e 3184 373c a40a c9bd f01b 163d
00000080: 762e 4fbe c999 9e3e 50b0 0dbe c2c9 d93d
00000090: 78fc d43d 7938 a7be 2839 fb3e 5260 2cbf
000000a0: 51c1 9f3d 7e6e 43bb cacc 003f b001 953c
000000b0: 274d b23d b055 e23e 44b3 cdbd 2ecb 22be
000000c0: b774 223e 2614 06bf e3ff c03e d3a0 953d
000000d0: 1862 a8be 6a07 863e 8f3f 9bbe ab29 c83c
000000e0: 0bd7 413e 21b8 43be 24d9 90bd 736c 4b3e
000000f0: e6bc 383e bd11 983d 280d 123e 7465 783d
00000100: ddfe 893a 5f10 413e bd9d 9d3d c50b e2bd
00000110: 2ff7 ca3c a255 9fbe 52a7 d43d e408 a73e
00000120: 26f5 c0be 9490 a23e 4679 913c e9cb 94bd
00000130: 242a a7bd e2de da3d c7f1 34bf ca3f b5bd
00000140: 23cb babc 90ce 79bc 786e c73e 7817 733e
00000150: d32b 433f c9bc 20be 266d 0fbf 2f9c 743e
00000160: 7a0d 813e 92a4 5dbe 0f5a c13e db3e af3e
00000170: e56e fcbd c8a0 edbe c42a 8f3c 74b3 ea3e
00000180: ec7b 4e3e b2c9 933e 5e4c 7dbd 730b 893c
00000190: c45c 2d3f 52b1 ce3e 0f83 1cbf 3774 6bb9
000001a0: 2877 0e3e 3235 eb3c fbaf e53d 697c 74bd
000001b0: 096b 3bbf 8dc5 c23e 2a72 5f3e c6dd ef3d
000001c0: ea4c f23e 46bc 263e 3fbc 603f 1c35 cd3c
000001d0: 6e0f 15bc 2366 853e 3116 683e e8d5 d93e
000001e0: 40c9 f73d a10c ef3d 8d64 043e 8401 703e
000001f0: 6b95 ac3e 5872 913d 075a 9c3e 78af 163b
00000200: c49c debe d3c4 87bb ccc4 c33d 53e4 c53b
00000210: 433e 00bc 8978 7f3e 83da fc3d 88a3 5f3e
00000220: fc03 a3bd bb2a 6bbc d735 4fbe 840e efbd
00000230: 3e61 b73d 6b6c d3be 0843 81bb 3ff4 25be
00000240: 78fb f5bd 4af7 b4bb 64fc c2bc 75db b73d
00000250: 4a0d 923e 2bad abbd b6e5 0cbe 6b0a e43e
00000260: 80a0 693e d366 c43e 2ebd 20be 7b2f 2b3e
00000270: 6874 cc3e 71be 173f 6b14 84be 1f6d 103d
00000280: c327 81bf 825b 6b3d 4a0e 803d 4f9f bf3e
00000290: 85d4 f03d ef20 d9be f560 973d 5171 ffbc
000002a0: 10f5 9d3e 7c58 ad3e 9820 21bf 23fa 1fbe
000002b0: 15fb a4bd abe5 03bf 8cec 67be 8cb9 b23e
000002c0: 465f c73e c8e4 3e3d 3372 2f3e a2c9 a23c
000002d0: 8afc c83d 2880 f8bc 1577 c7ba 2f9b 6a3e
000002e0: e1e2 4f3e d06f f7bd c377 bfbe e761 76be
000002f0: e0e5 9bbd d7e2 29bd 7c5c 59bf d65f 71be
00000300: ea0d 9d3c 3b05 43be 1a4c 5d3d 2d87 e03e
00000310: 93df 393e bb23 893e c66c 7e3e 4b74 65bd
00000320: 9f23 393f be42 ab3d 61eb a43e 300b 0d3d
00000330: 2191 943e 8f4e af3e f00d 283e 4888 bbbc
00000340: e77f 2cbf c90d 953e 169b 2cbe 07a9 133e
00000350: 2a8a f8be c0c2 473e 2e30 f73e 332a c5be
00000360: 5f9f 723e 5383 e83e 53de 113f b6e1 373e
00000370: 3b28 3dbc a4f8 af3e 5464 82be 3668 c53e
00000380: e473 38bc bc09 8e3d 1747 423e 54df e13b
00000390: 14de 703d 8d32 cebd 17c1 8dbe d18b f23e
000003a0: b1a6 6c3e a6eb e03e b557 e2bc 1826 003e
000003b0: a5f5 ab3e eab6 843e b6c5 0e3d 0b40 81be
000003c0: 9765 863e ce92 2b3d 1e79 82bb c6d6 913e
000003d0: 32a4 0cbd 6764 163e 78d1 9c3e 202a bc3c
000003e0: 1037 723e 874b 6abe d56b 683e 4e83 b63c
000003f0: bdc2 8b3c b9d3 b1bd ae09 0dba c5d5 a33d

linear2.bias f4 [3]
0.25420314 0.14189985 0.039215304
00000000: ea26 823e 324e 113e 3aa0 203d
