groupe15/snake_dqn_final.pth (torch, 843851 bytes, 18 tensors)

fc1.weight f4 [256, 11]
-0.35147223 0.07362203 -0.4030069 0.20313741 0.26055467 0.19128425 0.06529972 0.2531055
0.39291558 -0.2127739 -0.39310923 -0.46866846 0.15952341 -0.6853529 0.3575531 -0.25765216
0.16555975 0.29729068 -0.25442293 -0.361125 -0.30686417 -0.06295211 0.10537071 -0.4969108
0.4435042 -0.14803106 0.09886157 -0.44962627 -0.45400202 -0.09030419 -0.37047783 -0.48451754
-0.40030795 0.013287499 -0.19766642 -0.4660307 -0.32074213 0.18068543 -0.2394712 0.2411632
-0.8945544 -0.45486462 0.2661859 -0.21421583 -0.18582097 -0.07438435 0.759936 -0.35030904
0.55536604 -0.34329787 -0.20672013 -1.0850619 -0.33984435 -0.54145586 0.39339775 0.21117146
-0.4538649 0.6327725 0.14402294 -0.40671888 -0.26132002 0.5405959 -0.05374052 -0.64096284
0.37543163 -0.34345886 -0.6644224 -0.060927212 -0.3165859 -0.3067035 -0.52047217 -0.17717819
-0.028837703 -0.14977024 -0.08111139 0.12930883 0.1263793 0.49277464 -0.41825786 0.3943014
-0.08779718 -0.530549 -0.40660578 0.09635619 0.112868525 -0.47193742 -0.21825589 -0.9915652
-0.3718159 0.23871242 -0.6116887 0.042814966 0.2325146 0.2794433 -0.47866696 0.08662229
-0.27222708 -0.5354552 -0.54320335 -0.46287492 0.72405106 0.3411505 0.019183218 -0.9239374
-0.09552071 -0.13568714 -0.084340364 0.29431316 -0.16111656 0.20724763 -0.13214834 0.63378143
0.48158503 -0.096360296 -0.6321854 -0.056855675 -0.057921045 -0.7403561 0.18279546 -0.18927035
0.34303486 0.81393296 -1.0242445 -0.14926755 -0.10872262 -0.21253428 0.13903528 -0.18557918
-1.0736104 -0.61502266 -0.39689478 0.43089628 -0.09559176 -0.15002948 0.36018848 0.039147347
-0.08621924 -0.5548757 -0.077738024 -0.5585782 -0.7115858 0.0017191571 -0.17956795 0.7832188
-0.68402 -0.13719693 0.10569641 -0.27118337 -0.77919805 0.07172424 0.05941295 -0.36162204
0.12195763 -0.83522356 -0.15551776 -0.41345313 -0.389255 -0.29793558 0.18729463 -0.282257
0.049438044 0.102394946 -0.16126679 -0.39796242 -0.38606465 0.45084903 -0.63054425 -0.895278
0.17238499 0.115533926 0.5068815 -0.27482235 -0.106245995 -0.46235514 -0.38764498 0.16227792
-0.9638056 0.26554674 0.5554044 0.31453016 -0.4840263 -0.61503065 -0.59769404 -0.02084848
0.119958274 0.044364378 -0.53114814 -0.5128703 -0.077264056 0.32354346 -0.5883988 0.39090914
0.10186246 0.53031397 -0.8007387 0.34886706 -0.5701888 -0.20240945 0.491757 -0.3054678
0.21718591 -0.19736886 -0.61051965 0.24121325 0.026246848 0.13910583 0.038913846 -0.0911968
-0.94209766 -0.27428335 0.52404535 0.7823005 0.08624494 -0.60768974 0.5643394 -0.14407541
0.09093662 0.37874138 -0.13400201 0.12829489 -0.9709704 -0.46022946 -0.18306373 0.3571223
0.11245936 0.27626932 -0.066037245 -0.1646035 -0.22746265 0.011744517 0.2089492 -0.5478981
-0.59860516 0.496631 -0.14092775 0.13077335 -0.3225944 0.22799927 0.100133985 -0.66908115
-0.5920745 -0.38464022 0.24192457 0.3505933 -0.7118059 -0.13630475 0.33913213 0.26748025
-0.6407533 -0.049911525 -0.46806213 0.22964396 -0.93729293 0.19699268 0.27312157 0.31162742
00000000: 2bf4 b3be 26c7 963d ec56 cebe 4103 503e
00000010: 6c67 853e 05e0 433e dcbb 853d 0b97 813e
00000020: 3b2c c93e 67e1 59be 9d45 c9be 50f5 efbe
00000030: 1b5a 233e 4a73 2fbf 3311 b73e fcea 83be
00000040: 7f88 293e 7c36 983e b943 82be 60e5 b8be
00000050: 4d1d 9dbe 09ed 80bd 99cc d73d 186b febe
00000060: fc12 e33e 7495 17be ef77 ca3d 6a35 e6be
00000070: f472 e8be 67f1 b8bd 45af bdbe af12 f8be
00000080: 2af5 ccbe cfb3 593c 1169 4abe 939b eebe
00000090: 5038 a4be 9a05 393e f037 75be 7cf3 763e
000000a0: 8401 65bf 04e4 e8be 8549 883e 655b 5bbe
000000b0: da47 3ebe d256 98bd 2a8b 423f b55b b3be
000000c0: 782c 0e3f bdc4 afbe 71ae 53be 4fe3 8abf
000000d0: 1400 aebe da9c 0abf 6e6b c93e 553d 583e
000000e0: fb60 e8be 61fd 213f c07a 133e 753d d0be
000000f0: bdcb 85be 7e64 0a3f 051f 5cbd 2416 24bf
00000100: 9338 c03e d7d9 afbe 9617 2abf d08e 79bd
00000110: 8c17 a2be 3e08 9dbe aa3d 05bf 336e 35be
00000120: 0c3d ecbc 5f5d 19be ba1d a6bd 8969 043e
00000130: 9369 013e f54c fc3e e525 d6be e0e1 c93e
00000140: 02cf b3bd 0fd2 07bf a22e d0be 6556 c53d
00000150: 9d27 e73d c8a1 f1be 797e 5fbe 38d7 7dbf
00000160: a75e bebe 0771 743e a197 1cbf bf5e 2f3d
00000170: 4f18 6e3e 3113 8f3e d613 f5be 0767 b13d
00000180: 5961 8bbe 9813 09bf 600f 0bbf f1fd ecbe
00000190: 695b 393f 47ab ae3e 2026 9d3c 2987 6cbf
000001a0: 5da0 c3bd 92f1 0abe a4ba acbd 37b0 963e
000001b0: bdfb 24be b938 543e e551 07be 803f 223f
000001c0: 5092 f63e 8c58 c5bd e7d6 21bf 7fe1 68bd
000001d0: 9e3e 6dbd fa87 3dbf bc2e 3b3e 16d0 41be
000001e0: 44a2 af3e e95d 503f 721a 83bf 98d9 18be
000001f0: f7a9 debd 96a2 59be 445f 0e3e 7808 3ebe
00000200: 116c 89bf 2072 1dbf cb35 cbbe 709e dc3e
00000210: 9dc5 c3bd 54a1 19be a06a b83e f858 203d
00000220: b793 b0bd 550c 0ebf 1d35 9fbd fbfe 0ebf
00000230: 7d2a 36bf 5755 e13a a9e0 37be 0781 483f
00000240: ef1b 2fbf 5a7d 0cbe 5c77 d83d 8cd8 8abe
00000250: 8679 47bf 29e4 923d fe5a 733d 8626 b9be
00000260: ecc4 f93d 36d1 55bf 0c40 1fbe 21b0 d3be
00000270: 6e4c c7be 038b 98be 2aca 3f3e fd83 90be
00000280: 8c7f 4a3d 71b4 d13d 1f23 25be bbc1 cbbe
00000290: 44aa c5be afd5 e63e 596b 21bf f030 65bf
000002a0: b185 303e 0d9d ec3d fcc2 013f 84b5 8cbe
000002b0: 8097 d9bd d0b9 ecbe 6779 c6be 2f2c 263e
000002c0: f7bb 76bf bef5 873e fc2e 0e3f 190a a13e
000002d0: 4cd2 f7be a672 1dbf 7a02 19bf 6eca aabc
000002e0: afac f53d 6cb7 353d 53f9 07bf 784b 03bf
000002f0: 9e3c 9ebd 7da7 a53e 4ea1 16bf 3e25 c83e
00000300: 449d d03d a8c2 073f 36fd 4cbf b49e b23e
00000310: e5f7 11bf 6c44 4fbe 93c7 fb3e 4766 9cbe
00000320: fc65 5e3e 101b 4abe 044b 1cbf 9b00 773e
00000330: a103 d73c c271 0e3e 2064 1f3d 63c5 babd
00000340: 502d 71bf de6e 8cbe d627 063f d844 483f
00000350: 30a1 b03d 8e91 1bbf 8c78 103f 8188 13be
00000360: fb3c ba3d 64ea c13e d337 09be bc5f 033e
00000370: 8491 78bf 32a3 ebbe 0f75 3bbe bcd8 b63e
00000380: 1851 e63d 2c73 8d3e 893e 87bd d28d 28be
00000390: f8eb 68be 136c 403c c7f6 553e 0d43 0cbf
000003a0: 303e 19bf 6b46 fe3e 5d4f 10be 73e9 053e
000003b0: 182b a5be a478 693e 0c13 cd3d e748 2bbf
000003c0: 3292 17bf 90ef c4be 13bb 773e f780 b33e
000003d0: e938 36bf 7993 0bbe baa2 ad3e 2cf3 883e
000003e0: 6908 24bf 0770 4cbd d7a5 efbe c927 6b3e
000003f0: 6ef2 6fbf 73b8 493e 97d6 8b3e a18d 9f3e

fc1.bias f4 [256]
0.5222402 0.35491455 0.0023838312 0.08469086 -0.07624197 -0.52435976 -0.10162109 0.14376071
0.1655124 -0.2200388 -0.43657413 -0.34380293 -0.4040478 -0.3286192 -0.29413977 0.025010027
-0.30793878 -0.038810898 -0.09255351 -0.46110135 0.54977465 -0.5031586 0.17179963 -0.6483552
-0.5982243 -0.20445453 -0.38028082 0.5724363 -0.4123406 -0.1070158 -0.26423222 -0.047662023
-0.06755967 0.17411983 -0.27897823 0.2189481 0.010755469 0.48772466 0.44701916 -0.5572388
0.1871614 0.07896329 0.45502096 0.18264471 -0.53880626 -0.35882637 -0.41212663 -0.42789552
-0.07149344 -0.33421105 -0.1112192 -0.37020692 -0.047857847 0.13077004 -0.07805445 0.5277412
0.19116424 -0.46529368 -0.33397332 0.669413 0.16520928 -0.3124416 0.570811 0.3126483
-0.59161717 -0.7003914 -0.04778876 -0.21927465 -0.23327026 -0.44901052 0.06385381 -0.2893599
0.45319757 -0.77553827 -0.23781343 0.43460324 -0.09080354 -0.38449174 -0.11963855 -0.4386207
0.2173099 -0.30890968 -0.036587685 -0.604649 -0.18131267 -0.53770584 0.089525 -0.13634697
0.106238104 -0.50012565 -0.38699922 -0.39910576 -0.47119486 0.25182238 -0.01841655 -0.39148864
-0.1521924 -0.1692365 -0.27371085 0.21607661 -0.3265033 0.32189235 -0.017661572 -0.5239543
0.26710692 -0.48282707 0.48553163 -0.49959946 0.5130509 0.12032662 -0.32364792 0.05378883
-0.18328427 0.3409751 -0.5772198 -0.63068974 -0.14719509 -0.29657432 -0.017891198 -0.24561098
0.2739423 -0.25006828 -0.018716646 0.0980002 0.0025070715 -0.23438615 -0.46877992 -0.3071286
-0.52132624 -0.07974199 -0.33904064 -0.049345203 -0.18590018 -0.10053021 -0.6946224 0.531196
-0.0818554 0.011356506 -0.12270516 -0.81612253 -0.012472422 -0.3796948 0.18660353 0.24620599
-0.36132056 -0.53438735 -0.26998273 -0.32024363 -0.20105596 -0.3773561 -0.5095453 0.65577847
-0.65105146 -0.37279382 -0.33452827 -0.4249818 -0.14256543 -0.08016205 -0.07116688 -0.1906746
-0.3334419 0.29347622 -0.08055673 -0.09540215 0.37426743 -0.70813143 0.052553274 -0.3379809
-0.17319548 0.40144533 0.21885638 -0.06139071 0.36769176 -0.11337242 -0.65802604 -0.6014249
0.105033875 -0.3802404 -0.14009477 -0.40692413 -0.08667623 -0.4639021 0.33158514 0.28377816
0.003841222 -0.118080944 0.18438914 -0.05808837 -0.10635812 0.3361969 0.6284362 0.27606225
0.15171042 -0.2923792 -0.40152642 -0.24803452 -0.27955163 0.42605576 -0.5191866 -0.027956955
-0.055493537 -0.15928029 -0.5332314 -0.34842497 -0.19224901 -0.46673298 -0.7987146 0.018849988
-0.38522857 -0.60141784 -0.16765043 -0.4082145 -0.19669716 0.10634797 0.4671662 0.14269367
-0.4795837 -0.025023716 0.08363563 0.33288813 0.16823885 -0.12069044 -0.1320088 -0.14384466
-0.21126318 -0.18901953 -0.6010568 0.25554243 -0.49357447 -0.31590503 0.0944262 -0.13558394
-0.37481377 -0.15218201 -0.25219604 -0.6041313 -0.22871126 -0.15378791 -0.31438428 -0.16068439
-0.033166777 -0.119636185 -0.21846473 -0.46587637 -0.31800014 -0.019816672 -0.3271202 0.6055801
0.13833942 0.5468011 -0.61121327 -0.3019458 -0.11532902 -0.45221734 -0.46926484 -0.12010934
00000000: 89b1 053f 5cb7 b53e 0d3a 1c3b 6772 ad3d
00000010: c024 9cbd 713c 06bf b81e d0bd 0236 133e
00000020: 157c 293e da51 61be a586 dfbe f006 b0be
00000030: 5adf cebe c740 a8be 7d99 96be d4e1 cc3c
00000040: 27aa 9dbe 2df8 1ebd b28c bdbd 7a15 ecbe
00000050: 08be 0c3f 01cf 00bf 3eec 2f3e 9bfa 25bf
00000060: 3a25 19bf 875c 51be 2bb4 c2be 2f8b 123f
00000070: 4f1e d3be 1a2b dbbd 7249 87be 4139 43bd
00000080: b95c 8abd 784c 323e 3cd6 8ebe ee33 603e
00000090: b537 303c 0cb7 f93e b2df e43e 34a7 0ebf
000000a0: 3da7 3f3e 81b7 a13d 82f8 e83e 3707 3b3e
000000b0: 35ef 09bf 17b8 b7be 4302 d3be 1f15 dbbe
000000c0: 276b 92bd b61d abbe e4c6 e3bd c38b bdbe
000000d0: 9706 44bd 95e8 053e 03db 9fbd 0c1a 073f
000000e0: 8fc0 433e f93a eebe 8dfe aabe a65e 2b3f
000000f0: 9f2c 293e 58f8 9fbe ab20 123f 7013 a03e
00000100: 3974 17bf da4c 33bf 26be 43bd 8989 60be
00000110: 66de 6ebe b5e4 e5be c9c5 823d fb26 94be
00000120: 8309 e83e ad89 46bf 5d85 73be 5184 de3e
00000130: 35f7 b9bd 1adc c4be 0e05 f5bd e492 e0be
00000140: 7d86 5e3e 6929 9ebe f8dc 15bd 47ca 1abf
00000150: 07aa 39be 17a7 09bf e258 b73d 8a9e 0bbe
00000160: 5d93 d93d 3c08 00bf c324 c6be 9757 ccbe
00000170: 7440 f1be ddee 803e 4ede 96bc 3371 c8be
00000180: 53d8 1bbe 554c 2dbe d423 8cbe 3043 5d3e
00000190: 712b a7be 13cf a43e 00af 90bc de21 06bf
000001a0: 3dc2 883e 1c35 f7be 9a97 f83e 80cb ffbe
000001b0: 4e57 033f ce6d f63d 2eb5 a5be ad51 5c3d
000001c0: dfae 3bbe 4a94 ae3e adc4 13bf e274 21bf
000001d0: 4fba 16be 97d8 97be 9090 92bc 7281 7bbe
000001e0: 2a42 8c3e f308 80be a753 99bc 54b4 c83d
000001f0: ae4d 243b ec02 70be ec03 f0be f63f 9dbe
00000200: a375 05bf c54f a3bd bc96 adbe 321e 4abd
00000210: 9e5c 3ebe c8e2 cdbd c6d2 31bf 76fc 073f
00000220: cea3 a7bd a310 3a3c d84c fbbd 68ed 50bf
00000230: 2159 4cbc 5b67 c2be ff14 3f3e 6c1d 7c3e
00000240: 02ff b8be 9ccd 08bf 2d3b 8abe f9f6 a3be
00000250: 9de1 4dbe d234 c1be 9071 02bf 19e1 273f
00000260: 4fab 26bf d5de bebe 4a47 abbe 3797 d9be
00000270: acfc 11be 002c a4bd f1bf 91bd 3440 43be
00000280: e6b8 aabe 8442 963e edfa a4bd 3462 c3bd
00000290: fb9f bf3e 1a48 35bf 1a42 573d d50b adbe
000002a0: 285a 31be 3e8a cd3e e31b 603e d374 7bbd
000002b0: 1842 bc3e cd2f e8bd 6574 28bf fbf6 19bf
000002c0: 001c d73d dfae c2be 0175 0fbe 5c58 d0be
000002d0: 4f83 b1bd 9384 edbe 87c5 a93e 5f4b 913e
000002e0: 03bd 7b3b 6cd4 f1bd 82d0 3c3e 12ee 6dbd
000002f0: 49d2 d9bd 0022 ac3e 32e1 203f 0858 8d3e
00000300: fa59 1b3e bab2 95be df94 cdbe c3fc 7dbe
00000310: 6421 8fbe fb23 da3e 6ae9 04bf fc05 e5bc
00000320: 314d 63bd 5f1a 23be da81 08bf c264 b2be
00000330: eddc 44be a0f7 eebe 8f78 4cbf 4a6b 9a3c
00000340: ae3c c5be 85f6 19bf 8eac 2bbe 7e01 d1be
00000350: fb6a 49be f7cc d93d 6830 ef3e 4a1e 123e
00000360: ff8b f5be 89fe ccbc 2849 ab3d 5070 aa3e
00000370: ce46 2c3e 8d2c f7bd 512d 07be 044c 13be
00000380: 6055 58be 568e 41be dcde 19bf 75d6 823e
00000390: cbb5 fcbe 4ebe a1be 8662 c13d 84d6 0abe
000003a0: 97e7 bfbe 9ad5 1bbe d71f 81be 59a8 1abf
000003b0: 4933 6abe 947a 1dbe faf6 a0be 738a 24be
000003c0: e3d9 07bd d103 f5bd 38b5 5fbe 5987 eebe
000003d0: ead0 a2be 9356 a2bc 4d7c a7be 4c07 1b3f
000003e0: d9a8 0d3e 28fb 0b3f 7978 1cbf a498 9abe
000003f0: 9f31 ecbd 0889 e7be 7b43 f0be e3fb f5bd

fc2.weight f4 [256, 256]
-0.5179435 -0.060474385 0.49986583 -0.4188197 0.68375415 0.6214353 -0.7568909 0.3225868
-0.517214 -0.7426841 -0.66784084 -0.08257902 -0.014190768 -0.06483236 -0.08511775 -0.69036263
-0.42158997 0.35710546 -0.37420923 -0.21074302 -0.15225658 0.1489184 -0.35195485 0.12099461
-0.7708796 -0.96604055 -1.000083 -0.101814464 0.11119735 -0.85136986 -0.08084755 0.76298696
-0.6789116 -0.026660448 -0.014699654 -0.22872692 -0.11605863 -0.18233834 0.11415103 -0.7356637
0.79285604 -0.46713 -0.25976205 -0.1905422 -0.1382022 -0.11148377 0.35857973 -0.1239981
-0.25854903 -0.45518255 0.09007848 0.011453433 -0.5531795 -1.0309012 -0.35321555 0.28175056
0.31132248 0.1775801 0.13829266 0.14439817 -0.13230693 0.13489819 -0.10924754 -1.3953187
0.26251814 0.29864508 0.11575958 0.31134042 0.79696345 -0.23801799 -0.11327636 0.43254012
-0.2758122 0.19445567 -0.377057 -0.037959587 -0.23955616 -0.44690982 0.07083269 -0.43941087
-0.062515326 -0.25420883 -0.28022194 -0.62346494 0.33846545 0.018704396 -0.76476824 -0.23761305
-0.45539275 -0.6070121 0.7229826 -0.26393768 0.17426774 -0.39575127 0.15593423 0.24580835
0.20221905 -0.5884393 0.60342675 -0.6798356 0.018659988 -0.76093656 -0.15764748 -0.033796225
0.19133644 -0.7180911 0.07133426 -0.5495172 -0.21341482 -0.007019677 0.7023823 -0.24328774
-0.41412836 -0.20979236 0.08198111 0.25070626 0.16047662 -0.04012905 -0.8665353 1.0592564
-0.35659415 0.09648587 0.36260873 -0.30686387 0.9852075 0.45596275 0.18701874 -0.14951652
0.05254024 0.5888754 0.13942748 -0.6392741 -0.13578008 -0.8194488 1.066451 -0.56074
-0.032649305 0.41374543 -0.5720315 0.2911243 -1.0123326 0.5952695 0.3669464 0.24126709
-0.0070608836 0.3690274 0.014433503 -0.48008493 -0.0342272 -0.08818868 -0.2100181 0.04449304
0.052681845 0.10478314 -0.3918282 0.26094985 -0.47736475 -0.124586545 -0.7263676 0.50812364
-0.9198666 0.00082393 -0.22934395 -0.20918216 0.25774196 0.19856946 -0.45635247 -0.6219455
0.20346268 0.13096985 -0.0056798416 -0.31571212 -0.46546307 0.014056228 0.3500019 -0.7702168
-0.22271134 0.14612839 0.1230093 0.17848004 -0.25240636 -0.21838036 -0.23199505 -0.2137328
-0.31899506 -0.05628638 -0.24043891 -0.11101546 0.689095 0.3982712 0.00675433 0.1290446
0.18620239 0.5141867 0.45446065 -0.26854363 -0.1279569 -1.3170191 0.04488397 -0.5455153
-0.62055105 -1.3107879 -0.4402291 0.21135318 -0.63211715 -0.31076443 -0.12958243 -1.0283561
0.14346518 0.87985003 -0.36173704 0.60097384 -0.6547735 0.32080317 -0.31581423 -0.06965985
0.17034987 -0.1141584 -0.6054365 -0.12729968 -0.21922502 0.01115001 -0.33861667 -1.1213506
0.0028167127 0.019154519 0.06207922 -0.60083133 0.77880275 0.0070069083 -0.8571785 -0.3783676
0.51452863 -0.2809602 -0.6791674 0.5828044 -0.7096593 -0.36649922 0.6441798 -1.3141861
-0.45722184 -0.43987662 0.47466612 0.13255052 -0.25774413 -0.52618676 -0.9896049 -0.20848624
0.46286905 -0.22305766 -0.06493378 0.10629201 -0.47201574 -0.36097363 0.2162897 -1.2358949
00000000: f297 04bf fdb3 77bd 6aee ff3e 896f d6be
00000010: 830a 2f3f 6216 1f3f 9ac3 41bf 192a a53e
00000020: 2368 04bf 8c20 3ebf 9ef7 2abf 301f a9bd
00000030: 6580 68bc d4c6 84bd 3752 aebd 9bbb 30bf
00000040: a4da d7be 87d6 b63e 5a98 bfbe 05cd 57be
00000050: 26e9 1bbe 117e 183e 6d33 b4be 06cc f73d
00000060: 5e58 45bf 6f4e 77bf b802 80bf 1a84 d0bd
00000070: 70bb e33d 60f3 59bf 6693 a5bd 1d53 433f
00000080: 27cd 2dbf 0367 dabc d1d6 70bc 6437 6abe
00000090: 26b0 edbd e7b6 3abe 04c8 e93d 7554 3cbf
000000a0: 9df8 4a3f aa2b efbe 88ff 84be 7f1d 43be
000000b0: e184 0dbe 9a51 e4bd c397 b73e b7f2 fdbd
000000c0: 8a60 84be b00d e9be 117b b83d 2ea7 3b3c
000000d0: 2c9d 0dbf 92f4 83bf abd8 b4be 9c41 903e
000000e0: a965 9f3e 8fd7 353e 979c 0d3e 1ddd 133e
000000f0: 787b 07be c022 0a3e 2dbd dfbd ce99 b2bf
00000100: c768 863e 02e8 983e 5c13 ed3d 0368 9f3e
00000110: cc05 4c3f fdba 73be 70fd e7bd e675 dd3e
00000120: 4237 8dbe 631f 473e 9d0d c1be 837b 1bbd
00000130: 364e 75be 5dd1 e4be bb10 913d 76fa e0be
00000140: 0908 80bd a927 82be 4079 8fbe 669b 1fbf
00000150: 584b ad3e f639 993c dac7 43bf d650 73be
00000160: 3d29 e9be 2565 1bbf 6315 393f d722 87be
00000170: 3e73 323e e99f cabe 39ad 1f3e 2fb5 7b3e
00000180: 8312 4f3e f5a3 16bf 2d7a 1a3f b509 2ebf
00000190: d5dc 983c bdcc 42bf 576e 21be e96d 0abd
000001a0: b3ed 433e d1d4 37bf b217 923d 29ad 0cbf
000001b0: 6a89 5abe 5205 e6bb 54cf 333f 6c20 79be
000001c0: a208 d4be cfd3 56be b6e5 a73d 925c 803e
000001d0: fc53 243e 5c5e 24bd 42d5 5dbf b795 873f
000001e0: 8293 b6be 629a c53d daa7 b93e 431d 9dbe
000001f0: 8f36 7c3f f373 e93e d781 3f3e dc1a 19be
00000200: 6f34 573d 8ac0 163f 14c6 0e3e 78a7 23bf
00000210: ef09 0bbe 66c7 51bf 7781 883f a88c 0fbf
00000220: 47bb 05bd 71d6 d33e a870 12bf 3f0e 953e
00000230: 1d94 81bf 9563 183f 66e0 bb3e b80e 773e
00000240: fc5e e7bb 29f1 bc3e 807a 6c3c b1cd f5be
00000250: d231 0cbd 449c b4bd fc0e 57be 553e 363d
00000260: ebc8 573d 8b98 d63d b59d c8be 389b 853e
00000270: 2769 f4be 3b27 ffbd 3af3 39bf 6414 023f
00000280: 617c 6bbf 02fd 573a 24d9 6abe d933 56be
00000290: c1f6 833e cb55 4b3e 08a7 e9be d237 1fbf
000002a0: 8558 503e f61c 063e f71d babb 05a5 a1be
000002b0: 2d51 eebe 184c 663c 7333 b33e ee2c 45bf
000002c0: 710e 64be aea2 153e 4dec fb3d 79c3 363e
000002d0: 683b 81be 1a9f 5fbe 1c90 6dbe c5dc 5abe
000002e0: 5253 a3be 8c8c 66bd 9e35 76be 135c e3bd
000002f0: 8868 303f 34ea cb3e 6d53 dd3b 4524 043e
00000300: d7ab 3e3e bda1 033f 11af e83e 8d7e 89be
00000310: 2207 03be 1594 a8bf 41d8 373d e4a6 0bbf
00000320: 6fdc 1ebf e6c7 a7bf b565 e1be f86c 583e
00000330: 6ed2 21bf 841c 9fbe 42b1 04be 2ca1 83bf
00000340: 89e8 123e da3d 613f 9935 b9be 6cd9 193f
00000350: 3c9f 27bf 5040 a43e 67b2 a1be d3a9 8ebd
00000360: 3270 2e3e e1cb e9bd e3fd 1abf d95a 02be
00000370: 867c 60be 88ae 363c 2a5f adbe 6b88 8fbf
00000380: 9998 383b f0e9 9c3c c846 7e3d 15d0 19bf
00000390: 9e5f 473f 359a e53b 0d70 5bbf 66b9 c1be
000003a0: 26b8 033f 04da 8fbe eadd 2dbf ab32 153f
000003b0: 3bac 35bf c9a5 bbbe f8e8 243f 4037 a8bf
000003c0: fb18 eabe 8237 e1be 7007 f33e 53bb 073e
000003d0: 0af7 83be 2db4 06bf bf56 7dbf 6b7d 55be
000003e0: 2cfd ec3e 3a69 64be 00fc 84bd a0af d93d
000003f0: 0cac f1be 89d1 b8be 0c7b 5d3e ce31 9ebf

fc2.bias f4 [256]
-0.42503473 -0.038081232 -0.055220492 0.0052983547 -0.048220642 -0.03706252 -0.18251176 -0.3231273
-0.5036291 -0.065948755 0.5122891 -0.047377266 -0.06347204 -0.027469482 0.14565106 -0.11879977
-0.020698538 -0.1357898 -0.12952854 -0.023258667 -0.16628484 0.14829072 -0.012908732 -0.19072847
-0.16519526 -0.0553308 -0.11344871 -0.18472132 -0.3711491 0.05780995 -0.2111848 -0.20498355
-0.098103635 -0.18452501 -0.10510975 -0.050223194 -0.07491764 0.7314097 -0.0309467 -0.066631325
0.22362027 -0.30683523 -0.31222993 -0.033309545 -0.043312877 -0.044752296 -0.02467143 -0.2622978
-0.3575161 0.7595753 -0.021048034 -0.07686438 0.3482596 -0.10112134 0.19029903 -0.07620963
-0.35048953 -0.014705474 -0.1654773 0.06331933 -0.18890919 -0.030505756 -0.055896107 0.34217992
0.06924131 -0.3649983 0.18912324 -0.19052204 -0.26005384 -0.13968605 -0.036168482 -0.051899906
0.07950359 0.1641045 -0.43260425 0.005138034 -0.08668644 -0.048822306 -0.10862709 -0.42243856
-0.06691202 0.6940512 0.16873346 -0.084429346 0.17929137 -0.18855399 -0.033592388 0.049598202
-0.027040308 0.04127811 0.21721278 -0.07289916 -0.1997973 -0.12102778 0.44336066 -0.07008104
-0.044351008 -0.0020325503 -0.15319091 -0.0963098 -0.083761506 -0.15883538 -0.049528543 0.23704894
-0.01202739 0.0390728 -0.32726857 -0.011412456 -0.116466776 -0.05035095 0.44523478 -0.06772408
-0.082009636 -0.09993894 0.15343207 0.037404373 0.010235682 0.3140172 -0.29387397 0.04354361
-0.07886704 -0.02273883 -0.038114093 -0.012921958 -0.18549487 -0.063590884 -0.071716405 0.7847801
-0.36063686 -0.06780347 0.16230017 -0.0674651 -0.12540832 -0.015140071 -0.05077977 0.06028073
-0.2977728 -0.098690026 0.48750722 -0.043314084 -0.100601815 -0.06791927 0.19659087 -0.100519456
-0.0069186757 -0.045404922 0.05991923 -0.05184229 -0.16167545 -0.13508885 0.11809998 -0.0062725027
-0.00251203 0.0032754154 -0.22884293 0.12091145 -0.13034321 0.07502878 -0.0133344745 0.1343758
0.19912829 -0.32764754 -0.16511704 -0.10530561 -0.13075335 0.87187845 0.07771593 -0.10671816
-0.059762187 0.0832365 -0.1959465 -0.082213104 0.18868956 -0.19845183 -0.06978479 -0.09254075
-0.08145018 -0.1247261 -0.11927344 -0.0430218 0.7505774 -0.11871805 0.030196195 -0.056247808
-0.11220502 -0.17001493 0.77729625 0.15751682 0.008571385 -0.35161588 0.24923488 -0.14829881
-0.337417 0.022200113 -0.26392546 -0.050874278 0.31616956 -0.07408709 -0.08164142 -0.17919019
-0.01839721 -0.0926073 -0.028678803 -0.114854306 -0.08502509 -0.21852474 -0.20546086 -0.040726125
0.009827876 -0.12022538 -0.084211394 -0.06435055 -0.05066506 -0.1553422 -0.15369172 -0.03256999
-0.070162125 -0.037977345 -0.10481822 0.04461032 -0.013860123 0.2443256 -0.11605825 0.01488134
-0.19334874 -0.15697177 -0.21589194 -0.2306271 -0.04681545 -0.20951556 0.18651544 -0.06923619
-0.047149457 -0.01848394 -0.43950146 0.20950924 -0.0020236077 0.0697981 -0.049082596 0.11015527
-0.20312569 -0.14556079 -0.11563523 -0.24065672 -0.010628173 -0.04419242 0.109155506 -0.07420983
-0.0889636 -0.082823105 -0.06315204 -0.30251437 -0.0019008863 0.05604782 -0.053737048 -0.08358005
00000000: 279e d9be 11fb 1bbd e22e 62bd d29d ad3b
00000010: 0283 45bd dece 17bd 5de4 3abe f170 a5be
00000020: d6ed 00bf 2410 87bd 6125 033f aa0e 42bd
00000030: a1fd 81bd ae07 e1bc 8d25 153e 4b4d f3bd
00000040: fb8f a9bc 7b0c 0bbe 21a3 04be f688 bebc
00000050: 9346 2abe 86d9 173e 257f 53bc 534e 43be
00000060: f228 29be 8da2 62bd cc57 e8bd 9627 3dbe
00000070: 4107 bebe 20ca 6c3d d440 58be 35e7 51be
00000080: 8fea c8bd 20f4 3cbe c843 d7bd d6b6 4dbd
00000090: 6b6e 99bd ab3d 3b3f ef83 fdbc 0176 88bd
000000a0: b6fc 643e 8219 9dbe 9adc 9fbe 976f 08bd
000000b0: d868 31bd 2f4e 37bd bd1b cabc e64b 86be
000000c0: 5a0c b7be 8773 423f ed6c acbc 126b 9dbd
000000d0: 154f b23e b518 cfbd c0dd 423e cb13 9cbd
000000e0: 5d73 b3be 3aef 70bc e272 29be 91ad 813d
000000f0: 6971 41be 35e7 f9bc 51f3 64bd 3532 af3e
00000100: 63ce 8d3d 0fe1 babe 86a9 413e 3618 43be
00000110: c725 85be dc09 0fbe 6725 14bd ff94 54bd
00000120: c7d2 a23d 030b 283e 4e7e ddbe f45c a83b
00000130: a988 b1bd e6f9 47bd e177 debd de49 d8be
00000140: 2b09 89bd 57ad 313f 77c8 2c3e 4be9 acbd
00000150: 2898 373e 4c14 41be 2c98 09bd 7c27 4b3d
00000160: a383 ddbc 3c13 293d 076d 5e3e 284c 95bd
00000170: aa97 4cbe 6add f7bd 2b00 e33e a686 8fbd
00000180: 67a9 35bd 8934 05bb 14de 1cbe 133e c5bd
00000190: 278b abbd bea5 22be 71de 4abd f5bc 723e
000001a0: 880e 45bc cd0a 203d bf8f a7be 4ffb 3abc
000001b0: 2286 eebd cc3c 4ebd d0f5 e33e ecb2 8abd
000001c0: abf4 a7bd c9ac ccbd 4c1d 1d3e 5435 193d
000001d0: 90b3 273c ddc6 a03e a676 96be c95a 323d
000001e0: 0b85 a1bd c846 babc 861d 1cbd 9fb6 53bc
000001f0: 5ef2 3dbe f03b 82bd 0de0 92bd 59e7 483f
00000200: 65a5 b8be 8cdc 8abd 0432 263e 242b 8abd
00000210: 0a6b 00be 0f0e 78bc 73fe 4fbd ede8 763d
00000220: ad75 98be ff1d cabd 8c9a f93e 1c6a 31bd
00000230: 5308 cebd 4219 8bbd 1e4f 493e 25dd cdbd
00000240: 0fb6 e2bb 83fa 39bd de6d 753d 9558 54bd
00000250: 408e 25be bb54 0abe 67de f13d 9189 cdbb
00000260: dfa0 24bb 5aa8 563b cd55 6abe 6ca0 f73d
00000270: b178 05be b0a8 993d d778 5abc cf99 093e
00000280: 49e8 4b3e 6bc1 a7be 7114 29be 78aa d7bd
00000290: 35e4 05be 6d33 5f3f 8829 9f3d 0d8f dabd
000002a0: 32c9 74bd e677 aa3d 33a6 48be 585f a8bd
000002b0: d637 413e f536 4bbe 54eb 8ebd 0186 bdbd
000002c0: 5acf a6bd 6670 ffbd a245 f4bd a137 30bd
000002d0: d725 403f 7322 f3bd 035e f73c 1a64 66bd
000002e0: bfcb e5bd 6518 2ebe e3fc 463f 174c 213e
000002f0: ff6e 0c3c ff06 b4be 6e37 7f3e a5db 17be
00000300: ecc1 acbe 03dd b53c 3d21 87be 8c61 50bd
00000310: fae0 a13e f9ba 97bd 9e33 a7bd a27d 37be
00000320: bfb5 96bc e5a8 bdbd cfef eabc bc38 ebbd
00000330: a221 aebd f3c4 5fbe 5564 52be 70d0 26bd
00000340: 1a05 213c b938 f6bd 0677 acbd 39ca 83bd
00000350: 2a86 4fbd 0712 1fbe 5d61 1dbe 1c68 05bd
00000360: 29b1 8fbd 228e 1bbd efaa d6bd 50b9 363d
00000370: 9215 63bc 7d30 7a3e f3af edbd ddd0 733c
00000380: 36fd 45be 35bd 20be c712 5dbe 8329 6cbe
00000390: 8fc1 3fbd 3f8b 56be e7fd 3e3e b4cb 8dbd
000003a0: ca1f 41bd a26b 97bc 5606 e1be 9789 563e
000003b0: 819e 04bb 4ef2 8e3d d50a 49bd 1699 e13d
000003c0: 2e00 50be e30d 15be 2ad2 ecbd b76e 76be
000003d0: ca21 2ebc 1c03 35bd ec8c df3d 53fb 97bd
000003e0: 8c32 b6bd 299f a9bd db55 81bd 2ae3 9abe
000003f0: 2927 f9ba 6692 653d 611b 5cbd 042c abbd

fc3.weight f4 [3, 256]
-0.033897225 -0.019049847 0.001938088 -0.029202815 -0.10268671 0.12539783 0.46848872 0.16076934
-0.044566106 -0.017484913 0.041444924 -0.8431731 0.055312157 0.053600706 0.2509308 -0.1456681
-0.010971795 -0.013235539 0.14296956 -0.07623624 0.07093019 -0.18458386 -0.08306539 -0.001136902
0.0042624073 -0.0049208696 -0.073162794 -0.27680013 0.37409332 -0.056458756 0.36049342 0.1099816
-0.019192284 0.016349234 0.015476727 -0.0041430825 -0.102949284 0.25282037 -0.028449452 0.0067531066
-1.0155488 -0.1298623 -0.543149 0.0521564 0.038538814 0.5914779 -0.007491127 0.017247632
-0.06505641 0.28950363 -0.030064132 0.02271638 -0.5071442 -0.0737475 -0.23299272 0.0135725355
-0.46085888 -0.09656806 0.032691356 -1.9388638 -0.072933376 0.07676631 -0.03040246 0.10725458
-0.42059413 -0.4532152 -0.7171564 0.1612473 -0.36849806 -0.6451721 -0.0023729773 0.09317
0.09911866 -0.14154074 0.010334718 -0.05240899 0.11454806 -0.008554413 -0.086544864 -0.7983946
0.18138792 0.19566749 -0.05284012 -0.022769291 -0.12163386 -0.042883493 -0.0070240023 0.7892616
0.019742275 -0.053781208 -0.6996865 0.12898053 0.112415954 -0.0944903 0.018303305 0.03628239
-0.19776787 -0.026195271 0.0961176 0.16298904 -0.011329547 0.27860746 -0.0014650476 -0.48755264
0.058193173 0.23879051 -0.14442109 -0.032309387 -0.17500916 -0.011293763 0.19409813 -0.00043460427
-0.022336952 -0.05929107 0.014224348 0.2789496 0.025955744 -1.4353342 -0.1733962 0.0425099
-0.046471603 0.023838472 0.056936488 -0.028318627 0.18278804 -0.027649993 -0.027004795 0.26961583
-0.13774905 -0.22159553 0.025377039 -0.004287113 0.43409428 0.012543393 0.047286235 -0.122537814
0.5444245 0.006812997 0.21084802 0.1156136 -0.058781408 0.1641194 -0.41123456 0.082813405
0.033347115 0.025911 -0.0032929545 -0.039051965 0.15103568 0.011395047 0.23681006 0.29809302
0.008475292 0.18303134 -0.11529923 0.2536668 0.049607396 0.036469337 0.061704222 0.001234089
-0.048976444 -0.039037414 -0.0074617276 0.0026796071 0.020143531 0.3352211 -0.14938629 0.052778017
-0.037959047 -0.46874803 -0.24313095 -0.04424875 0.09886498 -0.0614751 -0.03104941 0.0021306342
-0.60715824 0.016891016 0.10643203 -0.024751497 0.2258463 0.019340122 0.3977617 -0.28567111
0.12314798 -0.436884 0.2406052 0.10332471 0.01784882 0.280245 0.025661891 0.0044017946
-0.0120713655 -0.4428237 0.19255991 -0.15261385 0.029401803 0.006644444 -0.019973518 -0.022202536
-0.044989847 -0.028144056 -0.018544003 -0.016737511 0.013139449 0.0036390608 0.1262903 -0.012218448
0.022639215 0.027605848 -0.7167216 0.017396528 -0.050099023 -0.15379909 -0.30628398 -0.34325224
-0.0349355 0.003838477 -0.016728638 -0.114277914 -0.029792845 -0.06322628 0.0025676144 0.02999723
-0.004501139 0.05508323 0.029102104 -0.0008305604 0.04185467 -0.011329545 0.03837774 -0.26679224
0.051197547 0.054875836 -0.16353607 0.07947274 0.05193917 -0.08686791 0.007768946 0.32688335
-0.19719972 0.09731836 0.028889507 0.4047873 0.045161262 0.38424298 -0.2621079 -0.0060763736
-0.7023784 -0.13342763 0.04524904 0.25141847 0.020603435 0.025323793 0.04044322 0.03085641
00000000: d1d7 0abd 6d0e 9cbc 7107 fe3a be3a efbc
00000010: 694d d2bd 4a68 003e c1dd ef3e b8a0 243e
00000020: f38a 36bd 853c 8fbc 27c2 293d 31da 57bf
00000030: 008f 623d 6a8c 5b3d 007a 803e 052a 15be
00000040: 0bc3 33bc e0d9 58bc 9d66 123e bf21 9cbd
00000050: d943 913d 8d03 3dbe 301e aabd 1a04 95ba
00000060: aaab 8b3b 3f3f a1bb 60d6 95bd bfb8 8dbe
00000070: 2989 bf3e 4c41 67bd 9892 b83e 083e e13d
00000080: 2339 9dbc d4ee 853c 1992 7d3c b2c2 87bb
00000090: 13d7 d2bd ac71 813e d30e e9bc 2a49 dd3b
000000a0: 81fd 81bf 9ffa 04be d00b 0bbf f3a1 553d
000000b0: e0da 1d3d 186b 173f 2178 f5bb e84a 8d3c
000000c0: 4c3c 85bd d239 943e 0e49 f6bc b417 ba3c
000000d0: 34d4 01bf ee08 97bd a595 6ebe 575f 5e3c
000000e0: b2f5 ebbe 7ac5 c5bd 5fe7 053d b02c f8bf
000000f0: 185e 95bd a837 9d3d 940e f9bc 4aa8 db3d
00000100: 1d58 d7be d30b e8be 9097 37bf 031e 253e
00000110: c7ab bcbe 002a 25bf f483 1bbb eacf be3d
00000120: b9fe ca3d 0ef0 10be f352 293c cfaa 56bd
00000130: 2c98 ea3d cf27 0cbc 6f3e b1bd 9763 4cbf
00000140: c1bd 393e 0f5d 483e e26e 58bd aa86 babc
00000150: 2c1b f9bd 9aa6 2fbd 9a29 e6bb 0c0d 4a3f
00000160: 8dba a13c af49 5cbd a81e 33bf 7913 043e
00000170: 563a e63d 2184 c1bd d0f0 953c d89c 143d
00000180: a983 4abe 7797 d6bc 4ed9 c43d 99e6 263e
00000190: 909f 39bc a3a5 8e3e d706 c0ba 80a0 f9be
000001a0: f75b 6e3d 8085 743e 1fe3 13be d956 04bd
000001b0: 9a35 33be 7a09 39bc a9c1 463e 99db e3b9
000001c0: fcfb b6bc 31db 72bd 3d0d 693c 7bd2 8e3e
000001d0: 24a1 d43c 08b9 b7bf c68e 31be dc1e 2e3d
000001e0: 0259 3ebd e648 c33c 3c36 693d 77fc e7bc
000001f0: ca2c 3b3e 3d82 e2bc 2939 ddbc 160b 8a3e
00000200: 160e 0dbe f0e9 62be 82e3 cf3c e97a 8cbb
00000210: 9b41 de3e ce82 4d3c 36af 413d 1bf5 fabd
00000220: 675f 0b3f 903f df3b 8be8 573e d3c6 ec3d
00000230: c6c4 70bd ea0e 283e 568d d2be 139a a93d
00000240: fc96 083d 4e43 d43c 9cce 57bb f4f4 1fbd
00000250: 19a9 1a3e 4bb2 3a3c 567e 723e a69f 983e
00000260: f3db 0a3c 916c 3b3e 0122 ecbd 9de0 813e
00000270: 2031 4b3d df60 153d 91bd 7c3d 28c1 a13a
00000280: 869b 48bd b2e5 1fbd 8281 f4bb 599c 2f3b
00000290: 0c04 a53c 1aa2 ab3e b8f8 18be c32d 583d
000002a0: f27a 1bbd beff efbe 52f7 78be 2d3e 35bd
000002b0: b979 ca3d 51cd 7bbd 555b febc 1ca2 0b3b
000002c0: b96e 1bbf 075f 8a3c 09f9 d93d a7c3 cabc
000002d0: 4144 673e 2d6f 9e3c 6ca7 cb3e 7c43 92be
000002e0: 0235 fc3d 42af dfbe 3661 763e e89b d33d
000002f0: b037 923c 467c 8f3e e338 d23c ee3c 903b
00000300: fac6 45bc cab9 e2be 6d2e 453e ce46 1cbe
00000310: 0ddc f03c a3b9 d93b 819f a3bc 18e2 b5bc
00000320: 4647 38bd 5d8e e6bc 98e9 97bc 1b1d 89bc
00000330: d846 573c 4f7d 6e3b 3f52 013e e32f 48bc
00000340: e075 b93c a925 e23c 117b 37bf 2a83 8e3c
00000350: a234 4dbd 827d 1dbe 41d1 9cbe c2be afbe
00000360: 8718 0fbd f58e 7b3b 7f0a 89bc 8a0a eabd
00000370: 2010 f4bc c87c 81bd 6c45 283b c0bc f53c
00000380: 4a7e 93bb f49e 613d 8967 ee3c f7b9 59ba
00000390: cd6f 2b3d 8e9f 39bc fa31 1d3d fe98 88be
000003a0: 85b4 513d 7cc5 603d 0076 27be 9bc2 a23d
000003b0: 2bbe 543d cee7 b1bd a492 fe3b 415d a73e
000003c0: b9ee 49be d94e c73d b0a9 ec3c 4840 cf3e
000003d0: 04fb 383d 7fbb c43e 0233 86be 511c c7bb
000003e0: 12cf 33bf 41a1 08be 0f57 393d ecb9 803e
000003f0: 89c8 a83c d873 cf3c caa7 253d 95c6 fc3c

fc3.bias f4 [3]
0.8350316 0.5253328 0.5850962
00000000: a2c4 553f 367c 063f ddc8 153f

exp_avg f4 [256, 11]
-0.019165816 0.006896393 0.030028772 0.037626266 0.09675338 -0.09298563 0.00287346 0.07489774
0.07969367 0.040180154 -0.080238484 -0.014867438 -0.023838159 2.6087628e-27 0.012880996 -0.0010496079
-0.09031516 -0.028129146 0.027433373 -0.013461772 -0.03368416 -0.07242259 1.0450787e-15 6e-45
0.00081248215 0.00023954154 0.0006469531 1.8381638e-34 -6e-45 0.0007768313 0.00010966325 1.3162785e-09
0.00046350432 0.0008428668 8.409429e-15 -0.00040333704 0.0065206317 -0.0021744394 -0.0110695595 0.0012527909
6e-45 0.020093534 0.017849443 -0.023320025 -0.007020268 -0.0063927365 -0.0025249426 0.011479134
-0.015817191 3.8109983e-35 0.003494211 -0.012726949 0.021740181 -0.008213917 -0.0099658705 0.032403607
0.004847022 0.016621724 0.029398326 -0.0009808943 0.0010602088 0.0169246 0.031666953 -0.00097346836
0.015602639 0.015154862 6e-45 6e-45 6e-45 6e-45 6e-45 6e-45
6e-45 -6e-45 6e-45 6e-45 6e-45 0.043804407 -0.003146904 0.01792407
0.023000006 -5.928711e-07 0.013273049 0.011487573 0.03488396 -1.3097484e-05 0.014179674 0.015639616
-6.491965e-18 -0.009768156 6e-45 0.0037493743 0.02817172 -0.017589655 8.5295644e-05 -0.008821356
0.023054035 0.0031720416 -0.0127546685 0.01751426 0.012834161 -0.00579897 -0.011327011 0.0018070614
0.010283713 0.009041009 0.011191538 0.0032374533 0.0037428 0.0085550975 0.011729153 0.010379428
-0.0024803937 -0.0022926673 0.002030763 -0.0020724342 0.007465641 -0.00072124286 0.00028269144 0.0032720307
0.006285337 0.043721892 6e-45 -1.0818604e-34 -6.3266096e-05 1.1613161e-08 0.07216216 0.012924654
6.08682e-21 -1.0565376e-08 0.030860541 0.054163013 0.0 0.0 6e-45 6e-45
6e-45 6e-45 6e-45 -6e-45 6e-45 6e-45 6e-45 -0.021249617
-0.00071242696 -9.214153e-06 -0.021280192 9.376524e-16 6e-45 3.057435e-05 -0.021240402 -9.214153e-06
-0.021558609 6e-45 0.0 6e-45 6e-45 6e-45 6e-45 6e-45
6e-45 6e-45 6e-45 6e-45 6e-45 -0.020308573 0.010328462 -1.799746e-31
-0.048598923 0.008606819 0.0552776 -0.026523238 -0.03611492 0.0051856446 0.0039568925 0.0031126812
6e-45 -0.0024958216 -0.0022070433 0.008141571 -0.003280102 6e-45 6e-45 0.0047106473
-0.0077172588 0.0037430052 0.0018808563 0.0017646188 0.014735052 -0.004820688 6e-45 0.047331493
0.01210996 -0.029302808 -6e-45 0.064929 0.002892653 -0.062151168 0.0015238035 -0.00030184892
-0.0023421862 0.0042922017 2.1255392e-16 -0.025184546 0.0010756616 0.0067778616 0.0039580823 -0.022465913
9.510057e-31 0.024897909 0.006583017 0.020621663 0.03730393 -0.012017244 0.026428834 0.0112295095
0.0016356338 0.021429291 0.014585936 0.050015982 -1.2771911e-05 -0.013560886 0.030283242 0.07979934
0.044190273 -0.14794987 0.08053511 0.09942818 0.12796584 0.10314721 -0.12738815 6e-45
-6e-45 2.2135245e-08 6e-45 8.4094395e-08 6e-45 -6.1959106e-08 2.2135245e-08 6e-45
6e-45 6e-45 0.017636148 0.024595775 -0.0064983456 -0.00041816477 0.02507031 -0.028281284
0.0039836853 0.0282056 0.016928079 -0.046252273 0.02361402 6e-45 6e-45 6e-45
00000000: a101 9dbc 23fb e13b e6fe f53c 001e 1a3d
00000010: a326 c63d 406f bebd a950 3c3b fc63 993d
00000020: 6f36 a33d f293 243d 1354 a4bd 8e96 73bc
00000030: 3e48 c3bc ffaf 4e13 d00a 533c ff92 89ba
00000040: 28f7 b8bd 186f e6bc f4bb e03c c48e 5cbc
00000050: 67f8 09bd 4b52 94bd 999c 9626 0400 0000
00000060: c1fc 543a 712d 7b39 4a98 293a 7955 7407
00000070: 0400 0080 44a4 4b3a 02fb e538 6fe8 b430
00000080: 7f02 f339 d5f3 5c3a a57d 1728 fb76 d3b9
00000090: 06ab d53b 0a81 0ebb 195d 35bc b034 a43a
000000a0: 0400 0000 329b a43c ff38 923c a309 bfbc
000000b0: 470a e6bb 297a d1bb 8279 25bb fa12 3c3c
000000c0: 0e93 81bc 9fa0 4a06 22ff 643b b184 50bc
000000d0: 7718 b23c aa93 06bc e447 23bc a5b9 043d
000000e0: c4d3 9e3b 482a 883c c2d4 f03c 5a91 80ba
000000f0: b4f6 8a3a 75a5 8a3c 35b5 013d 5b30 7fba
00000100: 36a2 7f3c 194c 783c 0400 0000 0400 0000
00000110: 0400 0000 0400 0000 0400 0000 0400 0000
00000120: 0400 0000 0400 0080 0400 0000 0400 0000
00000130: 0400 0000 406c 333d 4a3c 4ebb 80d5 923c
00000140: 826a bc3c cb25 1fb5 3477 593c 6036 3c3c
00000150: 7ce2 0e3d 44bd 5bb7 dd51 683c a71e 803c
00000160: e082 efa2 9e0a 20bc 0400 0000 10b8 753b
00000170: 61c8 e63c 2e18 90bc c0e0 b238 7387 10bc
00000180: d1db bc3c 07e2 4f3b f5f8 50bc 117a 8f3c
00000190: 5f46 523c 4905 bebb ed94 39bc ebda ec3a
000001a0: 057d 283c bd20 143c b65c 373c 742b 543b
000001b0: c449 753b ae2a 0c3c a22b 403c 7a0e 2a3c
000001c0: 1a8e 22bb 9340 16bb 8d16 053b add1 07bb
000001d0: 56a2 f43b ca11 3dba 3436 9439 916f 563b
000001e0: 3af5 cd3b ba15 333d 0400 0000 cdcd 0f87
000001f0: baad 84b8 3983 4732 c1c9 933d eec1 533c
00000200: 1cf4 e51d 0483 35b2 3fcf fc3c 09da 5d3d
00000210: 0000 0000 0000 0000 0400 0000 0400 0000
00000220: 0400 0000 0400 0000 0400 0000 0400 0080
00000230: 0400 0000 0400 0000 0400 0000 ad13 aebc
00000240: 2ac2 3aba 7c96 1ab7 cc53 aebc 4521 8726
00000250: 0400 0000 f53c 0038 5a00 aebc 7c96 1ab7
00000260: ae9b b0bc 0400 0000 0000 0000 0400 0000
00000270: 0400 0000 0400 0000 0400 0000 0400 0000
00000280: 0400 0000 0400 0000 0400 0000 0400 0000
00000290: 0400 0000 2a5e a6bc b638 293c d29e 698c
000002a0: aa0f 47bd 9e03 0d3c c46a 623d 4347 d9bc
000002b0: 3ded 13bd 57ec a93b d2a8 813b 20fe 4b3b
000002c0: 0400 0000 f090 23bb 0ba4 10bb 3964 053c
000002d0: fbf6 56bb 0400 0000 0400 0000 c65b 9a3b
000002e0: 0fe1 fcbb 354d 753b 1187 f63a c84a e73a
000002f0: 4a6b 713c ddf6 9dbb 0400 0000 abde 413d
00000300: db68 463c 710c f0bc 0400 0080 7ff9 843d
00000310: aa92 3d3b 3992 7ebd 5cba c73a 7a41 9eb9
00000320: 5d7f 19bb 99a5 8c3b d80e 7525 d24f cebc
00000330: 37fd 8c3a d318 de3b cdb2 813b 6f0a b8bc
00000340: 3b4f 9a0d b3f6 cb3c 59b6 d73b c3ee a83c
00000350: 01cc 183d f9e3 44bc 4881 d83c fafb 373c
00000360: c362 d63a 7b8c af3c daf9 6e3c 8fdd 4c3d
00000370: f146 56b7 7a2e 5ebc 9014 f83c d66d a33d
00000380: dc00 353d 2c80 17be 97ef a43d 00a1 cb3d
00000390: 7a09 033e d83e d33d 0a72 02be 0400 0000
000003a0: 0400 0080 eb23 be32 0400 0000 6297 b433
000003b0: 0400 0000 610e 85b3 eb23 be32 0400 0000
000003c0: 0400 0000 0400 0000 af79 903c 147d c93c
000003d0: 13f0 d4bb 203d dbb9 4060 cd3c 27ae e7bc
000003e0: 9389 823b 6e0f e73c c1ac 8a3c 0673 3dbd
000003f0: 3072 c13c 0400 0000 0400 0000 0400 0000

exp_avg_sq f4 [256, 11]
0.02111342 0.024299225 0.009763052 0.044155054 0.07749084 0.09267741 0.032222267 0.09254157
0.0946419 0.0765865 0.0862032 0.009529982 0.030306181 3.4513272e-05 0.048614595 0.0010989474
0.09353093 0.033171188 0.06689578 0.018234484 0.046525992 0.10728641 0.00021276259 4.2857846e-22
0.0007686082 8.391119e-05 0.0007121726 8.868729e-06 6.98289e-08 0.0007706867 3.4194803e-05 0.00045668663
7.7324104e-05 0.008656391 0.00012497533 2.7703047e-05 0.0011597048 0.007971844 0.011232281 0.007625442
3.8729925e-21 0.0014105113 0.018830093 0.008768211 0.001347222 0.003313738 0.010081993 0.0069994796
0.0067321686 0.00024183119 0.0014136378 0.0014043663 0.01014154 0.0004565889 0.012445176 0.010318548
0.00046137325 0.012938486 0.0107135335 0.001706517 0.0002087264 0.0033044263 0.008078689 0.006221941
0.012120913 0.0032668526 7e-43 8.039367e-30 1.9935839e-33 2.6744703e-34 9.192713e-39 2.9189476e-31
1.9155302e-29 1.4663188e-30 1.8835044e-30 2.187618e-30 1.7129159e-29 0.003920321 0.00012679528 0.0028407874
0.0041846177 0.00024576293 0.002391287 0.0005378456 0.004990912 0.00029247257 0.0029762918 0.0006997481
9.528208e-05 0.0093417745 9.146272e-12 0.0036735756 0.0049008853 0.01154237 0.00015392476 0.014690105
0.0060303984 0.0012776646 0.007355584 0.0004204315 0.0064261975 0.0040567718 0.0049795294 9.8940756e-05
0.0050629606 0.003449882 0.0021236392 0.010843271 0.00076839887 0.011741172 0.0028989338 0.004713734
0.0072603943 0.007326024 0.00012241713 0.0016552875 0.0028401532 1.5243244e-05 0.009136115 0.000119137345
0.011767008 0.047483556 3.153659e-16 2.2183769e-05 0.0013221228 0.00038921516 0.058064 0.0008678129
0.00020770397 0.0025016635 0.043521203 0.015270337 0.0 0.0 7e-43 7e-43
7e-43 7e-43 7e-43 7e-43 7e-43 7e-43 7e-43 0.0016088273
0.00046143596 0.00012662358 0.00032842177 0.0007704058 8.211319e-08 0.00060260465 0.0015263013 9.83648e-05
0.00091292406 5.0852147e-08 0.0 7e-43 7e-43 7e-43 6.68e-42 7e-43
7.058e-42 1.3385e-41 7e-43 7e-43 7e-43 0.01643019 0.0035770312 2.6667676e-06
0.012596105 0.0057587484 0.019149039 0.0016866894 0.020768983 0.0024465162 0.007972157 0.022551145
4.6279587e-13 0.0017438034 0.0011999521 0.0036482082 0.00023180172 2.717135e-16 9.338918e-12 0.00090322865
0.0021318318 0.0026408483 0.00048520826 0.0006143527 0.0054661343 0.0035236853 6.7329947e-10 0.05226322
0.009581037 0.029537492 3.857767e-06 0.06902756 0.008336435 0.033361163 0.0010972182 0.00020759997
0.0008347185 0.0003002614 7.129126e-05 0.0065150284 0.00037514445 0.0018852295 0.00064679125 0.0064032073
7.418207e-05 0.010591884 0.018062135 0.007396227 0.008377099 0.002294021 0.024004329 0.0027912536
0.011935601 0.019513523 0.008596992 0.025055312 3.0851712e-05 0.0093714995 0.034985874 0.10643542
0.119079985 0.16487244 0.09698085 0.15131581 0.14631121 0.21029328 0.1789176 2.5157507e-18
7.957262e-18 3.615718e-05 4.9474716e-06 1.122425e-05 4.9166797e-18 2.022731e-05 3.5703175e-05 5.9908262e-18
1.6775734e-06 8.434467e-06 0.018568983 0.012209823 0.00040569328 0.0025241075 0.013823626 0.021350788
0.0016316093 0.01475264 0.0052871415 0.028223623 0.007644929 2.4393374e-05 2.5929872e-05 2.5850753e-05
00000000: 0df6 ac3c 2b0f c73c 35f5 1f3c eedb 343d
00000010: 84b3 9e3d a7cd bd3d 7ffb 033d 6f86 bd3d
00000020: 9dd3 c13d 62d9 9c3d 4e8b b03d a423 1c3c
00000030: ab44 f83c 58c2 1038 1920 473d 8e0a 903a
00000040: 258d bf3d 83de 073d a800 893d 7c60 953c
00000050: 0a92 3e3d fab8 db3d 0619 5f39 a787 011c
00000060: 6c7c 493a 7af9 af38 18b1 3a3a e7ca 1437
00000070: d8f4 9533 e907 4a3a 646c 0f38 716f ef39
00000080: 1029 a238 89d3 0d3c cf0b 0339 d763 e837
00000090: 3c01 983a 569c 023c 9a07 383c d8de f93b
000000a0: 4951 921d e8e0 b83a 9141 9a3c 8ba8 0f3c
000000b0: 4595 b03a 4c2b 593b f22e 253c e45b e53b
000000c0: 8699 dc3b 1194 7d39 d049 b93a b712 b83a
000000d0: b428 263c 5362 ef39 dae6 4b3c 210f 293c
000000e0: 78e4 f139 f2fb 533c d187 2f3c 35ad df3a
000000f0: 91dd 5a39 138f 583b 7a5c 043c 6de1 cb3b
00000100: cb96 463c b118 563b f401 0000 c80e 230f
00000110: d79e 2509 c1bf b107 8b19 6400 5673 bd0c
00000120: 0242 c20f 80ec ed0d dbce 180e 0c7b 310e
00000130: d7b5 ad0f 0976 803b 59f4 0439 812c 3a3b
00000140: 1e1f 893b bed9 8039 23b7 1c3b 35fe 0c3a
00000150: ce8a a33b 0157 9939 e40d 433b 4d6f 373a
00000160: 2dd2 c738 3e0e 193c 26e7 202d 5fc0 703b
00000170: 9b97 a03b 351c 3d3c dd66 2139 c4ae 703c
00000180: a69a c53b 4f77 a73a 1c07 f13b 5c6d dc39
00000190: da92 d23b abee 843b 522b a33b 6a7e cf38
000001a0: 31e7 a53b 6a17 623b c12c 0b3b faa7 313c
000001b0: 606e 493a 0b5e 403c 0afc 3d3b ab75 9a3b
000001c0: 9ae8 ed3b 250f f03b 195d 0039 3bf6 d83a
000001d0: dd21 3a3b 3cbd 7f37 a5af 153c 60d9 f938
000001e0: 69ca 403c 1e7e 423d cbcb b525 4817 ba37
000001f0: 144b ad3a 930f cc39 84d4 6d3d f07d 633a
00000200: 1ccb 5939 f3f2 233b 4a43 323d 7030 7a3c
00000210: 0000 0000 0000 0000 f401 0000 f401 0000
00000220: f401 0000 f401 0000 f401 0000 f401 0000
00000230: f401 0000 f401 0000 f401 0000 49df d23a
00000240: e3ec f139 42c6 0439 0630 ac39 0ff5 493a
00000250: 3456 b033 1df8 1d3a 2c0e c83a 3349 ce38
00000260: 4c51 6f3a 8768 5a33 0000 0000 f401 0000
00000270: f401 0000 f401 0000 9f12 0000 f401 0000
00000280: ad13 0000 5025 0000 f401 0000 f401 0000
00000290: f401 0000 9b98 863c a06c 6a3b b8f6 3236
000002a0: e55f 4e3c e2b3 bc3b 72de 9c3c e813 dd3a
000002b0: b723 aa3c bb55 203b a69d 023c 2ebd b83c
000002c0: f543 022b 5590 e43a b647 9d3a c716 6f3b
000002d0: cd0f 7339 d6a1 9c25 bf4a 242d a6c6 6c3a
000002e0: 34b6 0b3b 1512 2d3b 8d63 fe39 830c 213a
000002f0: 421d b33b a1ed 663b 3d13 3930 f511 563d
00000300: c8f9 1c3c 9cf8 f13c f771 8136 525e 8d3d
00000310: 8b95 083c b7a5 083d 89d0 8f3a 31af 5939
00000320: 03d1 5a3a 676c 9d39 3482 9538 057c d53b
00000330: 09af c439 ce19 f73a 6d8d 293a ffd1 d13b
00000340: 3292 9b38 9589 2d3c 0bf7 933c 0d5c f23b
00000350: 1a40 093c 4957 163b baa4 c43c 77ed 363b
00000360: 8a8d 433c d3da 9f3c 66da 0c3c cc40 cd3c
00000370: c666 0138 eb8a 193c 594d 0f3d d0fa d93d
00000380: 35e0 f33d 52d4 283e e59d c63d 88f2 1a3e
00000390: 9bd2 153e 1f57 573e 2d36 373e 30a1 3922
000003a0: 1bc9 1223 7aa7 1738 7502 a636 c94f 3c37
000003b0: ba64 b522 d1ad a937 febf 1538 c105 dd22
000003c0: fc28 e135 c381 0d37 fb1d 983c b60b 483c
000003d0: 3bb3 d439 7f6b 253b 7d7c 623c d9e7 ae3c
000003e0: b9db d53a 0fb5 713c c23f ad3b 3a35 e73c
000003f0: 5082 fa3b 5fa0 cc37 fa83 d937 12da d837

exp_avg f4 [256]
0.04426749 -0.10661293 0.0008864946 -0.0054705776 -0.00084384746 0.04640224 6e-45 0.04776004
0.014416732 0.00980477 0.0051313005 0.08502355 6e-45 -0.021249617 6e-45 -0.011237751
0.004861469 0.030138649 -0.019816685 0.06294503 0.056574848 2.2135245e-08 0.00035454787 6e-45
0.0006893663 -0.037711166 -0.035503827 0.048029553 6e-45 6e-45 -0.005641872 -0.03533084
0.04367352 0.04726815 6e-45 -0.031050054 0.025817137 -0.019419178 -0.06264616 6e-45
-0.0072278734 0.05594836 0.06911106 0.1577038 6e-45 6e-45 -0.013255331 0.0054078843
6e-45 -0.040686563 -0.08639045 0.058383603 0.04942774 0.01312517 -0.0052526435 0.005618917
-0.0018710773 -0.0048772213 -0.03727093 0.034527525 0.06556336 6e-45 0.051222663 -0.13741584
0.0045989775 0.0016590117 0.06200285 -0.047861 -0.004310657 0.018116059 0.042882208 0.014298758
-0.056515306 6e-45 -0.0020771634 0.020835154 -0.01271287 0.006367295 -6e-45 0.0013904346
-0.060439505 -0.015780304 0.051278573 6e-45 0.079683155 6e-45 -0.05337602 0.021891994
-0.07999062 0.007291018 0.13543372 -0.0036548523 -0.0008175593 -0.06327949 -0.0076594646 6e-45
-0.06824767 0.006296499 0.03581304 0.08302735 6e-45 0.104162306 6e-45 1.4836363e-23
0.093639925 0.0018248366 0.029059023 -0.00073942135 -0.012299758 -0.015422358 0.0054010022 -0.05163316
0.0078030447 0.018087884 0.017177692 0.011446901 0.032701623 6e-45 -0.061590597 5.9195774e-19
-0.0030423512 0.0030781266 0.098690644 0.16135457 0.07942225 6e-45 0.010954568 6e-45
6e-45 0.021692779 6e-45 0.13734175 0.032975078 0.0059256144 0.01941498 0.017619047
6e-45 0.01783003 0.053862873 6e-45 -0.06605224 -0.0013405378 -0.054167833 0.024462327
6e-45 6e-45 0.062391866 -0.10173851 6e-45 0.0036062626 -0.023320217 0.06416012
-0.0019488739 -0.013094156 -0.0019527312 0.007255874 0.01217808 -0.0580936 0.029981557 0.022491682
-0.10368529 0.0025007522 0.00068830047 0.0141595155 -0.12695003 6e-45 -0.014725403 6e-45
6e-45 -0.0027491045 0.0287745 -0.024105992 0.104111105 0.067290716 6e-45 0.029314691
-0.045969687 0.055857215 -0.007711359 -0.00017843948 0.0020432966 -0.014658914 0.022670068 -0.028251305
0.05365549 0.0 -0.14402032 -0.024254493 0.056524977 0.034831867 0.09326407 -0.09481096
-0.03546139 -0.014965982 -0.017131899 6e-45 -0.000445141 -0.0043451698 0.014116249 -0.048646506
0.013456936 -0.0044651004 0.039822683 0.027486889 0.013424468 6e-45 -0.0012250917 0.01993141
0.035153817 0.000836207 7.4817013e-25 0.013056327 0.10421029 0.0026103666 0.003789342 0.13370907
-0.0013494142 -0.05152063 -0.06391898 0.10438431 0.065513305 -0.006621746 6e-45 0.09237148
0.07049879 0.0 -0.0015373657 -0.0685855 0.027587008 6e-45 -0.0029465668 -0.049518254
0.056969862 -0.015293938 0.05622241 -0.0323617 0.011913823 0.03521762 0.15456535 -0.038872197
0.0036416992 -0.022183722 -0.00970668 0.010708388 0.024352686 -0.09785826 6e-45 0.056718353
-0.04890313 0.043314345 6e-45 0.08922885 0.016225843 -0.0075650243 -0.055752486 0.006115153
00000000: d451 353d e157 dabd a563 683a 8842 b3bb
00000010: a535 5dba 4610 3e3d 0400 0000 08a0 433d
00000020: 2834 6c3c 30a4 203c 7824 a83b d420 ae3d
00000030: 0400 0000 ad13 aebc 0400 0000 8b1e 38bc
00000040: f54c 9f3b 54e5 f63c 9a56 a2bc 53e9 803d
00000050: 07bb 673d eb23 be32 9ce2 b939 0400 0000
00000060: 97b6 343a 0677 1abd 766c 11bd a3ba 443d
00000070: 0400 0000 0400 0000 74df b8bb 12b7 10bd
00000080: 01e3 323d 3f9c 413d 0400 0000 af5c febc
00000090: 767e d33c f814 9fbc a14c 80bd 0400 0000
000000a0: ccd7 ecbb 1c2a 653d 198a 8d3d 1b7d 213e
000000b0: 0400 0000 0400 0000 e32c 59bc 9f34 b13b
000000c0: 0400 0000 f4a6 26bd 7aed b0bd a523 6f3d
000000d0: be74 4a3d f40a 573c 5e1e acbb e41e b83b
000000e0: f03e f5ba 19d1 9fbb 67a9 18bd bc6c 0d3d
000000f0: 1546 863d 0400 0000 dbce 513d bdb6 0cbe
00000100: 05b3 963b 3273 d93a b3f6 7d3d e509 44bd
00000110: 6940 8dbb 2168 943c 41a5 2f3d 5645 6a3c
00000120: 987c 67bd 0400 0000 0521 08bb 7cae aa3c
00000130: a449 50bc bea4 d03b 0400 0080 3e3f b63a
00000140: 6a8f 77bd b245 81bc 7b09 523d 0400 0000
00000150: ec30 a33d 0400 0000 d0a0 5abd d756 b33c
00000160: 1fd2 a3bd 7ee9 ee3b 23af 0a3e 3f86 6fbb
00000170: 7a51 56ba ad98 81bd 3ffc fabb 0400 0000
00000180: 6fc5 8bbd dd52 ce3b b2b0 123d 3e0a aa3d
00000190: 0400 0000 0c53 d53d 0400 0000 0e7d 8f19
000001a0: 4ac6 bf3d 5b2f ef3a 300d ee3c bad5 41ba
000001b0: ed84 49bc 0fae 7cbc e4fa b03b 4b7d 53bd
000001c0: afb0 ff3b 0b2d 943c 3bb8 8c3c c88b 3b3c
000001d0: 23f2 053d 0400 0000 6c46 7cbd 10b7 2e21
000001e0: 2f62 47bb 65ba 493b 521e ca3d 223a 253e
000001f0: 22a8 a23d 0400 0000 ca7a 333c 0400 0000
00000200: 0400 0000 0eb5 b13c 0400 0000 51a3 0c3e
00000210: e010 073d a82b c23b 2a0c 9f3c d255 903c
00000220: 0400 0000 4810 923c 519f 5c3d 0400 0000
00000230: 6646 87bd fcb4 afba 17df 5dbd 3865 c83c
00000240: 0400 0000 0400 0000 9d8e 7f3d 485c d0bd
00000250: 0400 0000 0c57 6c3b 0a0a bfbc 6266 833d
00000260: 5b71 ffba df88 56bc c9f2 ffba afc2 ed3b
00000270: 9286 473c 8ef3 6dbd e29b f53c 7a40 b83c
00000280: f458 d4bd a9e3 233b 106f 343a 50fd 673c
00000290: 30ff 01be 0400 0000 d142 71bc 0400 0000
000002a0: 0400 0000 522a 34bb 80b8 eb3c ee79 c5bc
000002b0: 3438 d53d b7cf 893d 0400 0000 5d25 f03c
000002c0: b64a 3cbd 89ca 643d 91af fcbb 7c1b 3bb9
000002d0: d4e8 053b f12b 70bc 94b6 b93c 486f e7bc
000002e0: dcc5 5b3d 0000 0000 107a 13be 5cb1 c6bc
000002f0: bc86 673d dcab 0e3d 3c01 bf3d 402c c2bd
00000300: f63f 11bd e133 75bc 3258 8cbc 0400 0000
00000310: d061 e9b9 ed61 8ebb d747 673c 8f41 47bd
00000320: 7b7a 5c3c fa4f 92bb 1c1d 233d 2f2c e13c
00000330: 4df2 5b3c 0400 0000 4293 a0ba 3247 a33c
00000340: 73fd 0f3d e734 5b3a 258c 6717 34ea 553c
00000350: 346c d53d af12 2b3b 9c56 783b 08eb 083e
00000360: d4de b0ba 4c07 53bd f4e7 82bd 71c7 d53d
00000370: d72b 863d 3bfb d8bb 0400 0000 422d bd3d
00000380: ab61 903d 0000 0000 6f81 c9ba 8e76 8cbd
00000390: 26fe e13c 0400 0000 301b 41bb a7d3 4abd
000003a0: 3b59 693d 6d93 7abc 7849 663d b48d 04bd
000003b0: 3232 433c 5a40 103d 6146 1e3e 7438 1fbd
000003c0: 93a9 6e3b a3ba b5bc c408 1fbc 3c72 2f3c
000003d0: 497f c73c e969 c8bd 0400 0000 8151 683d
000003e0: a64e 48bd 626a 313d 0400 0000 9ebd b63d
000003f0: 0fec 843c 06e4 f7bb b85c 64bd 9f61 c83b
